…
I0814 00:12:18.358209 22027 net.cpp:322] The NetState phase (0) differed from the phase (1) specified by a rule in layer data
I0814 00:12:18.359086 22027 net.cpp:58] Initializing net from parameters: 
name: "resnet3-cifar10"
state {
  phase: TRAIN
  level: 0
  stage: ""
}
layer {
  name: "data"
  type: "Data"
  top: "data"
  top: "label"
  include {
    phase: TRAIN
  }
  transform_param {
    scale: 0.0078125
    mirror: true
    crop_size: 32
    mean_value: 128
  }
  data_param {
    source: "cifar-10-batches-py/train"
    batch_size: 128
    backend: LMDB
  }
}
layer {
  name: "first_conv"
  type: "Convolution"
  bottom: "data"
  top: "first_conv"
  param {
    lr_mult: 1
    decay_mult: 1
  }
  convolution_param {
    num_output: 16
    pad: 1
    kernel_size: 3
    stride: 1
    weight_filler {
      type: "msra"
    }
  }
}
layer {
  name: "first_conv_bn"
  type: "BatchNorm"
  bottom: "first_conv"
  top: "first_conv"
  param {
    lr_mult: 0
    decay_mult: 0
  }
  param {
    lr_mult: 0
    decay_mult: 0
  }
  param {
    lr_mult: 0
    decay_mult: 0
  }
  batch_norm_param {
    use_global_stats: false
    moving_average_fraction: 0.95
  }
}
layer {
  name: "first_conv_scale"
  type: "Scale"
  bottom: "first_conv"
  top: "first_conv"
  scale_param {
    bias_term: true
  }
}
layer {
  name: "first_conv_relu"
  type: "ReLU"
  bottom: "first_conv"
  top: "first_conv"
}
layer {
  name: "group0_block0_conv0"
  type: "Convolution"
  bottom: "first_conv"
  top: "group0_block0_conv0"
  param {
    lr_mult: 1
    decay_mult: 1
  }
  convolution_param {
    num_output: 16
    pad: 1
    kernel_size: 3
    stride: 1
    weight_filler {
      type: "msra"
    }
  }
}
layer {
  name: "group0_block0_conv0_bn"
  type: "BatchNorm"
  bottom: "group0_block0_conv0"
  top: "group0_block0_conv0"
  param {
    lr_mult: 0
    decay_mult: 0
  }
  param {
    lr_mult: 0
    decay_mult: 0
  }
  param {
    lr_mult: 0
    decay_mult: 0
  }
  batch_norm_param {
    use_global_stats: false
    moving_average_fraction: 0.95
  }
}
layer {
  name: "group0_block0_conv0_scale"
  type: "Scale"
  bottom: "group0_block0_conv0"
  top: "group0_block0_conv0"
  scale_param {
    bias_term: true
  }
}
layer {
  name: "group0_block0_conv0_relu"
  type: "ReLU"
  bottom: "group0_block0_conv0"
  top: "group0_block0_conv0"
}
layer {
  name: "group0_block0_conv1"
  type: "Convolution"
  bottom: "group0_block0_conv0"
  top: "group0_block0_conv1"
  param {
    lr_mult: 1
    decay_mult: 1
  }
  convolution_param {
    num_output: 16
    pad: 1
    kernel_size: 3
    stride: 1
    weight_filler {
      type: "msra"
    }
  }
}
layer {
  name: "group0_block0_conv1_bn"
  type: "BatchNorm"
  bottom: "group0_block0_conv1"
  top: "group0_block0_conv1"
  param {
    lr_mult: 0
    decay_mult: 0
  }
  param {
    lr_mult: 0
    decay_mult: 0
  }
  param {
    lr_mult: 0
    decay_mult: 0
  }
  batch_norm_param {
    use_global_stats: false
    moving_average_fraction: 0.95
  }
}
layer {
  name: "group0_block0_conv1_scale"
  type: "Scale"
  bottom: "group0_block0_conv1"
  top: "group0_block0_conv1"
  scale_param {
    bias_term: true
  }
}
layer {
  name: "group0_block0_sum"
  type: "Eltwise"
  bottom: "group0_block0_conv1"
  bottom: "first_conv"
  top: "group0_block0_sum"
  eltwise_param {
    operation: SUM
  }
}
layer {
  name: "group0_block1_conv0"
  type: "Convolution"
  bottom: "group0_block0_sum"
  top: "group0_block1_conv0"
  param {
    lr_mult: 1
    decay_mult: 1
  }
  convolution_param {
    num_output: 16
    pad: 1
    kernel_size: 3
    stride: 1
    weight_filler {
      type: "msra"
    }
  }
}
layer {
  name: "group0_block1_conv0_bn"
  type: "BatchNorm"
  bottom: "group0_block1_conv0"
  top: "group0_block1_conv0"
  param {
    lr_mult: 0
    decay_mult: 0
  }
  param {
    lr_mult: 0
    decay_mult: 0
  }
  param {
    lr_mult: 0
    decay_mult: 0
  }
  batch_norm_param {
    use_global_stats: false
    moving_average_fraction: 0.95
  }
}
layer {
  name: "group0_block1_conv0_scale"
  type: "Scale"
  bottom: "group0_block1_conv0"
  top: "group0_block1_conv0"
  scale_param {
    bias_term: true
  }
}
layer {
  name: "group0_block1_conv0_relu"
  type: "ReLU"
  bottom: "group0_block1_conv0"
  top: "group0_block1_conv0"
}
layer {
  name: "group0_block1_conv1"
  type: "Convolution"
  bottom: "group0_block1_conv0"
  top: "group0_block1_conv1"
  param {
    lr_mult: 1
    decay_mult: 1
  }
  convolution_param {
    num_output: 16
    pad: 1
    kernel_size: 3
    stride: 1
    weight_filler {
      type: "msra"
    }
  }
}
layer {
  name: "group0_block1_conv1_bn"
  type: "BatchNorm"
  bottom: "group0_block1_conv1"
  top: "group0_block1_conv1"
  param {
    lr_mult: 0
    decay_mult: 0
  }
  param {
    lr_mult: 0
    decay_mult: 0
  }
  param {
    lr_mult: 0
    decay_mult: 0
  }
  batch_norm_param {
    use_global_stats: false
    moving_average_fraction: 0.95
  }
}
layer {
  name: "group0_block1_conv1_scale"
  type: "Scale"
  bottom: "group0_block1_conv1"
  top: "group0_block1_conv1"
  scale_param {
    bias_term: true
  }
}
layer {
  name: "group0_block1_sum"
  type: "Eltwise"
  bottom: "group0_block1_conv1"
  bottom: "group0_block0_sum"
  top: "group0_block1_sum"
  eltwise_param {
    operation: SUM
  }
}
layer {
  name: "group0_block2_conv0"
  type: "Convolution"
  bottom: "group0_block1_sum"
  top: "group0_block2_conv0"
  param {
    lr_mult: 1
    decay_mult: 1
  }
  convolution_param {
    num_output: 16
    pad: 1
    kernel_size: 3
    stride: 1
    weight_filler {
      type: "msra"
    }
  }
}
layer {
  name: "group0_block2_conv0_bn"
  type: "BatchNorm"
  bottom: "group0_block2_conv0"
  top: "group0_block2_conv0"
  param {
    lr_mult: 0
    decay_mult: 0
  }
  param {
    lr_mult: 0
    decay_mult: 0
  }
  param {
    lr_mult: 0
    decay_mult: 0
  }
  batch_norm_param {
    use_global_stats: false
    moving_average_fraction: 0.95
  }
}
layer {
  name: "group0_block2_conv0_scale"
  type: "Scale"
  bottom: "group0_block2_conv0"
  top: "group0_block2_conv0"
  scale_param {
    bias_term: true
  }
}
layer {
  name: "group0_block2_conv0_relu"
  type: "ReLU"
  bottom: "group0_block2_conv0"
  top: "group0_block2_conv0"
}
layer {
  name: "group0_block2_conv1"
  type: "Convolution"
  bottom: "group0_block2_conv0"
  top: "group0_block2_conv1"
  param {
    lr_mult: 1
    decay_mult: 1
  }
  convolution_param {
    num_output: 16
    pad: 1
    kernel_size: 3
    stride: 1
    weight_filler {
      type: "msra"
    }
  }
}
layer {
  name: "group0_block2_conv1_bn"
  type: "BatchNorm"
  bottom: "group0_block2_conv1"
  top: "group0_block2_conv1"
  param {
    lr_mult: 0
    decay_mult: 0
  }
  param {
    lr_mult: 0
    decay_mult: 0
  }
  param {
    lr_mult: 0
    decay_mult: 0
  }
  batch_norm_param {
    use_global_stats: false
    moving_average_fraction: 0.95
  }
}
layer {
  name: "group0_block2_conv1_scale"
  type: "Scale"
  bottom: "group0_block2_conv1"
  top: "group0_block2_conv1"
  scale_param {
    bias_term: true
  }
}
layer {
  name: "group0_block2_sum"
  type: "Eltwise"
  bottom: "group0_block2_conv1"
  bottom: "group0_block1_sum"
  top: "group0_block2_sum"
  eltwise_param {
    operation: SUM
  }
}
layer {
  name: "group1_block0_conv0"
  type: "Convolution"
  bottom: "group0_block2_sum"
  top: "group1_block0_conv0"
  param {
    lr_mult: 1
    decay_mult: 1
  }
  convolution_param {
    num_output: 32
    pad: 1
    kernel_size: 3
    stride: 2
    weight_filler {
      type: "msra"
    }
  }
}
layer {
  name: "group1_block0_conv0_bn"
  type: "BatchNorm"
  bottom: "group1_block0_conv0"
  top: "group1_block0_conv0"
  param {
    lr_mult: 0
    decay_mult: 0
  }
  param {
    lr_mult: 0
    decay_mult: 0
  }
  param {
    lr_mult: 0
    decay_mult: 0
  }
  batch_norm_param {
    use_global_stats: false
    moving_average_fraction: 0.95
  }
}
layer {
  name: "group1_block0_conv0_scale"
  type: "Scale"
  bottom: "group1_block0_conv0"
  top: "group1_block0_conv0"
  scale_param {
    bias_term: true
  }
}
layer {
  name: "group1_block0_conv0_relu"
  type: "ReLU"
  bottom: "group1_block0_conv0"
  top: "group1_block0_conv0"
}
layer {
  name: "group1_block0_conv1"
  type: "Convolution"
  bottom: "group1_block0_conv0"
  top: "group1_block0_conv1"
  param {
    lr_mult: 1
    decay_mult: 1
  }
  convolution_param {
    num_output: 32
    pad: 1
    kernel_size: 3
    stride: 1
    weight_filler {
      type: "msra"
    }
  }
}
layer {
  name: "group1_block0_conv1_bn"
  type: "BatchNorm"
  bottom: "group1_block0_conv1"
  top: "group1_block0_conv1"
  param {
    lr_mult: 0
    decay_mult: 0
  }
  param {
    lr_mult: 0
    decay_mult: 0
  }
  param {
    lr_mult: 0
    decay_mult: 0
  }
  batch_norm_param {
    use_global_stats: false
    moving_average_fraction: 0.95
  }
}
layer {
  name: "group1_block0_conv1_scale"
  type: "Scale"
  bottom: "group1_block0_conv1"
  top: "group1_block0_conv1"
  scale_param {
    bias_term: true
  }
}
layer {
  name: "group1_block0_proj"
  type: "Convolution"
  bottom: "group0_block2_sum"
  top: "group1_block0_proj"
  param {
    lr_mult: 1
    decay_mult: 1
  }
  convolution_param {
    num_output: 32
    pad: 0
    kernel_size: 2
    stride: 2
    weight_filler {
      type: "msra"
    }
  }
}
layer {
  name: "group1_block0_proj_bn"
  type: "BatchNorm"
  bottom: "group1_block0_proj"
  top: "group1_block0_proj"
  param {
    lr_mult: 0
    decay_mult: 0
  }
  param {
    lr_mult: 0
    decay_mult: 0
  }
  param {
    lr_mult: 0
    decay_mult: 0
  }
  batch_norm_param {
    use_global_stats: false
    moving_average_fraction: 0.95
  }
}
layer {
  name: "group1_block0_proj_scale"
  type: "Scale"
  bottom: "group1_block0_proj"
  top: "group1_block0_proj"
  scale_param {
    bias_term: true
  }
}
layer {
  name: "group1_block0_sum"
  type: "Eltwise"
  bottom: "group1_block0_proj"
  bottom: "group1_block0_conv1"
  top: "group1_block0_sum"
  eltwise_param {
    operation: SUM
  }
}
layer {
  name: "group1_block1_conv0"
  type: "Convolution"
  bottom: "group1_block0_sum"
  top: "group1_block1_conv0"
  param {
    lr_mult: 1
    decay_mult: 1
  }
  convolution_param {
    num_output: 32
    pad: 1
    kernel_size: 3
    stride: 1
    weight_filler {
      type: "msra"
    }
  }
}
layer {
  name: "group1_block1_conv0_bn"
  type: "BatchNorm"
  bottom: "group1_block1_conv0"
  top: "group1_block1_conv0"
  param {
    lr_mult: 0
    decay_mult: 0
  }
  param {
    lr_mult: 0
    decay_mult: 0
  }
  param {
    lr_mult: 0
    decay_mult: 0
  }
  batch_norm_param {
    use_global_stats: false
    moving_average_fraction: 0.95
  }
}
layer {
  name: "group1_block1_conv0_scale"
  type: "Scale"
  bottom: "group1_block1_conv0"
  top: "group1_block1_conv0"
  scale_param {
    bias_term: true
  }
}
layer {
  name: "group1_block1_conv0_relu"
  type: "ReLU"
  bottom: "group1_block1_conv0"
  top: "group1_block1_conv0"
}
layer {
  name: "group1_block1_conv1"
  type: "Convolution"
  bottom: "group1_block1_conv0"
  top: "group1_block1_conv1"
  param {
    lr_mult: 1
    decay_mult: 1
  }
  convolution_param {
    num_output: 32
    pad: 1
    kernel_size: 3
    stride: 1
    weight_filler {
      type: "msra"
    }
  }
}
layer {
  name: "group1_block1_conv1_bn"
  type: "BatchNorm"
  bottom: "group1_block1_conv1"
  top: "group1_block1_conv1"
  param {
    lr_mult: 0
    decay_mult: 0
  }
  param {
    lr_mult: 0
    decay_mult: 0
  }
  param {
    lr_mult: 0
    decay_mult: 0
  }
  batch_norm_param {
    use_global_stats: false
    moving_average_fraction: 0.95
  }
}
layer {
  name: "group1_block1_conv1_scale"
  type: "Scale"
  bottom: "group1_block1_conv1"
  top: "group1_block1_conv1"
  scale_param {
    bias_term: true
  }
}
layer {
  name: "group1_block1_sum"
  type: "Eltwise"
  bottom: "group1_block1_conv1"
  bottom: "group1_block0_sum"
  top: "group1_block1_sum"
  eltwise_param {
    operation: SUM
  }
}
layer {
  name: "group1_block2_conv0"
  type: "Convolution"
  bottom: "group1_block1_sum"
  top: "group1_block2_conv0"
  param {
    lr_mult: 1
    decay_mult: 1
  }
  convolution_param {
    num_output: 32
    pad: 1
    kernel_size: 3
    stride: 1
    weight_filler {
      type: "msra"
    }
  }
}
layer {
  name: "group1_block2_conv0_bn"
  type: "BatchNorm"
  bottom: "group1_block2_conv0"
  top: "group1_block2_conv0"
  param {
    lr_mult: 0
    decay_mult: 0
  }
  param {
    lr_mult: 0
    decay_mult: 0
  }
  param {
    lr_mult: 0
    decay_mult: 0
  }
  batch_norm_param {
    use_global_stats: false
    moving_average_fraction: 0.95
  }
}
layer {
  name: "group1_block2_conv0_scale"
  type: "Scale"
  bottom: "group1_block2_conv0"
  top: "group1_block2_conv0"
  scale_param {
    bias_term: true
  }
}
layer {
  name: "group1_block2_conv0_relu"
  type: "ReLU"
  bottom: "group1_block2_conv0"
  top: "group1_block2_conv0"
}
layer {
  name: "group1_block2_conv1"
  type: "Convolution"
  bottom: "group1_block2_conv0"
  top: "group1_block2_conv1"
  param {
    lr_mult: 1
    decay_mult: 1
  }
  convolution_param {
    num_output: 32
    pad: 1
    kernel_size: 3
    stride: 1
    weight_filler {
      type: "msra"
    }
  }
}
layer {
  name: "group1_block2_conv1_bn"
  type: "BatchNorm"
  bottom: "group1_block2_conv1"
  top: "group1_block2_conv1"
  param {
    lr_mult: 0
    decay_mult: 0
  }
  param {
    lr_mult: 0
    decay_mult: 0
  }
  param {
    lr_mult: 0
    decay_mult: 0
  }
  batch_norm_param {
    use_global_stats: false
    moving_average_fraction: 0.95
  }
}
layer {
  name: "group1_block2_conv1_scale"
  type: "Scale"
  bottom: "group1_block2_conv1"
  top: "group1_block2_conv1"
  scale_param {
    bias_term: true
  }
}
layer {
  name: "group1_block2_sum"
  type: "Eltwise"
  bottom: "group1_block2_conv1"
  bottom: "group1_block1_sum"
  top: "group1_block2_sum"
  eltwise_param {
    operation: SUM
  }
}
layer {
  name: "group2_block0_conv0"
  type: "Convolution"
  bottom: "group1_block2_sum"
  top: "group2_block0_conv0"
  param {
    lr_mult: 1
    decay_mult: 1
  }
  convolution_param {
    num_output: 64
    pad: 1
    kernel_size: 3
    stride: 2
    weight_filler {
      type: "msra"
    }
  }
}
layer {
  name: "group2_block0_conv0_bn"
  type: "BatchNorm"
  bottom: "group2_block0_conv0"
  top: "group2_block0_conv0"
  param {
    lr_mult: 0
    decay_mult: 0
  }
  param {
    lr_mult: 0
    decay_mult: 0
  }
  param {
    lr_mult: 0
    decay_mult: 0
  }
  batch_norm_param {
    use_global_stats: false
    moving_average_fraction: 0.95
  }
}
layer {
  name: "group2_block0_conv0_scale"
  type: "Scale"
  bottom: "group2_block0_conv0"
  top: "group2_block0_conv0"
  scale_param {
    bias_term: true
  }
}
layer {
  name: "group2_block0_conv0_relu"
  type: "ReLU"
  bottom: "group2_block0_conv0"
  top: "group2_block0_conv0"
}
layer {
  name: "group2_block0_conv1"
  type: "Convolution"
  bottom: "group2_block0_conv0"
  top: "group2_block0_conv1"
  param {
    lr_mult: 1
    decay_mult: 1
  }
  convolution_param {
    num_output: 64
    pad: 1
    kernel_size: 3
    stride: 1
    weight_filler {
      type: "msra"
    }
  }
}
layer {
  name: "group2_block0_conv1_bn"
  type: "BatchNorm"
  bottom: "group2_block0_conv1"
  top: "group2_block0_conv1"
  param {
    lr_mult: 0
    decay_mult: 0
  }
  param {
    lr_mult: 0
    decay_mult: 0
  }
  param {
    lr_mult: 0
    decay_mult: 0
  }
  batch_norm_param {
    use_global_stats: false
    moving_average_fraction: 0.95
  }
}
layer {
  name: "group2_block0_conv1_scale"
  type: "Scale"
  bottom: "group2_block0_conv1"
  top: "group2_block0_conv1"
  scale_param {
    bias_term: true
  }
}
layer {
  name: "group2_block0_proj"
  type: "Convolution"
  bottom: "group1_block2_sum"
  top: "group2_block0_proj"
  param {
    lr_mult: 1
    decay_mult: 1
  }
  convolution_param {
    num_output: 64
    pad: 0
    kernel_size: 2
    stride: 2
    weight_filler {
      type: "msra"
    }
  }
}
layer {
  name: "group2_block0_proj_bn"
  type: "BatchNorm"
  bottom: "group2_block0_proj"
  top: "group2_block0_proj"
  param {
    lr_mult: 0
    decay_mult: 0
  }
  param {
    lr_mult: 0
    decay_mult: 0
  }
  param {
    lr_mult: 0
    decay_mult: 0
  }
  batch_norm_param {
    use_global_stats: false
    moving_average_fraction: 0.95
  }
}
layer {
  name: "group2_block0_proj_scale"
  type: "Scale"
  bottom: "group2_block0_proj"
  top: "group2_block0_proj"
  scale_param {
    bias_term: true
  }
}
layer {
  name: "group2_block0_sum"
  type: "Eltwise"
  bottom: "group2_block0_proj"
  bottom: "group2_block0_conv1"
  top: "group2_block0_sum"
  eltwise_param {
    operation: SUM
  }
}
layer {
  name: "group2_block1_conv0"
  type: "Convolution"
  bottom: "group2_block0_sum"
  top: "group2_block1_conv0"
  param {
    lr_mult: 1
    decay_mult: 1
  }
  convolution_param {
    num_output: 64
    pad: 1
    kernel_size: 3
    stride: 1
    weight_filler {
      type: "msra"
    }
  }
}
layer {
  name: "group2_block1_conv0_bn"
  type: "BatchNorm"
  bottom: "group2_block1_conv0"
  top: "group2_block1_conv0"
  param {
    lr_mult: 0
    decay_mult: 0
  }
  param {
    lr_mult: 0
    decay_mult: 0
  }
  param {
    lr_mult: 0
    decay_mult: 0
  }
  batch_norm_param {
    use_global_stats: false
    moving_average_fraction: 0.95
  }
}
layer {
  name: "group2_block1_conv0_scale"
  type: "Scale"
  bottom: "group2_block1_conv0"
  top: "group2_block1_conv0"
  scale_param {
    bias_term: true
  }
}
layer {
  name: "group2_block1_conv0_relu"
  type: "ReLU"
  bottom: "group2_block1_conv0"
  top: "group2_block1_conv0"
}
layer {
  name: "group2_block1_conv1"
  type: "Convolution"
  bottom: "group2_block1_conv0"
  top: "group2_block1_conv1"
  param {
    lr_mult: 1
    decay_mult: 1
  }
  convolution_param {
    num_output: 64
    pad: 1
    kernel_size: 3
    stride: 1
    weight_filler {
      type: "msra"
    }
  }
}
layer {
  name: "group2_block1_conv1_bn"
  type: "BatchNorm"
  bottom: "group2_block1_conv1"
  top: "group2_block1_conv1"
  param {
    lr_mult: 0
    decay_mult: 0
  }
  param {
    lr_mult: 0
    decay_mult: 0
  }
  param {
    lr_mult: 0
    decay_mult: 0
  }
  batch_norm_param {
    use_global_stats: false
    moving_average_fraction: 0.95
  }
}
layer {
  name: "group2_block1_conv1_scale"
  type: "Scale"
  bottom: "group2_block1_conv1"
  top: "group2_block1_conv1"
  scale_param {
    bias_term: true
  }
}
layer {
  name: "group2_block1_sum"
  type: "Eltwise"
  bottom: "group2_block1_conv1"
  bottom: "group2_block0_sum"
  top: "group2_block1_sum"
  eltwise_param {
    operation: SUM
  }
}
layer {
  name: "group2_block2_conv0"
  type: "Convolution"
  bottom: "group2_block1_sum"
  top: "group2_block2_conv0"
  param {
    lr_mult: 1
    decay_mult: 1
  }
  convolution_param {
    num_output: 64
    pad: 1
    kernel_size: 3
    stride: 1
    weight_filler {
      type: "msra"
    }
  }
}
layer {
  name: "group2_block2_conv0_bn"
  type: "BatchNorm"
  bottom: "group2_block2_conv0"
  top: "group2_block2_conv0"
  param {
    lr_mult: 0
    decay_mult: 0
  }
  param {
    lr_mult: 0
    decay_mult: 0
  }
  param {
    lr_mult: 0
    decay_mult: 0
  }
  batch_norm_param {
    use_global_stats: false
    moving_average_fraction: 0.95
  }
}
layer {
  name: "group2_block2_conv0_scale"
  type: "Scale"
  bottom: "group2_block2_conv0"
  top: "group2_block2_conv0"
  scale_param {
    bias_term: true
  }
}
layer {
  name: "group2_block2_conv0_relu"
  type: "ReLU"
  bottom: "group2_block2_conv0"
  top: "group2_block2_conv0"
}
layer {
  name: "group2_block2_conv1"
  type: "Convolution"
  bottom: "group2_block2_conv0"
  top: "group2_block2_conv1"
  param {
    lr_mult: 1
    decay_mult: 1
  }
  convolution_param {
    num_output: 64
    pad: 1
    kernel_size: 3
    stride: 1
    weight_filler {
      type: "msra"
    }
  }
}
layer {
  name: "group2_block2_conv1_bn"
  type: "BatchNorm"
  bottom: "group2_block2_conv1"
  top: "group2_block2_conv1"
  param {
    lr_mult: 0
    decay_mult: 0
  }
  param {
    lr_mult: 0
    decay_mult: 0
  }
  param {
    lr_mult: 0
    decay_mult: 0
  }
  batch_norm_param {
    use_global_stats: false
    moving_average_fraction: 0.95
  }
}
layer {
  name: "group2_block2_conv1_scale"
  type: "Scale"
  bottom: "group2_block2_conv1"
  top: "group2_block2_conv1"
  scale_param {
    bias_term: true
  }
}
layer {
  name: "group2_block2_sum"
  type: "Eltwise"
  bottom: "group2_block2_conv1"
  bottom: "group2_block1_sum"
  top: "group2_block2_sum"
  eltwise_param {
    operation: SUM
  }
}
layer {
  name: "global_avg_pool"
  type: "Pooling"
  bottom: "group2_block2_sum"
  top: "global_avg_pool"
  pooling_param {
    pool: AVE
    global_pooling: true
  }
}
layer {
  name: "fc"
  type: "InnerProduct"
  bottom: "global_avg_pool"
  top: "fc"
  param {
    lr_mult: 1
    decay_mult: 1
  }
  param {
    lr_mult: 2
    decay_mult: 0
  }
  inner_product_param {
    num_output: 10
    weight_filler {
      type: "msra"
    }
    bias_filler {
      type: "constant"
      value: 0
    }
  }
}
layer {
  name: "loss"
  type: "SoftmaxWithLoss"
  bottom: "fc"
  bottom: "label"
  top: "loss"
}
layer {
  name: "softmax"
  type: "Softmax"
  bottom: "fc"
  top: "softmax"
}
layer {
  name: "Accuracy"
  type: "Accuracy"
  bottom: "softmax"
  bottom: "label"
  top: "Accuracy"
}
I0814 00:12:18.359658 22027 layer_factory.hpp:77] Creating layer data
I0814 00:12:18.360273 22027 net.cpp:100] Creating Layer data
I0814 00:12:18.360290 22027 net.cpp:408] data -> data
I0814 00:12:18.360318 22027 net.cpp:408] data -> label
I0814 00:12:18.372773 22032 db_lmdb.cpp:35] Opened lmdb cifar-10-batches-py/train
I0814 00:12:18.393460 22027 data_layer.cpp:41] output data size: 128,3,32,32
I0814 00:12:18.402313 22027 net.cpp:150] Setting up data
I0814 00:12:18.402349 22027 net.cpp:157] Top shape: 128 3 32 32 (393216)
I0814 00:12:18.402360 22027 net.cpp:157] Top shape: 128 (128)
I0814 00:12:18.402365 22027 net.cpp:165] Memory required for data: 1573376
I0814 00:12:18.402384 22027 layer_factory.hpp:77] Creating layer label_data_1_split
I0814 00:12:18.402405 22027 net.cpp:100] Creating Layer label_data_1_split
I0814 00:12:18.402413 22027 net.cpp:434] label_data_1_split <- label
I0814 00:12:18.402436 22027 net.cpp:408] label_data_1_split -> label_data_1_split_0
I0814 00:12:18.402454 22027 net.cpp:408] label_data_1_split -> label_data_1_split_1
I0814 00:12:18.402590 22027 net.cpp:150] Setting up label_data_1_split
I0814 00:12:18.402627 22027 net.cpp:157] Top shape: 128 (128)
I0814 00:12:18.402633 22027 net.cpp:157] Top shape: 128 (128)
I0814 00:12:18.402637 22027 net.cpp:165] Memory required for data: 1574400
I0814 00:12:18.402643 22027 layer_factory.hpp:77] Creating layer first_conv
I0814 00:12:18.402678 22027 net.cpp:100] Creating Layer first_conv
I0814 00:12:18.402683 22027 net.cpp:434] first_conv <- data
I0814 00:12:18.402698 22027 net.cpp:408] first_conv -> first_conv
I0814 00:12:18.405001 22033 blocking_queue.cpp:50] Waiting for data
I0814 00:12:18.793015 22027 net.cpp:150] Setting up first_conv
I0814 00:12:18.793063 22027 net.cpp:157] Top shape: 128 16 32 32 (2097152)
I0814 00:12:18.793071 22027 net.cpp:165] Memory required for data: 9963008
I0814 00:12:18.793112 22027 layer_factory.hpp:77] Creating layer first_conv_bn
I0814 00:12:18.793133 22027 net.cpp:100] Creating Layer first_conv_bn
I0814 00:12:18.793139 22027 net.cpp:434] first_conv_bn <- first_conv
I0814 00:12:18.793153 22027 net.cpp:395] first_conv_bn -> first_conv (in-place)
I0814 00:12:18.793530 22027 net.cpp:150] Setting up first_conv_bn
I0814 00:12:18.793546 22027 net.cpp:157] Top shape: 128 16 32 32 (2097152)
I0814 00:12:18.793552 22027 net.cpp:165] Memory required for data: 18351616
I0814 00:12:18.793614 22027 layer_factory.hpp:77] Creating layer first_conv_scale
I0814 00:12:18.793640 22027 net.cpp:100] Creating Layer first_conv_scale
I0814 00:12:18.793647 22027 net.cpp:434] first_conv_scale <- first_conv
I0814 00:12:18.793656 22027 net.cpp:395] first_conv_scale -> first_conv (in-place)
I0814 00:12:18.793731 22027 layer_factory.hpp:77] Creating layer first_conv_scale
I0814 00:12:18.793941 22027 net.cpp:150] Setting up first_conv_scale
I0814 00:12:18.793952 22027 net.cpp:157] Top shape: 128 16 32 32 (2097152)
I0814 00:12:18.793958 22027 net.cpp:165] Memory required for data: 26740224
I0814 00:12:18.793974 22027 layer_factory.hpp:77] Creating layer first_conv_relu
I0814 00:12:18.793985 22027 net.cpp:100] Creating Layer first_conv_relu
I0814 00:12:18.793992 22027 net.cpp:434] first_conv_relu <- first_conv
I0814 00:12:18.793999 22027 net.cpp:395] first_conv_relu -> first_conv (in-place)
I0814 00:12:18.794757 22027 net.cpp:150] Setting up first_conv_relu
I0814 00:12:18.794782 22027 net.cpp:157] Top shape: 128 16 32 32 (2097152)
I0814 00:12:18.794788 22027 net.cpp:165] Memory required for data: 35128832
I0814 00:12:18.794795 22027 layer_factory.hpp:77] Creating layer first_conv_first_conv_relu_0_split
I0814 00:12:18.794807 22027 net.cpp:100] Creating Layer first_conv_first_conv_relu_0_split
I0814 00:12:18.794814 22027 net.cpp:434] first_conv_first_conv_relu_0_split <- first_conv
I0814 00:12:18.794826 22027 net.cpp:408] first_conv_first_conv_relu_0_split -> first_conv_first_conv_relu_0_split_0
I0814 00:12:18.794841 22027 net.cpp:408] first_conv_first_conv_relu_0_split -> first_conv_first_conv_relu_0_split_1
I0814 00:12:18.794929 22027 net.cpp:150] Setting up first_conv_first_conv_relu_0_split
I0814 00:12:18.794941 22027 net.cpp:157] Top shape: 128 16 32 32 (2097152)
I0814 00:12:18.794950 22027 net.cpp:157] Top shape: 128 16 32 32 (2097152)
I0814 00:12:18.794955 22027 net.cpp:165] Memory required for data: 51906048
I0814 00:12:18.794960 22027 layer_factory.hpp:77] Creating layer group0_block0_conv0
I0814 00:12:18.794980 22027 net.cpp:100] Creating Layer group0_block0_conv0
I0814 00:12:18.794986 22027 net.cpp:434] group0_block0_conv0 <- first_conv_first_conv_relu_0_split_0
I0814 00:12:18.794997 22027 net.cpp:408] group0_block0_conv0 -> group0_block0_conv0
I0814 00:12:18.799020 22027 net.cpp:150] Setting up group0_block0_conv0
I0814 00:12:18.799047 22027 net.cpp:157] Top shape: 128 16 32 32 (2097152)
I0814 00:12:18.799054 22027 net.cpp:165] Memory required for data: 60294656
I0814 00:12:18.799072 22027 layer_factory.hpp:77] Creating layer group0_block0_conv0_bn
I0814 00:12:18.799090 22027 net.cpp:100] Creating Layer group0_block0_conv0_bn
I0814 00:12:18.799096 22027 net.cpp:434] group0_block0_conv0_bn <- group0_block0_conv0
I0814 00:12:18.799108 22027 net.cpp:395] group0_block0_conv0_bn -> group0_block0_conv0 (in-place)
I0814 00:12:18.799428 22027 net.cpp:150] Setting up group0_block0_conv0_bn
I0814 00:12:18.799439 22027 net.cpp:157] Top shape: 128 16 32 32 (2097152)
I0814 00:12:18.799444 22027 net.cpp:165] Memory required for data: 68683264
I0814 00:12:18.799458 22027 layer_factory.hpp:77] Creating layer group0_block0_conv0_scale
I0814 00:12:18.799468 22027 net.cpp:100] Creating Layer group0_block0_conv0_scale
I0814 00:12:18.799474 22027 net.cpp:434] group0_block0_conv0_scale <- group0_block0_conv0
I0814 00:12:18.799481 22027 net.cpp:395] group0_block0_conv0_scale -> group0_block0_conv0 (in-place)
I0814 00:12:18.799535 22027 layer_factory.hpp:77] Creating layer group0_block0_conv0_scale
I0814 00:12:18.799703 22027 net.cpp:150] Setting up group0_block0_conv0_scale
I0814 00:12:18.799718 22027 net.cpp:157] Top shape: 128 16 32 32 (2097152)
I0814 00:12:18.799723 22027 net.cpp:165] Memory required for data: 77071872
I0814 00:12:18.799733 22027 layer_factory.hpp:77] Creating layer group0_block0_conv0_relu
I0814 00:12:18.799742 22027 net.cpp:100] Creating Layer group0_block0_conv0_relu
I0814 00:12:18.799747 22027 net.cpp:434] group0_block0_conv0_relu <- group0_block0_conv0
I0814 00:12:18.799779 22027 net.cpp:395] group0_block0_conv0_relu -> group0_block0_conv0 (in-place)
I0814 00:12:18.800084 22027 net.cpp:150] Setting up group0_block0_conv0_relu
I0814 00:12:18.800102 22027 net.cpp:157] Top shape: 128 16 32 32 (2097152)
I0814 00:12:18.800108 22027 net.cpp:165] Memory required for data: 85460480
I0814 00:12:18.800113 22027 layer_factory.hpp:77] Creating layer group0_block0_conv1
I0814 00:12:18.800129 22027 net.cpp:100] Creating Layer group0_block0_conv1
I0814 00:12:18.800135 22027 net.cpp:434] group0_block0_conv1 <- group0_block0_conv0
I0814 00:12:18.800146 22027 net.cpp:408] group0_block0_conv1 -> group0_block0_conv1
I0814 00:12:18.802208 22027 net.cpp:150] Setting up group0_block0_conv1
I0814 00:12:18.802234 22027 net.cpp:157] Top shape: 128 16 32 32 (2097152)
I0814 00:12:18.802240 22027 net.cpp:165] Memory required for data: 93849088
I0814 00:12:18.802253 22027 layer_factory.hpp:77] Creating layer group0_block0_conv1_bn
I0814 00:12:18.802266 22027 net.cpp:100] Creating Layer group0_block0_conv1_bn
I0814 00:12:18.802273 22027 net.cpp:434] group0_block0_conv1_bn <- group0_block0_conv1
I0814 00:12:18.802283 22027 net.cpp:395] group0_block0_conv1_bn -> group0_block0_conv1 (in-place)
I0814 00:12:18.802593 22027 net.cpp:150] Setting up group0_block0_conv1_bn
I0814 00:12:18.802606 22027 net.cpp:157] Top shape: 128 16 32 32 (2097152)
I0814 00:12:18.802611 22027 net.cpp:165] Memory required for data: 102237696
I0814 00:12:18.802630 22027 layer_factory.hpp:77] Creating layer group0_block0_conv1_scale
I0814 00:12:18.802642 22027 net.cpp:100] Creating Layer group0_block0_conv1_scale
I0814 00:12:18.802647 22027 net.cpp:434] group0_block0_conv1_scale <- group0_block0_conv1
I0814 00:12:18.802656 22027 net.cpp:395] group0_block0_conv1_scale -> group0_block0_conv1 (in-place)
I0814 00:12:18.802711 22027 layer_factory.hpp:77] Creating layer group0_block0_conv1_scale
I0814 00:12:18.802891 22027 net.cpp:150] Setting up group0_block0_conv1_scale
I0814 00:12:18.802914 22027 net.cpp:157] Top shape: 128 16 32 32 (2097152)
I0814 00:12:18.802920 22027 net.cpp:165] Memory required for data: 110626304
I0814 00:12:18.802932 22027 layer_factory.hpp:77] Creating layer group0_block0_sum
I0814 00:12:18.802942 22027 net.cpp:100] Creating Layer group0_block0_sum
I0814 00:12:18.802948 22027 net.cpp:434] group0_block0_sum <- group0_block0_conv1
I0814 00:12:18.802955 22027 net.cpp:434] group0_block0_sum <- first_conv_first_conv_relu_0_split_1
I0814 00:12:18.802964 22027 net.cpp:408] group0_block0_sum -> group0_block0_sum
I0814 00:12:18.803010 22027 net.cpp:150] Setting up group0_block0_sum
I0814 00:12:18.803020 22027 net.cpp:157] Top shape: 128 16 32 32 (2097152)
I0814 00:12:18.803025 22027 net.cpp:165] Memory required for data: 119014912
I0814 00:12:18.803030 22027 layer_factory.hpp:77] Creating layer group0_block0_sum_group0_block0_sum_0_split
I0814 00:12:18.803040 22027 net.cpp:100] Creating Layer group0_block0_sum_group0_block0_sum_0_split
I0814 00:12:18.803045 22027 net.cpp:434] group0_block0_sum_group0_block0_sum_0_split <- group0_block0_sum
I0814 00:12:18.803055 22027 net.cpp:408] group0_block0_sum_group0_block0_sum_0_split -> group0_block0_sum_group0_block0_sum_0_split_0
I0814 00:12:18.803066 22027 net.cpp:408] group0_block0_sum_group0_block0_sum_0_split -> group0_block0_sum_group0_block0_sum_0_split_1
I0814 00:12:18.803122 22027 net.cpp:150] Setting up group0_block0_sum_group0_block0_sum_0_split
I0814 00:12:18.803130 22027 net.cpp:157] Top shape: 128 16 32 32 (2097152)
I0814 00:12:18.803138 22027 net.cpp:157] Top shape: 128 16 32 32 (2097152)
I0814 00:12:18.803143 22027 net.cpp:165] Memory required for data: 135792128
I0814 00:12:18.803148 22027 layer_factory.hpp:77] Creating layer group0_block1_conv0
I0814 00:12:18.803169 22027 net.cpp:100] Creating Layer group0_block1_conv0
I0814 00:12:18.803174 22027 net.cpp:434] group0_block1_conv0 <- group0_block0_sum_group0_block0_sum_0_split_0
I0814 00:12:18.803185 22027 net.cpp:408] group0_block1_conv0 -> group0_block1_conv0
I0814 00:12:18.805235 22027 net.cpp:150] Setting up group0_block1_conv0
I0814 00:12:18.805282 22027 net.cpp:157] Top shape: 128 16 32 32 (2097152)
I0814 00:12:18.805289 22027 net.cpp:165] Memory required for data: 144180736
I0814 00:12:18.805301 22027 layer_factory.hpp:77] Creating layer group0_block1_conv0_bn
I0814 00:12:18.805315 22027 net.cpp:100] Creating Layer group0_block1_conv0_bn
I0814 00:12:18.805320 22027 net.cpp:434] group0_block1_conv0_bn <- group0_block1_conv0
I0814 00:12:18.805330 22027 net.cpp:395] group0_block1_conv0_bn -> group0_block1_conv0 (in-place)
I0814 00:12:18.805644 22027 net.cpp:150] Setting up group0_block1_conv0_bn
I0814 00:12:18.805661 22027 net.cpp:157] Top shape: 128 16 32 32 (2097152)
I0814 00:12:18.805666 22027 net.cpp:165] Memory required for data: 152569344
I0814 00:12:18.805678 22027 layer_factory.hpp:77] Creating layer group0_block1_conv0_scale
I0814 00:12:18.805690 22027 net.cpp:100] Creating Layer group0_block1_conv0_scale
I0814 00:12:18.805694 22027 net.cpp:434] group0_block1_conv0_scale <- group0_block1_conv0
I0814 00:12:18.805702 22027 net.cpp:395] group0_block1_conv0_scale -> group0_block1_conv0 (in-place)
I0814 00:12:18.805757 22027 layer_factory.hpp:77] Creating layer group0_block1_conv0_scale
I0814 00:12:18.805927 22027 net.cpp:150] Setting up group0_block1_conv0_scale
I0814 00:12:18.805938 22027 net.cpp:157] Top shape: 128 16 32 32 (2097152)
I0814 00:12:18.805943 22027 net.cpp:165] Memory required for data: 160957952
I0814 00:12:18.805953 22027 layer_factory.hpp:77] Creating layer group0_block1_conv0_relu
I0814 00:12:18.805961 22027 net.cpp:100] Creating Layer group0_block1_conv0_relu
I0814 00:12:18.805966 22027 net.cpp:434] group0_block1_conv0_relu <- group0_block1_conv0
I0814 00:12:18.805975 22027 net.cpp:395] group0_block1_conv0_relu -> group0_block1_conv0 (in-place)
I0814 00:12:18.806277 22027 net.cpp:150] Setting up group0_block1_conv0_relu
I0814 00:12:18.806295 22027 net.cpp:157] Top shape: 128 16 32 32 (2097152)
I0814 00:12:18.806301 22027 net.cpp:165] Memory required for data: 169346560
I0814 00:12:18.806306 22027 layer_factory.hpp:77] Creating layer group0_block1_conv1
I0814 00:12:18.806321 22027 net.cpp:100] Creating Layer group0_block1_conv1
I0814 00:12:18.806327 22027 net.cpp:434] group0_block1_conv1 <- group0_block1_conv0
I0814 00:12:18.806337 22027 net.cpp:408] group0_block1_conv1 -> group0_block1_conv1
I0814 00:12:18.808400 22027 net.cpp:150] Setting up group0_block1_conv1
I0814 00:12:18.808428 22027 net.cpp:157] Top shape: 128 16 32 32 (2097152)
I0814 00:12:18.808432 22027 net.cpp:165] Memory required for data: 177735168
I0814 00:12:18.808444 22027 layer_factory.hpp:77] Creating layer group0_block1_conv1_bn
I0814 00:12:18.808457 22027 net.cpp:100] Creating Layer group0_block1_conv1_bn
I0814 00:12:18.808464 22027 net.cpp:434] group0_block1_conv1_bn <- group0_block1_conv1
I0814 00:12:18.808473 22027 net.cpp:395] group0_block1_conv1_bn -> group0_block1_conv1 (in-place)
I0814 00:12:18.808797 22027 net.cpp:150] Setting up group0_block1_conv1_bn
I0814 00:12:18.808811 22027 net.cpp:157] Top shape: 128 16 32 32 (2097152)
I0814 00:12:18.808816 22027 net.cpp:165] Memory required for data: 186123776
I0814 00:12:18.808836 22027 layer_factory.hpp:77] Creating layer group0_block1_conv1_scale
I0814 00:12:18.808847 22027 net.cpp:100] Creating Layer group0_block1_conv1_scale
I0814 00:12:18.808852 22027 net.cpp:434] group0_block1_conv1_scale <- group0_block1_conv1
I0814 00:12:18.808861 22027 net.cpp:395] group0_block1_conv1_scale -> group0_block1_conv1 (in-place)
I0814 00:12:18.808917 22027 layer_factory.hpp:77] Creating layer group0_block1_conv1_scale
I0814 00:12:18.809089 22027 net.cpp:150] Setting up group0_block1_conv1_scale
I0814 00:12:18.809100 22027 net.cpp:157] Top shape: 128 16 32 32 (2097152)
I0814 00:12:18.809104 22027 net.cpp:165] Memory required for data: 194512384
I0814 00:12:18.809114 22027 layer_factory.hpp:77] Creating layer group0_block1_sum
I0814 00:12:18.809124 22027 net.cpp:100] Creating Layer group0_block1_sum
I0814 00:12:18.809129 22027 net.cpp:434] group0_block1_sum <- group0_block1_conv1
I0814 00:12:18.809136 22027 net.cpp:434] group0_block1_sum <- group0_block0_sum_group0_block0_sum_0_split_1
I0814 00:12:18.809168 22027 net.cpp:408] group0_block1_sum -> group0_block1_sum
I0814 00:12:18.809213 22027 net.cpp:150] Setting up group0_block1_sum
I0814 00:12:18.809222 22027 net.cpp:157] Top shape: 128 16 32 32 (2097152)
I0814 00:12:18.809227 22027 net.cpp:165] Memory required for data: 202900992
I0814 00:12:18.809231 22027 layer_factory.hpp:77] Creating layer group0_block1_sum_group0_block1_sum_0_split
I0814 00:12:18.809242 22027 net.cpp:100] Creating Layer group0_block1_sum_group0_block1_sum_0_split
I0814 00:12:18.809247 22027 net.cpp:434] group0_block1_sum_group0_block1_sum_0_split <- group0_block1_sum
I0814 00:12:18.809255 22027 net.cpp:408] group0_block1_sum_group0_block1_sum_0_split -> group0_block1_sum_group0_block1_sum_0_split_0
I0814 00:12:18.809267 22027 net.cpp:408] group0_block1_sum_group0_block1_sum_0_split -> group0_block1_sum_group0_block1_sum_0_split_1
I0814 00:12:18.809327 22027 net.cpp:150] Setting up group0_block1_sum_group0_block1_sum_0_split
I0814 00:12:18.809336 22027 net.cpp:157] Top shape: 128 16 32 32 (2097152)
I0814 00:12:18.809343 22027 net.cpp:157] Top shape: 128 16 32 32 (2097152)
I0814 00:12:18.809347 22027 net.cpp:165] Memory required for data: 219678208
I0814 00:12:18.809352 22027 layer_factory.hpp:77] Creating layer group0_block2_conv0
I0814 00:12:18.809366 22027 net.cpp:100] Creating Layer group0_block2_conv0
I0814 00:12:18.809371 22027 net.cpp:434] group0_block2_conv0 <- group0_block1_sum_group0_block1_sum_0_split_0
I0814 00:12:18.809382 22027 net.cpp:408] group0_block2_conv0 -> group0_block2_conv0
I0814 00:12:18.811457 22027 net.cpp:150] Setting up group0_block2_conv0
I0814 00:12:18.811483 22027 net.cpp:157] Top shape: 128 16 32 32 (2097152)
I0814 00:12:18.811489 22027 net.cpp:165] Memory required for data: 228066816
I0814 00:12:18.811501 22027 layer_factory.hpp:77] Creating layer group0_block2_conv0_bn
I0814 00:12:18.811512 22027 net.cpp:100] Creating Layer group0_block2_conv0_bn
I0814 00:12:18.811518 22027 net.cpp:434] group0_block2_conv0_bn <- group0_block2_conv0
I0814 00:12:18.811528 22027 net.cpp:395] group0_block2_conv0_bn -> group0_block2_conv0 (in-place)
I0814 00:12:18.811832 22027 net.cpp:150] Setting up group0_block2_conv0_bn
I0814 00:12:18.811846 22027 net.cpp:157] Top shape: 128 16 32 32 (2097152)
I0814 00:12:18.811851 22027 net.cpp:165] Memory required for data: 236455424
I0814 00:12:18.811862 22027 layer_factory.hpp:77] Creating layer group0_block2_conv0_scale
I0814 00:12:18.811872 22027 net.cpp:100] Creating Layer group0_block2_conv0_scale
I0814 00:12:18.811877 22027 net.cpp:434] group0_block2_conv0_scale <- group0_block2_conv0
I0814 00:12:18.811884 22027 net.cpp:395] group0_block2_conv0_scale -> group0_block2_conv0 (in-place)
I0814 00:12:18.811939 22027 layer_factory.hpp:77] Creating layer group0_block2_conv0_scale
I0814 00:12:18.812114 22027 net.cpp:150] Setting up group0_block2_conv0_scale
I0814 00:12:18.812127 22027 net.cpp:157] Top shape: 128 16 32 32 (2097152)
I0814 00:12:18.812131 22027 net.cpp:165] Memory required for data: 244844032
I0814 00:12:18.812140 22027 layer_factory.hpp:77] Creating layer group0_block2_conv0_relu
I0814 00:12:18.812150 22027 net.cpp:100] Creating Layer group0_block2_conv0_relu
I0814 00:12:18.812155 22027 net.cpp:434] group0_block2_conv0_relu <- group0_block2_conv0
I0814 00:12:18.812162 22027 net.cpp:395] group0_block2_conv0_relu -> group0_block2_conv0 (in-place)
I0814 00:12:18.812468 22027 net.cpp:150] Setting up group0_block2_conv0_relu
I0814 00:12:18.812484 22027 net.cpp:157] Top shape: 128 16 32 32 (2097152)
I0814 00:12:18.812489 22027 net.cpp:165] Memory required for data: 253232640
I0814 00:12:18.812494 22027 layer_factory.hpp:77] Creating layer group0_block2_conv1
I0814 00:12:18.812510 22027 net.cpp:100] Creating Layer group0_block2_conv1
I0814 00:12:18.812515 22027 net.cpp:434] group0_block2_conv1 <- group0_block2_conv0
I0814 00:12:18.812525 22027 net.cpp:408] group0_block2_conv1 -> group0_block2_conv1
I0814 00:12:18.814505 22027 net.cpp:150] Setting up group0_block2_conv1
I0814 00:12:18.814550 22027 net.cpp:157] Top shape: 128 16 32 32 (2097152)
I0814 00:12:18.814558 22027 net.cpp:165] Memory required for data: 261621248
I0814 00:12:18.814568 22027 layer_factory.hpp:77] Creating layer group0_block2_conv1_bn
I0814 00:12:18.814579 22027 net.cpp:100] Creating Layer group0_block2_conv1_bn
I0814 00:12:18.814585 22027 net.cpp:434] group0_block2_conv1_bn <- group0_block2_conv1
I0814 00:12:18.814595 22027 net.cpp:395] group0_block2_conv1_bn -> group0_block2_conv1 (in-place)
I0814 00:12:18.814914 22027 net.cpp:150] Setting up group0_block2_conv1_bn
I0814 00:12:18.814927 22027 net.cpp:157] Top shape: 128 16 32 32 (2097152)
I0814 00:12:18.814932 22027 net.cpp:165] Memory required for data: 270009856
I0814 00:12:18.814944 22027 layer_factory.hpp:77] Creating layer group0_block2_conv1_scale
I0814 00:12:18.814954 22027 net.cpp:100] Creating Layer group0_block2_conv1_scale
I0814 00:12:18.814960 22027 net.cpp:434] group0_block2_conv1_scale <- group0_block2_conv1
I0814 00:12:18.814967 22027 net.cpp:395] group0_block2_conv1_scale -> group0_block2_conv1 (in-place)
I0814 00:12:18.815023 22027 layer_factory.hpp:77] Creating layer group0_block2_conv1_scale
I0814 00:12:18.815197 22027 net.cpp:150] Setting up group0_block2_conv1_scale
I0814 00:12:18.815210 22027 net.cpp:157] Top shape: 128 16 32 32 (2097152)
I0814 00:12:18.815215 22027 net.cpp:165] Memory required for data: 278398464
I0814 00:12:18.815224 22027 layer_factory.hpp:77] Creating layer group0_block2_sum
I0814 00:12:18.815244 22027 net.cpp:100] Creating Layer group0_block2_sum
I0814 00:12:18.815248 22027 net.cpp:434] group0_block2_sum <- group0_block2_conv1
I0814 00:12:18.815255 22027 net.cpp:434] group0_block2_sum <- group0_block1_sum_group0_block1_sum_0_split_1
I0814 00:12:18.815264 22027 net.cpp:408] group0_block2_sum -> group0_block2_sum
I0814 00:12:18.815301 22027 net.cpp:150] Setting up group0_block2_sum
I0814 00:12:18.815310 22027 net.cpp:157] Top shape: 128 16 32 32 (2097152)
I0814 00:12:18.815315 22027 net.cpp:165] Memory required for data: 286787072
I0814 00:12:18.815318 22027 layer_factory.hpp:77] Creating layer group0_block2_sum_group0_block2_sum_0_split
I0814 00:12:18.815326 22027 net.cpp:100] Creating Layer group0_block2_sum_group0_block2_sum_0_split
I0814 00:12:18.815331 22027 net.cpp:434] group0_block2_sum_group0_block2_sum_0_split <- group0_block2_sum
I0814 00:12:18.815340 22027 net.cpp:408] group0_block2_sum_group0_block2_sum_0_split -> group0_block2_sum_group0_block2_sum_0_split_0
I0814 00:12:18.815351 22027 net.cpp:408] group0_block2_sum_group0_block2_sum_0_split -> group0_block2_sum_group0_block2_sum_0_split_1
I0814 00:12:18.815402 22027 net.cpp:150] Setting up group0_block2_sum_group0_block2_sum_0_split
I0814 00:12:18.815410 22027 net.cpp:157] Top shape: 128 16 32 32 (2097152)
I0814 00:12:18.815417 22027 net.cpp:157] Top shape: 128 16 32 32 (2097152)
I0814 00:12:18.815421 22027 net.cpp:165] Memory required for data: 303564288
I0814 00:12:18.815425 22027 layer_factory.hpp:77] Creating layer group1_block0_conv0
I0814 00:12:18.815438 22027 net.cpp:100] Creating Layer group1_block0_conv0
I0814 00:12:18.815444 22027 net.cpp:434] group1_block0_conv0 <- group0_block2_sum_group0_block2_sum_0_split_0
I0814 00:12:18.815454 22027 net.cpp:408] group1_block0_conv0 -> group1_block0_conv0
I0814 00:12:18.819283 22027 net.cpp:150] Setting up group1_block0_conv0
I0814 00:12:18.819308 22027 net.cpp:157] Top shape: 128 32 16 16 (1048576)
I0814 00:12:18.819313 22027 net.cpp:165] Memory required for data: 307758592
I0814 00:12:18.819324 22027 layer_factory.hpp:77] Creating layer group1_block0_conv0_bn
I0814 00:12:18.819336 22027 net.cpp:100] Creating Layer group1_block0_conv0_bn
I0814 00:12:18.819341 22027 net.cpp:434] group1_block0_conv0_bn <- group1_block0_conv0
I0814 00:12:18.819351 22027 net.cpp:395] group1_block0_conv0_bn -> group1_block0_conv0 (in-place)
I0814 00:12:18.819660 22027 net.cpp:150] Setting up group1_block0_conv0_bn
I0814 00:12:18.819674 22027 net.cpp:157] Top shape: 128 32 16 16 (1048576)
I0814 00:12:18.819699 22027 net.cpp:165] Memory required for data: 311952896
I0814 00:12:18.819711 22027 layer_factory.hpp:77] Creating layer group1_block0_conv0_scale
I0814 00:12:18.819721 22027 net.cpp:100] Creating Layer group1_block0_conv0_scale
I0814 00:12:18.819730 22027 net.cpp:434] group1_block0_conv0_scale <- group1_block0_conv0
I0814 00:12:18.819737 22027 net.cpp:395] group1_block0_conv0_scale -> group1_block0_conv0 (in-place)
I0814 00:12:18.819797 22027 layer_factory.hpp:77] Creating layer group1_block0_conv0_scale
I0814 00:12:18.819977 22027 net.cpp:150] Setting up group1_block0_conv0_scale
I0814 00:12:18.819986 22027 net.cpp:157] Top shape: 128 32 16 16 (1048576)
I0814 00:12:18.819990 22027 net.cpp:165] Memory required for data: 316147200
I0814 00:12:18.819999 22027 layer_factory.hpp:77] Creating layer group1_block0_conv0_relu
I0814 00:12:18.820008 22027 net.cpp:100] Creating Layer group1_block0_conv0_relu
I0814 00:12:18.820013 22027 net.cpp:434] group1_block0_conv0_relu <- group1_block0_conv0
I0814 00:12:18.820021 22027 net.cpp:395] group1_block0_conv0_relu -> group1_block0_conv0 (in-place)
I0814 00:12:18.820701 22027 net.cpp:150] Setting up group1_block0_conv0_relu
I0814 00:12:18.820727 22027 net.cpp:157] Top shape: 128 32 16 16 (1048576)
I0814 00:12:18.820732 22027 net.cpp:165] Memory required for data: 320341504
I0814 00:12:18.820739 22027 layer_factory.hpp:77] Creating layer group1_block0_conv1
I0814 00:12:18.820755 22027 net.cpp:100] Creating Layer group1_block0_conv1
I0814 00:12:18.820761 22027 net.cpp:434] group1_block0_conv1 <- group1_block0_conv0
I0814 00:12:18.820772 22027 net.cpp:408] group1_block0_conv1 -> group1_block0_conv1
I0814 00:12:18.823015 22027 net.cpp:150] Setting up group1_block0_conv1
I0814 00:12:18.823040 22027 net.cpp:157] Top shape: 128 32 16 16 (1048576)
I0814 00:12:18.823045 22027 net.cpp:165] Memory required for data: 324535808
I0814 00:12:18.823055 22027 layer_factory.hpp:77] Creating layer group1_block0_conv1_bn
I0814 00:12:18.823070 22027 net.cpp:100] Creating Layer group1_block0_conv1_bn
I0814 00:12:18.823076 22027 net.cpp:434] group1_block0_conv1_bn <- group1_block0_conv1
I0814 00:12:18.823086 22027 net.cpp:395] group1_block0_conv1_bn -> group1_block0_conv1 (in-place)
I0814 00:12:18.823410 22027 net.cpp:150] Setting up group1_block0_conv1_bn
I0814 00:12:18.823423 22027 net.cpp:157] Top shape: 128 32 16 16 (1048576)
I0814 00:12:18.823428 22027 net.cpp:165] Memory required for data: 328730112
I0814 00:12:18.823438 22027 layer_factory.hpp:77] Creating layer group1_block0_conv1_scale
I0814 00:12:18.823447 22027 net.cpp:100] Creating Layer group1_block0_conv1_scale
I0814 00:12:18.823451 22027 net.cpp:434] group1_block0_conv1_scale <- group1_block0_conv1
I0814 00:12:18.823458 22027 net.cpp:395] group1_block0_conv1_scale -> group1_block0_conv1 (in-place)
I0814 00:12:18.823514 22027 layer_factory.hpp:77] Creating layer group1_block0_conv1_scale
I0814 00:12:18.823686 22027 net.cpp:150] Setting up group1_block0_conv1_scale
I0814 00:12:18.823696 22027 net.cpp:157] Top shape: 128 32 16 16 (1048576)
I0814 00:12:18.823700 22027 net.cpp:165] Memory required for data: 332924416
I0814 00:12:18.823709 22027 layer_factory.hpp:77] Creating layer group1_block0_proj
I0814 00:12:18.823729 22027 net.cpp:100] Creating Layer group1_block0_proj
I0814 00:12:18.823734 22027 net.cpp:434] group1_block0_proj <- group0_block2_sum_group0_block2_sum_0_split_1
I0814 00:12:18.823745 22027 net.cpp:408] group1_block0_proj -> group1_block0_proj
I0814 00:12:18.825731 22027 net.cpp:150] Setting up group1_block0_proj
I0814 00:12:18.825752 22027 net.cpp:157] Top shape: 128 32 16 16 (1048576)
I0814 00:12:18.825757 22027 net.cpp:165] Memory required for data: 337118720
I0814 00:12:18.825783 22027 layer_factory.hpp:77] Creating layer group1_block0_proj_bn
I0814 00:12:18.825793 22027 net.cpp:100] Creating Layer group1_block0_proj_bn
I0814 00:12:18.825799 22027 net.cpp:434] group1_block0_proj_bn <- group1_block0_proj
I0814 00:12:18.825810 22027 net.cpp:395] group1_block0_proj_bn -> group1_block0_proj (in-place)
I0814 00:12:18.826114 22027 net.cpp:150] Setting up group1_block0_proj_bn
I0814 00:12:18.826148 22027 net.cpp:157] Top shape: 128 32 16 16 (1048576)
I0814 00:12:18.826154 22027 net.cpp:165] Memory required for data: 341313024
I0814 00:12:18.826165 22027 layer_factory.hpp:77] Creating layer group1_block0_proj_scale
I0814 00:12:18.826175 22027 net.cpp:100] Creating Layer group1_block0_proj_scale
I0814 00:12:18.826180 22027 net.cpp:434] group1_block0_proj_scale <- group1_block0_proj
I0814 00:12:18.826187 22027 net.cpp:395] group1_block0_proj_scale -> group1_block0_proj (in-place)
I0814 00:12:18.826247 22027 layer_factory.hpp:77] Creating layer group1_block0_proj_scale
I0814 00:12:18.826421 22027 net.cpp:150] Setting up group1_block0_proj_scale
I0814 00:12:18.826431 22027 net.cpp:157] Top shape: 128 32 16 16 (1048576)
I0814 00:12:18.826436 22027 net.cpp:165] Memory required for data: 345507328
I0814 00:12:18.826443 22027 layer_factory.hpp:77] Creating layer group1_block0_sum
I0814 00:12:18.826452 22027 net.cpp:100] Creating Layer group1_block0_sum
I0814 00:12:18.826457 22027 net.cpp:434] group1_block0_sum <- group1_block0_proj
I0814 00:12:18.826462 22027 net.cpp:434] group1_block0_sum <- group1_block0_conv1
I0814 00:12:18.826473 22027 net.cpp:408] group1_block0_sum -> group1_block0_sum
I0814 00:12:18.826503 22027 net.cpp:150] Setting up group1_block0_sum
I0814 00:12:18.826510 22027 net.cpp:157] Top shape: 128 32 16 16 (1048576)
I0814 00:12:18.826514 22027 net.cpp:165] Memory required for data: 349701632
I0814 00:12:18.826519 22027 layer_factory.hpp:77] Creating layer group1_block0_sum_group1_block0_sum_0_split
I0814 00:12:18.826534 22027 net.cpp:100] Creating Layer group1_block0_sum_group1_block0_sum_0_split
I0814 00:12:18.826539 22027 net.cpp:434] group1_block0_sum_group1_block0_sum_0_split <- group1_block0_sum
I0814 00:12:18.826546 22027 net.cpp:408] group1_block0_sum_group1_block0_sum_0_split -> group1_block0_sum_group1_block0_sum_0_split_0
I0814 00:12:18.826555 22027 net.cpp:408] group1_block0_sum_group1_block0_sum_0_split -> group1_block0_sum_group1_block0_sum_0_split_1
I0814 00:12:18.826608 22027 net.cpp:150] Setting up group1_block0_sum_group1_block0_sum_0_split
I0814 00:12:18.826617 22027 net.cpp:157] Top shape: 128 32 16 16 (1048576)
I0814 00:12:18.826622 22027 net.cpp:157] Top shape: 128 32 16 16 (1048576)
I0814 00:12:18.826627 22027 net.cpp:165] Memory required for data: 358090240
I0814 00:12:18.826632 22027 layer_factory.hpp:77] Creating layer group1_block1_conv0
I0814 00:12:18.826643 22027 net.cpp:100] Creating Layer group1_block1_conv0
I0814 00:12:18.826648 22027 net.cpp:434] group1_block1_conv0 <- group1_block0_sum_group1_block0_sum_0_split_0
I0814 00:12:18.826661 22027 net.cpp:408] group1_block1_conv0 -> group1_block1_conv0
I0814 00:12:18.829136 22027 net.cpp:150] Setting up group1_block1_conv0
I0814 00:12:18.829161 22027 net.cpp:157] Top shape: 128 32 16 16 (1048576)
I0814 00:12:18.829166 22027 net.cpp:165] Memory required for data: 362284544
I0814 00:12:18.829177 22027 layer_factory.hpp:77] Creating layer group1_block1_conv0_bn
I0814 00:12:18.829190 22027 net.cpp:100] Creating Layer group1_block1_conv0_bn
I0814 00:12:18.829196 22027 net.cpp:434] group1_block1_conv0_bn <- group1_block1_conv0
I0814 00:12:18.829207 22027 net.cpp:395] group1_block1_conv0_bn -> group1_block1_conv0 (in-place)
I0814 00:12:18.829533 22027 net.cpp:150] Setting up group1_block1_conv0_bn
I0814 00:12:18.829545 22027 net.cpp:157] Top shape: 128 32 16 16 (1048576)
I0814 00:12:18.829550 22027 net.cpp:165] Memory required for data: 366478848
I0814 00:12:18.829560 22027 layer_factory.hpp:77] Creating layer group1_block1_conv0_scale
I0814 00:12:18.829571 22027 net.cpp:100] Creating Layer group1_block1_conv0_scale
I0814 00:12:18.829576 22027 net.cpp:434] group1_block1_conv0_scale <- group1_block1_conv0
I0814 00:12:18.829583 22027 net.cpp:395] group1_block1_conv0_scale -> group1_block1_conv0 (in-place)
I0814 00:12:18.829638 22027 layer_factory.hpp:77] Creating layer group1_block1_conv0_scale
I0814 00:12:18.829809 22027 net.cpp:150] Setting up group1_block1_conv0_scale
I0814 00:12:18.829838 22027 net.cpp:157] Top shape: 128 32 16 16 (1048576)
I0814 00:12:18.829843 22027 net.cpp:165] Memory required for data: 370673152
I0814 00:12:18.829851 22027 layer_factory.hpp:77] Creating layer group1_block1_conv0_relu
I0814 00:12:18.829859 22027 net.cpp:100] Creating Layer group1_block1_conv0_relu
I0814 00:12:18.829864 22027 net.cpp:434] group1_block1_conv0_relu <- group1_block1_conv0
I0814 00:12:18.829879 22027 net.cpp:395] group1_block1_conv0_relu -> group1_block1_conv0 (in-place)
I0814 00:12:18.830174 22027 net.cpp:150] Setting up group1_block1_conv0_relu
I0814 00:12:18.830195 22027 net.cpp:157] Top shape: 128 32 16 16 (1048576)
I0814 00:12:18.830200 22027 net.cpp:165] Memory required for data: 374867456
I0814 00:12:18.830205 22027 layer_factory.hpp:77] Creating layer group1_block1_conv1
I0814 00:12:18.830220 22027 net.cpp:100] Creating Layer group1_block1_conv1
I0814 00:12:18.830225 22027 net.cpp:434] group1_block1_conv1 <- group1_block1_conv0
I0814 00:12:18.830235 22027 net.cpp:408] group1_block1_conv1 -> group1_block1_conv1
I0814 00:12:18.832365 22027 net.cpp:150] Setting up group1_block1_conv1
I0814 00:12:18.832391 22027 net.cpp:157] Top shape: 128 32 16 16 (1048576)
I0814 00:12:18.832396 22027 net.cpp:165] Memory required for data: 379061760
I0814 00:12:18.832406 22027 layer_factory.hpp:77] Creating layer group1_block1_conv1_bn
I0814 00:12:18.832419 22027 net.cpp:100] Creating Layer group1_block1_conv1_bn
I0814 00:12:18.832425 22027 net.cpp:434] group1_block1_conv1_bn <- group1_block1_conv1
I0814 00:12:18.832433 22027 net.cpp:395] group1_block1_conv1_bn -> group1_block1_conv1 (in-place)
I0814 00:12:18.832733 22027 net.cpp:150] Setting up group1_block1_conv1_bn
I0814 00:12:18.832746 22027 net.cpp:157] Top shape: 128 32 16 16 (1048576)
I0814 00:12:18.832751 22027 net.cpp:165] Memory required for data: 383256064
I0814 00:12:18.832762 22027 layer_factory.hpp:77] Creating layer group1_block1_conv1_scale
I0814 00:12:18.832772 22027 net.cpp:100] Creating Layer group1_block1_conv1_scale
I0814 00:12:18.832777 22027 net.cpp:434] group1_block1_conv1_scale <- group1_block1_conv1
I0814 00:12:18.832784 22027 net.cpp:395] group1_block1_conv1_scale -> group1_block1_conv1 (in-place)
I0814 00:12:18.832839 22027 layer_factory.hpp:77] Creating layer group1_block1_conv1_scale
I0814 00:12:18.833022 22027 net.cpp:150] Setting up group1_block1_conv1_scale
I0814 00:12:18.833034 22027 net.cpp:157] Top shape: 128 32 16 16 (1048576)
I0814 00:12:18.833039 22027 net.cpp:165] Memory required for data: 387450368
I0814 00:12:18.833047 22027 layer_factory.hpp:77] Creating layer group1_block1_sum
I0814 00:12:18.833058 22027 net.cpp:100] Creating Layer group1_block1_sum
I0814 00:12:18.833063 22027 net.cpp:434] group1_block1_sum <- group1_block1_conv1
I0814 00:12:18.833070 22027 net.cpp:434] group1_block1_sum <- group1_block0_sum_group1_block0_sum_0_split_1
I0814 00:12:18.833079 22027 net.cpp:408] group1_block1_sum -> group1_block1_sum
I0814 00:12:18.833109 22027 net.cpp:150] Setting up group1_block1_sum
I0814 00:12:18.833117 22027 net.cpp:157] Top shape: 128 32 16 16 (1048576)
I0814 00:12:18.833122 22027 net.cpp:165] Memory required for data: 391644672
I0814 00:12:18.833125 22027 layer_factory.hpp:77] Creating layer group1_block1_sum_group1_block1_sum_0_split
I0814 00:12:18.833133 22027 net.cpp:100] Creating Layer group1_block1_sum_group1_block1_sum_0_split
I0814 00:12:18.833137 22027 net.cpp:434] group1_block1_sum_group1_block1_sum_0_split <- group1_block1_sum
I0814 00:12:18.833148 22027 net.cpp:408] group1_block1_sum_group1_block1_sum_0_split -> group1_block1_sum_group1_block1_sum_0_split_0
I0814 00:12:18.833158 22027 net.cpp:408] group1_block1_sum_group1_block1_sum_0_split -> group1_block1_sum_group1_block1_sum_0_split_1
I0814 00:12:18.833223 22027 net.cpp:150] Setting up group1_block1_sum_group1_block1_sum_0_split
I0814 00:12:18.833231 22027 net.cpp:157] Top shape: 128 32 16 16 (1048576)
I0814 00:12:18.833238 22027 net.cpp:157] Top shape: 128 32 16 16 (1048576)
I0814 00:12:18.833241 22027 net.cpp:165] Memory required for data: 400033280
I0814 00:12:18.833266 22027 layer_factory.hpp:77] Creating layer group1_block2_conv0
I0814 00:12:18.833283 22027 net.cpp:100] Creating Layer group1_block2_conv0
I0814 00:12:18.833288 22027 net.cpp:434] group1_block2_conv0 <- group1_block1_sum_group1_block1_sum_0_split_0
I0814 00:12:18.833298 22027 net.cpp:408] group1_block2_conv0 -> group1_block2_conv0
I0814 00:12:18.835428 22027 net.cpp:150] Setting up group1_block2_conv0
I0814 00:12:18.835453 22027 net.cpp:157] Top shape: 128 32 16 16 (1048576)
I0814 00:12:18.835458 22027 net.cpp:165] Memory required for data: 404227584
I0814 00:12:18.835467 22027 layer_factory.hpp:77] Creating layer group1_block2_conv0_bn
I0814 00:12:18.835480 22027 net.cpp:100] Creating Layer group1_block2_conv0_bn
I0814 00:12:18.835485 22027 net.cpp:434] group1_block2_conv0_bn <- group1_block2_conv0
I0814 00:12:18.835495 22027 net.cpp:395] group1_block2_conv0_bn -> group1_block2_conv0 (in-place)
I0814 00:12:18.835783 22027 net.cpp:150] Setting up group1_block2_conv0_bn
I0814 00:12:18.835791 22027 net.cpp:157] Top shape: 128 32 16 16 (1048576)
I0814 00:12:18.835795 22027 net.cpp:165] Memory required for data: 408421888
I0814 00:12:18.835805 22027 layer_factory.hpp:77] Creating layer group1_block2_conv0_scale
I0814 00:12:18.835813 22027 net.cpp:100] Creating Layer group1_block2_conv0_scale
I0814 00:12:18.835819 22027 net.cpp:434] group1_block2_conv0_scale <- group1_block2_conv0
I0814 00:12:18.835827 22027 net.cpp:395] group1_block2_conv0_scale -> group1_block2_conv0 (in-place)
I0814 00:12:18.835876 22027 layer_factory.hpp:77] Creating layer group1_block2_conv0_scale
I0814 00:12:18.836053 22027 net.cpp:150] Setting up group1_block2_conv0_scale
I0814 00:12:18.836067 22027 net.cpp:157] Top shape: 128 32 16 16 (1048576)
I0814 00:12:18.836071 22027 net.cpp:165] Memory required for data: 412616192
I0814 00:12:18.836081 22027 layer_factory.hpp:77] Creating layer group1_block2_conv0_relu
I0814 00:12:18.836088 22027 net.cpp:100] Creating Layer group1_block2_conv0_relu
I0814 00:12:18.836092 22027 net.cpp:434] group1_block2_conv0_relu <- group1_block2_conv0
I0814 00:12:18.836098 22027 net.cpp:395] group1_block2_conv0_relu -> group1_block2_conv0 (in-place)
I0814 00:12:18.836727 22027 net.cpp:150] Setting up group1_block2_conv0_relu
I0814 00:12:18.836750 22027 net.cpp:157] Top shape: 128 32 16 16 (1048576)
I0814 00:12:18.836755 22027 net.cpp:165] Memory required for data: 416810496
I0814 00:12:18.836758 22027 layer_factory.hpp:77] Creating layer group1_block2_conv1
I0814 00:12:18.836776 22027 net.cpp:100] Creating Layer group1_block2_conv1
I0814 00:12:18.836781 22027 net.cpp:434] group1_block2_conv1 <- group1_block2_conv0
I0814 00:12:18.836793 22027 net.cpp:408] group1_block2_conv1 -> group1_block2_conv1
I0814 00:12:18.838487 22027 net.cpp:150] Setting up group1_block2_conv1
I0814 00:12:18.838511 22027 net.cpp:157] Top shape: 128 32 16 16 (1048576)
I0814 00:12:18.838516 22027 net.cpp:165] Memory required for data: 421004800
I0814 00:12:18.838526 22027 layer_factory.hpp:77] Creating layer group1_block2_conv1_bn
I0814 00:12:18.838536 22027 net.cpp:100] Creating Layer group1_block2_conv1_bn
I0814 00:12:18.838541 22027 net.cpp:434] group1_block2_conv1_bn <- group1_block2_conv1
I0814 00:12:18.838551 22027 net.cpp:395] group1_block2_conv1_bn -> group1_block2_conv1 (in-place)
I0814 00:12:18.838842 22027 net.cpp:150] Setting up group1_block2_conv1_bn
I0814 00:12:18.838856 22027 net.cpp:157] Top shape: 128 32 16 16 (1048576)
I0814 00:12:18.838860 22027 net.cpp:165] Memory required for data: 425199104
I0814 00:12:18.838871 22027 layer_factory.hpp:77] Creating layer group1_block2_conv1_scale
I0814 00:12:18.838881 22027 net.cpp:100] Creating Layer group1_block2_conv1_scale
I0814 00:12:18.838886 22027 net.cpp:434] group1_block2_conv1_scale <- group1_block2_conv1
I0814 00:12:18.838892 22027 net.cpp:395] group1_block2_conv1_scale -> group1_block2_conv1 (in-place)
I0814 00:12:18.838958 22027 layer_factory.hpp:77] Creating layer group1_block2_conv1_scale
I0814 00:12:18.839128 22027 net.cpp:150] Setting up group1_block2_conv1_scale
I0814 00:12:18.839155 22027 net.cpp:157] Top shape: 128 32 16 16 (1048576)
I0814 00:12:18.839160 22027 net.cpp:165] Memory required for data: 429393408
I0814 00:12:18.839169 22027 layer_factory.hpp:77] Creating layer group1_block2_sum
I0814 00:12:18.839177 22027 net.cpp:100] Creating Layer group1_block2_sum
I0814 00:12:18.839181 22027 net.cpp:434] group1_block2_sum <- group1_block2_conv1
I0814 00:12:18.839205 22027 net.cpp:434] group1_block2_sum <- group1_block1_sum_group1_block1_sum_0_split_1
I0814 00:12:18.839215 22027 net.cpp:408] group1_block2_sum -> group1_block2_sum
I0814 00:12:18.839249 22027 net.cpp:150] Setting up group1_block2_sum
I0814 00:12:18.839257 22027 net.cpp:157] Top shape: 128 32 16 16 (1048576)
I0814 00:12:18.839260 22027 net.cpp:165] Memory required for data: 433587712
I0814 00:12:18.839264 22027 layer_factory.hpp:77] Creating layer group1_block2_sum_group1_block2_sum_0_split
I0814 00:12:18.839272 22027 net.cpp:100] Creating Layer group1_block2_sum_group1_block2_sum_0_split
I0814 00:12:18.839275 22027 net.cpp:434] group1_block2_sum_group1_block2_sum_0_split <- group1_block2_sum
I0814 00:12:18.839285 22027 net.cpp:408] group1_block2_sum_group1_block2_sum_0_split -> group1_block2_sum_group1_block2_sum_0_split_0
I0814 00:12:18.839295 22027 net.cpp:408] group1_block2_sum_group1_block2_sum_0_split -> group1_block2_sum_group1_block2_sum_0_split_1
I0814 00:12:18.839344 22027 net.cpp:150] Setting up group1_block2_sum_group1_block2_sum_0_split
I0814 00:12:18.839350 22027 net.cpp:157] Top shape: 128 32 16 16 (1048576)
I0814 00:12:18.839356 22027 net.cpp:157] Top shape: 128 32 16 16 (1048576)
I0814 00:12:18.839359 22027 net.cpp:165] Memory required for data: 441976320
I0814 00:12:18.839364 22027 layer_factory.hpp:77] Creating layer group2_block0_conv0
I0814 00:12:18.839397 22027 net.cpp:100] Creating Layer group2_block0_conv0
I0814 00:12:18.839403 22027 net.cpp:434] group2_block0_conv0 <- group1_block2_sum_group1_block2_sum_0_split_0
I0814 00:12:18.839411 22027 net.cpp:408] group2_block0_conv0 -> group2_block0_conv0
I0814 00:12:18.842968 22027 net.cpp:150] Setting up group2_block0_conv0
I0814 00:12:18.842994 22027 net.cpp:157] Top shape: 128 64 8 8 (524288)
I0814 00:12:18.842999 22027 net.cpp:165] Memory required for data: 444073472
I0814 00:12:18.843009 22027 layer_factory.hpp:77] Creating layer group2_block0_conv0_bn
I0814 00:12:18.843021 22027 net.cpp:100] Creating Layer group2_block0_conv0_bn
I0814 00:12:18.843026 22027 net.cpp:434] group2_block0_conv0_bn <- group2_block0_conv0
I0814 00:12:18.843036 22027 net.cpp:395] group2_block0_conv0_bn -> group2_block0_conv0 (in-place)
I0814 00:12:18.843345 22027 net.cpp:150] Setting up group2_block0_conv0_bn
I0814 00:12:18.843358 22027 net.cpp:157] Top shape: 128 64 8 8 (524288)
I0814 00:12:18.843363 22027 net.cpp:165] Memory required for data: 446170624
I0814 00:12:18.843372 22027 layer_factory.hpp:77] Creating layer group2_block0_conv0_scale
I0814 00:12:18.843381 22027 net.cpp:100] Creating Layer group2_block0_conv0_scale
I0814 00:12:18.843385 22027 net.cpp:434] group2_block0_conv0_scale <- group2_block0_conv0
I0814 00:12:18.843394 22027 net.cpp:395] group2_block0_conv0_scale -> group2_block0_conv0 (in-place)
I0814 00:12:18.843448 22027 layer_factory.hpp:77] Creating layer group2_block0_conv0_scale
I0814 00:12:18.843632 22027 net.cpp:150] Setting up group2_block0_conv0_scale
I0814 00:12:18.843642 22027 net.cpp:157] Top shape: 128 64 8 8 (524288)
I0814 00:12:18.843647 22027 net.cpp:165] Memory required for data: 448267776
I0814 00:12:18.843654 22027 layer_factory.hpp:77] Creating layer group2_block0_conv0_relu
I0814 00:12:18.843662 22027 net.cpp:100] Creating Layer group2_block0_conv0_relu
I0814 00:12:18.843667 22027 net.cpp:434] group2_block0_conv0_relu <- group2_block0_conv0
I0814 00:12:18.843675 22027 net.cpp:395] group2_block0_conv0_relu -> group2_block0_conv0 (in-place)
I0814 00:12:18.844298 22027 net.cpp:150] Setting up group2_block0_conv0_relu
I0814 00:12:18.844321 22027 net.cpp:157] Top shape: 128 64 8 8 (524288)
I0814 00:12:18.844326 22027 net.cpp:165] Memory required for data: 450364928
I0814 00:12:18.844349 22027 layer_factory.hpp:77] Creating layer group2_block0_conv1
I0814 00:12:18.844367 22027 net.cpp:100] Creating Layer group2_block0_conv1
I0814 00:12:18.844372 22027 net.cpp:434] group2_block0_conv1 <- group2_block0_conv0
I0814 00:12:18.844383 22027 net.cpp:408] group2_block0_conv1 -> group2_block0_conv1
I0814 00:12:18.847237 22027 net.cpp:150] Setting up group2_block0_conv1
I0814 00:12:18.847257 22027 net.cpp:157] Top shape: 128 64 8 8 (524288)
I0814 00:12:18.847261 22027 net.cpp:165] Memory required for data: 452462080
I0814 00:12:18.847270 22027 layer_factory.hpp:77] Creating layer group2_block0_conv1_bn
I0814 00:12:18.847282 22027 net.cpp:100] Creating Layer group2_block0_conv1_bn
I0814 00:12:18.847288 22027 net.cpp:434] group2_block0_conv1_bn <- group2_block0_conv1
I0814 00:12:18.847296 22027 net.cpp:395] group2_block0_conv1_bn -> group2_block0_conv1 (in-place)
I0814 00:12:18.847590 22027 net.cpp:150] Setting up group2_block0_conv1_bn
I0814 00:12:18.847599 22027 net.cpp:157] Top shape: 128 64 8 8 (524288)
I0814 00:12:18.847604 22027 net.cpp:165] Memory required for data: 454559232
I0814 00:12:18.847612 22027 layer_factory.hpp:77] Creating layer group2_block0_conv1_scale
I0814 00:12:18.847621 22027 net.cpp:100] Creating Layer group2_block0_conv1_scale
I0814 00:12:18.847625 22027 net.cpp:434] group2_block0_conv1_scale <- group2_block0_conv1
I0814 00:12:18.847631 22027 net.cpp:395] group2_block0_conv1_scale -> group2_block0_conv1 (in-place)
I0814 00:12:18.847686 22027 layer_factory.hpp:77] Creating layer group2_block0_conv1_scale
I0814 00:12:18.847853 22027 net.cpp:150] Setting up group2_block0_conv1_scale
I0814 00:12:18.847868 22027 net.cpp:157] Top shape: 128 64 8 8 (524288)
I0814 00:12:18.847872 22027 net.cpp:165] Memory required for data: 456656384
I0814 00:12:18.847879 22027 layer_factory.hpp:77] Creating layer group2_block0_proj
I0814 00:12:18.847893 22027 net.cpp:100] Creating Layer group2_block0_proj
I0814 00:12:18.847898 22027 net.cpp:434] group2_block0_proj <- group1_block2_sum_group1_block2_sum_0_split_1
I0814 00:12:18.847909 22027 net.cpp:408] group2_block0_proj -> group2_block0_proj
I0814 00:12:18.849737 22027 net.cpp:150] Setting up group2_block0_proj
I0814 00:12:18.849758 22027 net.cpp:157] Top shape: 128 64 8 8 (524288)
I0814 00:12:18.849762 22027 net.cpp:165] Memory required for data: 458753536
I0814 00:12:18.849771 22027 layer_factory.hpp:77] Creating layer group2_block0_proj_bn
I0814 00:12:18.849784 22027 net.cpp:100] Creating Layer group2_block0_proj_bn
I0814 00:12:18.849789 22027 net.cpp:434] group2_block0_proj_bn <- group2_block0_proj
I0814 00:12:18.849798 22027 net.cpp:395] group2_block0_proj_bn -> group2_block0_proj (in-place)
I0814 00:12:18.850095 22027 net.cpp:150] Setting up group2_block0_proj_bn
I0814 00:12:18.850108 22027 net.cpp:157] Top shape: 128 64 8 8 (524288)
I0814 00:12:18.850112 22027 net.cpp:165] Memory required for data: 460850688
I0814 00:12:18.850121 22027 layer_factory.hpp:77] Creating layer group2_block0_proj_scale
I0814 00:12:18.850132 22027 net.cpp:100] Creating Layer group2_block0_proj_scale
I0814 00:12:18.850136 22027 net.cpp:434] group2_block0_proj_scale <- group2_block0_proj
I0814 00:12:18.850143 22027 net.cpp:395] group2_block0_proj_scale -> group2_block0_proj (in-place)
I0814 00:12:18.850200 22027 layer_factory.hpp:77] Creating layer group2_block0_proj_scale
I0814 00:12:18.850368 22027 net.cpp:150] Setting up group2_block0_proj_scale
I0814 00:12:18.850385 22027 net.cpp:157] Top shape: 128 64 8 8 (524288)
I0814 00:12:18.850389 22027 net.cpp:165] Memory required for data: 462947840
I0814 00:12:18.850396 22027 layer_factory.hpp:77] Creating layer group2_block0_sum
I0814 00:12:18.850406 22027 net.cpp:100] Creating Layer group2_block0_sum
I0814 00:12:18.850411 22027 net.cpp:434] group2_block0_sum <- group2_block0_proj
I0814 00:12:18.850416 22027 net.cpp:434] group2_block0_sum <- group2_block0_conv1
I0814 00:12:18.850425 22027 net.cpp:408] group2_block0_sum -> group2_block0_sum
I0814 00:12:18.850453 22027 net.cpp:150] Setting up group2_block0_sum
I0814 00:12:18.850477 22027 net.cpp:157] Top shape: 128 64 8 8 (524288)
I0814 00:12:18.850482 22027 net.cpp:165] Memory required for data: 465044992
I0814 00:12:18.850486 22027 layer_factory.hpp:77] Creating layer group2_block0_sum_group2_block0_sum_0_split
I0814 00:12:18.850494 22027 net.cpp:100] Creating Layer group2_block0_sum_group2_block0_sum_0_split
I0814 00:12:18.850498 22027 net.cpp:434] group2_block0_sum_group2_block0_sum_0_split <- group2_block0_sum
I0814 00:12:18.850515 22027 net.cpp:408] group2_block0_sum_group2_block0_sum_0_split -> group2_block0_sum_group2_block0_sum_0_split_0
I0814 00:12:18.850525 22027 net.cpp:408] group2_block0_sum_group2_block0_sum_0_split -> group2_block0_sum_group2_block0_sum_0_split_1
I0814 00:12:18.850582 22027 net.cpp:150] Setting up group2_block0_sum_group2_block0_sum_0_split
I0814 00:12:18.850590 22027 net.cpp:157] Top shape: 128 64 8 8 (524288)
I0814 00:12:18.850595 22027 net.cpp:157] Top shape: 128 64 8 8 (524288)
I0814 00:12:18.850600 22027 net.cpp:165] Memory required for data: 469239296
I0814 00:12:18.850603 22027 layer_factory.hpp:77] Creating layer group2_block1_conv0
I0814 00:12:18.850615 22027 net.cpp:100] Creating Layer group2_block1_conv0
I0814 00:12:18.850618 22027 net.cpp:434] group2_block1_conv0 <- group2_block0_sum_group2_block0_sum_0_split_0
I0814 00:12:18.850628 22027 net.cpp:408] group2_block1_conv0 -> group2_block1_conv0
I0814 00:12:18.853685 22027 net.cpp:150] Setting up group2_block1_conv0
I0814 00:12:18.853705 22027 net.cpp:157] Top shape: 128 64 8 8 (524288)
I0814 00:12:18.853710 22027 net.cpp:165] Memory required for data: 471336448
I0814 00:12:18.853720 22027 layer_factory.hpp:77] Creating layer group2_block1_conv0_bn
I0814 00:12:18.853732 22027 net.cpp:100] Creating Layer group2_block1_conv0_bn
I0814 00:12:18.853737 22027 net.cpp:434] group2_block1_conv0_bn <- group2_block1_conv0
I0814 00:12:18.853745 22027 net.cpp:395] group2_block1_conv0_bn -> group2_block1_conv0 (in-place)
I0814 00:12:18.854051 22027 net.cpp:150] Setting up group2_block1_conv0_bn
I0814 00:12:18.854063 22027 net.cpp:157] Top shape: 128 64 8 8 (524288)
I0814 00:12:18.854068 22027 net.cpp:165] Memory required for data: 473433600
I0814 00:12:18.854076 22027 layer_factory.hpp:77] Creating layer group2_block1_conv0_scale
I0814 00:12:18.854084 22027 net.cpp:100] Creating Layer group2_block1_conv0_scale
I0814 00:12:18.854089 22027 net.cpp:434] group2_block1_conv0_scale <- group2_block1_conv0
I0814 00:12:18.854094 22027 net.cpp:395] group2_block1_conv0_scale -> group2_block1_conv0 (in-place)
I0814 00:12:18.854151 22027 layer_factory.hpp:77] Creating layer group2_block1_conv0_scale
I0814 00:12:18.854322 22027 net.cpp:150] Setting up group2_block1_conv0_scale
I0814 00:12:18.854331 22027 net.cpp:157] Top shape: 128 64 8 8 (524288)
I0814 00:12:18.854336 22027 net.cpp:165] Memory required for data: 475530752
I0814 00:12:18.854343 22027 layer_factory.hpp:77] Creating layer group2_block1_conv0_relu
I0814 00:12:18.854352 22027 net.cpp:100] Creating Layer group2_block1_conv0_relu
I0814 00:12:18.854357 22027 net.cpp:434] group2_block1_conv0_relu <- group2_block1_conv0
I0814 00:12:18.854363 22027 net.cpp:395] group2_block1_conv0_relu -> group2_block1_conv0 (in-place)
I0814 00:12:18.854985 22027 net.cpp:150] Setting up group2_block1_conv0_relu
I0814 00:12:18.855006 22027 net.cpp:157] Top shape: 128 64 8 8 (524288)
I0814 00:12:18.855011 22027 net.cpp:165] Memory required for data: 477627904
I0814 00:12:18.855020 22027 layer_factory.hpp:77] Creating layer group2_block1_conv1
I0814 00:12:18.855033 22027 net.cpp:100] Creating Layer group2_block1_conv1
I0814 00:12:18.855038 22027 net.cpp:434] group2_block1_conv1 <- group2_block1_conv0
I0814 00:12:18.855049 22027 net.cpp:408] group2_block1_conv1 -> group2_block1_conv1
I0814 00:12:18.857437 22027 net.cpp:150] Setting up group2_block1_conv1
I0814 00:12:18.857460 22027 net.cpp:157] Top shape: 128 64 8 8 (524288)
I0814 00:12:18.857465 22027 net.cpp:165] Memory required for data: 479725056
I0814 00:12:18.857475 22027 layer_factory.hpp:77] Creating layer group2_block1_conv1_bn
I0814 00:12:18.857501 22027 net.cpp:100] Creating Layer group2_block1_conv1_bn
I0814 00:12:18.857506 22027 net.cpp:434] group2_block1_conv1_bn <- group2_block1_conv1
I0814 00:12:18.857517 22027 net.cpp:395] group2_block1_conv1_bn -> group2_block1_conv1 (in-place)
I0814 00:12:18.857825 22027 net.cpp:150] Setting up group2_block1_conv1_bn
I0814 00:12:18.857836 22027 net.cpp:157] Top shape: 128 64 8 8 (524288)
I0814 00:12:18.857841 22027 net.cpp:165] Memory required for data: 481822208
I0814 00:12:18.857874 22027 layer_factory.hpp:77] Creating layer group2_block1_conv1_scale
I0814 00:12:18.857883 22027 net.cpp:100] Creating Layer group2_block1_conv1_scale
I0814 00:12:18.857888 22027 net.cpp:434] group2_block1_conv1_scale <- group2_block1_conv1
I0814 00:12:18.857897 22027 net.cpp:395] group2_block1_conv1_scale -> group2_block1_conv1 (in-place)
I0814 00:12:18.857952 22027 layer_factory.hpp:77] Creating layer group2_block1_conv1_scale
I0814 00:12:18.858121 22027 net.cpp:150] Setting up group2_block1_conv1_scale
I0814 00:12:18.858130 22027 net.cpp:157] Top shape: 128 64 8 8 (524288)
I0814 00:12:18.858134 22027 net.cpp:165] Memory required for data: 483919360
I0814 00:12:18.858142 22027 layer_factory.hpp:77] Creating layer group2_block1_sum
I0814 00:12:18.858150 22027 net.cpp:100] Creating Layer group2_block1_sum
I0814 00:12:18.858155 22027 net.cpp:434] group2_block1_sum <- group2_block1_conv1
I0814 00:12:18.858160 22027 net.cpp:434] group2_block1_sum <- group2_block0_sum_group2_block0_sum_0_split_1
I0814 00:12:18.858170 22027 net.cpp:408] group2_block1_sum -> group2_block1_sum
I0814 00:12:18.858198 22027 net.cpp:150] Setting up group2_block1_sum
I0814 00:12:18.858206 22027 net.cpp:157] Top shape: 128 64 8 8 (524288)
I0814 00:12:18.858209 22027 net.cpp:165] Memory required for data: 486016512
I0814 00:12:18.858213 22027 layer_factory.hpp:77] Creating layer group2_block1_sum_group2_block1_sum_0_split
I0814 00:12:18.858223 22027 net.cpp:100] Creating Layer group2_block1_sum_group2_block1_sum_0_split
I0814 00:12:18.858227 22027 net.cpp:434] group2_block1_sum_group2_block1_sum_0_split <- group2_block1_sum
I0814 00:12:18.858237 22027 net.cpp:408] group2_block1_sum_group2_block1_sum_0_split -> group2_block1_sum_group2_block1_sum_0_split_0
I0814 00:12:18.858247 22027 net.cpp:408] group2_block1_sum_group2_block1_sum_0_split -> group2_block1_sum_group2_block1_sum_0_split_1
I0814 00:12:18.858297 22027 net.cpp:150] Setting up group2_block1_sum_group2_block1_sum_0_split
I0814 00:12:18.858305 22027 net.cpp:157] Top shape: 128 64 8 8 (524288)
I0814 00:12:18.858310 22027 net.cpp:157] Top shape: 128 64 8 8 (524288)
I0814 00:12:18.858314 22027 net.cpp:165] Memory required for data: 490210816
I0814 00:12:18.858319 22027 layer_factory.hpp:77] Creating layer group2_block2_conv0
I0814 00:12:18.858332 22027 net.cpp:100] Creating Layer group2_block2_conv0
I0814 00:12:18.858337 22027 net.cpp:434] group2_block2_conv0 <- group2_block1_sum_group2_block1_sum_0_split_0
I0814 00:12:18.858345 22027 net.cpp:408] group2_block2_conv0 -> group2_block2_conv0
I0814 00:12:18.861027 22027 net.cpp:150] Setting up group2_block2_conv0
I0814 00:12:18.861049 22027 net.cpp:157] Top shape: 128 64 8 8 (524288)
I0814 00:12:18.861054 22027 net.cpp:165] Memory required for data: 492307968
I0814 00:12:18.861063 22027 layer_factory.hpp:77] Creating layer group2_block2_conv0_bn
I0814 00:12:18.861074 22027 net.cpp:100] Creating Layer group2_block2_conv0_bn
I0814 00:12:18.861079 22027 net.cpp:434] group2_block2_conv0_bn <- group2_block2_conv0
I0814 00:12:18.861088 22027 net.cpp:395] group2_block2_conv0_bn -> group2_block2_conv0 (in-place)
I0814 00:12:18.861385 22027 net.cpp:150] Setting up group2_block2_conv0_bn
I0814 00:12:18.861397 22027 net.cpp:157] Top shape: 128 64 8 8 (524288)
I0814 00:12:18.861400 22027 net.cpp:165] Memory required for data: 494405120
I0814 00:12:18.861408 22027 layer_factory.hpp:77] Creating layer group2_block2_conv0_scale
I0814 00:12:18.861418 22027 net.cpp:100] Creating Layer group2_block2_conv0_scale
I0814 00:12:18.861439 22027 net.cpp:434] group2_block2_conv0_scale <- group2_block2_conv0
I0814 00:12:18.861448 22027 net.cpp:395] group2_block2_conv0_scale -> group2_block2_conv0 (in-place)
I0814 00:12:18.861505 22027 layer_factory.hpp:77] Creating layer group2_block2_conv0_scale
I0814 00:12:18.861690 22027 net.cpp:150] Setting up group2_block2_conv0_scale
I0814 00:12:18.861699 22027 net.cpp:157] Top shape: 128 64 8 8 (524288)
I0814 00:12:18.861703 22027 net.cpp:165] Memory required for data: 496502272
I0814 00:12:18.861711 22027 layer_factory.hpp:77] Creating layer group2_block2_conv0_relu
I0814 00:12:18.861719 22027 net.cpp:100] Creating Layer group2_block2_conv0_relu
I0814 00:12:18.861724 22027 net.cpp:434] group2_block2_conv0_relu <- group2_block2_conv0
I0814 00:12:18.861731 22027 net.cpp:395] group2_block2_conv0_relu -> group2_block2_conv0 (in-place)
I0814 00:12:18.862321 22027 net.cpp:150] Setting up group2_block2_conv0_relu
I0814 00:12:18.862341 22027 net.cpp:157] Top shape: 128 64 8 8 (524288)
I0814 00:12:18.862345 22027 net.cpp:165] Memory required for data: 498599424
I0814 00:12:18.862350 22027 layer_factory.hpp:77] Creating layer group2_block2_conv1
I0814 00:12:18.862368 22027 net.cpp:100] Creating Layer group2_block2_conv1
I0814 00:12:18.862373 22027 net.cpp:434] group2_block2_conv1 <- group2_block2_conv0
I0814 00:12:18.862381 22027 net.cpp:408] group2_block2_conv1 -> group2_block2_conv1
I0814 00:12:18.865023 22027 net.cpp:150] Setting up group2_block2_conv1
I0814 00:12:18.865047 22027 net.cpp:157] Top shape: 128 64 8 8 (524288)
I0814 00:12:18.865052 22027 net.cpp:165] Memory required for data: 500696576
I0814 00:12:18.865061 22027 layer_factory.hpp:77] Creating layer group2_block2_conv1_bn
I0814 00:12:18.865070 22027 net.cpp:100] Creating Layer group2_block2_conv1_bn
I0814 00:12:18.865075 22027 net.cpp:434] group2_block2_conv1_bn <- group2_block2_conv1
I0814 00:12:18.865084 22027 net.cpp:395] group2_block2_conv1_bn -> group2_block2_conv1 (in-place)
I0814 00:12:18.865383 22027 net.cpp:150] Setting up group2_block2_conv1_bn
I0814 00:12:18.865394 22027 net.cpp:157] Top shape: 128 64 8 8 (524288)
I0814 00:12:18.865398 22027 net.cpp:165] Memory required for data: 502793728
I0814 00:12:18.865407 22027 layer_factory.hpp:77] Creating layer group2_block2_conv1_scale
I0814 00:12:18.865414 22027 net.cpp:100] Creating Layer group2_block2_conv1_scale
I0814 00:12:18.865418 22027 net.cpp:434] group2_block2_conv1_scale <- group2_block2_conv1
I0814 00:12:18.865427 22027 net.cpp:395] group2_block2_conv1_scale -> group2_block2_conv1 (in-place)
I0814 00:12:18.865478 22027 layer_factory.hpp:77] Creating layer group2_block2_conv1_scale
I0814 00:12:18.865646 22027 net.cpp:150] Setting up group2_block2_conv1_scale
I0814 00:12:18.865655 22027 net.cpp:157] Top shape: 128 64 8 8 (524288)
I0814 00:12:18.865658 22027 net.cpp:165] Memory required for data: 504890880
I0814 00:12:18.865665 22027 layer_factory.hpp:77] Creating layer group2_block2_sum
I0814 00:12:18.865674 22027 net.cpp:100] Creating Layer group2_block2_sum
I0814 00:12:18.865677 22027 net.cpp:434] group2_block2_sum <- group2_block2_conv1
I0814 00:12:18.865682 22027 net.cpp:434] group2_block2_sum <- group2_block1_sum_group2_block1_sum_0_split_1
I0814 00:12:18.865691 22027 net.cpp:408] group2_block2_sum -> group2_block2_sum
I0814 00:12:18.865727 22027 net.cpp:150] Setting up group2_block2_sum
I0814 00:12:18.865737 22027 net.cpp:157] Top shape: 128 64 8 8 (524288)
I0814 00:12:18.865741 22027 net.cpp:165] Memory required for data: 506988032
I0814 00:12:18.865744 22027 layer_factory.hpp:77] Creating layer global_avg_pool
I0814 00:12:18.865752 22027 net.cpp:100] Creating Layer global_avg_pool
I0814 00:12:18.865756 22027 net.cpp:434] global_avg_pool <- group2_block2_sum
I0814 00:12:18.865762 22027 net.cpp:408] global_avg_pool -> global_avg_pool
I0814 00:12:18.866081 22027 net.cpp:150] Setting up global_avg_pool
I0814 00:12:18.866101 22027 net.cpp:157] Top shape: 128 64 1 1 (8192)
I0814 00:12:18.866104 22027 net.cpp:165] Memory required for data: 507020800
I0814 00:12:18.866108 22027 layer_factory.hpp:77] Creating layer fc
I0814 00:12:18.866134 22027 net.cpp:100] Creating Layer fc
I0814 00:12:18.866140 22027 net.cpp:434] fc <- global_avg_pool
I0814 00:12:18.866152 22027 net.cpp:408] fc -> fc
I0814 00:12:18.866339 22027 net.cpp:150] Setting up fc
I0814 00:12:18.866348 22027 net.cpp:157] Top shape: 128 10 (1280)
I0814 00:12:18.866351 22027 net.cpp:165] Memory required for data: 507025920
I0814 00:12:18.866359 22027 layer_factory.hpp:77] Creating layer fc_fc_0_split
I0814 00:12:18.866365 22027 net.cpp:100] Creating Layer fc_fc_0_split
I0814 00:12:18.866369 22027 net.cpp:434] fc_fc_0_split <- fc
I0814 00:12:18.866377 22027 net.cpp:408] fc_fc_0_split -> fc_fc_0_split_0
I0814 00:12:18.866385 22027 net.cpp:408] fc_fc_0_split -> fc_fc_0_split_1
I0814 00:12:18.866431 22027 net.cpp:150] Setting up fc_fc_0_split
I0814 00:12:18.866437 22027 net.cpp:157] Top shape: 128 10 (1280)
I0814 00:12:18.866442 22027 net.cpp:157] Top shape: 128 10 (1280)
I0814 00:12:18.866446 22027 net.cpp:165] Memory required for data: 507036160
I0814 00:12:18.866449 22027 layer_factory.hpp:77] Creating layer loss
I0814 00:12:18.866457 22027 net.cpp:100] Creating Layer loss
I0814 00:12:18.866461 22027 net.cpp:434] loss <- fc_fc_0_split_0
I0814 00:12:18.866466 22027 net.cpp:434] loss <- label_data_1_split_0
I0814 00:12:18.866472 22027 net.cpp:408] loss -> loss
I0814 00:12:18.866483 22027 layer_factory.hpp:77] Creating layer loss
I0814 00:12:18.867218 22027 net.cpp:150] Setting up loss
I0814 00:12:18.867235 22027 net.cpp:157] Top shape: (1)
I0814 00:12:18.867239 22027 net.cpp:160]     with loss weight 1
I0814 00:12:18.867261 22027 net.cpp:165] Memory required for data: 507036164
I0814 00:12:18.867266 22027 layer_factory.hpp:77] Creating layer softmax
I0814 00:12:18.867274 22027 net.cpp:100] Creating Layer softmax
I0814 00:12:18.867278 22027 net.cpp:434] softmax <- fc_fc_0_split_1
I0814 00:12:18.867288 22027 net.cpp:408] softmax -> softmax
I0814 00:12:18.867633 22027 net.cpp:150] Setting up softmax
I0814 00:12:18.867645 22027 net.cpp:157] Top shape: 128 10 (1280)
I0814 00:12:18.867648 22027 net.cpp:165] Memory required for data: 507041284
I0814 00:12:18.867652 22027 layer_factory.hpp:77] Creating layer Accuracy
I0814 00:12:18.867660 22027 net.cpp:100] Creating Layer Accuracy
I0814 00:12:18.867663 22027 net.cpp:434] Accuracy <- softmax
I0814 00:12:18.867669 22027 net.cpp:434] Accuracy <- label_data_1_split_1
I0814 00:12:18.867678 22027 net.cpp:408] Accuracy -> Accuracy
…
