…
I1019 01:43:20.976238 14773 net.cpp:294] The NetState phase (0) differed from the phase (1) specified by a rule in layer data
I1019 01:43:20.977277 14773 net.cpp:51] Initializing net from parameters: 
name: "resnet3-cifar10"
state {
  phase: TRAIN
  level: 0
  stage: ""
}
layer {
  name: "data"
  type: "Data"
  top: "data"
  top: "label"
  include {
    phase: TRAIN
  }
  transform_param {
    scale: 0.0078125
    mirror: true
    crop_size: 32
    mean_value: 128
  }
  data_param {
    source: "cifar-10-batches-py/train"
    batch_size: 128
    backend: LMDB
  }
}
layer {
  name: "first_conv"
  type: "Convolution"
  bottom: "data"
  top: "first_conv"
  param {
    lr_mult: 1
    decay_mult: 1
  }
  convolution_param {
    num_output: 16
    pad: 1
    kernel_size: 3
    stride: 1
    weight_filler {
      type: "msra"
    }
  }
}
layer {
  name: "first_conv_bn"
  type: "BatchNorm"
  bottom: "first_conv"
  top: "first_conv"
  param {
    lr_mult: 0
    decay_mult: 0
  }
  param {
    lr_mult: 0
    decay_mult: 0
  }
  param {
    lr_mult: 0
    decay_mult: 0
  }
}
layer {
  name: "first_conv_scale"
  type: "Scale"
  bottom: "first_conv"
  top: "first_conv"
  scale_param {
    bias_term: true
  }
}
layer {
  name: "first_conv_relu"
  type: "ReLU"
  bottom: "first_conv"
  top: "first_conv"
}
layer {
  name: "group0_block0_conv0"
  type: "Convolution"
  bottom: "first_conv"
  top: "group0_block0_conv0"
  param {
    lr_mult: 1
    decay_mult: 1
  }
  convolution_param {
    num_output: 16
    pad: 1
    kernel_size: 3
    stride: 1
    weight_filler {
      type: "msra"
    }
  }
}
layer {
  name: "group0_block0_conv0_bn"
  type: "BatchNorm"
  bottom: "group0_block0_conv0"
  top: "group0_block0_conv0"
  param {
    lr_mult: 0
    decay_mult: 0
  }
  param {
    lr_mult: 0
    decay_mult: 0
  }
  param {
    lr_mult: 0
    decay_mult: 0
  }
}
layer {
  name: "group0_block0_conv0_scale"
  type: "Scale"
  bottom: "group0_block0_conv0"
  top: "group0_block0_conv0"
  scale_param {
    bias_term: true
  }
}
layer {
  name: "group0_block0_conv0_relu"
  type: "ReLU"
  bottom: "group0_block0_conv0"
  top: "group0_block0_conv0"
}
layer {
  name: "group0_block0_conv1"
  type: "Convolution"
  bottom: "group0_block0_conv0"
  top: "group0_block0_conv1"
  param {
    lr_mult: 1
    decay_mult: 1
  }
  convolution_param {
    num_output: 16
    pad: 1
    kernel_size: 3
    stride: 1
    weight_filler {
      type: "msra"
    }
  }
}
layer {
  name: "group0_block0_conv1_bn"
  type: "BatchNorm"
  bottom: "group0_block0_conv1"
  top: "group0_block0_conv1"
  param {
    lr_mult: 0
    decay_mult: 0
  }
  param {
    lr_mult: 0
    decay_mult: 0
  }
  param {
    lr_mult: 0
    decay_mult: 0
  }
}
layer {
  name: "group0_block0_conv1_scale"
  type: "Scale"
  bottom: "group0_block0_conv1"
  top: "group0_block0_conv1"
  scale_param {
    bias_term: true
  }
}
layer {
  name: "group0_block0_sum"
  type: "Eltwise"
  bottom: "group0_block0_conv1"
  bottom: "first_conv"
  top: "group0_block0_sum"
  eltwise_param {
    operation: SUM
  }
}
layer {
  name: "group0_block0_relu"
  type: "ReLU"
  bottom: "group0_block0_sum"
  top: "group0_block0_sum"
}
layer {
  name: "group0_block1_conv0"
  type: "Convolution"
  bottom: "group0_block0_sum"
  top: "group0_block1_conv0"
  param {
    lr_mult: 1
    decay_mult: 1
  }
  convolution_param {
    num_output: 16
    pad: 1
    kernel_size: 3
    stride: 1
    weight_filler {
      type: "msra"
    }
  }
}
layer {
  name: "group0_block1_conv0_bn"
  type: "BatchNorm"
  bottom: "group0_block1_conv0"
  top: "group0_block1_conv0"
  param {
    lr_mult: 0
    decay_mult: 0
  }
  param {
    lr_mult: 0
    decay_mult: 0
  }
  param {
    lr_mult: 0
    decay_mult: 0
  }
}
layer {
  name: "group0_block1_conv0_scale"
  type: "Scale"
  bottom: "group0_block1_conv0"
  top: "group0_block1_conv0"
  scale_param {
    bias_term: true
  }
}
layer {
  name: "group0_block1_conv0_relu"
  type: "ReLU"
  bottom: "group0_block1_conv0"
  top: "group0_block1_conv0"
}
layer {
  name: "group0_block1_conv1"
  type: "Convolution"
  bottom: "group0_block1_conv0"
  top: "group0_block1_conv1"
  param {
    lr_mult: 1
    decay_mult: 1
  }
  convolution_param {
    num_output: 16
    pad: 1
    kernel_size: 3
    stride: 1
    weight_filler {
      type: "msra"
    }
  }
}
layer {
  name: "group0_block1_conv1_bn"
  type: "BatchNorm"
  bottom: "group0_block1_conv1"
  top: "group0_block1_conv1"
  param {
    lr_mult: 0
    decay_mult: 0
  }
  param {
    lr_mult: 0
    decay_mult: 0
  }
  param {
    lr_mult: 0
    decay_mult: 0
  }
}
layer {
  name: "group0_block1_conv1_scale"
  type: "Scale"
  bottom: "group0_block1_conv1"
  top: "group0_block1_conv1"
  scale_param {
    bias_term: true
  }
}
layer {
  name: "group0_block1_sum"
  type: "Eltwise"
  bottom: "group0_block1_conv1"
  bottom: "group0_block0_sum"
  top: "group0_block1_sum"
  eltwise_param {
    operation: SUM
  }
}
layer {
  name: "group0_block1_relu"
  type: "ReLU"
  bottom: "group0_block1_sum"
  top: "group0_block1_sum"
}
layer {
  name: "group0_block2_conv0"
  type: "Convolution"
  bottom: "group0_block1_sum"
  top: "group0_block2_conv0"
  param {
    lr_mult: 1
    decay_mult: 1
  }
  convolution_param {
    num_output: 16
    pad: 1
    kernel_size: 3
    stride: 1
    weight_filler {
      type: "msra"
    }
  }
}
layer {
  name: "group0_block2_conv0_bn"
  type: "BatchNorm"
  bottom: "group0_block2_conv0"
  top: "group0_block2_conv0"
  param {
    lr_mult: 0
    decay_mult: 0
  }
  param {
    lr_mult: 0
    decay_mult: 0
  }
  param {
    lr_mult: 0
    decay_mult: 0
  }
}
layer {
  name: "group0_block2_conv0_scale"
  type: "Scale"
  bottom: "group0_block2_conv0"
  top: "group0_block2_conv0"
  scale_param {
    bias_term: true
  }
}
layer {
  name: "group0_block2_conv0_relu"
  type: "ReLU"
  bottom: "group0_block2_conv0"
  top: "group0_block2_conv0"
}
layer {
  name: "group0_block2_conv1"
  type: "Convolution"
  bottom: "group0_block2_conv0"
  top: "group0_block2_conv1"
  param {
    lr_mult: 1
    decay_mult: 1
  }
  convolution_param {
    num_output: 16
    pad: 1
    kernel_size: 3
    stride: 1
    weight_filler {
      type: "msra"
    }
  }
}
layer {
  name: "group0_block2_conv1_bn"
  type: "BatchNorm"
  bottom: "group0_block2_conv1"
  top: "group0_block2_conv1"
  param {
    lr_mult: 0
    decay_mult: 0
  }
  param {
    lr_mult: 0
    decay_mult: 0
  }
  param {
    lr_mult: 0
    decay_mult: 0
  }
}
layer {
  name: "group0_block2_conv1_scale"
  type: "Scale"
  bottom: "group0_block2_conv1"
  top: "group0_block2_conv1"
  scale_param {
    bias_term: true
  }
}
layer {
  name: "group0_block2_sum"
  type: "Eltwise"
  bottom: "group0_block2_conv1"
  bottom: "group0_block1_sum"
  top: "group0_block2_sum"
  eltwise_param {
    operation: SUM
  }
}
layer {
  name: "group0_block2_relu"
  type: "ReLU"
  bottom: "group0_block2_sum"
  top: "group0_block2_sum"
}
layer {
  name: "group1_block0_conv0"
  type: "Convolution"
  bottom: "group0_block2_sum"
  top: "group1_block0_conv0"
  param {
    lr_mult: 1
    decay_mult: 1
  }
  convolution_param {
    num_output: 32
    pad: 1
    kernel_size: 3
    stride: 2
    weight_filler {
      type: "msra"
    }
  }
}
layer {
  name: "group1_block0_conv0_bn"
  type: "BatchNorm"
  bottom: "group1_block0_conv0"
  top: "group1_block0_conv0"
  param {
    lr_mult: 0
    decay_mult: 0
  }
  param {
    lr_mult: 0
    decay_mult: 0
  }
  param {
    lr_mult: 0
    decay_mult: 0
  }
}
layer {
  name: "group1_block0_conv0_scale"
  type: "Scale"
  bottom: "group1_block0_conv0"
  top: "group1_block0_conv0"
  scale_param {
    bias_term: true
  }
}
layer {
  name: "group1_block0_conv0_relu"
  type: "ReLU"
  bottom: "group1_block0_conv0"
  top: "group1_block0_conv0"
}
layer {
  name: "group1_block0_conv1"
  type: "Convolution"
  bottom: "group1_block0_conv0"
  top: "group1_block0_conv1"
  param {
    lr_mult: 1
    decay_mult: 1
  }
  convolution_param {
    num_output: 32
    pad: 1
    kernel_size: 3
    stride: 1
    weight_filler {
      type: "msra"
    }
  }
}
layer {
  name: "group1_block0_conv1_bn"
  type: "BatchNorm"
  bottom: "group1_block0_conv1"
  top: "group1_block0_conv1"
  param {
    lr_mult: 0
    decay_mult: 0
  }
  param {
    lr_mult: 0
    decay_mult: 0
  }
  param {
    lr_mult: 0
    decay_mult: 0
  }
}
layer {
  name: "group1_block0_conv1_scale"
  type: "Scale"
  bottom: "group1_block0_conv1"
  top: "group1_block0_conv1"
  scale_param {
    bias_term: true
  }
}
layer {
  name: "group1_block0_proj"
  type: "Convolution"
  bottom: "group0_block2_sum"
  top: "group1_block0_proj"
  param {
    lr_mult: 1
    decay_mult: 1
  }
  convolution_param {
    num_output: 32
    pad: 0
    kernel_size: 1
    stride: 2
    weight_filler {
      type: "msra"
    }
  }
}
layer {
  name: "group1_block0_proj_bn"
  type: "BatchNorm"
  bottom: "group1_block0_proj"
  top: "group1_block0_proj"
  param {
    lr_mult: 0
    decay_mult: 0
  }
  param {
    lr_mult: 0
    decay_mult: 0
  }
  param {
    lr_mult: 0
    decay_mult: 0
  }
}
layer {
  name: "group1_block0_proj_scale"
  type: "Scale"
  bottom: "group1_block0_proj"
  top: "group1_block0_proj"
  scale_param {
    bias_term: true
  }
}
layer {
  name: "group1_block0_sum"
  type: "Eltwise"
  bottom: "group1_block0_proj"
  bottom: "group1_block0_conv1"
  top: "group1_block0_sum"
  eltwise_param {
    operation: SUM
  }
}
layer {
  name: "group1_block0_relu"
  type: "ReLU"
  bottom: "group1_block0_sum"
  top: "group1_block0_sum"
}
layer {
  name: "group1_block1_conv0"
  type: "Convolution"
  bottom: "group1_block0_sum"
  top: "group1_block1_conv0"
  param {
    lr_mult: 1
    decay_mult: 1
  }
  convolution_param {
    num_output: 32
    pad: 1
    kernel_size: 3
    stride: 1
    weight_filler {
      type: "msra"
    }
  }
}
layer {
  name: "group1_block1_conv0_bn"
  type: "BatchNorm"
  bottom: "group1_block1_conv0"
  top: "group1_block1_conv0"
  param {
    lr_mult: 0
    decay_mult: 0
  }
  param {
    lr_mult: 0
    decay_mult: 0
  }
  param {
    lr_mult: 0
    decay_mult: 0
  }
}
layer {
  name: "group1_block1_conv0_scale"
  type: "Scale"
  bottom: "group1_block1_conv0"
  top: "group1_block1_conv0"
  scale_param {
    bias_term: true
  }
}
layer {
  name: "group1_block1_conv0_relu"
  type: "ReLU"
  bottom: "group1_block1_conv0"
  top: "group1_block1_conv0"
}
layer {
  name: "group1_block1_conv1"
  type: "Convolution"
  bottom: "group1_block1_conv0"
  top: "group1_block1_conv1"
  param {
    lr_mult: 1
    decay_mult: 1
  }
  convolution_param {
    num_output: 32
    pad: 1
    kernel_size: 3
    stride: 1
    weight_filler {
      type: "msra"
    }
  }
}
layer {
  name: "group1_block1_conv1_bn"
  type: "BatchNorm"
  bottom: "group1_block1_conv1"
  top: "group1_block1_conv1"
  param {
    lr_mult: 0
    decay_mult: 0
  }
  param {
    lr_mult: 0
    decay_mult: 0
  }
  param {
    lr_mult: 0
    decay_mult: 0
  }
}
layer {
  name: "group1_block1_conv1_scale"
  type: "Scale"
  bottom: "group1_block1_conv1"
  top: "group1_block1_conv1"
  scale_param {
    bias_term: true
  }
}
layer {
  name: "group1_block1_sum"
  type: "Eltwise"
  bottom: "group1_block1_conv1"
  bottom: "group1_block0_sum"
  top: "group1_block1_sum"
  eltwise_param {
    operation: SUM
  }
}
layer {
  name: "group1_block1_relu"
  type: "ReLU"
  bottom: "group1_block1_sum"
  top: "group1_block1_sum"
}
layer {
  name: "group1_block2_conv0"
  type: "Convolution"
  bottom: "group1_block1_sum"
  top: "group1_block2_conv0"
  param {
    lr_mult: 1
    decay_mult: 1
  }
  convolution_param {
    num_output: 32
    pad: 1
    kernel_size: 3
    stride: 1
    weight_filler {
      type: "msra"
    }
  }
}
layer {
  name: "group1_block2_conv0_bn"
  type: "BatchNorm"
  bottom: "group1_block2_conv0"
  top: "group1_block2_conv0"
  param {
    lr_mult: 0
    decay_mult: 0
  }
  param {
    lr_mult: 0
    decay_mult: 0
  }
  param {
    lr_mult: 0
    decay_mult: 0
  }
}
layer {
  name: "group1_block2_conv0_scale"
  type: "Scale"
  bottom: "group1_block2_conv0"
  top: "group1_block2_conv0"
  scale_param {
    bias_term: true
  }
}
layer {
  name: "group1_block2_conv0_relu"
  type: "ReLU"
  bottom: "group1_block2_conv0"
  top: "group1_block2_conv0"
}
layer {
  name: "group1_block2_conv1"
  type: "Convolution"
  bottom: "group1_block2_conv0"
  top: "group1_block2_conv1"
  param {
    lr_mult: 1
    decay_mult: 1
  }
  convolution_param {
    num_output: 32
    pad: 1
    kernel_size: 3
    stride: 1
    weight_filler {
      type: "msra"
    }
  }
}
layer {
  name: "group1_block2_conv1_bn"
  type: "BatchNorm"
  bottom: "group1_block2_conv1"
  top: "group1_block2_conv1"
  param {
    lr_mult: 0
    decay_mult: 0
  }
  param {
    lr_mult: 0
    decay_mult: 0
  }
  param {
    lr_mult: 0
    decay_mult: 0
  }
}
layer {
  name: "group1_block2_conv1_scale"
  type: "Scale"
  bottom: "group1_block2_conv1"
  top: "group1_block2_conv1"
  scale_param {
    bias_term: true
  }
}
layer {
  name: "group1_block2_sum"
  type: "Eltwise"
  bottom: "group1_block2_conv1"
  bottom: "group1_block1_sum"
  top: "group1_block2_sum"
  eltwise_param {
    operation: SUM
  }
}
layer {
  name: "group1_block2_relu"
  type: "ReLU"
  bottom: "group1_block2_sum"
  top: "group1_block2_sum"
}
layer {
  name: "group2_block0_conv0"
  type: "Convolution"
  bottom: "group1_block2_sum"
  top: "group2_block0_conv0"
  param {
    lr_mult: 1
    decay_mult: 1
  }
  convolution_param {
    num_output: 64
    pad: 1
    kernel_size: 3
    stride: 2
    weight_filler {
      type: "msra"
    }
  }
}
layer {
  name: "group2_block0_conv0_bn"
  type: "BatchNorm"
  bottom: "group2_block0_conv0"
  top: "group2_block0_conv0"
  param {
    lr_mult: 0
    decay_mult: 0
  }
  param {
    lr_mult: 0
    decay_mult: 0
  }
  param {
    lr_mult: 0
    decay_mult: 0
  }
}
layer {
  name: "group2_block0_conv0_scale"
  type: "Scale"
  bottom: "group2_block0_conv0"
  top: "group2_block0_conv0"
  scale_param {
    bias_term: true
  }
}
layer {
  name: "group2_block0_conv0_relu"
  type: "ReLU"
  bottom: "group2_block0_conv0"
  top: "group2_block0_conv0"
}
layer {
  name: "group2_block0_conv1"
  type: "Convolution"
  bottom: "group2_block0_conv0"
  top: "group2_block0_conv1"
  param {
    lr_mult: 1
    decay_mult: 1
  }
  convolution_param {
    num_output: 64
    pad: 1
    kernel_size: 3
    stride: 1
    weight_filler {
      type: "msra"
    }
  }
}
layer {
  name: "group2_block0_conv1_bn"
  type: "BatchNorm"
  bottom: "group2_block0_conv1"
  top: "group2_block0_conv1"
  param {
    lr_mult: 0
    decay_mult: 0
  }
  param {
    lr_mult: 0
    decay_mult: 0
  }
  param {
    lr_mult: 0
    decay_mult: 0
  }
}
layer {
  name: "group2_block0_conv1_scale"
  type: "Scale"
  bottom: "group2_block0_conv1"
  top: "group2_block0_conv1"
  scale_param {
    bias_term: true
  }
}
layer {
  name: "group2_block0_proj"
  type: "Convolution"
  bottom: "group1_block2_sum"
  top: "group2_block0_proj"
  param {
    lr_mult: 1
    decay_mult: 1
  }
  convolution_param {
    num_output: 64
    pad: 0
    kernel_size: 1
    stride: 2
    weight_filler {
      type: "msra"
    }
  }
}
layer {
  name: "group2_block0_proj_bn"
  type: "BatchNorm"
  bottom: "group2_block0_proj"
  top: "group2_block0_proj"
  param {
    lr_mult: 0
    decay_mult: 0
  }
  param {
    lr_mult: 0
    decay_mult: 0
  }
  param {
    lr_mult: 0
    decay_mult: 0
  }
}
layer {
  name: "group2_block0_proj_scale"
  type: "Scale"
  bottom: "group2_block0_proj"
  top: "group2_block0_proj"
  scale_param {
    bias_term: true
  }
}
layer {
  name: "group2_block0_sum"
  type: "Eltwise"
  bottom: "group2_block0_proj"
  bottom: "group2_block0_conv1"
  top: "group2_block0_sum"
  eltwise_param {
    operation: SUM
  }
}
layer {
  name: "group2_block0_relu"
  type: "ReLU"
  bottom: "group2_block0_sum"
  top: "group2_block0_sum"
}
layer {
  name: "group2_block1_conv0"
  type: "Convolution"
  bottom: "group2_block0_sum"
  top: "group2_block1_conv0"
  param {
    lr_mult: 1
    decay_mult: 1
  }
  convolution_param {
    num_output: 64
    pad: 1
    kernel_size: 3
    stride: 1
    weight_filler {
      type: "msra"
    }
  }
}
layer {
  name: "group2_block1_conv0_bn"
  type: "BatchNorm"
  bottom: "group2_block1_conv0"
  top: "group2_block1_conv0"
  param {
    lr_mult: 0
    decay_mult: 0
  }
  param {
    lr_mult: 0
    decay_mult: 0
  }
  param {
    lr_mult: 0
    decay_mult: 0
  }
}
layer {
  name: "group2_block1_conv0_scale"
  type: "Scale"
  bottom: "group2_block1_conv0"
  top: "group2_block1_conv0"
  scale_param {
    bias_term: true
  }
}
layer {
  name: "group2_block1_conv0_relu"
  type: "ReLU"
  bottom: "group2_block1_conv0"
  top: "group2_block1_conv0"
}
layer {
  name: "group2_block1_conv1"
  type: "Convolution"
  bottom: "group2_block1_conv0"
  top: "group2_block1_conv1"
  param {
    lr_mult: 1
    decay_mult: 1
  }
  convolution_param {
    num_output: 64
    pad: 1
    kernel_size: 3
    stride: 1
    weight_filler {
      type: "msra"
    }
  }
}
layer {
  name: "group2_block1_conv1_bn"
  type: "BatchNorm"
  bottom: "group2_block1_conv1"
  top: "group2_block1_conv1"
  param {
    lr_mult: 0
    decay_mult: 0
  }
  param {
    lr_mult: 0
    decay_mult: 0
  }
  param {
    lr_mult: 0
    decay_mult: 0
  }
}
layer {
  name: "group2_block1_conv1_scale"
  type: "Scale"
  bottom: "group2_block1_conv1"
  top: "group2_block1_conv1"
  scale_param {
    bias_term: true
  }
}
layer {
  name: "group2_block1_sum"
  type: "Eltwise"
  bottom: "group2_block1_conv1"
  bottom: "group2_block0_sum"
  top: "group2_block1_sum"
  eltwise_param {
    operation: SUM
  }
}
layer {
  name: "group2_block1_relu"
  type: "ReLU"
  bottom: "group2_block1_sum"
  top: "group2_block1_sum"
}
layer {
  name: "group2_block2_conv0"
  type: "Convolution"
  bottom: "group2_block1_sum"
  top: "group2_block2_conv0"
  param {
    lr_mult: 1
    decay_mult: 1
  }
  convolution_param {
    num_output: 64
    pad: 1
    kernel_size: 3
    stride: 1
    weight_filler {
      type: "msra"
    }
  }
}
layer {
  name: "group2_block2_conv0_bn"
  type: "BatchNorm"
  bottom: "group2_block2_conv0"
  top: "group2_block2_conv0"
  param {
    lr_mult: 0
    decay_mult: 0
  }
  param {
    lr_mult: 0
    decay_mult: 0
  }
  param {
    lr_mult: 0
    decay_mult: 0
  }
}
layer {
  name: "group2_block2_conv0_scale"
  type: "Scale"
  bottom: "group2_block2_conv0"
  top: "group2_block2_conv0"
  scale_param {
    bias_term: true
  }
}
layer {
  name: "group2_block2_conv0_relu"
  type: "ReLU"
  bottom: "group2_block2_conv0"
  top: "group2_block2_conv0"
}
layer {
  name: "group2_block2_conv1"
  type: "Convolution"
  bottom: "group2_block2_conv0"
  top: "group2_block2_conv1"
  param {
    lr_mult: 1
    decay_mult: 1
  }
  convolution_param {
    num_output: 64
    pad: 1
    kernel_size: 3
    stride: 1
    weight_filler {
      type: "msra"
    }
  }
}
layer {
  name: "group2_block2_conv1_bn"
  type: "BatchNorm"
  bottom: "group2_block2_conv1"
  top: "group2_block2_conv1"
  param {
    lr_mult: 0
    decay_mult: 0
  }
  param {
    lr_mult: 0
    decay_mult: 0
  }
  param {
    lr_mult: 0
    decay_mult: 0
  }
}
layer {
  name: "group2_block2_conv1_scale"
  type: "Scale"
  bottom: "group2_block2_conv1"
  top: "group2_block2_conv1"
  scale_param {
    bias_term: true
  }
}
layer {
  name: "group2_block2_sum"
  type: "Eltwise"
  bottom: "group2_block2_conv1"
  bottom: "group2_block1_sum"
  top: "group2_block2_sum"
  eltwise_param {
    operation: SUM
  }
}
layer {
  name: "group2_block2_relu"
  type: "ReLU"
  bottom: "group2_block2_sum"
  top: "group2_block2_sum"
}
layer {
  name: "global_avg_pool"
  type: "Pooling"
  bottom: "group2_block2_sum"
  top: "global_avg_pool"
  pooling_param {
    pool: AVE
    global_pooling: true
  }
}
layer {
  name: "fc"
  type: "InnerProduct"
  bottom: "global_avg_pool"
  top: "fc"
  param {
    lr_mult: 1
    decay_mult: 1
  }
  param {
    lr_mult: 2
    decay_mult: 0
  }
  inner_product_param {
    num_output: 10
    weight_filler {
      type: "msra"
    }
    bias_filler {
      type: "constant"
      value: 0
    }
  }
}
layer {
  name: "loss"
  type: "SoftmaxWithLoss"
  bottom: "fc"
  bottom: "label"
  top: "loss"
}
layer {
  name: "softmax"
  type: "Softmax"
  bottom: "fc"
  top: "softmax"
}
layer {
  name: "Accuracy"
  type: "Accuracy"
  bottom: "softmax"
  bottom: "label"
  top: "Accuracy"
}
I1019 01:43:20.978034 14773 layer_factory.hpp:77] Creating layer data
I1019 01:43:20.978221 14773 db_lmdb.cpp:35] Opened lmdb cifar-10-batches-py/train
I1019 01:43:20.978266 14773 net.cpp:84] Creating Layer data
I1019 01:43:20.978279 14773 net.cpp:380] data -> data
I1019 01:43:20.978314 14773 net.cpp:380] data -> label
I1019 01:43:20.982487 14773 data_layer.cpp:45] output data size: 128,3,32,32
I1019 01:43:21.009950 14773 net.cpp:122] Setting up data
I1019 01:43:21.009979 14773 net.cpp:129] Top shape: 128 3 32 32 (393216)
I1019 01:43:21.009986 14773 net.cpp:129] Top shape: 128 (128)
I1019 01:43:21.009990 14773 net.cpp:137] Memory required for data: 1573376
I1019 01:43:21.010000 14773 layer_factory.hpp:77] Creating layer label_data_1_split
I1019 01:43:21.010013 14773 net.cpp:84] Creating Layer label_data_1_split
I1019 01:43:21.010021 14773 net.cpp:406] label_data_1_split <- label
I1019 01:43:21.010041 14773 net.cpp:380] label_data_1_split -> label_data_1_split_0
I1019 01:43:21.010059 14773 net.cpp:380] label_data_1_split -> label_data_1_split_1
I1019 01:43:21.010192 14773 net.cpp:122] Setting up label_data_1_split
I1019 01:43:21.010210 14773 net.cpp:129] Top shape: 128 (128)
I1019 01:43:21.010217 14773 net.cpp:129] Top shape: 128 (128)
I1019 01:43:21.010221 14773 net.cpp:137] Memory required for data: 1574400
I1019 01:43:21.010226 14773 layer_factory.hpp:77] Creating layer first_conv
I1019 01:43:21.010251 14773 net.cpp:84] Creating Layer first_conv
I1019 01:43:21.010259 14773 net.cpp:406] first_conv <- data
I1019 01:43:21.010268 14773 net.cpp:380] first_conv -> first_conv
I1019 01:43:21.012089 14773 net.cpp:122] Setting up first_conv
I1019 01:43:21.012111 14773 net.cpp:129] Top shape: 128 16 32 32 (2097152)
I1019 01:43:21.012117 14773 net.cpp:137] Memory required for data: 9963008
I1019 01:43:21.012145 14773 layer_factory.hpp:77] Creating layer first_conv_bn
I1019 01:43:21.012156 14773 net.cpp:84] Creating Layer first_conv_bn
I1019 01:43:21.012161 14773 net.cpp:406] first_conv_bn <- first_conv
I1019 01:43:21.012171 14773 net.cpp:367] first_conv_bn -> first_conv (in-place)
I1019 01:43:21.012513 14773 net.cpp:122] Setting up first_conv_bn
I1019 01:43:21.012526 14773 net.cpp:129] Top shape: 128 16 32 32 (2097152)
I1019 01:43:21.012531 14773 net.cpp:137] Memory required for data: 18351616
I1019 01:43:21.012545 14773 layer_factory.hpp:77] Creating layer first_conv_scale
I1019 01:43:21.012557 14773 net.cpp:84] Creating Layer first_conv_scale
I1019 01:43:21.012562 14773 net.cpp:406] first_conv_scale <- first_conv
I1019 01:43:21.012581 14773 net.cpp:367] first_conv_scale -> first_conv (in-place)
I1019 01:43:21.012637 14773 layer_factory.hpp:77] Creating layer first_conv_scale
I1019 01:43:21.012799 14773 net.cpp:122] Setting up first_conv_scale
I1019 01:43:21.012811 14773 net.cpp:129] Top shape: 128 16 32 32 (2097152)
I1019 01:43:21.012815 14773 net.cpp:137] Memory required for data: 26740224
I1019 01:43:21.012825 14773 layer_factory.hpp:77] Creating layer first_conv_relu
I1019 01:43:21.012831 14773 net.cpp:84] Creating Layer first_conv_relu
I1019 01:43:21.012836 14773 net.cpp:406] first_conv_relu <- first_conv
I1019 01:43:21.012845 14773 net.cpp:367] first_conv_relu -> first_conv (in-place)
I1019 01:43:21.012882 14773 net.cpp:122] Setting up first_conv_relu
I1019 01:43:21.012892 14773 net.cpp:129] Top shape: 128 16 32 32 (2097152)
I1019 01:43:21.012895 14773 net.cpp:137] Memory required for data: 35128832
I1019 01:43:21.012899 14773 layer_factory.hpp:77] Creating layer first_conv_first_conv_relu_0_split
I1019 01:43:21.012907 14773 net.cpp:84] Creating Layer first_conv_first_conv_relu_0_split
I1019 01:43:21.012912 14773 net.cpp:406] first_conv_first_conv_relu_0_split <- first_conv
I1019 01:43:21.012918 14773 net.cpp:380] first_conv_first_conv_relu_0_split -> first_conv_first_conv_relu_0_split_0
I1019 01:43:21.012930 14773 net.cpp:380] first_conv_first_conv_relu_0_split -> first_conv_first_conv_relu_0_split_1
I1019 01:43:21.012987 14773 net.cpp:122] Setting up first_conv_first_conv_relu_0_split
I1019 01:43:21.012998 14773 net.cpp:129] Top shape: 128 16 32 32 (2097152)
I1019 01:43:21.013005 14773 net.cpp:129] Top shape: 128 16 32 32 (2097152)
I1019 01:43:21.013008 14773 net.cpp:137] Memory required for data: 51906048
I1019 01:43:21.013011 14773 layer_factory.hpp:77] Creating layer group0_block0_conv0
I1019 01:43:21.013026 14773 net.cpp:84] Creating Layer group0_block0_conv0
I1019 01:43:21.013033 14773 net.cpp:406] group0_block0_conv0 <- first_conv_first_conv_relu_0_split_0
I1019 01:43:21.013042 14773 net.cpp:380] group0_block0_conv0 -> group0_block0_conv0
I1019 01:43:21.014891 14773 net.cpp:122] Setting up group0_block0_conv0
I1019 01:43:21.014914 14773 net.cpp:129] Top shape: 128 16 32 32 (2097152)
I1019 01:43:21.014919 14773 net.cpp:137] Memory required for data: 60294656
I1019 01:43:21.014933 14773 layer_factory.hpp:77] Creating layer group0_block0_conv0_bn
I1019 01:43:21.014955 14773 net.cpp:84] Creating Layer group0_block0_conv0_bn
I1019 01:43:21.014962 14773 net.cpp:406] group0_block0_conv0_bn <- group0_block0_conv0
I1019 01:43:21.014974 14773 net.cpp:367] group0_block0_conv0_bn -> group0_block0_conv0 (in-place)
I1019 01:43:21.015229 14773 net.cpp:122] Setting up group0_block0_conv0_bn
I1019 01:43:21.015242 14773 net.cpp:129] Top shape: 128 16 32 32 (2097152)
I1019 01:43:21.015246 14773 net.cpp:137] Memory required for data: 68683264
I1019 01:43:21.015257 14773 layer_factory.hpp:77] Creating layer group0_block0_conv0_scale
I1019 01:43:21.015269 14773 net.cpp:84] Creating Layer group0_block0_conv0_scale
I1019 01:43:21.015275 14773 net.cpp:406] group0_block0_conv0_scale <- group0_block0_conv0
I1019 01:43:21.015282 14773 net.cpp:367] group0_block0_conv0_scale -> group0_block0_conv0 (in-place)
I1019 01:43:21.015331 14773 layer_factory.hpp:77] Creating layer group0_block0_conv0_scale
I1019 01:43:21.015477 14773 net.cpp:122] Setting up group0_block0_conv0_scale
I1019 01:43:21.015488 14773 net.cpp:129] Top shape: 128 16 32 32 (2097152)
I1019 01:43:21.015492 14773 net.cpp:137] Memory required for data: 77071872
I1019 01:43:21.015501 14773 layer_factory.hpp:77] Creating layer group0_block0_conv0_relu
I1019 01:43:21.015509 14773 net.cpp:84] Creating Layer group0_block0_conv0_relu
I1019 01:43:21.015513 14773 net.cpp:406] group0_block0_conv0_relu <- group0_block0_conv0
I1019 01:43:21.015521 14773 net.cpp:367] group0_block0_conv0_relu -> group0_block0_conv0 (in-place)
I1019 01:43:21.015530 14773 net.cpp:122] Setting up group0_block0_conv0_relu
I1019 01:43:21.015539 14773 net.cpp:129] Top shape: 128 16 32 32 (2097152)
I1019 01:43:21.015543 14773 net.cpp:137] Memory required for data: 85460480
I1019 01:43:21.015547 14773 layer_factory.hpp:77] Creating layer group0_block0_conv1
I1019 01:43:21.015559 14773 net.cpp:84] Creating Layer group0_block0_conv1
I1019 01:43:21.015566 14773 net.cpp:406] group0_block0_conv1 <- group0_block0_conv0
I1019 01:43:21.015576 14773 net.cpp:380] group0_block0_conv1 -> group0_block0_conv1
I1019 01:43:21.016001 14773 net.cpp:122] Setting up group0_block0_conv1
I1019 01:43:21.016017 14773 net.cpp:129] Top shape: 128 16 32 32 (2097152)
I1019 01:43:21.016021 14773 net.cpp:137] Memory required for data: 93849088
I1019 01:43:21.016031 14773 layer_factory.hpp:77] Creating layer group0_block0_conv1_bn
I1019 01:43:21.016077 14773 net.cpp:84] Creating Layer group0_block0_conv1_bn
I1019 01:43:21.016083 14773 net.cpp:406] group0_block0_conv1_bn <- group0_block0_conv1
I1019 01:43:21.016091 14773 net.cpp:367] group0_block0_conv1_bn -> group0_block0_conv1 (in-place)
I1019 01:43:21.016441 14773 net.cpp:122] Setting up group0_block0_conv1_bn
I1019 01:43:21.016453 14773 net.cpp:129] Top shape: 128 16 32 32 (2097152)
I1019 01:43:21.016458 14773 net.cpp:137] Memory required for data: 102237696
I1019 01:43:21.016474 14773 layer_factory.hpp:77] Creating layer group0_block0_conv1_scale
I1019 01:43:21.016485 14773 net.cpp:84] Creating Layer group0_block0_conv1_scale
I1019 01:43:21.016490 14773 net.cpp:406] group0_block0_conv1_scale <- group0_block0_conv1
I1019 01:43:21.016496 14773 net.cpp:367] group0_block0_conv1_scale -> group0_block0_conv1 (in-place)
I1019 01:43:21.016552 14773 layer_factory.hpp:77] Creating layer group0_block0_conv1_scale
I1019 01:43:21.016700 14773 net.cpp:122] Setting up group0_block0_conv1_scale
I1019 01:43:21.016711 14773 net.cpp:129] Top shape: 128 16 32 32 (2097152)
I1019 01:43:21.016716 14773 net.cpp:137] Memory required for data: 110626304
I1019 01:43:21.016724 14773 layer_factory.hpp:77] Creating layer group0_block0_sum
I1019 01:43:21.016733 14773 net.cpp:84] Creating Layer group0_block0_sum
I1019 01:43:21.016738 14773 net.cpp:406] group0_block0_sum <- group0_block0_conv1
I1019 01:43:21.016744 14773 net.cpp:406] group0_block0_sum <- first_conv_first_conv_relu_0_split_1
I1019 01:43:21.016754 14773 net.cpp:380] group0_block0_sum -> group0_block0_sum
I1019 01:43:21.016791 14773 net.cpp:122] Setting up group0_block0_sum
I1019 01:43:21.016801 14773 net.cpp:129] Top shape: 128 16 32 32 (2097152)
I1019 01:43:21.016805 14773 net.cpp:137] Memory required for data: 119014912
I1019 01:43:21.016809 14773 layer_factory.hpp:77] Creating layer group0_block0_relu
I1019 01:43:21.016819 14773 net.cpp:84] Creating Layer group0_block0_relu
I1019 01:43:21.016826 14773 net.cpp:406] group0_block0_relu <- group0_block0_sum
I1019 01:43:21.016834 14773 net.cpp:367] group0_block0_relu -> group0_block0_sum (in-place)
I1019 01:43:21.016841 14773 net.cpp:122] Setting up group0_block0_relu
I1019 01:43:21.016849 14773 net.cpp:129] Top shape: 128 16 32 32 (2097152)
I1019 01:43:21.016854 14773 net.cpp:137] Memory required for data: 127403520
I1019 01:43:21.016856 14773 layer_factory.hpp:77] Creating layer group0_block0_sum_group0_block0_relu_0_split
I1019 01:43:21.016868 14773 net.cpp:84] Creating Layer group0_block0_sum_group0_block0_relu_0_split
I1019 01:43:21.016876 14773 net.cpp:406] group0_block0_sum_group0_block0_relu_0_split <- group0_block0_sum
I1019 01:43:21.016885 14773 net.cpp:380] group0_block0_sum_group0_block0_relu_0_split -> group0_block0_sum_group0_block0_relu_0_split_0
I1019 01:43:21.016896 14773 net.cpp:380] group0_block0_sum_group0_block0_relu_0_split -> group0_block0_sum_group0_block0_relu_0_split_1
I1019 01:43:21.016942 14773 net.cpp:122] Setting up group0_block0_sum_group0_block0_relu_0_split
I1019 01:43:21.016952 14773 net.cpp:129] Top shape: 128 16 32 32 (2097152)
I1019 01:43:21.016957 14773 net.cpp:129] Top shape: 128 16 32 32 (2097152)
I1019 01:43:21.016961 14773 net.cpp:137] Memory required for data: 144180736
I1019 01:43:21.016965 14773 layer_factory.hpp:77] Creating layer group0_block1_conv0
I1019 01:43:21.016979 14773 net.cpp:84] Creating Layer group0_block1_conv0
I1019 01:43:21.016986 14773 net.cpp:406] group0_block1_conv0 <- group0_block0_sum_group0_block0_relu_0_split_0
I1019 01:43:21.016995 14773 net.cpp:380] group0_block1_conv0 -> group0_block1_conv0
I1019 01:43:21.017316 14773 net.cpp:122] Setting up group0_block1_conv0
I1019 01:43:21.017329 14773 net.cpp:129] Top shape: 128 16 32 32 (2097152)
I1019 01:43:21.017333 14773 net.cpp:137] Memory required for data: 152569344
I1019 01:43:21.017341 14773 layer_factory.hpp:77] Creating layer group0_block1_conv0_bn
I1019 01:43:21.017354 14773 net.cpp:84] Creating Layer group0_block1_conv0_bn
I1019 01:43:21.017359 14773 net.cpp:406] group0_block1_conv0_bn <- group0_block1_conv0
I1019 01:43:21.017386 14773 net.cpp:367] group0_block1_conv0_bn -> group0_block1_conv0 (in-place)
I1019 01:43:21.017626 14773 net.cpp:122] Setting up group0_block1_conv0_bn
I1019 01:43:21.017637 14773 net.cpp:129] Top shape: 128 16 32 32 (2097152)
I1019 01:43:21.017642 14773 net.cpp:137] Memory required for data: 160957952
I1019 01:43:21.017650 14773 layer_factory.hpp:77] Creating layer group0_block1_conv0_scale
I1019 01:43:21.017660 14773 net.cpp:84] Creating Layer group0_block1_conv0_scale
I1019 01:43:21.017668 14773 net.cpp:406] group0_block1_conv0_scale <- group0_block1_conv0
I1019 01:43:21.017675 14773 net.cpp:367] group0_block1_conv0_scale -> group0_block1_conv0 (in-place)
I1019 01:43:21.017740 14773 layer_factory.hpp:77] Creating layer group0_block1_conv0_scale
I1019 01:43:21.017885 14773 net.cpp:122] Setting up group0_block1_conv0_scale
I1019 01:43:21.017896 14773 net.cpp:129] Top shape: 128 16 32 32 (2097152)
I1019 01:43:21.017899 14773 net.cpp:137] Memory required for data: 169346560
I1019 01:43:21.017908 14773 layer_factory.hpp:77] Creating layer group0_block1_conv0_relu
I1019 01:43:21.017915 14773 net.cpp:84] Creating Layer group0_block1_conv0_relu
I1019 01:43:21.017920 14773 net.cpp:406] group0_block1_conv0_relu <- group0_block1_conv0
I1019 01:43:21.017928 14773 net.cpp:367] group0_block1_conv0_relu -> group0_block1_conv0 (in-place)
I1019 01:43:21.017940 14773 net.cpp:122] Setting up group0_block1_conv0_relu
I1019 01:43:21.017946 14773 net.cpp:129] Top shape: 128 16 32 32 (2097152)
I1019 01:43:21.017949 14773 net.cpp:137] Memory required for data: 177735168
I1019 01:43:21.017952 14773 layer_factory.hpp:77] Creating layer group0_block1_conv1
I1019 01:43:21.017966 14773 net.cpp:84] Creating Layer group0_block1_conv1
I1019 01:43:21.017971 14773 net.cpp:406] group0_block1_conv1 <- group0_block1_conv0
I1019 01:43:21.017987 14773 net.cpp:380] group0_block1_conv1 -> group0_block1_conv1
I1019 01:43:21.018303 14773 net.cpp:122] Setting up group0_block1_conv1
I1019 01:43:21.018316 14773 net.cpp:129] Top shape: 128 16 32 32 (2097152)
I1019 01:43:21.018319 14773 net.cpp:137] Memory required for data: 186123776
I1019 01:43:21.018326 14773 layer_factory.hpp:77] Creating layer group0_block1_conv1_bn
I1019 01:43:21.018335 14773 net.cpp:84] Creating Layer group0_block1_conv1_bn
I1019 01:43:21.018339 14773 net.cpp:406] group0_block1_conv1_bn <- group0_block1_conv1
I1019 01:43:21.018347 14773 net.cpp:367] group0_block1_conv1_bn -> group0_block1_conv1 (in-place)
I1019 01:43:21.018585 14773 net.cpp:122] Setting up group0_block1_conv1_bn
I1019 01:43:21.018595 14773 net.cpp:129] Top shape: 128 16 32 32 (2097152)
I1019 01:43:21.018599 14773 net.cpp:137] Memory required for data: 194512384
I1019 01:43:21.018613 14773 layer_factory.hpp:77] Creating layer group0_block1_conv1_scale
I1019 01:43:21.018626 14773 net.cpp:84] Creating Layer group0_block1_conv1_scale
I1019 01:43:21.018635 14773 net.cpp:406] group0_block1_conv1_scale <- group0_block1_conv1
I1019 01:43:21.018641 14773 net.cpp:367] group0_block1_conv1_scale -> group0_block1_conv1 (in-place)
I1019 01:43:21.018687 14773 layer_factory.hpp:77] Creating layer group0_block1_conv1_scale
I1019 01:43:21.018824 14773 net.cpp:122] Setting up group0_block1_conv1_scale
I1019 01:43:21.018836 14773 net.cpp:129] Top shape: 128 16 32 32 (2097152)
I1019 01:43:21.018839 14773 net.cpp:137] Memory required for data: 202900992
I1019 01:43:21.018846 14773 layer_factory.hpp:77] Creating layer group0_block1_sum
I1019 01:43:21.018854 14773 net.cpp:84] Creating Layer group0_block1_sum
I1019 01:43:21.018858 14773 net.cpp:406] group0_block1_sum <- group0_block1_conv1
I1019 01:43:21.018863 14773 net.cpp:406] group0_block1_sum <- group0_block0_sum_group0_block0_relu_0_split_1
I1019 01:43:21.018874 14773 net.cpp:380] group0_block1_sum -> group0_block1_sum
I1019 01:43:21.018904 14773 net.cpp:122] Setting up group0_block1_sum
I1019 01:43:21.018914 14773 net.cpp:129] Top shape: 128 16 32 32 (2097152)
I1019 01:43:21.018918 14773 net.cpp:137] Memory required for data: 211289600
I1019 01:43:21.018923 14773 layer_factory.hpp:77] Creating layer group0_block1_relu
I1019 01:43:21.018949 14773 net.cpp:84] Creating Layer group0_block1_relu
I1019 01:43:21.018954 14773 net.cpp:406] group0_block1_relu <- group0_block1_sum
I1019 01:43:21.018960 14773 net.cpp:367] group0_block1_relu -> group0_block1_sum (in-place)
I1019 01:43:21.018968 14773 net.cpp:122] Setting up group0_block1_relu
I1019 01:43:21.018975 14773 net.cpp:129] Top shape: 128 16 32 32 (2097152)
I1019 01:43:21.018978 14773 net.cpp:137] Memory required for data: 219678208
I1019 01:43:21.018981 14773 layer_factory.hpp:77] Creating layer group0_block1_sum_group0_block1_relu_0_split
I1019 01:43:21.018988 14773 net.cpp:84] Creating Layer group0_block1_sum_group0_block1_relu_0_split
I1019 01:43:21.018992 14773 net.cpp:406] group0_block1_sum_group0_block1_relu_0_split <- group0_block1_sum
I1019 01:43:21.019001 14773 net.cpp:380] group0_block1_sum_group0_block1_relu_0_split -> group0_block1_sum_group0_block1_relu_0_split_0
I1019 01:43:21.019013 14773 net.cpp:380] group0_block1_sum_group0_block1_relu_0_split -> group0_block1_sum_group0_block1_relu_0_split_1
I1019 01:43:21.019065 14773 net.cpp:122] Setting up group0_block1_sum_group0_block1_relu_0_split
I1019 01:43:21.019074 14773 net.cpp:129] Top shape: 128 16 32 32 (2097152)
I1019 01:43:21.019080 14773 net.cpp:129] Top shape: 128 16 32 32 (2097152)
I1019 01:43:21.019084 14773 net.cpp:137] Memory required for data: 236455424
I1019 01:43:21.019088 14773 layer_factory.hpp:77] Creating layer group0_block2_conv0
I1019 01:43:21.019101 14773 net.cpp:84] Creating Layer group0_block2_conv0
I1019 01:43:21.019109 14773 net.cpp:406] group0_block2_conv0 <- group0_block1_sum_group0_block1_relu_0_split_0
I1019 01:43:21.019116 14773 net.cpp:380] group0_block2_conv0 -> group0_block2_conv0
I1019 01:43:21.019433 14773 net.cpp:122] Setting up group0_block2_conv0
I1019 01:43:21.019445 14773 net.cpp:129] Top shape: 128 16 32 32 (2097152)
I1019 01:43:21.019448 14773 net.cpp:137] Memory required for data: 244844032
I1019 01:43:21.019456 14773 layer_factory.hpp:77] Creating layer group0_block2_conv0_bn
I1019 01:43:21.019465 14773 net.cpp:84] Creating Layer group0_block2_conv0_bn
I1019 01:43:21.019470 14773 net.cpp:406] group0_block2_conv0_bn <- group0_block2_conv0
I1019 01:43:21.019484 14773 net.cpp:367] group0_block2_conv0_bn -> group0_block2_conv0 (in-place)
I1019 01:43:21.019757 14773 net.cpp:122] Setting up group0_block2_conv0_bn
I1019 01:43:21.019768 14773 net.cpp:129] Top shape: 128 16 32 32 (2097152)
I1019 01:43:21.019773 14773 net.cpp:137] Memory required for data: 253232640
I1019 01:43:21.019783 14773 layer_factory.hpp:77] Creating layer group0_block2_conv0_scale
I1019 01:43:21.019790 14773 net.cpp:84] Creating Layer group0_block2_conv0_scale
I1019 01:43:21.019794 14773 net.cpp:406] group0_block2_conv0_scale <- group0_block2_conv0
I1019 01:43:21.019804 14773 net.cpp:367] group0_block2_conv0_scale -> group0_block2_conv0 (in-place)
I1019 01:43:21.019845 14773 layer_factory.hpp:77] Creating layer group0_block2_conv0_scale
I1019 01:43:21.020001 14773 net.cpp:122] Setting up group0_block2_conv0_scale
I1019 01:43:21.020011 14773 net.cpp:129] Top shape: 128 16 32 32 (2097152)
I1019 01:43:21.020015 14773 net.cpp:137] Memory required for data: 261621248
I1019 01:43:21.020023 14773 layer_factory.hpp:77] Creating layer group0_block2_conv0_relu
I1019 01:43:21.020031 14773 net.cpp:84] Creating Layer group0_block2_conv0_relu
I1019 01:43:21.020037 14773 net.cpp:406] group0_block2_conv0_relu <- group0_block2_conv0
I1019 01:43:21.020043 14773 net.cpp:367] group0_block2_conv0_relu -> group0_block2_conv0 (in-place)
I1019 01:43:21.020051 14773 net.cpp:122] Setting up group0_block2_conv0_relu
I1019 01:43:21.020056 14773 net.cpp:129] Top shape: 128 16 32 32 (2097152)
I1019 01:43:21.020061 14773 net.cpp:137] Memory required for data: 270009856
I1019 01:43:21.020063 14773 layer_factory.hpp:77] Creating layer group0_block2_conv1
I1019 01:43:21.020076 14773 net.cpp:84] Creating Layer group0_block2_conv1
I1019 01:43:21.020081 14773 net.cpp:406] group0_block2_conv1 <- group0_block2_conv0
I1019 01:43:21.020112 14773 net.cpp:380] group0_block2_conv1 -> group0_block2_conv1
I1019 01:43:21.020516 14773 net.cpp:122] Setting up group0_block2_conv1
I1019 01:43:21.020530 14773 net.cpp:129] Top shape: 128 16 32 32 (2097152)
I1019 01:43:21.020534 14773 net.cpp:137] Memory required for data: 278398464
I1019 01:43:21.020542 14773 layer_factory.hpp:77] Creating layer group0_block2_conv1_bn
I1019 01:43:21.020562 14773 net.cpp:84] Creating Layer group0_block2_conv1_bn
I1019 01:43:21.020570 14773 net.cpp:406] group0_block2_conv1_bn <- group0_block2_conv1
I1019 01:43:21.020578 14773 net.cpp:367] group0_block2_conv1_bn -> group0_block2_conv1 (in-place)
I1019 01:43:21.020815 14773 net.cpp:122] Setting up group0_block2_conv1_bn
I1019 01:43:21.020826 14773 net.cpp:129] Top shape: 128 16 32 32 (2097152)
I1019 01:43:21.020830 14773 net.cpp:137] Memory required for data: 286787072
I1019 01:43:21.020838 14773 layer_factory.hpp:77] Creating layer group0_block2_conv1_scale
I1019 01:43:21.020848 14773 net.cpp:84] Creating Layer group0_block2_conv1_scale
I1019 01:43:21.020853 14773 net.cpp:406] group0_block2_conv1_scale <- group0_block2_conv1
I1019 01:43:21.020859 14773 net.cpp:367] group0_block2_conv1_scale -> group0_block2_conv1 (in-place)
I1019 01:43:21.020905 14773 layer_factory.hpp:77] Creating layer group0_block2_conv1_scale
I1019 01:43:21.021050 14773 net.cpp:122] Setting up group0_block2_conv1_scale
I1019 01:43:21.021061 14773 net.cpp:129] Top shape: 128 16 32 32 (2097152)
I1019 01:43:21.021065 14773 net.cpp:137] Memory required for data: 295175680
I1019 01:43:21.021072 14773 layer_factory.hpp:77] Creating layer group0_block2_sum
I1019 01:43:21.021082 14773 net.cpp:84] Creating Layer group0_block2_sum
I1019 01:43:21.021087 14773 net.cpp:406] group0_block2_sum <- group0_block2_conv1
I1019 01:43:21.021092 14773 net.cpp:406] group0_block2_sum <- group0_block1_sum_group0_block1_relu_0_split_1
I1019 01:43:21.021100 14773 net.cpp:380] group0_block2_sum -> group0_block2_sum
I1019 01:43:21.021133 14773 net.cpp:122] Setting up group0_block2_sum
I1019 01:43:21.021143 14773 net.cpp:129] Top shape: 128 16 32 32 (2097152)
I1019 01:43:21.021147 14773 net.cpp:137] Memory required for data: 303564288
I1019 01:43:21.021150 14773 layer_factory.hpp:77] Creating layer group0_block2_relu
I1019 01:43:21.021157 14773 net.cpp:84] Creating Layer group0_block2_relu
I1019 01:43:21.021162 14773 net.cpp:406] group0_block2_relu <- group0_block2_sum
I1019 01:43:21.021174 14773 net.cpp:367] group0_block2_relu -> group0_block2_sum (in-place)
I1019 01:43:21.021185 14773 net.cpp:122] Setting up group0_block2_relu
I1019 01:43:21.021190 14773 net.cpp:129] Top shape: 128 16 32 32 (2097152)
I1019 01:43:21.021194 14773 net.cpp:137] Memory required for data: 311952896
I1019 01:43:21.021198 14773 layer_factory.hpp:77] Creating layer group0_block2_sum_group0_block2_relu_0_split
I1019 01:43:21.021206 14773 net.cpp:84] Creating Layer group0_block2_sum_group0_block2_relu_0_split
I1019 01:43:21.021210 14773 net.cpp:406] group0_block2_sum_group0_block2_relu_0_split <- group0_block2_sum
I1019 01:43:21.021217 14773 net.cpp:380] group0_block2_sum_group0_block2_relu_0_split -> group0_block2_sum_group0_block2_relu_0_split_0
I1019 01:43:21.021225 14773 net.cpp:380] group0_block2_sum_group0_block2_relu_0_split -> group0_block2_sum_group0_block2_relu_0_split_1
I1019 01:43:21.021273 14773 net.cpp:122] Setting up group0_block2_sum_group0_block2_relu_0_split
I1019 01:43:21.021283 14773 net.cpp:129] Top shape: 128 16 32 32 (2097152)
I1019 01:43:21.021289 14773 net.cpp:129] Top shape: 128 16 32 32 (2097152)
I1019 01:43:21.021292 14773 net.cpp:137] Memory required for data: 328730112
I1019 01:43:21.021296 14773 layer_factory.hpp:77] Creating layer group1_block0_conv0
I1019 01:43:21.021308 14773 net.cpp:84] Creating Layer group1_block0_conv0
I1019 01:43:21.021313 14773 net.cpp:406] group1_block0_conv0 <- group0_block2_sum_group0_block2_relu_0_split_0
I1019 01:43:21.021322 14773 net.cpp:380] group1_block0_conv0 -> group1_block0_conv0
I1019 01:43:21.023134 14773 net.cpp:122] Setting up group1_block0_conv0
I1019 01:43:21.023175 14773 net.cpp:129] Top shape: 128 32 16 16 (1048576)
I1019 01:43:21.023181 14773 net.cpp:137] Memory required for data: 332924416
I1019 01:43:21.023193 14773 layer_factory.hpp:77] Creating layer group1_block0_conv0_bn
I1019 01:43:21.023206 14773 net.cpp:84] Creating Layer group1_block0_conv0_bn
I1019 01:43:21.023213 14773 net.cpp:406] group1_block0_conv0_bn <- group1_block0_conv0
I1019 01:43:21.023223 14773 net.cpp:367] group1_block0_conv0_bn -> group1_block0_conv0 (in-place)
I1019 01:43:21.023496 14773 net.cpp:122] Setting up group1_block0_conv0_bn
I1019 01:43:21.023507 14773 net.cpp:129] Top shape: 128 32 16 16 (1048576)
I1019 01:43:21.023511 14773 net.cpp:137] Memory required for data: 337118720
I1019 01:43:21.023521 14773 layer_factory.hpp:77] Creating layer group1_block0_conv0_scale
I1019 01:43:21.023530 14773 net.cpp:84] Creating Layer group1_block0_conv0_scale
I1019 01:43:21.023533 14773 net.cpp:406] group1_block0_conv0_scale <- group1_block0_conv0
I1019 01:43:21.023540 14773 net.cpp:367] group1_block0_conv0_scale -> group1_block0_conv0 (in-place)
I1019 01:43:21.023586 14773 layer_factory.hpp:77] Creating layer group1_block0_conv0_scale
I1019 01:43:21.023769 14773 net.cpp:122] Setting up group1_block0_conv0_scale
I1019 01:43:21.023782 14773 net.cpp:129] Top shape: 128 32 16 16 (1048576)
I1019 01:43:21.023787 14773 net.cpp:137] Memory required for data: 341313024
I1019 01:43:21.023794 14773 layer_factory.hpp:77] Creating layer group1_block0_conv0_relu
I1019 01:43:21.023803 14773 net.cpp:84] Creating Layer group1_block0_conv0_relu
I1019 01:43:21.023810 14773 net.cpp:406] group1_block0_conv0_relu <- group1_block0_conv0
I1019 01:43:21.023824 14773 net.cpp:367] group1_block0_conv0_relu -> group1_block0_conv0 (in-place)
I1019 01:43:21.023833 14773 net.cpp:122] Setting up group1_block0_conv0_relu
I1019 01:43:21.023838 14773 net.cpp:129] Top shape: 128 32 16 16 (1048576)
I1019 01:43:21.023841 14773 net.cpp:137] Memory required for data: 345507328
I1019 01:43:21.023845 14773 layer_factory.hpp:77] Creating layer group1_block0_conv1
I1019 01:43:21.023855 14773 net.cpp:84] Creating Layer group1_block0_conv1
I1019 01:43:21.023862 14773 net.cpp:406] group1_block0_conv1 <- group1_block0_conv0
I1019 01:43:21.023874 14773 net.cpp:380] group1_block0_conv1 -> group1_block0_conv1
I1019 01:43:21.024394 14773 net.cpp:122] Setting up group1_block0_conv1
I1019 01:43:21.024407 14773 net.cpp:129] Top shape: 128 32 16 16 (1048576)
I1019 01:43:21.024412 14773 net.cpp:137] Memory required for data: 349701632
I1019 01:43:21.024420 14773 layer_factory.hpp:77] Creating layer group1_block0_conv1_bn
I1019 01:43:21.024428 14773 net.cpp:84] Creating Layer group1_block0_conv1_bn
I1019 01:43:21.024435 14773 net.cpp:406] group1_block0_conv1_bn <- group1_block0_conv1
I1019 01:43:21.024444 14773 net.cpp:367] group1_block0_conv1_bn -> group1_block0_conv1 (in-place)
I1019 01:43:21.024679 14773 net.cpp:122] Setting up group1_block0_conv1_bn
I1019 01:43:21.024691 14773 net.cpp:129] Top shape: 128 32 16 16 (1048576)
I1019 01:43:21.024694 14773 net.cpp:137] Memory required for data: 353895936
I1019 01:43:21.024705 14773 layer_factory.hpp:77] Creating layer group1_block0_conv1_scale
I1019 01:43:21.024713 14773 net.cpp:84] Creating Layer group1_block0_conv1_scale
I1019 01:43:21.024718 14773 net.cpp:406] group1_block0_conv1_scale <- group1_block0_conv1
I1019 01:43:21.024724 14773 net.cpp:367] group1_block0_conv1_scale -> group1_block0_conv1 (in-place)
I1019 01:43:21.024770 14773 layer_factory.hpp:77] Creating layer group1_block0_conv1_scale
I1019 01:43:21.024914 14773 net.cpp:122] Setting up group1_block0_conv1_scale
I1019 01:43:21.024924 14773 net.cpp:129] Top shape: 128 32 16 16 (1048576)
I1019 01:43:21.024927 14773 net.cpp:137] Memory required for data: 358090240
I1019 01:43:21.024936 14773 layer_factory.hpp:77] Creating layer group1_block0_proj
I1019 01:43:21.024953 14773 net.cpp:84] Creating Layer group1_block0_proj
I1019 01:43:21.024960 14773 net.cpp:406] group1_block0_proj <- group0_block2_sum_group0_block2_relu_0_split_1
I1019 01:43:21.024993 14773 net.cpp:380] group1_block0_proj -> group1_block0_proj
I1019 01:43:21.025290 14773 net.cpp:122] Setting up group1_block0_proj
I1019 01:43:21.025301 14773 net.cpp:129] Top shape: 128 32 16 16 (1048576)
I1019 01:43:21.025305 14773 net.cpp:137] Memory required for data: 362284544
I1019 01:43:21.025326 14773 layer_factory.hpp:77] Creating layer group1_block0_proj_bn
I1019 01:43:21.025339 14773 net.cpp:84] Creating Layer group1_block0_proj_bn
I1019 01:43:21.025346 14773 net.cpp:406] group1_block0_proj_bn <- group1_block0_proj
I1019 01:43:21.025354 14773 net.cpp:367] group1_block0_proj_bn -> group1_block0_proj (in-place)
I1019 01:43:21.025585 14773 net.cpp:122] Setting up group1_block0_proj_bn
I1019 01:43:21.025598 14773 net.cpp:129] Top shape: 128 32 16 16 (1048576)
I1019 01:43:21.025600 14773 net.cpp:137] Memory required for data: 366478848
I1019 01:43:21.025610 14773 layer_factory.hpp:77] Creating layer group1_block0_proj_scale
I1019 01:43:21.025619 14773 net.cpp:84] Creating Layer group1_block0_proj_scale
I1019 01:43:21.025622 14773 net.cpp:406] group1_block0_proj_scale <- group1_block0_proj
I1019 01:43:21.025629 14773 net.cpp:367] group1_block0_proj_scale -> group1_block0_proj (in-place)
I1019 01:43:21.025673 14773 layer_factory.hpp:77] Creating layer group1_block0_proj_scale
I1019 01:43:21.025820 14773 net.cpp:122] Setting up group1_block0_proj_scale
I1019 01:43:21.025830 14773 net.cpp:129] Top shape: 128 32 16 16 (1048576)
I1019 01:43:21.025835 14773 net.cpp:137] Memory required for data: 370673152
I1019 01:43:21.025842 14773 layer_factory.hpp:77] Creating layer group1_block0_sum
I1019 01:43:21.025849 14773 net.cpp:84] Creating Layer group1_block0_sum
I1019 01:43:21.025853 14773 net.cpp:406] group1_block0_sum <- group1_block0_proj
I1019 01:43:21.025859 14773 net.cpp:406] group1_block0_sum <- group1_block0_conv1
I1019 01:43:21.025869 14773 net.cpp:380] group1_block0_sum -> group1_block0_sum
I1019 01:43:21.025894 14773 net.cpp:122] Setting up group1_block0_sum
I1019 01:43:21.025904 14773 net.cpp:129] Top shape: 128 32 16 16 (1048576)
I1019 01:43:21.025908 14773 net.cpp:137] Memory required for data: 374867456
I1019 01:43:21.025913 14773 layer_factory.hpp:77] Creating layer group1_block0_relu
I1019 01:43:21.025921 14773 net.cpp:84] Creating Layer group1_block0_relu
I1019 01:43:21.025928 14773 net.cpp:406] group1_block0_relu <- group1_block0_sum
I1019 01:43:21.025934 14773 net.cpp:367] group1_block0_relu -> group1_block0_sum (in-place)
I1019 01:43:21.025941 14773 net.cpp:122] Setting up group1_block0_relu
I1019 01:43:21.025948 14773 net.cpp:129] Top shape: 128 32 16 16 (1048576)
I1019 01:43:21.025950 14773 net.cpp:137] Memory required for data: 379061760
I1019 01:43:21.025954 14773 layer_factory.hpp:77] Creating layer group1_block0_sum_group1_block0_relu_0_split
I1019 01:43:21.025966 14773 net.cpp:84] Creating Layer group1_block0_sum_group1_block0_relu_0_split
I1019 01:43:21.025974 14773 net.cpp:406] group1_block0_sum_group1_block0_relu_0_split <- group1_block0_sum
I1019 01:43:21.025979 14773 net.cpp:380] group1_block0_sum_group1_block0_relu_0_split -> group1_block0_sum_group1_block0_relu_0_split_0
I1019 01:43:21.025988 14773 net.cpp:380] group1_block0_sum_group1_block0_relu_0_split -> group1_block0_sum_group1_block0_relu_0_split_1
I1019 01:43:21.026036 14773 net.cpp:122] Setting up group1_block0_sum_group1_block0_relu_0_split
I1019 01:43:21.026044 14773 net.cpp:129] Top shape: 128 32 16 16 (1048576)
I1019 01:43:21.026051 14773 net.cpp:129] Top shape: 128 32 16 16 (1048576)
I1019 01:43:21.026054 14773 net.cpp:137] Memory required for data: 387450368
I1019 01:43:21.026059 14773 layer_factory.hpp:77] Creating layer group1_block1_conv0
I1019 01:43:21.026072 14773 net.cpp:84] Creating Layer group1_block1_conv0
I1019 01:43:21.026078 14773 net.cpp:406] group1_block1_conv0 <- group1_block0_sum_group1_block0_relu_0_split_0
I1019 01:43:21.026087 14773 net.cpp:380] group1_block1_conv0 -> group1_block1_conv0
I1019 01:43:21.026530 14773 net.cpp:122] Setting up group1_block1_conv0
I1019 01:43:21.026561 14773 net.cpp:129] Top shape: 128 32 16 16 (1048576)
I1019 01:43:21.026564 14773 net.cpp:137] Memory required for data: 391644672
I1019 01:43:21.026573 14773 layer_factory.hpp:77] Creating layer group1_block1_conv0_bn
I1019 01:43:21.026589 14773 net.cpp:84] Creating Layer group1_block1_conv0_bn
I1019 01:43:21.026597 14773 net.cpp:406] group1_block1_conv0_bn <- group1_block1_conv0
I1019 01:43:21.026607 14773 net.cpp:367] group1_block1_conv0_bn -> group1_block1_conv0 (in-place)
I1019 01:43:21.026844 14773 net.cpp:122] Setting up group1_block1_conv0_bn
I1019 01:43:21.026855 14773 net.cpp:129] Top shape: 128 32 16 16 (1048576)
I1019 01:43:21.026859 14773 net.cpp:137] Memory required for data: 395838976
I1019 01:43:21.026868 14773 layer_factory.hpp:77] Creating layer group1_block1_conv0_scale
I1019 01:43:21.026878 14773 net.cpp:84] Creating Layer group1_block1_conv0_scale
I1019 01:43:21.026885 14773 net.cpp:406] group1_block1_conv0_scale <- group1_block1_conv0
I1019 01:43:21.026892 14773 net.cpp:367] group1_block1_conv0_scale -> group1_block1_conv0 (in-place)
I1019 01:43:21.026937 14773 layer_factory.hpp:77] Creating layer group1_block1_conv0_scale
I1019 01:43:21.027112 14773 net.cpp:122] Setting up group1_block1_conv0_scale
I1019 01:43:21.027125 14773 net.cpp:129] Top shape: 128 32 16 16 (1048576)
I1019 01:43:21.027128 14773 net.cpp:137] Memory required for data: 400033280
I1019 01:43:21.027137 14773 layer_factory.hpp:77] Creating layer group1_block1_conv0_relu
I1019 01:43:21.027144 14773 net.cpp:84] Creating Layer group1_block1_conv0_relu
I1019 01:43:21.027149 14773 net.cpp:406] group1_block1_conv0_relu <- group1_block1_conv0
I1019 01:43:21.027158 14773 net.cpp:367] group1_block1_conv0_relu -> group1_block1_conv0 (in-place)
I1019 01:43:21.027166 14773 net.cpp:122] Setting up group1_block1_conv0_relu
I1019 01:43:21.027173 14773 net.cpp:129] Top shape: 128 32 16 16 (1048576)
I1019 01:43:21.027178 14773 net.cpp:137] Memory required for data: 404227584
I1019 01:43:21.027181 14773 layer_factory.hpp:77] Creating layer group1_block1_conv1
I1019 01:43:21.027194 14773 net.cpp:84] Creating Layer group1_block1_conv1
I1019 01:43:21.027199 14773 net.cpp:406] group1_block1_conv1 <- group1_block1_conv0
I1019 01:43:21.027207 14773 net.cpp:380] group1_block1_conv1 -> group1_block1_conv1
I1019 01:43:21.027637 14773 net.cpp:122] Setting up group1_block1_conv1
I1019 01:43:21.027648 14773 net.cpp:129] Top shape: 128 32 16 16 (1048576)
I1019 01:43:21.027690 14773 net.cpp:137] Memory required for data: 408421888
I1019 01:43:21.027701 14773 layer_factory.hpp:77] Creating layer group1_block1_conv1_bn
I1019 01:43:21.027714 14773 net.cpp:84] Creating Layer group1_block1_conv1_bn
I1019 01:43:21.027721 14773 net.cpp:406] group1_block1_conv1_bn <- group1_block1_conv1
I1019 01:43:21.027729 14773 net.cpp:367] group1_block1_conv1_bn -> group1_block1_conv1 (in-place)
I1019 01:43:21.027962 14773 net.cpp:122] Setting up group1_block1_conv1_bn
I1019 01:43:21.027973 14773 net.cpp:129] Top shape: 128 32 16 16 (1048576)
I1019 01:43:21.027976 14773 net.cpp:137] Memory required for data: 412616192
I1019 01:43:21.027985 14773 layer_factory.hpp:77] Creating layer group1_block1_conv1_scale
I1019 01:43:21.027995 14773 net.cpp:84] Creating Layer group1_block1_conv1_scale
I1019 01:43:21.028002 14773 net.cpp:406] group1_block1_conv1_scale <- group1_block1_conv1
I1019 01:43:21.028008 14773 net.cpp:367] group1_block1_conv1_scale -> group1_block1_conv1 (in-place)
I1019 01:43:21.028051 14773 layer_factory.hpp:77] Creating layer group1_block1_conv1_scale
I1019 01:43:21.028209 14773 net.cpp:122] Setting up group1_block1_conv1_scale
I1019 01:43:21.028219 14773 net.cpp:129] Top shape: 128 32 16 16 (1048576)
I1019 01:43:21.028223 14773 net.cpp:137] Memory required for data: 416810496
I1019 01:43:21.028230 14773 layer_factory.hpp:77] Creating layer group1_block1_sum
I1019 01:43:21.028246 14773 net.cpp:84] Creating Layer group1_block1_sum
I1019 01:43:21.028254 14773 net.cpp:406] group1_block1_sum <- group1_block1_conv1
I1019 01:43:21.028259 14773 net.cpp:406] group1_block1_sum <- group1_block0_sum_group1_block0_relu_0_split_1
I1019 01:43:21.028285 14773 net.cpp:380] group1_block1_sum -> group1_block1_sum
I1019 01:43:21.028316 14773 net.cpp:122] Setting up group1_block1_sum
I1019 01:43:21.028326 14773 net.cpp:129] Top shape: 128 32 16 16 (1048576)
I1019 01:43:21.028331 14773 net.cpp:137] Memory required for data: 421004800
I1019 01:43:21.028333 14773 layer_factory.hpp:77] Creating layer group1_block1_relu
I1019 01:43:21.028340 14773 net.cpp:84] Creating Layer group1_block1_relu
I1019 01:43:21.028344 14773 net.cpp:406] group1_block1_relu <- group1_block1_sum
I1019 01:43:21.028352 14773 net.cpp:367] group1_block1_relu -> group1_block1_sum (in-place)
I1019 01:43:21.028359 14773 net.cpp:122] Setting up group1_block1_relu
I1019 01:43:21.028367 14773 net.cpp:129] Top shape: 128 32 16 16 (1048576)
I1019 01:43:21.028370 14773 net.cpp:137] Memory required for data: 425199104
I1019 01:43:21.028373 14773 layer_factory.hpp:77] Creating layer group1_block1_sum_group1_block1_relu_0_split
I1019 01:43:21.028379 14773 net.cpp:84] Creating Layer group1_block1_sum_group1_block1_relu_0_split
I1019 01:43:21.028383 14773 net.cpp:406] group1_block1_sum_group1_block1_relu_0_split <- group1_block1_sum
I1019 01:43:21.028389 14773 net.cpp:380] group1_block1_sum_group1_block1_relu_0_split -> group1_block1_sum_group1_block1_relu_0_split_0
I1019 01:43:21.028398 14773 net.cpp:380] group1_block1_sum_group1_block1_relu_0_split -> group1_block1_sum_group1_block1_relu_0_split_1
I1019 01:43:21.028450 14773 net.cpp:122] Setting up group1_block1_sum_group1_block1_relu_0_split
I1019 01:43:21.028460 14773 net.cpp:129] Top shape: 128 32 16 16 (1048576)
I1019 01:43:21.028465 14773 net.cpp:129] Top shape: 128 32 16 16 (1048576)
I1019 01:43:21.028468 14773 net.cpp:137] Memory required for data: 433587712
I1019 01:43:21.028472 14773 layer_factory.hpp:77] Creating layer group1_block2_conv0
I1019 01:43:21.028484 14773 net.cpp:84] Creating Layer group1_block2_conv0
I1019 01:43:21.028491 14773 net.cpp:406] group1_block2_conv0 <- group1_block1_sum_group1_block1_relu_0_split_0
I1019 01:43:21.028499 14773 net.cpp:380] group1_block2_conv0 -> group1_block2_conv0
I1019 01:43:21.028914 14773 net.cpp:122] Setting up group1_block2_conv0
I1019 01:43:21.028926 14773 net.cpp:129] Top shape: 128 32 16 16 (1048576)
I1019 01:43:21.028929 14773 net.cpp:137] Memory required for data: 437782016
I1019 01:43:21.028936 14773 layer_factory.hpp:77] Creating layer group1_block2_conv0_bn
I1019 01:43:21.028944 14773 net.cpp:84] Creating Layer group1_block2_conv0_bn
I1019 01:43:21.028951 14773 net.cpp:406] group1_block2_conv0_bn <- group1_block2_conv0
I1019 01:43:21.028957 14773 net.cpp:367] group1_block2_conv0_bn -> group1_block2_conv0 (in-place)
I1019 01:43:21.029179 14773 net.cpp:122] Setting up group1_block2_conv0_bn
I1019 01:43:21.029191 14773 net.cpp:129] Top shape: 128 32 16 16 (1048576)
I1019 01:43:21.029193 14773 net.cpp:137] Memory required for data: 441976320
I1019 01:43:21.029202 14773 layer_factory.hpp:77] Creating layer group1_block2_conv0_scale
I1019 01:43:21.029211 14773 net.cpp:84] Creating Layer group1_block2_conv0_scale
I1019 01:43:21.029215 14773 net.cpp:406] group1_block2_conv0_scale <- group1_block2_conv0
I1019 01:43:21.029222 14773 net.cpp:367] group1_block2_conv0_scale -> group1_block2_conv0 (in-place)
I1019 01:43:21.029263 14773 layer_factory.hpp:77] Creating layer group1_block2_conv0_scale
I1019 01:43:21.029399 14773 net.cpp:122] Setting up group1_block2_conv0_scale
I1019 01:43:21.029408 14773 net.cpp:129] Top shape: 128 32 16 16 (1048576)
I1019 01:43:21.029412 14773 net.cpp:137] Memory required for data: 446170624
I1019 01:43:21.029419 14773 layer_factory.hpp:77] Creating layer group1_block2_conv0_relu
I1019 01:43:21.029425 14773 net.cpp:84] Creating Layer group1_block2_conv0_relu
I1019 01:43:21.029429 14773 net.cpp:406] group1_block2_conv0_relu <- group1_block2_conv0
I1019 01:43:21.029438 14773 net.cpp:367] group1_block2_conv0_relu -> group1_block2_conv0 (in-place)
I1019 01:43:21.029444 14773 net.cpp:122] Setting up group1_block2_conv0_relu
I1019 01:43:21.029467 14773 net.cpp:129] Top shape: 128 32 16 16 (1048576)
I1019 01:43:21.029471 14773 net.cpp:137] Memory required for data: 450364928
I1019 01:43:21.029474 14773 layer_factory.hpp:77] Creating layer group1_block2_conv1
I1019 01:43:21.029505 14773 net.cpp:84] Creating Layer group1_block2_conv1
I1019 01:43:21.029512 14773 net.cpp:406] group1_block2_conv1 <- group1_block2_conv0
I1019 01:43:21.029520 14773 net.cpp:380] group1_block2_conv1 -> group1_block2_conv1
I1019 01:43:21.029937 14773 net.cpp:122] Setting up group1_block2_conv1
I1019 01:43:21.029948 14773 net.cpp:129] Top shape: 128 32 16 16 (1048576)
I1019 01:43:21.029952 14773 net.cpp:137] Memory required for data: 454559232
I1019 01:43:21.029959 14773 layer_factory.hpp:77] Creating layer group1_block2_conv1_bn
I1019 01:43:21.029969 14773 net.cpp:84] Creating Layer group1_block2_conv1_bn
I1019 01:43:21.029973 14773 net.cpp:406] group1_block2_conv1_bn <- group1_block2_conv1
I1019 01:43:21.029979 14773 net.cpp:367] group1_block2_conv1_bn -> group1_block2_conv1 (in-place)
I1019 01:43:21.030200 14773 net.cpp:122] Setting up group1_block2_conv1_bn
I1019 01:43:21.030210 14773 net.cpp:129] Top shape: 128 32 16 16 (1048576)
I1019 01:43:21.030213 14773 net.cpp:137] Memory required for data: 458753536
I1019 01:43:21.030222 14773 layer_factory.hpp:77] Creating layer group1_block2_conv1_scale
I1019 01:43:21.030231 14773 net.cpp:84] Creating Layer group1_block2_conv1_scale
I1019 01:43:21.030238 14773 net.cpp:406] group1_block2_conv1_scale <- group1_block2_conv1
I1019 01:43:21.030244 14773 net.cpp:367] group1_block2_conv1_scale -> group1_block2_conv1 (in-place)
I1019 01:43:21.030285 14773 layer_factory.hpp:77] Creating layer group1_block2_conv1_scale
I1019 01:43:21.030424 14773 net.cpp:122] Setting up group1_block2_conv1_scale
I1019 01:43:21.030434 14773 net.cpp:129] Top shape: 128 32 16 16 (1048576)
I1019 01:43:21.030438 14773 net.cpp:137] Memory required for data: 462947840
I1019 01:43:21.030444 14773 layer_factory.hpp:77] Creating layer group1_block2_sum
I1019 01:43:21.030452 14773 net.cpp:84] Creating Layer group1_block2_sum
I1019 01:43:21.030455 14773 net.cpp:406] group1_block2_sum <- group1_block2_conv1
I1019 01:43:21.030462 14773 net.cpp:406] group1_block2_sum <- group1_block1_sum_group1_block1_relu_0_split_1
I1019 01:43:21.030473 14773 net.cpp:380] group1_block2_sum -> group1_block2_sum
I1019 01:43:21.030500 14773 net.cpp:122] Setting up group1_block2_sum
I1019 01:43:21.030511 14773 net.cpp:129] Top shape: 128 32 16 16 (1048576)
I1019 01:43:21.030515 14773 net.cpp:137] Memory required for data: 467142144
I1019 01:43:21.030519 14773 layer_factory.hpp:77] Creating layer group1_block2_relu
I1019 01:43:21.030525 14773 net.cpp:84] Creating Layer group1_block2_relu
I1019 01:43:21.030529 14773 net.cpp:406] group1_block2_relu <- group1_block2_sum
I1019 01:43:21.030534 14773 net.cpp:367] group1_block2_relu -> group1_block2_sum (in-place)
I1019 01:43:21.030541 14773 net.cpp:122] Setting up group1_block2_relu
I1019 01:43:21.030546 14773 net.cpp:129] Top shape: 128 32 16 16 (1048576)
I1019 01:43:21.030550 14773 net.cpp:137] Memory required for data: 471336448
I1019 01:43:21.030553 14773 layer_factory.hpp:77] Creating layer group1_block2_sum_group1_block2_relu_0_split
I1019 01:43:21.030560 14773 net.cpp:84] Creating Layer group1_block2_sum_group1_block2_relu_0_split
I1019 01:43:21.030563 14773 net.cpp:406] group1_block2_sum_group1_block2_relu_0_split <- group1_block2_sum
I1019 01:43:21.030571 14773 net.cpp:380] group1_block2_sum_group1_block2_relu_0_split -> group1_block2_sum_group1_block2_relu_0_split_0
I1019 01:43:21.030581 14773 net.cpp:380] group1_block2_sum_group1_block2_relu_0_split -> group1_block2_sum_group1_block2_relu_0_split_1
I1019 01:43:21.030624 14773 net.cpp:122] Setting up group1_block2_sum_group1_block2_relu_0_split
I1019 01:43:21.030633 14773 net.cpp:129] Top shape: 128 32 16 16 (1048576)
I1019 01:43:21.030638 14773 net.cpp:129] Top shape: 128 32 16 16 (1048576)
I1019 01:43:21.030642 14773 net.cpp:137] Memory required for data: 479725056
I1019 01:43:21.030661 14773 layer_factory.hpp:77] Creating layer group2_block0_conv0
I1019 01:43:21.030673 14773 net.cpp:84] Creating Layer group2_block0_conv0
I1019 01:43:21.030679 14773 net.cpp:406] group2_block0_conv0 <- group1_block2_sum_group1_block2_relu_0_split_0
I1019 01:43:21.030690 14773 net.cpp:380] group2_block0_conv0 -> group2_block0_conv0
I1019 01:43:21.032630 14773 net.cpp:122] Setting up group2_block0_conv0
I1019 01:43:21.032651 14773 net.cpp:129] Top shape: 128 64 8 8 (524288)
I1019 01:43:21.032655 14773 net.cpp:137] Memory required for data: 481822208
I1019 01:43:21.032665 14773 layer_factory.hpp:77] Creating layer group2_block0_conv0_bn
I1019 01:43:21.032675 14773 net.cpp:84] Creating Layer group2_block0_conv0_bn
I1019 01:43:21.032682 14773 net.cpp:406] group2_block0_conv0_bn <- group2_block0_conv0
I1019 01:43:21.032691 14773 net.cpp:367] group2_block0_conv0_bn -> group2_block0_conv0 (in-place)
I1019 01:43:21.032930 14773 net.cpp:122] Setting up group2_block0_conv0_bn
I1019 01:43:21.032941 14773 net.cpp:129] Top shape: 128 64 8 8 (524288)
I1019 01:43:21.032944 14773 net.cpp:137] Memory required for data: 483919360
I1019 01:43:21.032953 14773 layer_factory.hpp:77] Creating layer group2_block0_conv0_scale
I1019 01:43:21.032961 14773 net.cpp:84] Creating Layer group2_block0_conv0_scale
I1019 01:43:21.032965 14773 net.cpp:406] group2_block0_conv0_scale <- group2_block0_conv0
I1019 01:43:21.032971 14773 net.cpp:367] group2_block0_conv0_scale -> group2_block0_conv0 (in-place)
I1019 01:43:21.033016 14773 layer_factory.hpp:77] Creating layer group2_block0_conv0_scale
I1019 01:43:21.033161 14773 net.cpp:122] Setting up group2_block0_conv0_scale
I1019 01:43:21.033171 14773 net.cpp:129] Top shape: 128 64 8 8 (524288)
I1019 01:43:21.033174 14773 net.cpp:137] Memory required for data: 486016512
I1019 01:43:21.033182 14773 layer_factory.hpp:77] Creating layer group2_block0_conv0_relu
I1019 01:43:21.033190 14773 net.cpp:84] Creating Layer group2_block0_conv0_relu
I1019 01:43:21.033193 14773 net.cpp:406] group2_block0_conv0_relu <- group2_block0_conv0
I1019 01:43:21.033201 14773 net.cpp:367] group2_block0_conv0_relu -> group2_block0_conv0 (in-place)
I1019 01:43:21.033210 14773 net.cpp:122] Setting up group2_block0_conv0_relu
I1019 01:43:21.033215 14773 net.cpp:129] Top shape: 128 64 8 8 (524288)
I1019 01:43:21.033217 14773 net.cpp:137] Memory required for data: 488113664
I1019 01:43:21.033221 14773 layer_factory.hpp:77] Creating layer group2_block0_conv1
I1019 01:43:21.033233 14773 net.cpp:84] Creating Layer group2_block0_conv1
I1019 01:43:21.033239 14773 net.cpp:406] group2_block0_conv1 <- group2_block0_conv0
I1019 01:43:21.033246 14773 net.cpp:380] group2_block0_conv1 -> group2_block0_conv1
I1019 01:43:21.034077 14773 net.cpp:122] Setting up group2_block0_conv1
I1019 01:43:21.034090 14773 net.cpp:129] Top shape: 128 64 8 8 (524288)
I1019 01:43:21.034095 14773 net.cpp:137] Memory required for data: 490210816
I1019 01:43:21.034101 14773 layer_factory.hpp:77] Creating layer group2_block0_conv1_bn
I1019 01:43:21.034109 14773 net.cpp:84] Creating Layer group2_block0_conv1_bn
I1019 01:43:21.034113 14773 net.cpp:406] group2_block0_conv1_bn <- group2_block0_conv1
I1019 01:43:21.034121 14773 net.cpp:367] group2_block0_conv1_bn -> group2_block0_conv1 (in-place)
I1019 01:43:21.034353 14773 net.cpp:122] Setting up group2_block0_conv1_bn
I1019 01:43:21.034363 14773 net.cpp:129] Top shape: 128 64 8 8 (524288)
I1019 01:43:21.034366 14773 net.cpp:137] Memory required for data: 492307968
I1019 01:43:21.034374 14773 layer_factory.hpp:77] Creating layer group2_block0_conv1_scale
I1019 01:43:21.034380 14773 net.cpp:84] Creating Layer group2_block0_conv1_scale
I1019 01:43:21.034384 14773 net.cpp:406] group2_block0_conv1_scale <- group2_block0_conv1
I1019 01:43:21.034392 14773 net.cpp:367] group2_block0_conv1_scale -> group2_block0_conv1 (in-place)
I1019 01:43:21.034433 14773 layer_factory.hpp:77] Creating layer group2_block0_conv1_scale
I1019 01:43:21.034577 14773 net.cpp:122] Setting up group2_block0_conv1_scale
I1019 01:43:21.034588 14773 net.cpp:129] Top shape: 128 64 8 8 (524288)
I1019 01:43:21.034611 14773 net.cpp:137] Memory required for data: 494405120
I1019 01:43:21.034621 14773 layer_factory.hpp:77] Creating layer group2_block0_proj
I1019 01:43:21.034633 14773 net.cpp:84] Creating Layer group2_block0_proj
I1019 01:43:21.034641 14773 net.cpp:406] group2_block0_proj <- group1_block2_sum_group1_block2_relu_0_split_1
I1019 01:43:21.034651 14773 net.cpp:380] group2_block0_proj -> group2_block0_proj
I1019 01:43:21.034960 14773 net.cpp:122] Setting up group2_block0_proj
I1019 01:43:21.034972 14773 net.cpp:129] Top shape: 128 64 8 8 (524288)
I1019 01:43:21.034976 14773 net.cpp:137] Memory required for data: 496502272
I1019 01:43:21.034982 14773 layer_factory.hpp:77] Creating layer group2_block0_proj_bn
I1019 01:43:21.034992 14773 net.cpp:84] Creating Layer group2_block0_proj_bn
I1019 01:43:21.034998 14773 net.cpp:406] group2_block0_proj_bn <- group2_block0_proj
I1019 01:43:21.035007 14773 net.cpp:367] group2_block0_proj_bn -> group2_block0_proj (in-place)
I1019 01:43:21.035243 14773 net.cpp:122] Setting up group2_block0_proj_bn
I1019 01:43:21.035253 14773 net.cpp:129] Top shape: 128 64 8 8 (524288)
I1019 01:43:21.035256 14773 net.cpp:137] Memory required for data: 498599424
I1019 01:43:21.035264 14773 layer_factory.hpp:77] Creating layer group2_block0_proj_scale
I1019 01:43:21.035274 14773 net.cpp:84] Creating Layer group2_block0_proj_scale
I1019 01:43:21.035279 14773 net.cpp:406] group2_block0_proj_scale <- group2_block0_proj
I1019 01:43:21.035284 14773 net.cpp:367] group2_block0_proj_scale -> group2_block0_proj (in-place)
I1019 01:43:21.035329 14773 layer_factory.hpp:77] Creating layer group2_block0_proj_scale
I1019 01:43:21.035470 14773 net.cpp:122] Setting up group2_block0_proj_scale
I1019 01:43:21.035480 14773 net.cpp:129] Top shape: 128 64 8 8 (524288)
I1019 01:43:21.035485 14773 net.cpp:137] Memory required for data: 500696576
I1019 01:43:21.035490 14773 layer_factory.hpp:77] Creating layer group2_block0_sum
I1019 01:43:21.035503 14773 net.cpp:84] Creating Layer group2_block0_sum
I1019 01:43:21.035509 14773 net.cpp:406] group2_block0_sum <- group2_block0_proj
I1019 01:43:21.035516 14773 net.cpp:406] group2_block0_sum <- group2_block0_conv1
I1019 01:43:21.035524 14773 net.cpp:380] group2_block0_sum -> group2_block0_sum
I1019 01:43:21.035549 14773 net.cpp:122] Setting up group2_block0_sum
I1019 01:43:21.035559 14773 net.cpp:129] Top shape: 128 64 8 8 (524288)
I1019 01:43:21.035562 14773 net.cpp:137] Memory required for data: 502793728
I1019 01:43:21.035567 14773 layer_factory.hpp:77] Creating layer group2_block0_relu
I1019 01:43:21.035573 14773 net.cpp:84] Creating Layer group2_block0_relu
I1019 01:43:21.035576 14773 net.cpp:406] group2_block0_relu <- group2_block0_sum
I1019 01:43:21.035584 14773 net.cpp:367] group2_block0_relu -> group2_block0_sum (in-place)
I1019 01:43:21.035591 14773 net.cpp:122] Setting up group2_block0_relu
I1019 01:43:21.035598 14773 net.cpp:129] Top shape: 128 64 8 8 (524288)
I1019 01:43:21.035600 14773 net.cpp:137] Memory required for data: 504890880
I1019 01:43:21.035604 14773 layer_factory.hpp:77] Creating layer group2_block0_sum_group2_block0_relu_0_split
I1019 01:43:21.035610 14773 net.cpp:84] Creating Layer group2_block0_sum_group2_block0_relu_0_split
I1019 01:43:21.035614 14773 net.cpp:406] group2_block0_sum_group2_block0_relu_0_split <- group2_block0_sum
I1019 01:43:21.035620 14773 net.cpp:380] group2_block0_sum_group2_block0_relu_0_split -> group2_block0_sum_group2_block0_relu_0_split_0
I1019 01:43:21.035629 14773 net.cpp:380] group2_block0_sum_group2_block0_relu_0_split -> group2_block0_sum_group2_block0_relu_0_split_1
I1019 01:43:21.035686 14773 net.cpp:122] Setting up group2_block0_sum_group2_block0_relu_0_split
I1019 01:43:21.035696 14773 net.cpp:129] Top shape: 128 64 8 8 (524288)
I1019 01:43:21.035701 14773 net.cpp:129] Top shape: 128 64 8 8 (524288)
I1019 01:43:21.035704 14773 net.cpp:137] Memory required for data: 509085184
I1019 01:43:21.035708 14773 layer_factory.hpp:77] Creating layer group2_block1_conv0
I1019 01:43:21.035739 14773 net.cpp:84] Creating Layer group2_block1_conv0
I1019 01:43:21.035748 14773 net.cpp:406] group2_block1_conv0 <- group2_block0_sum_group2_block0_relu_0_split_0
I1019 01:43:21.035756 14773 net.cpp:380] group2_block1_conv0 -> group2_block1_conv0
I1019 01:43:21.036590 14773 net.cpp:122] Setting up group2_block1_conv0
I1019 01:43:21.036602 14773 net.cpp:129] Top shape: 128 64 8 8 (524288)
I1019 01:43:21.036607 14773 net.cpp:137] Memory required for data: 511182336
I1019 01:43:21.036613 14773 layer_factory.hpp:77] Creating layer group2_block1_conv0_bn
I1019 01:43:21.036623 14773 net.cpp:84] Creating Layer group2_block1_conv0_bn
I1019 01:43:21.036630 14773 net.cpp:406] group2_block1_conv0_bn <- group2_block1_conv0
I1019 01:43:21.036638 14773 net.cpp:367] group2_block1_conv0_bn -> group2_block1_conv0 (in-place)
I1019 01:43:21.036866 14773 net.cpp:122] Setting up group2_block1_conv0_bn
I1019 01:43:21.036876 14773 net.cpp:129] Top shape: 128 64 8 8 (524288)
I1019 01:43:21.036880 14773 net.cpp:137] Memory required for data: 513279488
I1019 01:43:21.036890 14773 layer_factory.hpp:77] Creating layer group2_block1_conv0_scale
I1019 01:43:21.036900 14773 net.cpp:84] Creating Layer group2_block1_conv0_scale
I1019 01:43:21.036906 14773 net.cpp:406] group2_block1_conv0_scale <- group2_block1_conv0
I1019 01:43:21.036912 14773 net.cpp:367] group2_block1_conv0_scale -> group2_block1_conv0 (in-place)
I1019 01:43:21.036957 14773 layer_factory.hpp:77] Creating layer group2_block1_conv0_scale
I1019 01:43:21.037102 14773 net.cpp:122] Setting up group2_block1_conv0_scale
I1019 01:43:21.037112 14773 net.cpp:129] Top shape: 128 64 8 8 (524288)
I1019 01:43:21.037115 14773 net.cpp:137] Memory required for data: 515376640
I1019 01:43:21.037122 14773 layer_factory.hpp:77] Creating layer group2_block1_conv0_relu
I1019 01:43:21.037130 14773 net.cpp:84] Creating Layer group2_block1_conv0_relu
I1019 01:43:21.037134 14773 net.cpp:406] group2_block1_conv0_relu <- group2_block1_conv0
I1019 01:43:21.037140 14773 net.cpp:367] group2_block1_conv0_relu -> group2_block1_conv0 (in-place)
I1019 01:43:21.037147 14773 net.cpp:122] Setting up group2_block1_conv0_relu
I1019 01:43:21.037153 14773 net.cpp:129] Top shape: 128 64 8 8 (524288)
I1019 01:43:21.037156 14773 net.cpp:137] Memory required for data: 517473792
I1019 01:43:21.037159 14773 layer_factory.hpp:77] Creating layer group2_block1_conv1
I1019 01:43:21.037170 14773 net.cpp:84] Creating Layer group2_block1_conv1
I1019 01:43:21.037176 14773 net.cpp:406] group2_block1_conv1 <- group2_block1_conv0
I1019 01:43:21.037184 14773 net.cpp:380] group2_block1_conv1 -> group2_block1_conv1
I1019 01:43:21.037997 14773 net.cpp:122] Setting up group2_block1_conv1
I1019 01:43:21.038009 14773 net.cpp:129] Top shape: 128 64 8 8 (524288)
I1019 01:43:21.038012 14773 net.cpp:137] Memory required for data: 519570944
I1019 01:43:21.038019 14773 layer_factory.hpp:77] Creating layer group2_block1_conv1_bn
I1019 01:43:21.038027 14773 net.cpp:84] Creating Layer group2_block1_conv1_bn
I1019 01:43:21.038030 14773 net.cpp:406] group2_block1_conv1_bn <- group2_block1_conv1
I1019 01:43:21.038036 14773 net.cpp:367] group2_block1_conv1_bn -> group2_block1_conv1 (in-place)
I1019 01:43:21.038276 14773 net.cpp:122] Setting up group2_block1_conv1_bn
I1019 01:43:21.038286 14773 net.cpp:129] Top shape: 128 64 8 8 (524288)
I1019 01:43:21.038290 14773 net.cpp:137] Memory required for data: 521668096
I1019 01:43:21.038316 14773 layer_factory.hpp:77] Creating layer group2_block1_conv1_scale
I1019 01:43:21.038327 14773 net.cpp:84] Creating Layer group2_block1_conv1_scale
I1019 01:43:21.038333 14773 net.cpp:406] group2_block1_conv1_scale <- group2_block1_conv1
I1019 01:43:21.038341 14773 net.cpp:367] group2_block1_conv1_scale -> group2_block1_conv1 (in-place)
I1019 01:43:21.038388 14773 layer_factory.hpp:77] Creating layer group2_block1_conv1_scale
I1019 01:43:21.038528 14773 net.cpp:122] Setting up group2_block1_conv1_scale
I1019 01:43:21.038538 14773 net.cpp:129] Top shape: 128 64 8 8 (524288)
I1019 01:43:21.038542 14773 net.cpp:137] Memory required for data: 523765248
I1019 01:43:21.038566 14773 layer_factory.hpp:77] Creating layer group2_block1_sum
I1019 01:43:21.038578 14773 net.cpp:84] Creating Layer group2_block1_sum
I1019 01:43:21.038583 14773 net.cpp:406] group2_block1_sum <- group2_block1_conv1
I1019 01:43:21.038589 14773 net.cpp:406] group2_block1_sum <- group2_block0_sum_group2_block0_relu_0_split_1
I1019 01:43:21.038596 14773 net.cpp:380] group2_block1_sum -> group2_block1_sum
I1019 01:43:21.038625 14773 net.cpp:122] Setting up group2_block1_sum
I1019 01:43:21.038635 14773 net.cpp:129] Top shape: 128 64 8 8 (524288)
I1019 01:43:21.038637 14773 net.cpp:137] Memory required for data: 525862400
I1019 01:43:21.038641 14773 layer_factory.hpp:77] Creating layer group2_block1_relu
I1019 01:43:21.038647 14773 net.cpp:84] Creating Layer group2_block1_relu
I1019 01:43:21.038651 14773 net.cpp:406] group2_block1_relu <- group2_block1_sum
I1019 01:43:21.038660 14773 net.cpp:367] group2_block1_relu -> group2_block1_sum (in-place)
I1019 01:43:21.038666 14773 net.cpp:122] Setting up group2_block1_relu
I1019 01:43:21.038671 14773 net.cpp:129] Top shape: 128 64 8 8 (524288)
I1019 01:43:21.038674 14773 net.cpp:137] Memory required for data: 527959552
I1019 01:43:21.038678 14773 layer_factory.hpp:77] Creating layer group2_block1_sum_group2_block1_relu_0_split
I1019 01:43:21.038683 14773 net.cpp:84] Creating Layer group2_block1_sum_group2_block1_relu_0_split
I1019 01:43:21.038687 14773 net.cpp:406] group2_block1_sum_group2_block1_relu_0_split <- group2_block1_sum
I1019 01:43:21.038695 14773 net.cpp:380] group2_block1_sum_group2_block1_relu_0_split -> group2_block1_sum_group2_block1_relu_0_split_0
I1019 01:43:21.038703 14773 net.cpp:380] group2_block1_sum_group2_block1_relu_0_split -> group2_block1_sum_group2_block1_relu_0_split_1
I1019 01:43:21.038769 14773 net.cpp:122] Setting up group2_block1_sum_group2_block1_relu_0_split
I1019 01:43:21.038777 14773 net.cpp:129] Top shape: 128 64 8 8 (524288)
I1019 01:43:21.038784 14773 net.cpp:129] Top shape: 128 64 8 8 (524288)
I1019 01:43:21.038786 14773 net.cpp:137] Memory required for data: 532153856
I1019 01:43:21.038789 14773 layer_factory.hpp:77] Creating layer group2_block2_conv0
I1019 01:43:21.038801 14773 net.cpp:84] Creating Layer group2_block2_conv0
I1019 01:43:21.038807 14773 net.cpp:406] group2_block2_conv0 <- group2_block1_sum_group2_block1_relu_0_split_0
I1019 01:43:21.038815 14773 net.cpp:380] group2_block2_conv0 -> group2_block2_conv0
I1019 01:43:21.039644 14773 net.cpp:122] Setting up group2_block2_conv0
I1019 01:43:21.039655 14773 net.cpp:129] Top shape: 128 64 8 8 (524288)
I1019 01:43:21.039659 14773 net.cpp:137] Memory required for data: 534251008
I1019 01:43:21.039675 14773 layer_factory.hpp:77] Creating layer group2_block2_conv0_bn
I1019 01:43:21.039688 14773 net.cpp:84] Creating Layer group2_block2_conv0_bn
I1019 01:43:21.039695 14773 net.cpp:406] group2_block2_conv0_bn <- group2_block2_conv0
I1019 01:43:21.039700 14773 net.cpp:367] group2_block2_conv0_bn -> group2_block2_conv0 (in-place)
I1019 01:43:21.039935 14773 net.cpp:122] Setting up group2_block2_conv0_bn
I1019 01:43:21.039945 14773 net.cpp:129] Top shape: 128 64 8 8 (524288)
I1019 01:43:21.039949 14773 net.cpp:137] Memory required for data: 536348160
I1019 01:43:21.039958 14773 layer_factory.hpp:77] Creating layer group2_block2_conv0_scale
I1019 01:43:21.039968 14773 net.cpp:84] Creating Layer group2_block2_conv0_scale
I1019 01:43:21.039973 14773 net.cpp:406] group2_block2_conv0_scale <- group2_block2_conv0
I1019 01:43:21.039979 14773 net.cpp:367] group2_block2_conv0_scale -> group2_block2_conv0 (in-place)
I1019 01:43:21.040022 14773 layer_factory.hpp:77] Creating layer group2_block2_conv0_scale
I1019 01:43:21.040169 14773 net.cpp:122] Setting up group2_block2_conv0_scale
I1019 01:43:21.040179 14773 net.cpp:129] Top shape: 128 64 8 8 (524288)
I1019 01:43:21.040181 14773 net.cpp:137] Memory required for data: 538445312
I1019 01:43:21.040189 14773 layer_factory.hpp:77] Creating layer group2_block2_conv0_relu
I1019 01:43:21.040195 14773 net.cpp:84] Creating Layer group2_block2_conv0_relu
I1019 01:43:21.040215 14773 net.cpp:406] group2_block2_conv0_relu <- group2_block2_conv0
I1019 01:43:21.040222 14773 net.cpp:367] group2_block2_conv0_relu -> group2_block2_conv0 (in-place)
I1019 01:43:21.040230 14773 net.cpp:122] Setting up group2_block2_conv0_relu
I1019 01:43:21.040235 14773 net.cpp:129] Top shape: 128 64 8 8 (524288)
I1019 01:43:21.040237 14773 net.cpp:137] Memory required for data: 540542464
I1019 01:43:21.040241 14773 layer_factory.hpp:77] Creating layer group2_block2_conv1
I1019 01:43:21.040254 14773 net.cpp:84] Creating Layer group2_block2_conv1
I1019 01:43:21.040261 14773 net.cpp:406] group2_block2_conv1 <- group2_block2_conv0
I1019 01:43:21.040269 14773 net.cpp:380] group2_block2_conv1 -> group2_block2_conv1
I1019 01:43:21.041050 14773 net.cpp:122] Setting up group2_block2_conv1
I1019 01:43:21.041061 14773 net.cpp:129] Top shape: 128 64 8 8 (524288)
I1019 01:43:21.041065 14773 net.cpp:137] Memory required for data: 542639616
I1019 01:43:21.041072 14773 layer_factory.hpp:77] Creating layer group2_block2_conv1_bn
I1019 01:43:21.041079 14773 net.cpp:84] Creating Layer group2_block2_conv1_bn
I1019 01:43:21.041083 14773 net.cpp:406] group2_block2_conv1_bn <- group2_block2_conv1
I1019 01:43:21.041090 14773 net.cpp:367] group2_block2_conv1_bn -> group2_block2_conv1 (in-place)
I1019 01:43:21.041316 14773 net.cpp:122] Setting up group2_block2_conv1_bn
I1019 01:43:21.041324 14773 net.cpp:129] Top shape: 128 64 8 8 (524288)
I1019 01:43:21.041327 14773 net.cpp:137] Memory required for data: 544736768
I1019 01:43:21.041337 14773 layer_factory.hpp:77] Creating layer group2_block2_conv1_scale
I1019 01:43:21.041342 14773 net.cpp:84] Creating Layer group2_block2_conv1_scale
I1019 01:43:21.041347 14773 net.cpp:406] group2_block2_conv1_scale <- group2_block2_conv1
I1019 01:43:21.041352 14773 net.cpp:367] group2_block2_conv1_scale -> group2_block2_conv1 (in-place)
I1019 01:43:21.041399 14773 layer_factory.hpp:77] Creating layer group2_block2_conv1_scale
I1019 01:43:21.041534 14773 net.cpp:122] Setting up group2_block2_conv1_scale
I1019 01:43:21.041544 14773 net.cpp:129] Top shape: 128 64 8 8 (524288)
I1019 01:43:21.041548 14773 net.cpp:137] Memory required for data: 546833920
I1019 01:43:21.041554 14773 layer_factory.hpp:77] Creating layer group2_block2_sum
I1019 01:43:21.041563 14773 net.cpp:84] Creating Layer group2_block2_sum
I1019 01:43:21.041568 14773 net.cpp:406] group2_block2_sum <- group2_block2_conv1
I1019 01:43:21.041573 14773 net.cpp:406] group2_block2_sum <- group2_block1_sum_group2_block1_relu_0_split_1
I1019 01:43:21.041579 14773 net.cpp:380] group2_block2_sum -> group2_block2_sum
I1019 01:43:21.041604 14773 net.cpp:122] Setting up group2_block2_sum
I1019 01:43:21.041612 14773 net.cpp:129] Top shape: 128 64 8 8 (524288)
I1019 01:43:21.041615 14773 net.cpp:137] Memory required for data: 548931072
I1019 01:43:21.041618 14773 layer_factory.hpp:77] Creating layer group2_block2_relu
I1019 01:43:21.041625 14773 net.cpp:84] Creating Layer group2_block2_relu
I1019 01:43:21.041628 14773 net.cpp:406] group2_block2_relu <- group2_block2_sum
I1019 01:43:21.041635 14773 net.cpp:367] group2_block2_relu -> group2_block2_sum (in-place)
I1019 01:43:21.041641 14773 net.cpp:122] Setting up group2_block2_relu
I1019 01:43:21.041646 14773 net.cpp:129] Top shape: 128 64 8 8 (524288)
I1019 01:43:21.041649 14773 net.cpp:137] Memory required for data: 551028224
I1019 01:43:21.041652 14773 layer_factory.hpp:77] Creating layer global_avg_pool
I1019 01:43:21.041659 14773 net.cpp:84] Creating Layer global_avg_pool
I1019 01:43:21.041662 14773 net.cpp:406] global_avg_pool <- group2_block2_sum
I1019 01:43:21.041667 14773 net.cpp:380] global_avg_pool -> global_avg_pool
I1019 01:43:21.041709 14773 net.cpp:122] Setting up global_avg_pool
I1019 01:43:21.041718 14773 net.cpp:129] Top shape: 128 64 1 1 (8192)
I1019 01:43:21.041723 14773 net.cpp:137] Memory required for data: 551060992
I1019 01:43:21.041725 14773 layer_factory.hpp:77] Creating layer fc
I1019 01:43:21.041734 14773 net.cpp:84] Creating Layer fc
I1019 01:43:21.041754 14773 net.cpp:406] fc <- global_avg_pool
I1019 01:43:21.041762 14773 net.cpp:380] fc -> fc
I1019 01:43:21.041899 14773 net.cpp:122] Setting up fc
I1019 01:43:21.041909 14773 net.cpp:129] Top shape: 128 10 (1280)
I1019 01:43:21.041913 14773 net.cpp:137] Memory required for data: 551066112
I1019 01:43:21.041919 14773 layer_factory.hpp:77] Creating layer fc_fc_0_split
I1019 01:43:21.041925 14773 net.cpp:84] Creating Layer fc_fc_0_split
I1019 01:43:21.041929 14773 net.cpp:406] fc_fc_0_split <- fc
I1019 01:43:21.041936 14773 net.cpp:380] fc_fc_0_split -> fc_fc_0_split_0
I1019 01:43:21.041946 14773 net.cpp:380] fc_fc_0_split -> fc_fc_0_split_1
I1019 01:43:21.041983 14773 net.cpp:122] Setting up fc_fc_0_split
I1019 01:43:21.041991 14773 net.cpp:129] Top shape: 128 10 (1280)
I1019 01:43:21.041996 14773 net.cpp:129] Top shape: 128 10 (1280)
I1019 01:43:21.041999 14773 net.cpp:137] Memory required for data: 551076352
I1019 01:43:21.042002 14773 layer_factory.hpp:77] Creating layer loss
I1019 01:43:21.042012 14773 net.cpp:84] Creating Layer loss
I1019 01:43:21.042016 14773 net.cpp:406] loss <- fc_fc_0_split_0
I1019 01:43:21.042022 14773 net.cpp:406] loss <- label_data_1_split_0
I1019 01:43:21.042027 14773 net.cpp:380] loss -> loss
I1019 01:43:21.042037 14773 layer_factory.hpp:77] Creating layer loss
I1019 01:43:21.042146 14773 net.cpp:122] Setting up loss
I1019 01:43:21.042155 14773 net.cpp:129] Top shape: (1)
I1019 01:43:21.042158 14773 net.cpp:132]     with loss weight 1
I1019 01:43:21.042187 14773 net.cpp:137] Memory required for data: 551076356
I1019 01:43:21.042191 14773 layer_factory.hpp:77] Creating layer softmax
I1019 01:43:21.042203 14773 net.cpp:84] Creating Layer softmax
I1019 01:43:21.042209 14773 net.cpp:406] softmax <- fc_fc_0_split_1
I1019 01:43:21.042218 14773 net.cpp:380] softmax -> softmax
I1019 01:43:21.042297 14773 net.cpp:122] Setting up softmax
I1019 01:43:21.042306 14773 net.cpp:129] Top shape: 128 10 (1280)
I1019 01:43:21.042309 14773 net.cpp:137] Memory required for data: 551081476
I1019 01:43:21.042313 14773 layer_factory.hpp:77] Creating layer Accuracy
I1019 01:43:21.042320 14773 net.cpp:84] Creating Layer Accuracy
I1019 01:43:21.042323 14773 net.cpp:406] Accuracy <- softmax
I1019 01:43:21.042330 14773 net.cpp:406] Accuracy <- label_data_1_split_1
I1019 01:43:21.042335 14773 net.cpp:380] Accuracy -> Accuracy
…
I1019 01:43:21.044049 14773 solver.cpp:172] Creating test net (#0) specified by net file: resnet-20/trainval.prototxt
I1019 01:43:21.044167 14773 net.cpp:294] The NetState phase (1) differed from the phase (0) specified by a rule in layer data
I1019 01:43:21.044912 14773 net.cpp:51] Initializing net from parameters: 
name: "resnet3-cifar10"
state {
  phase: TEST
}
layer {
  name: "data"
  type: "Data"
  top: "data"
  top: "label"
  include {
    phase: TEST
  }
  transform_param {
    scale: 0.0078125
    mean_value: 128
  }
  data_param {
    source: "cifar-10-batches-py/test"
    batch_size: 100
    backend: LMDB
  }
}
layer {
  name: "first_conv"
  type: "Convolution"
  bottom: "data"
  top: "first_conv"
  param {
    lr_mult: 1
    decay_mult: 1
  }
  convolution_param {
    num_output: 16
    pad: 1
    kernel_size: 3
    stride: 1
    weight_filler {
      type: "msra"
    }
  }
}
layer {
  name: "first_conv_bn"
  type: "BatchNorm"
  bottom: "first_conv"
  top: "first_conv"
  param {
    lr_mult: 0
    decay_mult: 0
  }
  param {
    lr_mult: 0
    decay_mult: 0
  }
  param {
    lr_mult: 0
    decay_mult: 0
  }
}
layer {
  name: "first_conv_scale"
  type: "Scale"
  bottom: "first_conv"
  top: "first_conv"
  scale_param {
    bias_term: true
  }
}
layer {
  name: "first_conv_relu"
  type: "ReLU"
  bottom: "first_conv"
  top: "first_conv"
}
layer {
  name: "group0_block0_conv0"
  type: "Convolution"
  bottom: "first_conv"
  top: "group0_block0_conv0"
  param {
    lr_mult: 1
    decay_mult: 1
  }
  convolution_param {
    num_output: 16
    pad: 1
    kernel_size: 3
    stride: 1
    weight_filler {
      type: "msra"
    }
  }
}
layer {
  name: "group0_block0_conv0_bn"
  type: "BatchNorm"
  bottom: "group0_block0_conv0"
  top: "group0_block0_conv0"
  param {
    lr_mult: 0
    decay_mult: 0
  }
  param {
    lr_mult: 0
    decay_mult: 0
  }
  param {
    lr_mult: 0
    decay_mult: 0
  }
}
layer {
  name: "group0_block0_conv0_scale"
  type: "Scale"
  bottom: "group0_block0_conv0"
  top: "group0_block0_conv0"
  scale_param {
    bias_term: true
  }
}
layer {
  name: "group0_block0_conv0_relu"
  type: "ReLU"
  bottom: "group0_block0_conv0"
  top: "group0_block0_conv0"
}
layer {
  name: "group0_block0_conv1"
  type: "Convolution"
  bottom: "group0_block0_conv0"
  top: "group0_block0_conv1"
  param {
    lr_mult: 1
    decay_mult: 1
  }
  convolution_param {
    num_output: 16
    pad: 1
    kernel_size: 3
    stride: 1
    weight_filler {
      type: "msra"
    }
  }
}
layer {
  name: "group0_block0_conv1_bn"
  type: "BatchNorm"
  bottom: "group0_block0_conv1"
  top: "group0_block0_conv1"
  param {
    lr_mult: 0
    decay_mult: 0
  }
  param {
    lr_mult: 0
    decay_mult: 0
  }
  param {
    lr_mult: 0
    decay_mult: 0
  }
}
layer {
  name: "group0_block0_conv1_scale"
  type: "Scale"
  bottom: "group0_block0_conv1"
  top: "group0_block0_conv1"
  scale_param {
    bias_term: true
  }
}
layer {
  name: "group0_block0_sum"
  type: "Eltwise"
  bottom: "group0_block0_conv1"
  bottom: "first_conv"
  top: "group0_block0_sum"
  eltwise_param {
    operation: SUM
  }
}
layer {
  name: "group0_block0_relu"
  type: "ReLU"
  bottom: "group0_block0_sum"
  top: "group0_block0_sum"
}
layer {
  name: "group0_block1_conv0"
  type: "Convolution"
  bottom: "group0_block0_sum"
  top: "group0_block1_conv0"
  param {
    lr_mult: 1
    decay_mult: 1
  }
  convolution_param {
    num_output: 16
    pad: 1
    kernel_size: 3
    stride: 1
    weight_filler {
      type: "msra"
    }
  }
}
layer {
  name: "group0_block1_conv0_bn"
  type: "BatchNorm"
  bottom: "group0_block1_conv0"
  top: "group0_block1_conv0"
  param {
    lr_mult: 0
    decay_mult: 0
  }
  param {
    lr_mult: 0
    decay_mult: 0
  }
  param {
    lr_mult: 0
    decay_mult: 0
  }
}
layer {
  name: "group0_block1_conv0_scale"
  type: "Scale"
  bottom: "group0_block1_conv0"
  top: "group0_block1_conv0"
  scale_param {
    bias_term: true
  }
}
layer {
  name: "group0_block1_conv0_relu"
  type: "ReLU"
  bottom: "group0_block1_conv0"
  top: "group0_block1_conv0"
}
layer {
  name: "group0_block1_conv1"
  type: "Convolution"
  bottom: "group0_block1_conv0"
  top: "group0_block1_conv1"
  param {
    lr_mult: 1
    decay_mult: 1
  }
  convolution_param {
    num_output: 16
    pad: 1
    kernel_size: 3
    stride: 1
    weight_filler {
      type: "msra"
    }
  }
}
layer {
  name: "group0_block1_conv1_bn"
  type: "BatchNorm"
  bottom: "group0_block1_conv1"
  top: "group0_block1_conv1"
  param {
    lr_mult: 0
    decay_mult: 0
  }
  param {
    lr_mult: 0
    decay_mult: 0
  }
  param {
    lr_mult: 0
    decay_mult: 0
  }
}
layer {
  name: "group0_block1_conv1_scale"
  type: "Scale"
  bottom: "group0_block1_conv1"
  top: "group0_block1_conv1"
  scale_param {
    bias_term: true
  }
}
layer {
  name: "group0_block1_sum"
  type: "Eltwise"
  bottom: "group0_block1_conv1"
  bottom: "group0_block0_sum"
  top: "group0_block1_sum"
  eltwise_param {
    operation: SUM
  }
}
layer {
  name: "group0_block1_relu"
  type: "ReLU"
  bottom: "group0_block1_sum"
  top: "group0_block1_sum"
}
layer {
  name: "group0_block2_conv0"
  type: "Convolution"
  bottom: "group0_block1_sum"
  top: "group0_block2_conv0"
  param {
    lr_mult: 1
    decay_mult: 1
  }
  convolution_param {
    num_output: 16
    pad: 1
    kernel_size: 3
    stride: 1
    weight_filler {
      type: "msra"
    }
  }
}
layer {
  name: "group0_block2_conv0_bn"
  type: "BatchNorm"
  bottom: "group0_block2_conv0"
  top: "group0_block2_conv0"
  param {
    lr_mult: 0
    decay_mult: 0
  }
  param {
    lr_mult: 0
    decay_mult: 0
  }
  param {
    lr_mult: 0
    decay_mult: 0
  }
}
layer {
  name: "group0_block2_conv0_scale"
  type: "Scale"
  bottom: "group0_block2_conv0"
  top: "group0_block2_conv0"
  scale_param {
    bias_term: true
  }
}
layer {
  name: "group0_block2_conv0_relu"
  type: "ReLU"
  bottom: "group0_block2_conv0"
  top: "group0_block2_conv0"
}
layer {
  name: "group0_block2_conv1"
  type: "Convolution"
  bottom: "group0_block2_conv0"
  top: "group0_block2_conv1"
  param {
    lr_mult: 1
    decay_mult: 1
  }
  convolution_param {
    num_output: 16
    pad: 1
    kernel_size: 3
    stride: 1
    weight_filler {
      type: "msra"
    }
  }
}
layer {
  name: "group0_block2_conv1_bn"
  type: "BatchNorm"
  bottom: "group0_block2_conv1"
  top: "group0_block2_conv1"
  param {
    lr_mult: 0
    decay_mult: 0
  }
  param {
    lr_mult: 0
    decay_mult: 0
  }
  param {
    lr_mult: 0
    decay_mult: 0
  }
}
layer {
  name: "group0_block2_conv1_scale"
  type: "Scale"
  bottom: "group0_block2_conv1"
  top: "group0_block2_conv1"
  scale_param {
    bias_term: true
  }
}
layer {
  name: "group0_block2_sum"
  type: "Eltwise"
  bottom: "group0_block2_conv1"
  bottom: "group0_block1_sum"
  top: "group0_block2_sum"
  eltwise_param {
    operation: SUM
  }
}
layer {
  name: "group0_block2_relu"
  type: "ReLU"
  bottom: "group0_block2_sum"
  top: "group0_block2_sum"
}
layer {
  name: "group1_block0_conv0"
  type: "Convolution"
  bottom: "group0_block2_sum"
  top: "group1_block0_conv0"
  param {
    lr_mult: 1
    decay_mult: 1
  }
  convolution_param {
    num_output: 32
    pad: 1
    kernel_size: 3
    stride: 2
    weight_filler {
      type: "msra"
    }
  }
}
layer {
  name: "group1_block0_conv0_bn"
  type: "BatchNorm"
  bottom: "group1_block0_conv0"
  top: "group1_block0_conv0"
  param {
    lr_mult: 0
    decay_mult: 0
  }
  param {
    lr_mult: 0
    decay_mult: 0
  }
  param {
    lr_mult: 0
    decay_mult: 0
  }
}
layer {
  name: "group1_block0_conv0_scale"
  type: "Scale"
  bottom: "group1_block0_conv0"
  top: "group1_block0_conv0"
  scale_param {
    bias_term: true
  }
}
layer {
  name: "group1_block0_conv0_relu"
  type: "ReLU"
  bottom: "group1_block0_conv0"
  top: "group1_block0_conv0"
}
layer {
  name: "group1_block0_conv1"
  type: "Convolution"
  bottom: "group1_block0_conv0"
  top: "group1_block0_conv1"
  param {
    lr_mult: 1
    decay_mult: 1
  }
  convolution_param {
    num_output: 32
    pad: 1
    kernel_size: 3
    stride: 1
    weight_filler {
      type: "msra"
    }
  }
}
layer {
  name: "group1_block0_conv1_bn"
  type: "BatchNorm"
  bottom: "group1_block0_conv1"
  top: "group1_block0_conv1"
  param {
    lr_mult: 0
    decay_mult: 0
  }
  param {
    lr_mult: 0
    decay_mult: 0
  }
  param {
    lr_mult: 0
    decay_mult: 0
  }
}
layer {
  name: "group1_block0_conv1_scale"
  type: "Scale"
  bottom: "group1_block0_conv1"
  top: "group1_block0_conv1"
  scale_param {
    bias_term: true
  }
}
layer {
  name: "group1_block0_proj"
  type: "Convolution"
  bottom: "group0_block2_sum"
  top: "group1_block0_proj"
  param {
    lr_mult: 1
    decay_mult: 1
  }
  convolution_param {
    num_output: 32
    pad: 0
    kernel_size: 1
    stride: 2
    weight_filler {
      type: "msra"
    }
  }
}
layer {
  name: "group1_block0_proj_bn"
  type: "BatchNorm"
  bottom: "group1_block0_proj"
  top: "group1_block0_proj"
  param {
    lr_mult: 0
    decay_mult: 0
  }
  param {
    lr_mult: 0
    decay_mult: 0
  }
  param {
    lr_mult: 0
    decay_mult: 0
  }
}
layer {
  name: "group1_block0_proj_scale"
  type: "Scale"
  bottom: "group1_block0_proj"
  top: "group1_block0_proj"
  scale_param {
    bias_term: true
  }
}
layer {
  name: "group1_block0_sum"
  type: "Eltwise"
  bottom: "group1_block0_proj"
  bottom: "group1_block0_conv1"
  top: "group1_block0_sum"
  eltwise_param {
    operation: SUM
  }
}
layer {
  name: "group1_block0_relu"
  type: "ReLU"
  bottom: "group1_block0_sum"
  top: "group1_block0_sum"
}
layer {
  name: "group1_block1_conv0"
  type: "Convolution"
  bottom: "group1_block0_sum"
  top: "group1_block1_conv0"
  param {
    lr_mult: 1
    decay_mult: 1
  }
  convolution_param {
    num_output: 32
    pad: 1
    kernel_size: 3
    stride: 1
    weight_filler {
      type: "msra"
    }
  }
}
layer {
  name: "group1_block1_conv0_bn"
  type: "BatchNorm"
  bottom: "group1_block1_conv0"
  top: "group1_block1_conv0"
  param {
    lr_mult: 0
    decay_mult: 0
  }
  param {
    lr_mult: 0
    decay_mult: 0
  }
  param {
    lr_mult: 0
    decay_mult: 0
  }
}
layer {
  name: "group1_block1_conv0_scale"
  type: "Scale"
  bottom: "group1_block1_conv0"
  top: "group1_block1_conv0"
  scale_param {
    bias_term: true
  }
}
layer {
  name: "group1_block1_conv0_relu"
  type: "ReLU"
  bottom: "group1_block1_conv0"
  top: "group1_block1_conv0"
}
layer {
  name: "group1_block1_conv1"
  type: "Convolution"
  bottom: "group1_block1_conv0"
  top: "group1_block1_conv1"
  param {
    lr_mult: 1
    decay_mult: 1
  }
  convolution_param {
    num_output: 32
    pad: 1
    kernel_size: 3
    stride: 1
    weight_filler {
      type: "msra"
    }
  }
}
layer {
  name: "group1_block1_conv1_bn"
  type: "BatchNorm"
  bottom: "group1_block1_conv1"
  top: "group1_block1_conv1"
  param {
    lr_mult: 0
    decay_mult: 0
  }
  param {
    lr_mult: 0
    decay_mult: 0
  }
  param {
    lr_mult: 0
    decay_mult: 0
  }
}
layer {
  name: "group1_block1_conv1_scale"
  type: "Scale"
  bottom: "group1_block1_conv1"
  top: "group1_block1_conv1"
  scale_param {
    bias_term: true
  }
}
layer {
  name: "group1_block1_sum"
  type: "Eltwise"
  bottom: "group1_block1_conv1"
  bottom: "group1_block0_sum"
  top: "group1_block1_sum"
  eltwise_param {
    operation: SUM
  }
}
layer {
  name: "group1_block1_relu"
  type: "ReLU"
  bottom: "group1_block1_sum"
  top: "group1_block1_sum"
}
layer {
  name: "group1_block2_conv0"
  type: "Convolution"
  bottom: "group1_block1_sum"
  top: "group1_block2_conv0"
  param {
    lr_mult: 1
    decay_mult: 1
  }
  convolution_param {
    num_output: 32
    pad: 1
    kernel_size: 3
    stride: 1
    weight_filler {
      type: "msra"
    }
  }
}
layer {
  name: "group1_block2_conv0_bn"
  type: "BatchNorm"
  bottom: "group1_block2_conv0"
  top: "group1_block2_conv0"
  param {
    lr_mult: 0
    decay_mult: 0
  }
  param {
    lr_mult: 0
    decay_mult: 0
  }
  param {
    lr_mult: 0
    decay_mult: 0
  }
}
layer {
  name: "group1_block2_conv0_scale"
  type: "Scale"
  bottom: "group1_block2_conv0"
  top: "group1_block2_conv0"
  scale_param {
    bias_term: true
  }
}
layer {
  name: "group1_block2_conv0_relu"
  type: "ReLU"
  bottom: "group1_block2_conv0"
  top: "group1_block2_conv0"
}
layer {
  name: "group1_block2_conv1"
  type: "Convolution"
  bottom: "group1_block2_conv0"
  top: "group1_block2_conv1"
  param {
    lr_mult: 1
    decay_mult: 1
  }
  convolution_param {
    num_output: 32
    pad: 1
    kernel_size: 3
    stride: 1
    weight_filler {
      type: "msra"
    }
  }
}
layer {
  name: "group1_block2_conv1_bn"
  type: "BatchNorm"
  bottom: "group1_block2_conv1"
  top: "group1_block2_conv1"
  param {
    lr_mult: 0
    decay_mult: 0
  }
  param {
    lr_mult: 0
    decay_mult: 0
  }
  param {
    lr_mult: 0
    decay_mult: 0
  }
}
layer {
  name: "group1_block2_conv1_scale"
  type: "Scale"
  bottom: "group1_block2_conv1"
  top: "group1_block2_conv1"
  scale_param {
    bias_term: true
  }
}
layer {
  name: "group1_block2_sum"
  type: "Eltwise"
  bottom: "group1_block2_conv1"
  bottom: "group1_block1_sum"
  top: "group1_block2_sum"
  eltwise_param {
    operation: SUM
  }
}
layer {
  name: "group1_block2_relu"
  type: "ReLU"
  bottom: "group1_block2_sum"
  top: "group1_block2_sum"
}
layer {
  name: "group2_block0_conv0"
  type: "Convolution"
  bottom: "group1_block2_sum"
  top: "group2_block0_conv0"
  param {
    lr_mult: 1
    decay_mult: 1
  }
  convolution_param {
    num_output: 64
    pad: 1
    kernel_size: 3
    stride: 2
    weight_filler {
      type: "msra"
    }
  }
}
layer {
  name: "group2_block0_conv0_bn"
  type: "BatchNorm"
  bottom: "group2_block0_conv0"
  top: "group2_block0_conv0"
  param {
    lr_mult: 0
    decay_mult: 0
  }
  param {
    lr_mult: 0
    decay_mult: 0
  }
  param {
    lr_mult: 0
    decay_mult: 0
  }
}
layer {
  name: "group2_block0_conv0_scale"
  type: "Scale"
  bottom: "group2_block0_conv0"
  top: "group2_block0_conv0"
  scale_param {
    bias_term: true
  }
}
layer {
  name: "group2_block0_conv0_relu"
  type: "ReLU"
  bottom: "group2_block0_conv0"
  top: "group2_block0_conv0"
}
layer {
  name: "group2_block0_conv1"
  type: "Convolution"
  bottom: "group2_block0_conv0"
  top: "group2_block0_conv1"
  param {
    lr_mult: 1
    decay_mult: 1
  }
  convolution_param {
    num_output: 64
    pad: 1
    kernel_size: 3
    stride: 1
    weight_filler {
      type: "msra"
    }
  }
}
layer {
  name: "group2_block0_conv1_bn"
  type: "BatchNorm"
  bottom: "group2_block0_conv1"
  top: "group2_block0_conv1"
  param {
    lr_mult: 0
    decay_mult: 0
  }
  param {
    lr_mult: 0
    decay_mult: 0
  }
  param {
    lr_mult: 0
    decay_mult: 0
  }
}
layer {
  name: "group2_block0_conv1_scale"
  type: "Scale"
  bottom: "group2_block0_conv1"
  top: "group2_block0_conv1"
  scale_param {
    bias_term: true
  }
}
layer {
  name: "group2_block0_proj"
  type: "Convolution"
  bottom: "group1_block2_sum"
  top: "group2_block0_proj"
  param {
    lr_mult: 1
    decay_mult: 1
  }
  convolution_param {
    num_output: 64
    pad: 0
    kernel_size: 1
    stride: 2
    weight_filler {
      type: "msra"
    }
  }
}
layer {
  name: "group2_block0_proj_bn"
  type: "BatchNorm"
  bottom: "group2_block0_proj"
  top: "group2_block0_proj"
  param {
    lr_mult: 0
    decay_mult: 0
  }
  param {
    lr_mult: 0
    decay_mult: 0
  }
  param {
    lr_mult: 0
    decay_mult: 0
  }
}
layer {
  name: "group2_block0_proj_scale"
  type: "Scale"
  bottom: "group2_block0_proj"
  top: "group2_block0_proj"
  scale_param {
    bias_term: true
  }
}
layer {
  name: "group2_block0_sum"
  type: "Eltwise"
  bottom: "group2_block0_proj"
  bottom: "group2_block0_conv1"
  top: "group2_block0_sum"
  eltwise_param {
    operation: SUM
  }
}
layer {
  name: "group2_block0_relu"
  type: "ReLU"
  bottom: "group2_block0_sum"
  top: "group2_block0_sum"
}
layer {
  name: "group2_block1_conv0"
  type: "Convolution"
  bottom: "group2_block0_sum"
  top: "group2_block1_conv0"
  param {
    lr_mult: 1
    decay_mult: 1
  }
  convolution_param {
    num_output: 64
    pad: 1
    kernel_size: 3
    stride: 1
    weight_filler {
      type: "msra"
    }
  }
}
layer {
  name: "group2_block1_conv0_bn"
  type: "BatchNorm"
  bottom: "group2_block1_conv0"
  top: "group2_block1_conv0"
  param {
    lr_mult: 0
    decay_mult: 0
  }
  param {
    lr_mult: 0
    decay_mult: 0
  }
  param {
    lr_mult: 0
    decay_mult: 0
  }
}
layer {
  name: "group2_block1_conv0_scale"
  type: "Scale"
  bottom: "group2_block1_conv0"
  top: "group2_block1_conv0"
  scale_param {
    bias_term: true
  }
}
layer {
  name: "group2_block1_conv0_relu"
  type: "ReLU"
  bottom: "group2_block1_conv0"
  top: "group2_block1_conv0"
}
layer {
  name: "group2_block1_conv1"
  type: "Convolution"
  bottom: "group2_block1_conv0"
  top: "group2_block1_conv1"
  param {
    lr_mult: 1
    decay_mult: 1
  }
  convolution_param {
    num_output: 64
    pad: 1
    kernel_size: 3
    stride: 1
    weight_filler {
      type: "msra"
    }
  }
}
layer {
  name: "group2_block1_conv1_bn"
  type: "BatchNorm"
  bottom: "group2_block1_conv1"
  top: "group2_block1_conv1"
  param {
    lr_mult: 0
    decay_mult: 0
  }
  param {
    lr_mult: 0
    decay_mult: 0
  }
  param {
    lr_mult: 0
    decay_mult: 0
  }
}
layer {
  name: "group2_block1_conv1_scale"
  type: "Scale"
  bottom: "group2_block1_conv1"
  top: "group2_block1_conv1"
  scale_param {
    bias_term: true
  }
}
layer {
  name: "group2_block1_sum"
  type: "Eltwise"
  bottom: "group2_block1_conv1"
  bottom: "group2_block0_sum"
  top: "group2_block1_sum"
  eltwise_param {
    operation: SUM
  }
}
layer {
  name: "group2_block1_relu"
  type: "ReLU"
  bottom: "group2_block1_sum"
  top: "group2_block1_sum"
}
layer {
  name: "group2_block2_conv0"
  type: "Convolution"
  bottom: "group2_block1_sum"
  top: "group2_block2_conv0"
  param {
    lr_mult: 1
    decay_mult: 1
  }
  convolution_param {
    num_output: 64
    pad: 1
    kernel_size: 3
    stride: 1
    weight_filler {
      type: "msra"
    }
  }
}
layer {
  name: "group2_block2_conv0_bn"
  type: "BatchNorm"
  bottom: "group2_block2_conv0"
  top: "group2_block2_conv0"
  param {
    lr_mult: 0
    decay_mult: 0
  }
  param {
    lr_mult: 0
    decay_mult: 0
  }
  param {
    lr_mult: 0
    decay_mult: 0
  }
}
layer {
  name: "group2_block2_conv0_scale"
  type: "Scale"
  bottom: "group2_block2_conv0"
  top: "group2_block2_conv0"
  scale_param {
    bias_term: true
  }
}
layer {
  name: "group2_block2_conv0_relu"
  type: "ReLU"
  bottom: "group2_block2_conv0"
  top: "group2_block2_conv0"
}
layer {
  name: "group2_block2_conv1"
  type: "Convolution"
  bottom: "group2_block2_conv0"
  top: "group2_block2_conv1"
  param {
    lr_mult: 1
    decay_mult: 1
  }
  convolution_param {
    num_output: 64
    pad: 1
    kernel_size: 3
    stride: 1
    weight_filler {
      type: "msra"
    }
  }
}
layer {
  name: "group2_block2_conv1_bn"
  type: "BatchNorm"
  bottom: "group2_block2_conv1"
  top: "group2_block2_conv1"
  param {
    lr_mult: 0
    decay_mult: 0
  }
  param {
    lr_mult: 0
    decay_mult: 0
  }
  param {
    lr_mult: 0
    decay_mult: 0
  }
}
layer {
  name: "group2_block2_conv1_scale"
  type: "Scale"
  bottom: "group2_block2_conv1"
  top: "group2_block2_conv1"
  scale_param {
    bias_term: true
  }
}
layer {
  name: "group2_block2_sum"
  type: "Eltwise"
  bottom: "group2_block2_conv1"
  bottom: "group2_block1_sum"
  top: "group2_block2_sum"
  eltwise_param {
    operation: SUM
  }
}
layer {
  name: "group2_block2_relu"
  type: "ReLU"
  bottom: "group2_block2_sum"
  top: "group2_block2_sum"
}
layer {
  name: "global_avg_pool"
  type: "Pooling"
  bottom: "group2_block2_sum"
  top: "global_avg_pool"
  pooling_param {
    pool: AVE
    global_pooling: true
  }
}
layer {
  name: "fc"
  type: "InnerProduct"
  bottom: "global_avg_pool"
  top: "fc"
  param {
    lr_mult: 1
    decay_mult: 1
  }
  param {
    lr_mult: 2
    decay_mult: 0
  }
  inner_product_param {
    num_output: 10
    weight_filler {
      type: "msra"
    }
    bias_filler {
      type: "constant"
      value: 0
    }
  }
}
layer {
  name: "loss"
  type: "SoftmaxWithLoss"
  bottom: "fc"
  bottom: "label"
  top: "loss"
}
layer {
  name: "softmax"
  type: "Softmax"
  bottom: "fc"
  top: "softmax"
}
layer {
  name: "Accuracy"
  type: "Accuracy"
  bottom: "softmax"
  bottom: "label"
  top: "Accuracy"
}
I1019 01:43:21.045375 14773 layer_factory.hpp:77] Creating layer data
I1019 01:43:21.045454 14773 db_lmdb.cpp:35] Opened lmdb cifar-10-batches-py/test
I1019 01:43:21.045469 14773 net.cpp:84] Creating Layer data
I1019 01:43:21.045476 14773 net.cpp:380] data -> data
I1019 01:43:21.045487 14773 net.cpp:380] data -> label
I1019 01:43:21.045617 14773 data_layer.cpp:45] output data size: 100,3,32,32
I1019 01:43:21.055004 14773 net.cpp:122] Setting up data
I1019 01:43:21.055024 14773 net.cpp:129] Top shape: 100 3 32 32 (307200)
I1019 01:43:21.055029 14773 net.cpp:129] Top shape: 100 (100)
I1019 01:43:21.055032 14773 net.cpp:137] Memory required for data: 1229200
I1019 01:43:21.055037 14773 layer_factory.hpp:77] Creating layer label_data_1_split
I1019 01:43:21.055048 14773 net.cpp:84] Creating Layer label_data_1_split
I1019 01:43:21.055052 14773 net.cpp:406] label_data_1_split <- label
I1019 01:43:21.055058 14773 net.cpp:380] label_data_1_split -> label_data_1_split_0
I1019 01:43:21.055068 14773 net.cpp:380] label_data_1_split -> label_data_1_split_1
I1019 01:43:21.055130 14773 net.cpp:122] Setting up label_data_1_split
I1019 01:43:21.055140 14773 net.cpp:129] Top shape: 100 (100)
I1019 01:43:21.055145 14773 net.cpp:129] Top shape: 100 (100)
I1019 01:43:21.055146 14773 net.cpp:137] Memory required for data: 1230000
I1019 01:43:21.055150 14773 layer_factory.hpp:77] Creating layer first_conv
I1019 01:43:21.055162 14773 net.cpp:84] Creating Layer first_conv
I1019 01:43:21.055166 14773 net.cpp:406] first_conv <- data
I1019 01:43:21.055174 14773 net.cpp:380] first_conv -> first_conv
I1019 01:43:21.055627 14773 net.cpp:122] Setting up first_conv
I1019 01:43:21.055639 14773 net.cpp:129] Top shape: 100 16 32 32 (1638400)
I1019 01:43:21.055644 14773 net.cpp:137] Memory required for data: 7783600
I1019 01:43:21.055655 14773 layer_factory.hpp:77] Creating layer first_conv_bn
I1019 01:43:21.055663 14773 net.cpp:84] Creating Layer first_conv_bn
I1019 01:43:21.055691 14773 net.cpp:406] first_conv_bn <- first_conv
I1019 01:43:21.055698 14773 net.cpp:367] first_conv_bn -> first_conv (in-place)
I1019 01:43:21.055923 14773 net.cpp:122] Setting up first_conv_bn
I1019 01:43:21.055934 14773 net.cpp:129] Top shape: 100 16 32 32 (1638400)
I1019 01:43:21.055938 14773 net.cpp:137] Memory required for data: 14337200
I1019 01:43:21.055951 14773 layer_factory.hpp:77] Creating layer first_conv_scale
I1019 01:43:21.055961 14773 net.cpp:84] Creating Layer first_conv_scale
I1019 01:43:21.055965 14773 net.cpp:406] first_conv_scale <- first_conv
I1019 01:43:21.055971 14773 net.cpp:367] first_conv_scale -> first_conv (in-place)
I1019 01:43:21.056020 14773 layer_factory.hpp:77] Creating layer first_conv_scale
I1019 01:43:21.056154 14773 net.cpp:122] Setting up first_conv_scale
I1019 01:43:21.056164 14773 net.cpp:129] Top shape: 100 16 32 32 (1638400)
I1019 01:43:21.056166 14773 net.cpp:137] Memory required for data: 20890800
I1019 01:43:21.056174 14773 layer_factory.hpp:77] Creating layer first_conv_relu
I1019 01:43:21.056181 14773 net.cpp:84] Creating Layer first_conv_relu
I1019 01:43:21.056185 14773 net.cpp:406] first_conv_relu <- first_conv
I1019 01:43:21.056190 14773 net.cpp:367] first_conv_relu -> first_conv (in-place)
I1019 01:43:21.056195 14773 net.cpp:122] Setting up first_conv_relu
I1019 01:43:21.056200 14773 net.cpp:129] Top shape: 100 16 32 32 (1638400)
I1019 01:43:21.056222 14773 net.cpp:137] Memory required for data: 27444400
I1019 01:43:21.056226 14773 layer_factory.hpp:77] Creating layer first_conv_first_conv_relu_0_split
I1019 01:43:21.056236 14773 net.cpp:84] Creating Layer first_conv_first_conv_relu_0_split
I1019 01:43:21.056241 14773 net.cpp:406] first_conv_first_conv_relu_0_split <- first_conv
I1019 01:43:21.056246 14773 net.cpp:380] first_conv_first_conv_relu_0_split -> first_conv_first_conv_relu_0_split_0
I1019 01:43:21.056253 14773 net.cpp:380] first_conv_first_conv_relu_0_split -> first_conv_first_conv_relu_0_split_1
I1019 01:43:21.056300 14773 net.cpp:122] Setting up first_conv_first_conv_relu_0_split
I1019 01:43:21.056309 14773 net.cpp:129] Top shape: 100 16 32 32 (1638400)
I1019 01:43:21.056314 14773 net.cpp:129] Top shape: 100 16 32 32 (1638400)
I1019 01:43:21.056318 14773 net.cpp:137] Memory required for data: 40551600
I1019 01:43:21.056320 14773 layer_factory.hpp:77] Creating layer group0_block0_conv0
I1019 01:43:21.056331 14773 net.cpp:84] Creating Layer group0_block0_conv0
I1019 01:43:21.056335 14773 net.cpp:406] group0_block0_conv0 <- first_conv_first_conv_relu_0_split_0
I1019 01:43:21.056341 14773 net.cpp:380] group0_block0_conv0 -> group0_block0_conv0
I1019 01:43:21.056637 14773 net.cpp:122] Setting up group0_block0_conv0
I1019 01:43:21.056646 14773 net.cpp:129] Top shape: 100 16 32 32 (1638400)
I1019 01:43:21.056649 14773 net.cpp:137] Memory required for data: 47105200
I1019 01:43:21.056661 14773 layer_factory.hpp:77] Creating layer group0_block0_conv0_bn
I1019 01:43:21.056672 14773 net.cpp:84] Creating Layer group0_block0_conv0_bn
I1019 01:43:21.056679 14773 net.cpp:406] group0_block0_conv0_bn <- group0_block0_conv0
I1019 01:43:21.056685 14773 net.cpp:367] group0_block0_conv0_bn -> group0_block0_conv0 (in-place)
I1019 01:43:21.056917 14773 net.cpp:122] Setting up group0_block0_conv0_bn
I1019 01:43:21.056926 14773 net.cpp:129] Top shape: 100 16 32 32 (1638400)
I1019 01:43:21.056931 14773 net.cpp:137] Memory required for data: 53658800
I1019 01:43:21.056938 14773 layer_factory.hpp:77] Creating layer group0_block0_conv0_scale
I1019 01:43:21.056948 14773 net.cpp:84] Creating Layer group0_block0_conv0_scale
I1019 01:43:21.056951 14773 net.cpp:406] group0_block0_conv0_scale <- group0_block0_conv0
I1019 01:43:21.056958 14773 net.cpp:367] group0_block0_conv0_scale -> group0_block0_conv0 (in-place)
I1019 01:43:21.057056 14773 layer_factory.hpp:77] Creating layer group0_block0_conv0_scale
I1019 01:43:21.057332 14773 net.cpp:122] Setting up group0_block0_conv0_scale
I1019 01:43:21.057343 14773 net.cpp:129] Top shape: 100 16 32 32 (1638400)
I1019 01:43:21.057346 14773 net.cpp:137] Memory required for data: 60212400
I1019 01:43:21.057353 14773 layer_factory.hpp:77] Creating layer group0_block0_conv0_relu
I1019 01:43:21.057360 14773 net.cpp:84] Creating Layer group0_block0_conv0_relu
I1019 01:43:21.057364 14773 net.cpp:406] group0_block0_conv0_relu <- group0_block0_conv0
I1019 01:43:21.057369 14773 net.cpp:367] group0_block0_conv0_relu -> group0_block0_conv0 (in-place)
I1019 01:43:21.057376 14773 net.cpp:122] Setting up group0_block0_conv0_relu
I1019 01:43:21.057382 14773 net.cpp:129] Top shape: 100 16 32 32 (1638400)
I1019 01:43:21.057385 14773 net.cpp:137] Memory required for data: 66766000
I1019 01:43:21.057389 14773 layer_factory.hpp:77] Creating layer group0_block0_conv1
I1019 01:43:21.057399 14773 net.cpp:84] Creating Layer group0_block0_conv1
I1019 01:43:21.057401 14773 net.cpp:406] group0_block0_conv1 <- group0_block0_conv0
I1019 01:43:21.057410 14773 net.cpp:380] group0_block0_conv1 -> group0_block0_conv1
I1019 01:43:21.057703 14773 net.cpp:122] Setting up group0_block0_conv1
I1019 01:43:21.057714 14773 net.cpp:129] Top shape: 100 16 32 32 (1638400)
I1019 01:43:21.057718 14773 net.cpp:137] Memory required for data: 73319600
I1019 01:43:21.057724 14773 layer_factory.hpp:77] Creating layer group0_block0_conv1_bn
I1019 01:43:21.057732 14773 net.cpp:84] Creating Layer group0_block0_conv1_bn
I1019 01:43:21.057750 14773 net.cpp:406] group0_block0_conv1_bn <- group0_block0_conv1
I1019 01:43:21.057761 14773 net.cpp:367] group0_block0_conv1_bn -> group0_block0_conv1 (in-place)
I1019 01:43:21.057991 14773 net.cpp:122] Setting up group0_block0_conv1_bn
I1019 01:43:21.058001 14773 net.cpp:129] Top shape: 100 16 32 32 (1638400)
I1019 01:43:21.058006 14773 net.cpp:137] Memory required for data: 79873200
I1019 01:43:21.058017 14773 layer_factory.hpp:77] Creating layer group0_block0_conv1_scale
I1019 01:43:21.058027 14773 net.cpp:84] Creating Layer group0_block0_conv1_scale
I1019 01:43:21.058030 14773 net.cpp:406] group0_block0_conv1_scale <- group0_block0_conv1
I1019 01:43:21.058037 14773 net.cpp:367] group0_block0_conv1_scale -> group0_block0_conv1 (in-place)
I1019 01:43:21.058084 14773 layer_factory.hpp:77] Creating layer group0_block0_conv1_scale
I1019 01:43:21.058215 14773 net.cpp:122] Setting up group0_block0_conv1_scale
I1019 01:43:21.058224 14773 net.cpp:129] Top shape: 100 16 32 32 (1638400)
I1019 01:43:21.058228 14773 net.cpp:137] Memory required for data: 86426800
I1019 01:43:21.058235 14773 layer_factory.hpp:77] Creating layer group0_block0_sum
I1019 01:43:21.058241 14773 net.cpp:84] Creating Layer group0_block0_sum
I1019 01:43:21.058245 14773 net.cpp:406] group0_block0_sum <- group0_block0_conv1
I1019 01:43:21.058250 14773 net.cpp:406] group0_block0_sum <- first_conv_first_conv_relu_0_split_1
I1019 01:43:21.058262 14773 net.cpp:380] group0_block0_sum -> group0_block0_sum
I1019 01:43:21.058293 14773 net.cpp:122] Setting up group0_block0_sum
I1019 01:43:21.058302 14773 net.cpp:129] Top shape: 100 16 32 32 (1638400)
I1019 01:43:21.058305 14773 net.cpp:137] Memory required for data: 92980400
I1019 01:43:21.058308 14773 layer_factory.hpp:77] Creating layer group0_block0_relu
I1019 01:43:21.058313 14773 net.cpp:84] Creating Layer group0_block0_relu
I1019 01:43:21.058317 14773 net.cpp:406] group0_block0_relu <- group0_block0_sum
I1019 01:43:21.058322 14773 net.cpp:367] group0_block0_relu -> group0_block0_sum (in-place)
I1019 01:43:21.058328 14773 net.cpp:122] Setting up group0_block0_relu
I1019 01:43:21.058332 14773 net.cpp:129] Top shape: 100 16 32 32 (1638400)
I1019 01:43:21.058336 14773 net.cpp:137] Memory required for data: 99534000
I1019 01:43:21.058339 14773 layer_factory.hpp:77] Creating layer group0_block0_sum_group0_block0_relu_0_split
I1019 01:43:21.058349 14773 net.cpp:84] Creating Layer group0_block0_sum_group0_block0_relu_0_split
I1019 01:43:21.058353 14773 net.cpp:406] group0_block0_sum_group0_block0_relu_0_split <- group0_block0_sum
I1019 01:43:21.058359 14773 net.cpp:380] group0_block0_sum_group0_block0_relu_0_split -> group0_block0_sum_group0_block0_relu_0_split_0
I1019 01:43:21.058367 14773 net.cpp:380] group0_block0_sum_group0_block0_relu_0_split -> group0_block0_sum_group0_block0_relu_0_split_1
I1019 01:43:21.058408 14773 net.cpp:122] Setting up group0_block0_sum_group0_block0_relu_0_split
I1019 01:43:21.058416 14773 net.cpp:129] Top shape: 100 16 32 32 (1638400)
I1019 01:43:21.058421 14773 net.cpp:129] Top shape: 100 16 32 32 (1638400)
I1019 01:43:21.058423 14773 net.cpp:137] Memory required for data: 112641200
I1019 01:43:21.058426 14773 layer_factory.hpp:77] Creating layer group0_block1_conv0
I1019 01:43:21.058437 14773 net.cpp:84] Creating Layer group0_block1_conv0
I1019 01:43:21.058441 14773 net.cpp:406] group0_block1_conv0 <- group0_block0_sum_group0_block0_relu_0_split_0
I1019 01:43:21.058449 14773 net.cpp:380] group0_block1_conv0 -> group0_block1_conv0
I1019 01:43:21.058735 14773 net.cpp:122] Setting up group0_block1_conv0
I1019 01:43:21.058745 14773 net.cpp:129] Top shape: 100 16 32 32 (1638400)
I1019 01:43:21.058749 14773 net.cpp:137] Memory required for data: 119194800
I1019 01:43:21.058755 14773 layer_factory.hpp:77] Creating layer group0_block1_conv0_bn
I1019 01:43:21.058763 14773 net.cpp:84] Creating Layer group0_block1_conv0_bn
I1019 01:43:21.058766 14773 net.cpp:406] group0_block1_conv0_bn <- group0_block1_conv0
I1019 01:43:21.058774 14773 net.cpp:367] group0_block1_conv0_bn -> group0_block1_conv0 (in-place)
I1019 01:43:21.059013 14773 net.cpp:122] Setting up group0_block1_conv0_bn
I1019 01:43:21.059025 14773 net.cpp:129] Top shape: 100 16 32 32 (1638400)
I1019 01:43:21.059027 14773 net.cpp:137] Memory required for data: 125748400
I1019 01:43:21.059036 14773 layer_factory.hpp:77] Creating layer group0_block1_conv0_scale
I1019 01:43:21.059042 14773 net.cpp:84] Creating Layer group0_block1_conv0_scale
I1019 01:43:21.059046 14773 net.cpp:406] group0_block1_conv0_scale <- group0_block1_conv0
I1019 01:43:21.059053 14773 net.cpp:367] group0_block1_conv0_scale -> group0_block1_conv0 (in-place)
I1019 01:43:21.059098 14773 layer_factory.hpp:77] Creating layer group0_block1_conv0_scale
I1019 01:43:21.059224 14773 net.cpp:122] Setting up group0_block1_conv0_scale
I1019 01:43:21.059237 14773 net.cpp:129] Top shape: 100 16 32 32 (1638400)
I1019 01:43:21.059242 14773 net.cpp:137] Memory required for data: 132302000
I1019 01:43:21.059248 14773 layer_factory.hpp:77] Creating layer group0_block1_conv0_relu
I1019 01:43:21.059254 14773 net.cpp:84] Creating Layer group0_block1_conv0_relu
I1019 01:43:21.059257 14773 net.cpp:406] group0_block1_conv0_relu <- group0_block1_conv0
I1019 01:43:21.059262 14773 net.cpp:367] group0_block1_conv0_relu -> group0_block1_conv0 (in-place)
I1019 01:43:21.059268 14773 net.cpp:122] Setting up group0_block1_conv0_relu
I1019 01:43:21.059273 14773 net.cpp:129] Top shape: 100 16 32 32 (1638400)
I1019 01:43:21.059276 14773 net.cpp:137] Memory required for data: 138855600
I1019 01:43:21.059279 14773 layer_factory.hpp:77] Creating layer group0_block1_conv1
I1019 01:43:21.059289 14773 net.cpp:84] Creating Layer group0_block1_conv1
I1019 01:43:21.059293 14773 net.cpp:406] group0_block1_conv1 <- group0_block1_conv0
I1019 01:43:21.059301 14773 net.cpp:380] group0_block1_conv1 -> group0_block1_conv1
I1019 01:43:21.059612 14773 net.cpp:122] Setting up group0_block1_conv1
I1019 01:43:21.059623 14773 net.cpp:129] Top shape: 100 16 32 32 (1638400)
I1019 01:43:21.059625 14773 net.cpp:137] Memory required for data: 145409200
I1019 01:43:21.059631 14773 layer_factory.hpp:77] Creating layer group0_block1_conv1_bn
I1019 01:43:21.059640 14773 net.cpp:84] Creating Layer group0_block1_conv1_bn
I1019 01:43:21.059644 14773 net.cpp:406] group0_block1_conv1_bn <- group0_block1_conv1
I1019 01:43:21.059651 14773 net.cpp:367] group0_block1_conv1_bn -> group0_block1_conv1 (in-place)
I1019 01:43:21.059944 14773 net.cpp:122] Setting up group0_block1_conv1_bn
I1019 01:43:21.059957 14773 net.cpp:129] Top shape: 100 16 32 32 (1638400)
I1019 01:43:21.059960 14773 net.cpp:137] Memory required for data: 151962800
I1019 01:43:21.059974 14773 layer_factory.hpp:77] Creating layer group0_block1_conv1_scale
I1019 01:43:21.059983 14773 net.cpp:84] Creating Layer group0_block1_conv1_scale
I1019 01:43:21.059986 14773 net.cpp:406] group0_block1_conv1_scale <- group0_block1_conv1
I1019 01:43:21.059994 14773 net.cpp:367] group0_block1_conv1_scale -> group0_block1_conv1 (in-place)
I1019 01:43:21.060101 14773 layer_factory.hpp:77] Creating layer group0_block1_conv1_scale
I1019 01:43:21.060235 14773 net.cpp:122] Setting up group0_block1_conv1_scale
I1019 01:43:21.060245 14773 net.cpp:129] Top shape: 100 16 32 32 (1638400)
I1019 01:43:21.060247 14773 net.cpp:137] Memory required for data: 158516400
I1019 01:43:21.060254 14773 layer_factory.hpp:77] Creating layer group0_block1_sum
I1019 01:43:21.060263 14773 net.cpp:84] Creating Layer group0_block1_sum
I1019 01:43:21.060267 14773 net.cpp:406] group0_block1_sum <- group0_block1_conv1
I1019 01:43:21.060271 14773 net.cpp:406] group0_block1_sum <- group0_block0_sum_group0_block0_relu_0_split_1
I1019 01:43:21.060278 14773 net.cpp:380] group0_block1_sum -> group0_block1_sum
I1019 01:43:21.060308 14773 net.cpp:122] Setting up group0_block1_sum
I1019 01:43:21.060317 14773 net.cpp:129] Top shape: 100 16 32 32 (1638400)
I1019 01:43:21.060320 14773 net.cpp:137] Memory required for data: 165070000
I1019 01:43:21.060324 14773 layer_factory.hpp:77] Creating layer group0_block1_relu
I1019 01:43:21.060329 14773 net.cpp:84] Creating Layer group0_block1_relu
I1019 01:43:21.060349 14773 net.cpp:406] group0_block1_relu <- group0_block1_sum
I1019 01:43:21.060355 14773 net.cpp:367] group0_block1_relu -> group0_block1_sum (in-place)
I1019 01:43:21.060362 14773 net.cpp:122] Setting up group0_block1_relu
I1019 01:43:21.060367 14773 net.cpp:129] Top shape: 100 16 32 32 (1638400)
I1019 01:43:21.060370 14773 net.cpp:137] Memory required for data: 171623600
I1019 01:43:21.060374 14773 layer_factory.hpp:77] Creating layer group0_block1_sum_group0_block1_relu_0_split
I1019 01:43:21.060379 14773 net.cpp:84] Creating Layer group0_block1_sum_group0_block1_relu_0_split
I1019 01:43:21.060382 14773 net.cpp:406] group0_block1_sum_group0_block1_relu_0_split <- group0_block1_sum
I1019 01:43:21.060389 14773 net.cpp:380] group0_block1_sum_group0_block1_relu_0_split -> group0_block1_sum_group0_block1_relu_0_split_0
I1019 01:43:21.060396 14773 net.cpp:380] group0_block1_sum_group0_block1_relu_0_split -> group0_block1_sum_group0_block1_relu_0_split_1
I1019 01:43:21.060444 14773 net.cpp:122] Setting up group0_block1_sum_group0_block1_relu_0_split
I1019 01:43:21.060453 14773 net.cpp:129] Top shape: 100 16 32 32 (1638400)
I1019 01:43:21.060458 14773 net.cpp:129] Top shape: 100 16 32 32 (1638400)
I1019 01:43:21.060461 14773 net.cpp:137] Memory required for data: 184730800
I1019 01:43:21.060464 14773 layer_factory.hpp:77] Creating layer group0_block2_conv0
I1019 01:43:21.060473 14773 net.cpp:84] Creating Layer group0_block2_conv0
I1019 01:43:21.060477 14773 net.cpp:406] group0_block2_conv0 <- group0_block1_sum_group0_block1_relu_0_split_0
I1019 01:43:21.060485 14773 net.cpp:380] group0_block2_conv0 -> group0_block2_conv0
I1019 01:43:21.060781 14773 net.cpp:122] Setting up group0_block2_conv0
I1019 01:43:21.060791 14773 net.cpp:129] Top shape: 100 16 32 32 (1638400)
I1019 01:43:21.060794 14773 net.cpp:137] Memory required for data: 191284400
I1019 01:43:21.060801 14773 layer_factory.hpp:77] Creating layer group0_block2_conv0_bn
I1019 01:43:21.060808 14773 net.cpp:84] Creating Layer group0_block2_conv0_bn
I1019 01:43:21.060811 14773 net.cpp:406] group0_block2_conv0_bn <- group0_block2_conv0
I1019 01:43:21.060820 14773 net.cpp:367] group0_block2_conv0_bn -> group0_block2_conv0 (in-place)
I1019 01:43:21.061039 14773 net.cpp:122] Setting up group0_block2_conv0_bn
I1019 01:43:21.061050 14773 net.cpp:129] Top shape: 100 16 32 32 (1638400)
I1019 01:43:21.061053 14773 net.cpp:137] Memory required for data: 197838000
I1019 01:43:21.061061 14773 layer_factory.hpp:77] Creating layer group0_block2_conv0_scale
I1019 01:43:21.061067 14773 net.cpp:84] Creating Layer group0_block2_conv0_scale
I1019 01:43:21.061071 14773 net.cpp:406] group0_block2_conv0_scale <- group0_block2_conv0
I1019 01:43:21.061076 14773 net.cpp:367] group0_block2_conv0_scale -> group0_block2_conv0 (in-place)
I1019 01:43:21.061127 14773 layer_factory.hpp:77] Creating layer group0_block2_conv0_scale
I1019 01:43:21.061257 14773 net.cpp:122] Setting up group0_block2_conv0_scale
I1019 01:43:21.061267 14773 net.cpp:129] Top shape: 100 16 32 32 (1638400)
I1019 01:43:21.061270 14773 net.cpp:137] Memory required for data: 204391600
I1019 01:43:21.061277 14773 layer_factory.hpp:77] Creating layer group0_block2_conv0_relu
I1019 01:43:21.061283 14773 net.cpp:84] Creating Layer group0_block2_conv0_relu
I1019 01:43:21.061286 14773 net.cpp:406] group0_block2_conv0_relu <- group0_block2_conv0
I1019 01:43:21.061295 14773 net.cpp:367] group0_block2_conv0_relu -> group0_block2_conv0 (in-place)
I1019 01:43:21.061300 14773 net.cpp:122] Setting up group0_block2_conv0_relu
I1019 01:43:21.061305 14773 net.cpp:129] Top shape: 100 16 32 32 (1638400)
I1019 01:43:21.061308 14773 net.cpp:137] Memory required for data: 210945200
I1019 01:43:21.061311 14773 layer_factory.hpp:77] Creating layer group0_block2_conv1
I1019 01:43:21.061321 14773 net.cpp:84] Creating Layer group0_block2_conv1
I1019 01:43:21.061326 14773 net.cpp:406] group0_block2_conv1 <- group0_block2_conv0
I1019 01:43:21.061331 14773 net.cpp:380] group0_block2_conv1 -> group0_block2_conv1
I1019 01:43:21.061642 14773 net.cpp:122] Setting up group0_block2_conv1
I1019 01:43:21.061655 14773 net.cpp:129] Top shape: 100 16 32 32 (1638400)
I1019 01:43:21.061657 14773 net.cpp:137] Memory required for data: 217498800
I1019 01:43:21.061663 14773 layer_factory.hpp:77] Creating layer group0_block2_conv1_bn
I1019 01:43:21.061679 14773 net.cpp:84] Creating Layer group0_block2_conv1_bn
I1019 01:43:21.061684 14773 net.cpp:406] group0_block2_conv1_bn <- group0_block2_conv1
I1019 01:43:21.061691 14773 net.cpp:367] group0_block2_conv1_bn -> group0_block2_conv1 (in-place)
I1019 01:43:21.061908 14773 net.cpp:122] Setting up group0_block2_conv1_bn
I1019 01:43:21.061918 14773 net.cpp:129] Top shape: 100 16 32 32 (1638400)
I1019 01:43:21.061921 14773 net.cpp:137] Memory required for data: 224052400
I1019 01:43:21.061929 14773 layer_factory.hpp:77] Creating layer group0_block2_conv1_scale
I1019 01:43:21.061939 14773 net.cpp:84] Creating Layer group0_block2_conv1_scale
I1019 01:43:21.061942 14773 net.cpp:406] group0_block2_conv1_scale <- group0_block2_conv1
I1019 01:43:21.061949 14773 net.cpp:367] group0_block2_conv1_scale -> group0_block2_conv1 (in-place)
I1019 01:43:21.061995 14773 layer_factory.hpp:77] Creating layer group0_block2_conv1_scale
I1019 01:43:21.062124 14773 net.cpp:122] Setting up group0_block2_conv1_scale
I1019 01:43:21.062132 14773 net.cpp:129] Top shape: 100 16 32 32 (1638400)
I1019 01:43:21.062136 14773 net.cpp:137] Memory required for data: 230606000
I1019 01:43:21.062142 14773 layer_factory.hpp:77] Creating layer group0_block2_sum
I1019 01:43:21.062150 14773 net.cpp:84] Creating Layer group0_block2_sum
I1019 01:43:21.062155 14773 net.cpp:406] group0_block2_sum <- group0_block2_conv1
I1019 01:43:21.062160 14773 net.cpp:406] group0_block2_sum <- group0_block1_sum_group0_block1_relu_0_split_1
I1019 01:43:21.062165 14773 net.cpp:380] group0_block2_sum -> group0_block2_sum
I1019 01:43:21.062196 14773 net.cpp:122] Setting up group0_block2_sum
I1019 01:43:21.062203 14773 net.cpp:129] Top shape: 100 16 32 32 (1638400)
I1019 01:43:21.062206 14773 net.cpp:137] Memory required for data: 237159600
I1019 01:43:21.062209 14773 layer_factory.hpp:77] Creating layer group0_block2_relu
I1019 01:43:21.062216 14773 net.cpp:84] Creating Layer group0_block2_relu
I1019 01:43:21.062218 14773 net.cpp:406] group0_block2_relu <- group0_block2_sum
I1019 01:43:21.062225 14773 net.cpp:367] group0_block2_relu -> group0_block2_sum (in-place)
I1019 01:43:21.062232 14773 net.cpp:122] Setting up group0_block2_relu
I1019 01:43:21.062237 14773 net.cpp:129] Top shape: 100 16 32 32 (1638400)
I1019 01:43:21.062239 14773 net.cpp:137] Memory required for data: 243713200
I1019 01:43:21.062242 14773 layer_factory.hpp:77] Creating layer group0_block2_sum_group0_block2_relu_0_split
I1019 01:43:21.062248 14773 net.cpp:84] Creating Layer group0_block2_sum_group0_block2_relu_0_split
I1019 01:43:21.062252 14773 net.cpp:406] group0_block2_sum_group0_block2_relu_0_split <- group0_block2_sum
I1019 01:43:21.062258 14773 net.cpp:380] group0_block2_sum_group0_block2_relu_0_split -> group0_block2_sum_group0_block2_relu_0_split_0
I1019 01:43:21.062264 14773 net.cpp:380] group0_block2_sum_group0_block2_relu_0_split -> group0_block2_sum_group0_block2_relu_0_split_1
I1019 01:43:21.062309 14773 net.cpp:122] Setting up group0_block2_sum_group0_block2_relu_0_split
I1019 01:43:21.062319 14773 net.cpp:129] Top shape: 100 16 32 32 (1638400)
I1019 01:43:21.062322 14773 net.cpp:129] Top shape: 100 16 32 32 (1638400)
I1019 01:43:21.062325 14773 net.cpp:137] Memory required for data: 256820400
I1019 01:43:21.062330 14773 layer_factory.hpp:77] Creating layer group1_block0_conv0
I1019 01:43:21.062340 14773 net.cpp:84] Creating Layer group1_block0_conv0
I1019 01:43:21.062343 14773 net.cpp:406] group1_block0_conv0 <- group0_block2_sum_group0_block2_relu_0_split_0
I1019 01:43:21.062350 14773 net.cpp:380] group1_block0_conv0 -> group1_block0_conv0
I1019 01:43:21.062750 14773 net.cpp:122] Setting up group1_block0_conv0
I1019 01:43:21.062762 14773 net.cpp:129] Top shape: 100 32 16 16 (819200)
I1019 01:43:21.062782 14773 net.cpp:137] Memory required for data: 260097200
I1019 01:43:21.062789 14773 layer_factory.hpp:77] Creating layer group1_block0_conv0_bn
I1019 01:43:21.062798 14773 net.cpp:84] Creating Layer group1_block0_conv0_bn
I1019 01:43:21.062803 14773 net.cpp:406] group1_block0_conv0_bn <- group1_block0_conv0
I1019 01:43:21.062809 14773 net.cpp:367] group1_block0_conv0_bn -> group1_block0_conv0 (in-place)
I1019 01:43:21.063105 14773 net.cpp:122] Setting up group1_block0_conv0_bn
I1019 01:43:21.063117 14773 net.cpp:129] Top shape: 100 32 16 16 (819200)
I1019 01:43:21.063119 14773 net.cpp:137] Memory required for data: 263374000
I1019 01:43:21.063127 14773 layer_factory.hpp:77] Creating layer group1_block0_conv0_scale
I1019 01:43:21.063133 14773 net.cpp:84] Creating Layer group1_block0_conv0_scale
I1019 01:43:21.063138 14773 net.cpp:406] group1_block0_conv0_scale <- group1_block0_conv0
I1019 01:43:21.063144 14773 net.cpp:367] group1_block0_conv0_scale -> group1_block0_conv0 (in-place)
I1019 01:43:21.063189 14773 layer_factory.hpp:77] Creating layer group1_block0_conv0_scale
I1019 01:43:21.063314 14773 net.cpp:122] Setting up group1_block0_conv0_scale
I1019 01:43:21.063323 14773 net.cpp:129] Top shape: 100 32 16 16 (819200)
I1019 01:43:21.063326 14773 net.cpp:137] Memory required for data: 266650800
I1019 01:43:21.063333 14773 layer_factory.hpp:77] Creating layer group1_block0_conv0_relu
I1019 01:43:21.063339 14773 net.cpp:84] Creating Layer group1_block0_conv0_relu
I1019 01:43:21.063344 14773 net.cpp:406] group1_block0_conv0_relu <- group1_block0_conv0
I1019 01:43:21.063350 14773 net.cpp:367] group1_block0_conv0_relu -> group1_block0_conv0 (in-place)
I1019 01:43:21.063356 14773 net.cpp:122] Setting up group1_block0_conv0_relu
I1019 01:43:21.063361 14773 net.cpp:129] Top shape: 100 32 16 16 (819200)
I1019 01:43:21.063364 14773 net.cpp:137] Memory required for data: 269927600
I1019 01:43:21.063367 14773 layer_factory.hpp:77] Creating layer group1_block0_conv1
I1019 01:43:21.063376 14773 net.cpp:84] Creating Layer group1_block0_conv1
I1019 01:43:21.063380 14773 net.cpp:406] group1_block0_conv1 <- group1_block0_conv0
I1019 01:43:21.063385 14773 net.cpp:380] group1_block0_conv1 -> group1_block0_conv1
I1019 01:43:21.063782 14773 net.cpp:122] Setting up group1_block0_conv1
I1019 01:43:21.063796 14773 net.cpp:129] Top shape: 100 32 16 16 (819200)
I1019 01:43:21.063799 14773 net.cpp:137] Memory required for data: 273204400
I1019 01:43:21.063805 14773 layer_factory.hpp:77] Creating layer group1_block0_conv1_bn
I1019 01:43:21.063812 14773 net.cpp:84] Creating Layer group1_block0_conv1_bn
I1019 01:43:21.063818 14773 net.cpp:406] group1_block0_conv1_bn <- group1_block0_conv1
I1019 01:43:21.063824 14773 net.cpp:367] group1_block0_conv1_bn -> group1_block0_conv1 (in-place)
I1019 01:43:21.064038 14773 net.cpp:122] Setting up group1_block0_conv1_bn
I1019 01:43:21.064049 14773 net.cpp:129] Top shape: 100 32 16 16 (819200)
I1019 01:43:21.064051 14773 net.cpp:137] Memory required for data: 276481200
I1019 01:43:21.064059 14773 layer_factory.hpp:77] Creating layer group1_block0_conv1_scale
I1019 01:43:21.064067 14773 net.cpp:84] Creating Layer group1_block0_conv1_scale
I1019 01:43:21.064072 14773 net.cpp:406] group1_block0_conv1_scale <- group1_block0_conv1
I1019 01:43:21.064077 14773 net.cpp:367] group1_block0_conv1_scale -> group1_block0_conv1 (in-place)
I1019 01:43:21.064123 14773 layer_factory.hpp:77] Creating layer group1_block0_conv1_scale
I1019 01:43:21.064249 14773 net.cpp:122] Setting up group1_block0_conv1_scale
I1019 01:43:21.064258 14773 net.cpp:129] Top shape: 100 32 16 16 (819200)
I1019 01:43:21.064261 14773 net.cpp:137] Memory required for data: 279758000
I1019 01:43:21.064267 14773 layer_factory.hpp:77] Creating layer group1_block0_proj
I1019 01:43:21.064277 14773 net.cpp:84] Creating Layer group1_block0_proj
I1019 01:43:21.064281 14773 net.cpp:406] group1_block0_proj <- group0_block2_sum_group0_block2_relu_0_split_1
I1019 01:43:21.064291 14773 net.cpp:380] group1_block0_proj -> group1_block0_proj
I1019 01:43:21.064579 14773 net.cpp:122] Setting up group1_block0_proj
I1019 01:43:21.064589 14773 net.cpp:129] Top shape: 100 32 16 16 (819200)
I1019 01:43:21.064594 14773 net.cpp:137] Memory required for data: 283034800
I1019 01:43:21.064610 14773 layer_factory.hpp:77] Creating layer group1_block0_proj_bn
I1019 01:43:21.064621 14773 net.cpp:84] Creating Layer group1_block0_proj_bn
I1019 01:43:21.064625 14773 net.cpp:406] group1_block0_proj_bn <- group1_block0_proj
I1019 01:43:21.064632 14773 net.cpp:367] group1_block0_proj_bn -> group1_block0_proj (in-place)
I1019 01:43:21.064838 14773 net.cpp:122] Setting up group1_block0_proj_bn
I1019 01:43:21.064848 14773 net.cpp:129] Top shape: 100 32 16 16 (819200)
I1019 01:43:21.064851 14773 net.cpp:137] Memory required for data: 286311600
I1019 01:43:21.064858 14773 layer_factory.hpp:77] Creating layer group1_block0_proj_scale
I1019 01:43:21.064867 14773 net.cpp:84] Creating Layer group1_block0_proj_scale
I1019 01:43:21.064869 14773 net.cpp:406] group1_block0_proj_scale <- group1_block0_proj
I1019 01:43:21.064874 14773 net.cpp:367] group1_block0_proj_scale -> group1_block0_proj (in-place)
I1019 01:43:21.064919 14773 layer_factory.hpp:77] Creating layer group1_block0_proj_scale
I1019 01:43:21.065052 14773 net.cpp:122] Setting up group1_block0_proj_scale
I1019 01:43:21.065062 14773 net.cpp:129] Top shape: 100 32 16 16 (819200)
I1019 01:43:21.065064 14773 net.cpp:137] Memory required for data: 289588400
I1019 01:43:21.065070 14773 layer_factory.hpp:77] Creating layer group1_block0_sum
I1019 01:43:21.065078 14773 net.cpp:84] Creating Layer group1_block0_sum
I1019 01:43:21.065083 14773 net.cpp:406] group1_block0_sum <- group1_block0_proj
I1019 01:43:21.065088 14773 net.cpp:406] group1_block0_sum <- group1_block0_conv1
I1019 01:43:21.065094 14773 net.cpp:380] group1_block0_sum -> group1_block0_sum
I1019 01:43:21.065116 14773 net.cpp:122] Setting up group1_block0_sum
I1019 01:43:21.065124 14773 net.cpp:129] Top shape: 100 32 16 16 (819200)
I1019 01:43:21.065127 14773 net.cpp:137] Memory required for data: 292865200
I1019 01:43:21.065130 14773 layer_factory.hpp:77] Creating layer group1_block0_relu
I1019 01:43:21.065135 14773 net.cpp:84] Creating Layer group1_block0_relu
I1019 01:43:21.065140 14773 net.cpp:406] group1_block0_relu <- group1_block0_sum
I1019 01:43:21.065146 14773 net.cpp:367] group1_block0_relu -> group1_block0_sum (in-place)
I1019 01:43:21.065151 14773 net.cpp:122] Setting up group1_block0_relu
I1019 01:43:21.065156 14773 net.cpp:129] Top shape: 100 32 16 16 (819200)
I1019 01:43:21.065160 14773 net.cpp:137] Memory required for data: 296142000
I1019 01:43:21.065162 14773 layer_factory.hpp:77] Creating layer group1_block0_sum_group1_block0_relu_0_split
I1019 01:43:21.065166 14773 net.cpp:84] Creating Layer group1_block0_sum_group1_block0_relu_0_split
I1019 01:43:21.065171 14773 net.cpp:406] group1_block0_sum_group1_block0_relu_0_split <- group1_block0_sum
I1019 01:43:21.065176 14773 net.cpp:380] group1_block0_sum_group1_block0_relu_0_split -> group1_block0_sum_group1_block0_relu_0_split_0
I1019 01:43:21.065182 14773 net.cpp:380] group1_block0_sum_group1_block0_relu_0_split -> group1_block0_sum_group1_block0_relu_0_split_1
I1019 01:43:21.065222 14773 net.cpp:122] Setting up group1_block0_sum_group1_block0_relu_0_split
I1019 01:43:21.065230 14773 net.cpp:129] Top shape: 100 32 16 16 (819200)
I1019 01:43:21.065234 14773 net.cpp:129] Top shape: 100 32 16 16 (819200)
I1019 01:43:21.065237 14773 net.cpp:137] Memory required for data: 302695600
I1019 01:43:21.065241 14773 layer_factory.hpp:77] Creating layer group1_block1_conv0
I1019 01:43:21.065251 14773 net.cpp:84] Creating Layer group1_block1_conv0
I1019 01:43:21.065254 14773 net.cpp:406] group1_block1_conv0 <- group1_block0_sum_group1_block0_relu_0_split_0
I1019 01:43:21.065261 14773 net.cpp:380] group1_block1_conv0 -> group1_block1_conv0
I1019 01:43:21.065685 14773 net.cpp:122] Setting up group1_block1_conv0
I1019 01:43:21.065696 14773 net.cpp:129] Top shape: 100 32 16 16 (819200)
I1019 01:43:21.065699 14773 net.cpp:137] Memory required for data: 305972400
I1019 01:43:21.065721 14773 layer_factory.hpp:77] Creating layer group1_block1_conv0_bn
I1019 01:43:21.065729 14773 net.cpp:84] Creating Layer group1_block1_conv0_bn
I1019 01:43:21.065733 14773 net.cpp:406] group1_block1_conv0_bn <- group1_block1_conv0
I1019 01:43:21.065742 14773 net.cpp:367] group1_block1_conv0_bn -> group1_block1_conv0 (in-place)
I1019 01:43:21.066028 14773 net.cpp:122] Setting up group1_block1_conv0_bn
I1019 01:43:21.066038 14773 net.cpp:129] Top shape: 100 32 16 16 (819200)
I1019 01:43:21.066041 14773 net.cpp:137] Memory required for data: 309249200
I1019 01:43:21.066049 14773 layer_factory.hpp:77] Creating layer group1_block1_conv0_scale
I1019 01:43:21.066056 14773 net.cpp:84] Creating Layer group1_block1_conv0_scale
I1019 01:43:21.066059 14773 net.cpp:406] group1_block1_conv0_scale <- group1_block1_conv0
I1019 01:43:21.066066 14773 net.cpp:367] group1_block1_conv0_scale -> group1_block1_conv0 (in-place)
I1019 01:43:21.066118 14773 layer_factory.hpp:77] Creating layer group1_block1_conv0_scale
I1019 01:43:21.066249 14773 net.cpp:122] Setting up group1_block1_conv0_scale
I1019 01:43:21.066258 14773 net.cpp:129] Top shape: 100 32 16 16 (819200)
I1019 01:43:21.066262 14773 net.cpp:137] Memory required for data: 312526000
I1019 01:43:21.066268 14773 layer_factory.hpp:77] Creating layer group1_block1_conv0_relu
I1019 01:43:21.066274 14773 net.cpp:84] Creating Layer group1_block1_conv0_relu
I1019 01:43:21.066277 14773 net.cpp:406] group1_block1_conv0_relu <- group1_block1_conv0
I1019 01:43:21.066284 14773 net.cpp:367] group1_block1_conv0_relu -> group1_block1_conv0 (in-place)
I1019 01:43:21.066290 14773 net.cpp:122] Setting up group1_block1_conv0_relu
I1019 01:43:21.066294 14773 net.cpp:129] Top shape: 100 32 16 16 (819200)
I1019 01:43:21.066298 14773 net.cpp:137] Memory required for data: 315802800
I1019 01:43:21.066301 14773 layer_factory.hpp:77] Creating layer group1_block1_conv1
I1019 01:43:21.066313 14773 net.cpp:84] Creating Layer group1_block1_conv1
I1019 01:43:21.066315 14773 net.cpp:406] group1_block1_conv1 <- group1_block1_conv0
I1019 01:43:21.066321 14773 net.cpp:380] group1_block1_conv1 -> group1_block1_conv1
I1019 01:43:21.066691 14773 net.cpp:122] Setting up group1_block1_conv1
I1019 01:43:21.066701 14773 net.cpp:129] Top shape: 100 32 16 16 (819200)
I1019 01:43:21.066704 14773 net.cpp:137] Memory required for data: 319079600
I1019 01:43:21.066710 14773 layer_factory.hpp:77] Creating layer group1_block1_conv1_bn
I1019 01:43:21.066723 14773 net.cpp:84] Creating Layer group1_block1_conv1_bn
I1019 01:43:21.066727 14773 net.cpp:406] group1_block1_conv1_bn <- group1_block1_conv1
I1019 01:43:21.066732 14773 net.cpp:367] group1_block1_conv1_bn -> group1_block1_conv1 (in-place)
I1019 01:43:21.066939 14773 net.cpp:122] Setting up group1_block1_conv1_bn
I1019 01:43:21.066948 14773 net.cpp:129] Top shape: 100 32 16 16 (819200)
I1019 01:43:21.066952 14773 net.cpp:137] Memory required for data: 322356400
I1019 01:43:21.066959 14773 layer_factory.hpp:77] Creating layer group1_block1_conv1_scale
I1019 01:43:21.066967 14773 net.cpp:84] Creating Layer group1_block1_conv1_scale
I1019 01:43:21.066969 14773 net.cpp:406] group1_block1_conv1_scale <- group1_block1_conv1
I1019 01:43:21.066975 14773 net.cpp:367] group1_block1_conv1_scale -> group1_block1_conv1 (in-place)
I1019 01:43:21.067020 14773 layer_factory.hpp:77] Creating layer group1_block1_conv1_scale
I1019 01:43:21.067148 14773 net.cpp:122] Setting up group1_block1_conv1_scale
I1019 01:43:21.067157 14773 net.cpp:129] Top shape: 100 32 16 16 (819200)
I1019 01:43:21.067160 14773 net.cpp:137] Memory required for data: 325633200
I1019 01:43:21.067167 14773 layer_factory.hpp:77] Creating layer group1_block1_sum
I1019 01:43:21.067174 14773 net.cpp:84] Creating Layer group1_block1_sum
I1019 01:43:21.067178 14773 net.cpp:406] group1_block1_sum <- group1_block1_conv1
I1019 01:43:21.067183 14773 net.cpp:406] group1_block1_sum <- group1_block0_sum_group1_block0_relu_0_split_1
I1019 01:43:21.067190 14773 net.cpp:380] group1_block1_sum -> group1_block1_sum
I1019 01:43:21.067227 14773 net.cpp:122] Setting up group1_block1_sum
I1019 01:43:21.067236 14773 net.cpp:129] Top shape: 100 32 16 16 (819200)
I1019 01:43:21.067239 14773 net.cpp:137] Memory required for data: 328910000
I1019 01:43:21.067243 14773 layer_factory.hpp:77] Creating layer group1_block1_relu
I1019 01:43:21.067248 14773 net.cpp:84] Creating Layer group1_block1_relu
I1019 01:43:21.067251 14773 net.cpp:406] group1_block1_relu <- group1_block1_sum
I1019 01:43:21.067260 14773 net.cpp:367] group1_block1_relu -> group1_block1_sum (in-place)
I1019 01:43:21.067265 14773 net.cpp:122] Setting up group1_block1_relu
I1019 01:43:21.067270 14773 net.cpp:129] Top shape: 100 32 16 16 (819200)
I1019 01:43:21.067272 14773 net.cpp:137] Memory required for data: 332186800
I1019 01:43:21.067276 14773 layer_factory.hpp:77] Creating layer group1_block1_sum_group1_block1_relu_0_split
I1019 01:43:21.067281 14773 net.cpp:84] Creating Layer group1_block1_sum_group1_block1_relu_0_split
I1019 01:43:21.067283 14773 net.cpp:406] group1_block1_sum_group1_block1_relu_0_split <- group1_block1_sum
I1019 01:43:21.067288 14773 net.cpp:380] group1_block1_sum_group1_block1_relu_0_split -> group1_block1_sum_group1_block1_relu_0_split_0
I1019 01:43:21.067296 14773 net.cpp:380] group1_block1_sum_group1_block1_relu_0_split -> group1_block1_sum_group1_block1_relu_0_split_1
I1019 01:43:21.067344 14773 net.cpp:122] Setting up group1_block1_sum_group1_block1_relu_0_split
I1019 01:43:21.067353 14773 net.cpp:129] Top shape: 100 32 16 16 (819200)
I1019 01:43:21.067358 14773 net.cpp:129] Top shape: 100 32 16 16 (819200)
I1019 01:43:21.067360 14773 net.cpp:137] Memory required for data: 338740400
I1019 01:43:21.067363 14773 layer_factory.hpp:77] Creating layer group1_block2_conv0
I1019 01:43:21.067373 14773 net.cpp:84] Creating Layer group1_block2_conv0
I1019 01:43:21.067375 14773 net.cpp:406] group1_block2_conv0 <- group1_block1_sum_group1_block1_relu_0_split_0
I1019 01:43:21.067382 14773 net.cpp:380] group1_block2_conv0 -> group1_block2_conv0
I1019 01:43:21.067788 14773 net.cpp:122] Setting up group1_block2_conv0
I1019 01:43:21.067801 14773 net.cpp:129] Top shape: 100 32 16 16 (819200)
I1019 01:43:21.067804 14773 net.cpp:137] Memory required for data: 342017200
I1019 01:43:21.067811 14773 layer_factory.hpp:77] Creating layer group1_block2_conv0_bn
I1019 01:43:21.067821 14773 net.cpp:84] Creating Layer group1_block2_conv0_bn
I1019 01:43:21.067826 14773 net.cpp:406] group1_block2_conv0_bn <- group1_block2_conv0
I1019 01:43:21.067831 14773 net.cpp:367] group1_block2_conv0_bn -> group1_block2_conv0 (in-place)
I1019 01:43:21.068040 14773 net.cpp:122] Setting up group1_block2_conv0_bn
I1019 01:43:21.068050 14773 net.cpp:129] Top shape: 100 32 16 16 (819200)
I1019 01:43:21.068053 14773 net.cpp:137] Memory required for data: 345294000
I1019 01:43:21.068061 14773 layer_factory.hpp:77] Creating layer group1_block2_conv0_scale
I1019 01:43:21.068073 14773 net.cpp:84] Creating Layer group1_block2_conv0_scale
I1019 01:43:21.068078 14773 net.cpp:406] group1_block2_conv0_scale <- group1_block2_conv0
I1019 01:43:21.068083 14773 net.cpp:367] group1_block2_conv0_scale -> group1_block2_conv0 (in-place)
I1019 01:43:21.068128 14773 layer_factory.hpp:77] Creating layer group1_block2_conv0_scale
I1019 01:43:21.068296 14773 net.cpp:122] Setting up group1_block2_conv0_scale
I1019 01:43:21.068306 14773 net.cpp:129] Top shape: 100 32 16 16 (819200)
I1019 01:43:21.068310 14773 net.cpp:137] Memory required for data: 348570800
I1019 01:43:21.068315 14773 layer_factory.hpp:77] Creating layer group1_block2_conv0_relu
I1019 01:43:21.068323 14773 net.cpp:84] Creating Layer group1_block2_conv0_relu
I1019 01:43:21.068326 14773 net.cpp:406] group1_block2_conv0_relu <- group1_block2_conv0
I1019 01:43:21.068333 14773 net.cpp:367] group1_block2_conv0_relu -> group1_block2_conv0 (in-place)
I1019 01:43:21.068339 14773 net.cpp:122] Setting up group1_block2_conv0_relu
I1019 01:43:21.068344 14773 net.cpp:129] Top shape: 100 32 16 16 (819200)
I1019 01:43:21.068346 14773 net.cpp:137] Memory required for data: 351847600
I1019 01:43:21.068367 14773 layer_factory.hpp:77] Creating layer group1_block2_conv1
I1019 01:43:21.068390 14773 net.cpp:84] Creating Layer group1_block2_conv1
I1019 01:43:21.068395 14773 net.cpp:406] group1_block2_conv1 <- group1_block2_conv0
I1019 01:43:21.068403 14773 net.cpp:380] group1_block2_conv1 -> group1_block2_conv1
I1019 01:43:21.068783 14773 net.cpp:122] Setting up group1_block2_conv1
I1019 01:43:21.068794 14773 net.cpp:129] Top shape: 100 32 16 16 (819200)
I1019 01:43:21.068797 14773 net.cpp:137] Memory required for data: 355124400
I1019 01:43:21.068804 14773 layer_factory.hpp:77] Creating layer group1_block2_conv1_bn
I1019 01:43:21.068810 14773 net.cpp:84] Creating Layer group1_block2_conv1_bn
I1019 01:43:21.068814 14773 net.cpp:406] group1_block2_conv1_bn <- group1_block2_conv1
I1019 01:43:21.068819 14773 net.cpp:367] group1_block2_conv1_bn -> group1_block2_conv1 (in-place)
I1019 01:43:21.069025 14773 net.cpp:122] Setting up group1_block2_conv1_bn
I1019 01:43:21.069034 14773 net.cpp:129] Top shape: 100 32 16 16 (819200)
I1019 01:43:21.069037 14773 net.cpp:137] Memory required for data: 358401200
I1019 01:43:21.069046 14773 layer_factory.hpp:77] Creating layer group1_block2_conv1_scale
I1019 01:43:21.069053 14773 net.cpp:84] Creating Layer group1_block2_conv1_scale
I1019 01:43:21.069058 14773 net.cpp:406] group1_block2_conv1_scale <- group1_block2_conv1
I1019 01:43:21.069063 14773 net.cpp:367] group1_block2_conv1_scale -> group1_block2_conv1 (in-place)
I1019 01:43:21.069109 14773 layer_factory.hpp:77] Creating layer group1_block2_conv1_scale
I1019 01:43:21.069234 14773 net.cpp:122] Setting up group1_block2_conv1_scale
I1019 01:43:21.069243 14773 net.cpp:129] Top shape: 100 32 16 16 (819200)
I1019 01:43:21.069247 14773 net.cpp:137] Memory required for data: 361678000
I1019 01:43:21.069252 14773 layer_factory.hpp:77] Creating layer group1_block2_sum
I1019 01:43:21.069263 14773 net.cpp:84] Creating Layer group1_block2_sum
I1019 01:43:21.069269 14773 net.cpp:406] group1_block2_sum <- group1_block2_conv1
I1019 01:43:21.069274 14773 net.cpp:406] group1_block2_sum <- group1_block1_sum_group1_block1_relu_0_split_1
I1019 01:43:21.069281 14773 net.cpp:380] group1_block2_sum -> group1_block2_sum
I1019 01:43:21.069304 14773 net.cpp:122] Setting up group1_block2_sum
I1019 01:43:21.069313 14773 net.cpp:129] Top shape: 100 32 16 16 (819200)
I1019 01:43:21.069315 14773 net.cpp:137] Memory required for data: 364954800
I1019 01:43:21.069319 14773 layer_factory.hpp:77] Creating layer group1_block2_relu
I1019 01:43:21.069324 14773 net.cpp:84] Creating Layer group1_block2_relu
I1019 01:43:21.069327 14773 net.cpp:406] group1_block2_relu <- group1_block2_sum
I1019 01:43:21.069339 14773 net.cpp:367] group1_block2_relu -> group1_block2_sum (in-place)
I1019 01:43:21.069346 14773 net.cpp:122] Setting up group1_block2_relu
I1019 01:43:21.069351 14773 net.cpp:129] Top shape: 100 32 16 16 (819200)
I1019 01:43:21.069355 14773 net.cpp:137] Memory required for data: 368231600
I1019 01:43:21.069356 14773 layer_factory.hpp:77] Creating layer group1_block2_sum_group1_block2_relu_0_split
I1019 01:43:21.069362 14773 net.cpp:84] Creating Layer group1_block2_sum_group1_block2_relu_0_split
I1019 01:43:21.069365 14773 net.cpp:406] group1_block2_sum_group1_block2_relu_0_split <- group1_block2_sum
I1019 01:43:21.069370 14773 net.cpp:380] group1_block2_sum_group1_block2_relu_0_split -> group1_block2_sum_group1_block2_relu_0_split_0
I1019 01:43:21.069377 14773 net.cpp:380] group1_block2_sum_group1_block2_relu_0_split -> group1_block2_sum_group1_block2_relu_0_split_1
I1019 01:43:21.069416 14773 net.cpp:122] Setting up group1_block2_sum_group1_block2_relu_0_split
I1019 01:43:21.069424 14773 net.cpp:129] Top shape: 100 32 16 16 (819200)
I1019 01:43:21.069429 14773 net.cpp:129] Top shape: 100 32 16 16 (819200)
I1019 01:43:21.069432 14773 net.cpp:137] Memory required for data: 374785200
I1019 01:43:21.069434 14773 layer_factory.hpp:77] Creating layer group2_block0_conv0
I1019 01:43:21.069444 14773 net.cpp:84] Creating Layer group2_block0_conv0
I1019 01:43:21.069463 14773 net.cpp:406] group2_block0_conv0 <- group1_block2_sum_group1_block2_relu_0_split_0
I1019 01:43:21.069473 14773 net.cpp:380] group2_block0_conv0 -> group2_block0_conv0
I1019 01:43:21.069975 14773 net.cpp:122] Setting up group2_block0_conv0
I1019 01:43:21.069986 14773 net.cpp:129] Top shape: 100 64 8 8 (409600)
I1019 01:43:21.069989 14773 net.cpp:137] Memory required for data: 376423600
I1019 01:43:21.069995 14773 layer_factory.hpp:77] Creating layer group2_block0_conv0_bn
I1019 01:43:21.070003 14773 net.cpp:84] Creating Layer group2_block0_conv0_bn
I1019 01:43:21.070009 14773 net.cpp:406] group2_block0_conv0_bn <- group2_block0_conv0
I1019 01:43:21.070016 14773 net.cpp:367] group2_block0_conv0_bn -> group2_block0_conv0 (in-place)
I1019 01:43:21.070248 14773 net.cpp:122] Setting up group2_block0_conv0_bn
I1019 01:43:21.070261 14773 net.cpp:129] Top shape: 100 64 8 8 (409600)
I1019 01:43:21.070267 14773 net.cpp:137] Memory required for data: 378062000
I1019 01:43:21.070276 14773 layer_factory.hpp:77] Creating layer group2_block0_conv0_scale
I1019 01:43:21.070287 14773 net.cpp:84] Creating Layer group2_block0_conv0_scale
I1019 01:43:21.070293 14773 net.cpp:406] group2_block0_conv0_scale <- group2_block0_conv0
I1019 01:43:21.070299 14773 net.cpp:367] group2_block0_conv0_scale -> group2_block0_conv0 (in-place)
I1019 01:43:21.070350 14773 layer_factory.hpp:77] Creating layer group2_block0_conv0_scale
I1019 01:43:21.070487 14773 net.cpp:122] Setting up group2_block0_conv0_scale
I1019 01:43:21.070495 14773 net.cpp:129] Top shape: 100 64 8 8 (409600)
I1019 01:43:21.070498 14773 net.cpp:137] Memory required for data: 379700400
I1019 01:43:21.070504 14773 layer_factory.hpp:77] Creating layer group2_block0_conv0_relu
I1019 01:43:21.070509 14773 net.cpp:84] Creating Layer group2_block0_conv0_relu
I1019 01:43:21.070513 14773 net.cpp:406] group2_block0_conv0_relu <- group2_block0_conv0
I1019 01:43:21.070520 14773 net.cpp:367] group2_block0_conv0_relu -> group2_block0_conv0 (in-place)
I1019 01:43:21.070525 14773 net.cpp:122] Setting up group2_block0_conv0_relu
I1019 01:43:21.070533 14773 net.cpp:129] Top shape: 100 64 8 8 (409600)
I1019 01:43:21.070536 14773 net.cpp:137] Memory required for data: 381338800
I1019 01:43:21.070539 14773 layer_factory.hpp:77] Creating layer group2_block0_conv1
I1019 01:43:21.070546 14773 net.cpp:84] Creating Layer group2_block0_conv1
I1019 01:43:21.070552 14773 net.cpp:406] group2_block0_conv1 <- group2_block0_conv0
I1019 01:43:21.070559 14773 net.cpp:380] group2_block0_conv1 -> group2_block0_conv1
I1019 01:43:21.071316 14773 net.cpp:122] Setting up group2_block0_conv1
I1019 01:43:21.071326 14773 net.cpp:129] Top shape: 100 64 8 8 (409600)
I1019 01:43:21.071329 14773 net.cpp:137] Memory required for data: 382977200
I1019 01:43:21.071336 14773 layer_factory.hpp:77] Creating layer group2_block0_conv1_bn
I1019 01:43:21.071344 14773 net.cpp:84] Creating Layer group2_block0_conv1_bn
I1019 01:43:21.071350 14773 net.cpp:406] group2_block0_conv1_bn <- group2_block0_conv1
I1019 01:43:21.071355 14773 net.cpp:367] group2_block0_conv1_bn -> group2_block0_conv1 (in-place)
I1019 01:43:21.071581 14773 net.cpp:122] Setting up group2_block0_conv1_bn
I1019 01:43:21.071590 14773 net.cpp:129] Top shape: 100 64 8 8 (409600)
I1019 01:43:21.071594 14773 net.cpp:137] Memory required for data: 384615600
I1019 01:43:21.071601 14773 layer_factory.hpp:77] Creating layer group2_block0_conv1_scale
I1019 01:43:21.071611 14773 net.cpp:84] Creating Layer group2_block0_conv1_scale
I1019 01:43:21.071616 14773 net.cpp:406] group2_block0_conv1_scale <- group2_block0_conv1
I1019 01:43:21.071621 14773 net.cpp:367] group2_block0_conv1_scale -> group2_block0_conv1 (in-place)
I1019 01:43:21.071687 14773 layer_factory.hpp:77] Creating layer group2_block0_conv1_scale
I1019 01:43:21.071827 14773 net.cpp:122] Setting up group2_block0_conv1_scale
I1019 01:43:21.071836 14773 net.cpp:129] Top shape: 100 64 8 8 (409600)
I1019 01:43:21.071840 14773 net.cpp:137] Memory required for data: 386254000
I1019 01:43:21.071862 14773 layer_factory.hpp:77] Creating layer group2_block0_proj
I1019 01:43:21.071878 14773 net.cpp:84] Creating Layer group2_block0_proj
I1019 01:43:21.071885 14773 net.cpp:406] group2_block0_proj <- group1_block2_sum_group1_block2_relu_0_split_1
I1019 01:43:21.071892 14773 net.cpp:380] group2_block0_proj -> group2_block0_proj
I1019 01:43:21.072181 14773 net.cpp:122] Setting up group2_block0_proj
I1019 01:43:21.072191 14773 net.cpp:129] Top shape: 100 64 8 8 (409600)
I1019 01:43:21.072194 14773 net.cpp:137] Memory required for data: 387892400
I1019 01:43:21.072201 14773 layer_factory.hpp:77] Creating layer group2_block0_proj_bn
I1019 01:43:21.072208 14773 net.cpp:84] Creating Layer group2_block0_proj_bn
I1019 01:43:21.072213 14773 net.cpp:406] group2_block0_proj_bn <- group2_block0_proj
I1019 01:43:21.072219 14773 net.cpp:367] group2_block0_proj_bn -> group2_block0_proj (in-place)
I1019 01:43:21.072432 14773 net.cpp:122] Setting up group2_block0_proj_bn
I1019 01:43:21.072441 14773 net.cpp:129] Top shape: 100 64 8 8 (409600)
I1019 01:43:21.072444 14773 net.cpp:137] Memory required for data: 389530800
I1019 01:43:21.072451 14773 layer_factory.hpp:77] Creating layer group2_block0_proj_scale
I1019 01:43:21.072458 14773 net.cpp:84] Creating Layer group2_block0_proj_scale
I1019 01:43:21.072463 14773 net.cpp:406] group2_block0_proj_scale <- group2_block0_proj
I1019 01:43:21.072468 14773 net.cpp:367] group2_block0_proj_scale -> group2_block0_proj (in-place)
I1019 01:43:21.072515 14773 layer_factory.hpp:77] Creating layer group2_block0_proj_scale
I1019 01:43:21.072652 14773 net.cpp:122] Setting up group2_block0_proj_scale
I1019 01:43:21.072662 14773 net.cpp:129] Top shape: 100 64 8 8 (409600)
I1019 01:43:21.072666 14773 net.cpp:137] Memory required for data: 391169200
I1019 01:43:21.072672 14773 layer_factory.hpp:77] Creating layer group2_block0_sum
I1019 01:43:21.072679 14773 net.cpp:84] Creating Layer group2_block0_sum
I1019 01:43:21.072685 14773 net.cpp:406] group2_block0_sum <- group2_block0_proj
I1019 01:43:21.072688 14773 net.cpp:406] group2_block0_sum <- group2_block0_conv1
I1019 01:43:21.072695 14773 net.cpp:380] group2_block0_sum -> group2_block0_sum
I1019 01:43:21.072724 14773 net.cpp:122] Setting up group2_block0_sum
I1019 01:43:21.072732 14773 net.cpp:129] Top shape: 100 64 8 8 (409600)
I1019 01:43:21.072736 14773 net.cpp:137] Memory required for data: 392807600
I1019 01:43:21.072738 14773 layer_factory.hpp:77] Creating layer group2_block0_relu
I1019 01:43:21.072746 14773 net.cpp:84] Creating Layer group2_block0_relu
I1019 01:43:21.072748 14773 net.cpp:406] group2_block0_relu <- group2_block0_sum
I1019 01:43:21.072753 14773 net.cpp:367] group2_block0_relu -> group2_block0_sum (in-place)
I1019 01:43:21.072759 14773 net.cpp:122] Setting up group2_block0_relu
I1019 01:43:21.072767 14773 net.cpp:129] Top shape: 100 64 8 8 (409600)
I1019 01:43:21.072769 14773 net.cpp:137] Memory required for data: 394446000
I1019 01:43:21.072772 14773 layer_factory.hpp:77] Creating layer group2_block0_sum_group2_block0_relu_0_split
I1019 01:43:21.072777 14773 net.cpp:84] Creating Layer group2_block0_sum_group2_block0_relu_0_split
I1019 01:43:21.072780 14773 net.cpp:406] group2_block0_sum_group2_block0_relu_0_split <- group2_block0_sum
I1019 01:43:21.072788 14773 net.cpp:380] group2_block0_sum_group2_block0_relu_0_split -> group2_block0_sum_group2_block0_relu_0_split_0
I1019 01:43:21.072794 14773 net.cpp:380] group2_block0_sum_group2_block0_relu_0_split -> group2_block0_sum_group2_block0_relu_0_split_1
I1019 01:43:21.072835 14773 net.cpp:122] Setting up group2_block0_sum_group2_block0_relu_0_split
I1019 01:43:21.072844 14773 net.cpp:129] Top shape: 100 64 8 8 (409600)
I1019 01:43:21.072849 14773 net.cpp:129] Top shape: 100 64 8 8 (409600)
I1019 01:43:21.072850 14773 net.cpp:137] Memory required for data: 397722800
I1019 01:43:21.072854 14773 layer_factory.hpp:77] Creating layer group2_block1_conv0
I1019 01:43:21.072862 14773 net.cpp:84] Creating Layer group2_block1_conv0
I1019 01:43:21.072866 14773 net.cpp:406] group2_block1_conv0 <- group2_block0_sum_group2_block0_relu_0_split_0
I1019 01:43:21.072890 14773 net.cpp:380] group2_block1_conv0 -> group2_block1_conv0
I1019 01:43:21.073633 14773 net.cpp:122] Setting up group2_block1_conv0
I1019 01:43:21.073645 14773 net.cpp:129] Top shape: 100 64 8 8 (409600)
I1019 01:43:21.073648 14773 net.cpp:137] Memory required for data: 399361200
I1019 01:43:21.073654 14773 layer_factory.hpp:77] Creating layer group2_block1_conv0_bn
I1019 01:43:21.073662 14773 net.cpp:84] Creating Layer group2_block1_conv0_bn
I1019 01:43:21.073667 14773 net.cpp:406] group2_block1_conv0_bn <- group2_block1_conv0
I1019 01:43:21.073680 14773 net.cpp:367] group2_block1_conv0_bn -> group2_block1_conv0 (in-place)
I1019 01:43:21.073901 14773 net.cpp:122] Setting up group2_block1_conv0_bn
I1019 01:43:21.073910 14773 net.cpp:129] Top shape: 100 64 8 8 (409600)
I1019 01:43:21.073913 14773 net.cpp:137] Memory required for data: 400999600
I1019 01:43:21.073921 14773 layer_factory.hpp:77] Creating layer group2_block1_conv0_scale
I1019 01:43:21.073927 14773 net.cpp:84] Creating Layer group2_block1_conv0_scale
I1019 01:43:21.073932 14773 net.cpp:406] group2_block1_conv0_scale <- group2_block1_conv0
I1019 01:43:21.073940 14773 net.cpp:367] group2_block1_conv0_scale -> group2_block1_conv0 (in-place)
I1019 01:43:21.073984 14773 layer_factory.hpp:77] Creating layer group2_block1_conv0_scale
I1019 01:43:21.074116 14773 net.cpp:122] Setting up group2_block1_conv0_scale
I1019 01:43:21.074126 14773 net.cpp:129] Top shape: 100 64 8 8 (409600)
I1019 01:43:21.074128 14773 net.cpp:137] Memory required for data: 402638000
I1019 01:43:21.074134 14773 layer_factory.hpp:77] Creating layer group2_block1_conv0_relu
I1019 01:43:21.074139 14773 net.cpp:84] Creating Layer group2_block1_conv0_relu
I1019 01:43:21.074142 14773 net.cpp:406] group2_block1_conv0_relu <- group2_block1_conv0
I1019 01:43:21.074149 14773 net.cpp:367] group2_block1_conv0_relu -> group2_block1_conv0 (in-place)
I1019 01:43:21.074156 14773 net.cpp:122] Setting up group2_block1_conv0_relu
I1019 01:43:21.074159 14773 net.cpp:129] Top shape: 100 64 8 8 (409600)
I1019 01:43:21.074162 14773 net.cpp:137] Memory required for data: 404276400
I1019 01:43:21.074165 14773 layer_factory.hpp:77] Creating layer group2_block1_conv1
I1019 01:43:21.074175 14773 net.cpp:84] Creating Layer group2_block1_conv1
I1019 01:43:21.074182 14773 net.cpp:406] group2_block1_conv1 <- group2_block1_conv0
I1019 01:43:21.074188 14773 net.cpp:380] group2_block1_conv1 -> group2_block1_conv1
I1019 01:43:21.074925 14773 net.cpp:122] Setting up group2_block1_conv1
I1019 01:43:21.074936 14773 net.cpp:129] Top shape: 100 64 8 8 (409600)
I1019 01:43:21.074939 14773 net.cpp:137] Memory required for data: 405914800
I1019 01:43:21.074945 14773 layer_factory.hpp:77] Creating layer group2_block1_conv1_bn
I1019 01:43:21.074954 14773 net.cpp:84] Creating Layer group2_block1_conv1_bn
I1019 01:43:21.074959 14773 net.cpp:406] group2_block1_conv1_bn <- group2_block1_conv1
I1019 01:43:21.074965 14773 net.cpp:367] group2_block1_conv1_bn -> group2_block1_conv1 (in-place)
I1019 01:43:21.075181 14773 net.cpp:122] Setting up group2_block1_conv1_bn
I1019 01:43:21.075189 14773 net.cpp:129] Top shape: 100 64 8 8 (409600)
I1019 01:43:21.075192 14773 net.cpp:137] Memory required for data: 407553200
I1019 01:43:21.075213 14773 layer_factory.hpp:77] Creating layer group2_block1_conv1_scale
I1019 01:43:21.075223 14773 net.cpp:84] Creating Layer group2_block1_conv1_scale
I1019 01:43:21.075228 14773 net.cpp:406] group2_block1_conv1_scale <- group2_block1_conv1
I1019 01:43:21.075234 14773 net.cpp:367] group2_block1_conv1_scale -> group2_block1_conv1 (in-place)
I1019 01:43:21.075284 14773 layer_factory.hpp:77] Creating layer group2_block1_conv1_scale
I1019 01:43:21.075417 14773 net.cpp:122] Setting up group2_block1_conv1_scale
I1019 01:43:21.075425 14773 net.cpp:129] Top shape: 100 64 8 8 (409600)
I1019 01:43:21.075428 14773 net.cpp:137] Memory required for data: 409191600
I1019 01:43:21.075434 14773 layer_factory.hpp:77] Creating layer group2_block1_sum
I1019 01:43:21.075457 14773 net.cpp:84] Creating Layer group2_block1_sum
I1019 01:43:21.075464 14773 net.cpp:406] group2_block1_sum <- group2_block1_conv1
I1019 01:43:21.075469 14773 net.cpp:406] group2_block1_sum <- group2_block0_sum_group2_block0_relu_0_split_1
I1019 01:43:21.075476 14773 net.cpp:380] group2_block1_sum -> group2_block1_sum
I1019 01:43:21.075507 14773 net.cpp:122] Setting up group2_block1_sum
I1019 01:43:21.075515 14773 net.cpp:129] Top shape: 100 64 8 8 (409600)
I1019 01:43:21.075518 14773 net.cpp:137] Memory required for data: 410830000
I1019 01:43:21.075521 14773 layer_factory.hpp:77] Creating layer group2_block1_relu
I1019 01:43:21.075529 14773 net.cpp:84] Creating Layer group2_block1_relu
I1019 01:43:21.075534 14773 net.cpp:406] group2_block1_relu <- group2_block1_sum
I1019 01:43:21.075539 14773 net.cpp:367] group2_block1_relu -> group2_block1_sum (in-place)
I1019 01:43:21.075546 14773 net.cpp:122] Setting up group2_block1_relu
I1019 01:43:21.075549 14773 net.cpp:129] Top shape: 100 64 8 8 (409600)
I1019 01:43:21.075552 14773 net.cpp:137] Memory required for data: 412468400
I1019 01:43:21.075556 14773 layer_factory.hpp:77] Creating layer group2_block1_sum_group2_block1_relu_0_split
I1019 01:43:21.075561 14773 net.cpp:84] Creating Layer group2_block1_sum_group2_block1_relu_0_split
I1019 01:43:21.075563 14773 net.cpp:406] group2_block1_sum_group2_block1_relu_0_split <- group2_block1_sum
I1019 01:43:21.075572 14773 net.cpp:380] group2_block1_sum_group2_block1_relu_0_split -> group2_block1_sum_group2_block1_relu_0_split_0
I1019 01:43:21.075579 14773 net.cpp:380] group2_block1_sum_group2_block1_relu_0_split -> group2_block1_sum_group2_block1_relu_0_split_1
I1019 01:43:21.075623 14773 net.cpp:122] Setting up group2_block1_sum_group2_block1_relu_0_split
I1019 01:43:21.075630 14773 net.cpp:129] Top shape: 100 64 8 8 (409600)
I1019 01:43:21.075635 14773 net.cpp:129] Top shape: 100 64 8 8 (409600)
I1019 01:43:21.075639 14773 net.cpp:137] Memory required for data: 415745200
I1019 01:43:21.075640 14773 layer_factory.hpp:77] Creating layer group2_block2_conv0
I1019 01:43:21.075651 14773 net.cpp:84] Creating Layer group2_block2_conv0
I1019 01:43:21.075656 14773 net.cpp:406] group2_block2_conv0 <- group2_block1_sum_group2_block1_relu_0_split_0
I1019 01:43:21.075662 14773 net.cpp:380] group2_block2_conv0 -> group2_block2_conv0
I1019 01:43:21.076402 14773 net.cpp:122] Setting up group2_block2_conv0
I1019 01:43:21.076413 14773 net.cpp:129] Top shape: 100 64 8 8 (409600)
I1019 01:43:21.076416 14773 net.cpp:137] Memory required for data: 417383600
I1019 01:43:21.076422 14773 layer_factory.hpp:77] Creating layer group2_block2_conv0_bn
I1019 01:43:21.076431 14773 net.cpp:84] Creating Layer group2_block2_conv0_bn
I1019 01:43:21.076436 14773 net.cpp:406] group2_block2_conv0_bn <- group2_block2_conv0
I1019 01:43:21.076443 14773 net.cpp:367] group2_block2_conv0_bn -> group2_block2_conv0 (in-place)
I1019 01:43:21.076653 14773 net.cpp:122] Setting up group2_block2_conv0_bn
I1019 01:43:21.076660 14773 net.cpp:129] Top shape: 100 64 8 8 (409600)
I1019 01:43:21.076663 14773 net.cpp:137] Memory required for data: 419022000
I1019 01:43:21.076670 14773 layer_factory.hpp:77] Creating layer group2_block2_conv0_scale
I1019 01:43:21.076679 14773 net.cpp:84] Creating Layer group2_block2_conv0_scale
I1019 01:43:21.076684 14773 net.cpp:406] group2_block2_conv0_scale <- group2_block2_conv0
I1019 01:43:21.076689 14773 net.cpp:367] group2_block2_conv0_scale -> group2_block2_conv0 (in-place)
I1019 01:43:21.076735 14773 layer_factory.hpp:77] Creating layer group2_block2_conv0_scale
I1019 01:43:21.076860 14773 net.cpp:122] Setting up group2_block2_conv0_scale
I1019 01:43:21.076869 14773 net.cpp:129] Top shape: 100 64 8 8 (409600)
I1019 01:43:21.076871 14773 net.cpp:137] Memory required for data: 420660400
I1019 01:43:21.076877 14773 layer_factory.hpp:77] Creating layer group2_block2_conv0_relu
I1019 01:43:21.076882 14773 net.cpp:84] Creating Layer group2_block2_conv0_relu
I1019 01:43:21.076885 14773 net.cpp:406] group2_block2_conv0_relu <- group2_block2_conv0
I1019 01:43:21.076907 14773 net.cpp:367] group2_block2_conv0_relu -> group2_block2_conv0 (in-place)
I1019 01:43:21.076916 14773 net.cpp:122] Setting up group2_block2_conv0_relu
I1019 01:43:21.076920 14773 net.cpp:129] Top shape: 100 64 8 8 (409600)
I1019 01:43:21.076923 14773 net.cpp:137] Memory required for data: 422298800
I1019 01:43:21.076926 14773 layer_factory.hpp:77] Creating layer group2_block2_conv1
I1019 01:43:21.076941 14773 net.cpp:84] Creating Layer group2_block2_conv1
I1019 01:43:21.076946 14773 net.cpp:406] group2_block2_conv1 <- group2_block2_conv0
I1019 01:43:21.076951 14773 net.cpp:380] group2_block2_conv1 -> group2_block2_conv1
I1019 01:43:21.077652 14773 net.cpp:122] Setting up group2_block2_conv1
I1019 01:43:21.077662 14773 net.cpp:129] Top shape: 100 64 8 8 (409600)
I1019 01:43:21.077666 14773 net.cpp:137] Memory required for data: 423937200
I1019 01:43:21.077672 14773 layer_factory.hpp:77] Creating layer group2_block2_conv1_bn
I1019 01:43:21.077683 14773 net.cpp:84] Creating Layer group2_block2_conv1_bn
I1019 01:43:21.077689 14773 net.cpp:406] group2_block2_conv1_bn <- group2_block2_conv1
I1019 01:43:21.077697 14773 net.cpp:367] group2_block2_conv1_bn -> group2_block2_conv1 (in-place)
I1019 01:43:21.077901 14773 net.cpp:122] Setting up group2_block2_conv1_bn
I1019 01:43:21.077909 14773 net.cpp:129] Top shape: 100 64 8 8 (409600)
I1019 01:43:21.077913 14773 net.cpp:137] Memory required for data: 425575600
I1019 01:43:21.077919 14773 layer_factory.hpp:77] Creating layer group2_block2_conv1_scale
I1019 01:43:21.077927 14773 net.cpp:84] Creating Layer group2_block2_conv1_scale
I1019 01:43:21.077932 14773 net.cpp:406] group2_block2_conv1_scale <- group2_block2_conv1
I1019 01:43:21.077937 14773 net.cpp:367] group2_block2_conv1_scale -> group2_block2_conv1 (in-place)
I1019 01:43:21.077980 14773 layer_factory.hpp:77] Creating layer group2_block2_conv1_scale
I1019 01:43:21.078112 14773 net.cpp:122] Setting up group2_block2_conv1_scale
I1019 01:43:21.078120 14773 net.cpp:129] Top shape: 100 64 8 8 (409600)
I1019 01:43:21.078124 14773 net.cpp:137] Memory required for data: 427214000
I1019 01:43:21.078128 14773 layer_factory.hpp:77] Creating layer group2_block2_sum
I1019 01:43:21.078136 14773 net.cpp:84] Creating Layer group2_block2_sum
I1019 01:43:21.078142 14773 net.cpp:406] group2_block2_sum <- group2_block2_conv1
I1019 01:43:21.078147 14773 net.cpp:406] group2_block2_sum <- group2_block1_sum_group2_block1_relu_0_split_1
I1019 01:43:21.078155 14773 net.cpp:380] group2_block2_sum -> group2_block2_sum
I1019 01:43:21.078181 14773 net.cpp:122] Setting up group2_block2_sum
I1019 01:43:21.078189 14773 net.cpp:129] Top shape: 100 64 8 8 (409600)
I1019 01:43:21.078192 14773 net.cpp:137] Memory required for data: 428852400
I1019 01:43:21.078194 14773 layer_factory.hpp:77] Creating layer group2_block2_relu
I1019 01:43:21.078202 14773 net.cpp:84] Creating Layer group2_block2_relu
I1019 01:43:21.078207 14773 net.cpp:406] group2_block2_relu <- group2_block2_sum
I1019 01:43:21.078212 14773 net.cpp:367] group2_block2_relu -> group2_block2_sum (in-place)
I1019 01:43:21.078217 14773 net.cpp:122] Setting up group2_block2_relu
I1019 01:43:21.078222 14773 net.cpp:129] Top shape: 100 64 8 8 (409600)
I1019 01:43:21.078224 14773 net.cpp:137] Memory required for data: 430490800
I1019 01:43:21.078227 14773 layer_factory.hpp:77] Creating layer global_avg_pool
I1019 01:43:21.078233 14773 net.cpp:84] Creating Layer global_avg_pool
I1019 01:43:21.078235 14773 net.cpp:406] global_avg_pool <- group2_block2_sum
I1019 01:43:21.078240 14773 net.cpp:380] global_avg_pool -> global_avg_pool
I1019 01:43:21.078269 14773 net.cpp:122] Setting up global_avg_pool
I1019 01:43:21.078276 14773 net.cpp:129] Top shape: 100 64 1 1 (6400)
I1019 01:43:21.078279 14773 net.cpp:137] Memory required for data: 430516400
I1019 01:43:21.078282 14773 layer_factory.hpp:77] Creating layer fc
I1019 01:43:21.078289 14773 net.cpp:84] Creating Layer fc
I1019 01:43:21.078291 14773 net.cpp:406] fc <- global_avg_pool
I1019 01:43:21.078297 14773 net.cpp:380] fc -> fc
I1019 01:43:21.078435 14773 net.cpp:122] Setting up fc
I1019 01:43:21.078446 14773 net.cpp:129] Top shape: 100 10 (1000)
I1019 01:43:21.078449 14773 net.cpp:137] Memory required for data: 430520400
I1019 01:43:21.078455 14773 layer_factory.hpp:77] Creating layer fc_fc_0_split
I1019 01:43:21.078460 14773 net.cpp:84] Creating Layer fc_fc_0_split
I1019 01:43:21.078466 14773 net.cpp:406] fc_fc_0_split <- fc
I1019 01:43:21.078472 14773 net.cpp:380] fc_fc_0_split -> fc_fc_0_split_0
I1019 01:43:21.078478 14773 net.cpp:380] fc_fc_0_split -> fc_fc_0_split_1
I1019 01:43:21.078518 14773 net.cpp:122] Setting up fc_fc_0_split
I1019 01:43:21.078526 14773 net.cpp:129] Top shape: 100 10 (1000)
I1019 01:43:21.078529 14773 net.cpp:129] Top shape: 100 10 (1000)
I1019 01:43:21.078532 14773 net.cpp:137] Memory required for data: 430528400
I1019 01:43:21.078536 14773 layer_factory.hpp:77] Creating layer loss
I1019 01:43:21.078541 14773 net.cpp:84] Creating Layer loss
I1019 01:43:21.078543 14773 net.cpp:406] loss <- fc_fc_0_split_0
I1019 01:43:21.078550 14773 net.cpp:406] loss <- label_data_1_split_0
I1019 01:43:21.078555 14773 net.cpp:380] loss -> loss
I1019 01:43:21.078562 14773 layer_factory.hpp:77] Creating layer loss
I1019 01:43:21.078655 14773 net.cpp:122] Setting up loss
I1019 01:43:21.078661 14773 net.cpp:129] Top shape: (1)
I1019 01:43:21.078665 14773 net.cpp:132]     with loss weight 1
I1019 01:43:21.078675 14773 net.cpp:137] Memory required for data: 430528404
I1019 01:43:21.078677 14773 layer_factory.hpp:77] Creating layer softmax
I1019 01:43:21.078685 14773 net.cpp:84] Creating Layer softmax
I1019 01:43:21.078689 14773 net.cpp:406] softmax <- fc_fc_0_split_1
I1019 01:43:21.078696 14773 net.cpp:380] softmax -> softmax
I1019 01:43:21.078763 14773 net.cpp:122] Setting up softmax
I1019 01:43:21.078771 14773 net.cpp:129] Top shape: 100 10 (1000)
I1019 01:43:21.078774 14773 net.cpp:137] Memory required for data: 430532404
I1019 01:43:21.078778 14773 layer_factory.hpp:77] Creating layer Accuracy
I1019 01:43:21.078784 14773 net.cpp:84] Creating Layer Accuracy
I1019 01:43:21.078790 14773 net.cpp:406] Accuracy <- softmax
I1019 01:43:21.078794 14773 net.cpp:406] Accuracy <- label_data_1_split_1
I1019 01:43:21.078799 14773 net.cpp:380] Accuracy -> Accuracy
…
