…
I0814 00:25:57.757271 22487 net.cpp:322] The NetState phase (0) differed from the phase (1) specified by a rule in layer data
I0814 00:25:57.758178 22487 net.cpp:58] Initializing net from parameters: 
name: "resnet3-cifar10"
state {
  phase: TRAIN
  level: 0
  stage: ""
}
layer {
  name: "data"
  type: "Data"
  top: "data"
  top: "label"
  include {
    phase: TRAIN
  }
  transform_param {
    scale: 0.0078125
    mirror: true
    crop_size: 32
    mean_value: 128
  }
  data_param {
    source: "cifar-10-batches-py/train"
    batch_size: 128
    backend: LMDB
  }
}
layer {
  name: "first_conv"
  type: "Convolution"
  bottom: "data"
  top: "first_conv"
  param {
    lr_mult: 1
    decay_mult: 1
  }
  convolution_param {
    num_output: 16
    pad: 1
    kernel_size: 3
    stride: 1
    weight_filler {
      type: "msra"
    }
  }
}
layer {
  name: "first_conv_bn"
  type: "BatchNorm"
  bottom: "first_conv"
  top: "first_conv"
  param {
    lr_mult: 0
    decay_mult: 0
  }
  param {
    lr_mult: 0
    decay_mult: 0
  }
  param {
    lr_mult: 0
    decay_mult: 0
  }
  batch_norm_param {
    use_global_stats: false
    moving_average_fraction: 0.95
  }
}
layer {
  name: "first_conv_scale"
  type: "Scale"
  bottom: "first_conv"
  top: "first_conv"
  scale_param {
    bias_term: true
  }
}
layer {
  name: "first_conv_relu"
  type: "ReLU"
  bottom: "first_conv"
  top: "first_conv"
}
layer {
  name: "group0_block0_conv0"
  type: "Convolution"
  bottom: "first_conv"
  top: "group0_block0_conv0"
  param {
    lr_mult: 1
    decay_mult: 1
  }
  convolution_param {
    num_output: 16
    pad: 1
    kernel_size: 3
    stride: 1
    weight_filler {
      type: "msra"
    }
  }
}
layer {
  name: "group0_block0_conv0_bn"
  type: "BatchNorm"
  bottom: "group0_block0_conv0"
  top: "group0_block0_conv0"
  param {
    lr_mult: 0
    decay_mult: 0
  }
  param {
    lr_mult: 0
    decay_mult: 0
  }
  param {
    lr_mult: 0
    decay_mult: 0
  }
  batch_norm_param {
    use_global_stats: false
    moving_average_fraction: 0.95
  }
}
layer {
  name: "group0_block0_conv0_scale"
  type: "Scale"
  bottom: "group0_block0_conv0"
  top: "group0_block0_conv0"
  scale_param {
    bias_term: true
  }
}
layer {
  name: "group0_block0_conv0_relu"
  type: "ReLU"
  bottom: "group0_block0_conv0"
  top: "group0_block0_conv0"
}
layer {
  name: "group0_block0_conv1"
  type: "Convolution"
  bottom: "group0_block0_conv0"
  top: "group0_block0_conv1"
  param {
    lr_mult: 1
    decay_mult: 1
  }
  convolution_param {
    num_output: 16
    pad: 1
    kernel_size: 3
    stride: 1
    weight_filler {
      type: "msra"
    }
  }
}
layer {
  name: "group0_block0_conv1_bn"
  type: "BatchNorm"
  bottom: "group0_block0_conv1"
  top: "group0_block0_conv1"
  param {
    lr_mult: 0
    decay_mult: 0
  }
  param {
    lr_mult: 0
    decay_mult: 0
  }
  param {
    lr_mult: 0
    decay_mult: 0
  }
  batch_norm_param {
    use_global_stats: false
    moving_average_fraction: 0.95
  }
}
layer {
  name: "group0_block0_conv1_scale"
  type: "Scale"
  bottom: "group0_block0_conv1"
  top: "group0_block0_conv1"
  scale_param {
    bias_term: true
  }
}
layer {
  name: "group0_block0_sum"
  type: "Eltwise"
  bottom: "group0_block0_conv1"
  bottom: "first_conv"
  top: "group0_block0_sum"
  eltwise_param {
    operation: SUM
  }
}
layer {
  name: "group0_block1_conv0"
  type: "Convolution"
  bottom: "group0_block0_sum"
  top: "group0_block1_conv0"
  param {
    lr_mult: 1
    decay_mult: 1
  }
  convolution_param {
    num_output: 16
    pad: 1
    kernel_size: 3
    stride: 1
    weight_filler {
      type: "msra"
    }
  }
}
layer {
  name: "group0_block1_conv0_bn"
  type: "BatchNorm"
  bottom: "group0_block1_conv0"
  top: "group0_block1_conv0"
  param {
    lr_mult: 0
    decay_mult: 0
  }
  param {
    lr_mult: 0
    decay_mult: 0
  }
  param {
    lr_mult: 0
    decay_mult: 0
  }
  batch_norm_param {
    use_global_stats: false
    moving_average_fraction: 0.95
  }
}
layer {
  name: "group0_block1_conv0_scale"
  type: "Scale"
  bottom: "group0_block1_conv0"
  top: "group0_block1_conv0"
  scale_param {
    bias_term: true
  }
}
layer {
  name: "group0_block1_conv0_relu"
  type: "ReLU"
  bottom: "group0_block1_conv0"
  top: "group0_block1_conv0"
}
layer {
  name: "group0_block1_conv1"
  type: "Convolution"
  bottom: "group0_block1_conv0"
  top: "group0_block1_conv1"
  param {
    lr_mult: 1
    decay_mult: 1
  }
  convolution_param {
    num_output: 16
    pad: 1
    kernel_size: 3
    stride: 1
    weight_filler {
      type: "msra"
    }
  }
}
layer {
  name: "group0_block1_conv1_bn"
  type: "BatchNorm"
  bottom: "group0_block1_conv1"
  top: "group0_block1_conv1"
  param {
    lr_mult: 0
    decay_mult: 0
  }
  param {
    lr_mult: 0
    decay_mult: 0
  }
  param {
    lr_mult: 0
    decay_mult: 0
  }
  batch_norm_param {
    use_global_stats: false
    moving_average_fraction: 0.95
  }
}
layer {
  name: "group0_block1_conv1_scale"
  type: "Scale"
  bottom: "group0_block1_conv1"
  top: "group0_block1_conv1"
  scale_param {
    bias_term: true
  }
}
layer {
  name: "group0_block1_sum"
  type: "Eltwise"
  bottom: "group0_block1_conv1"
  bottom: "group0_block0_sum"
  top: "group0_block1_sum"
  eltwise_param {
    operation: SUM
  }
}
layer {
  name: "group0_block2_conv0"
  type: "Convolution"
  bottom: "group0_block1_sum"
  top: "group0_block2_conv0"
  param {
    lr_mult: 1
    decay_mult: 1
  }
  convolution_param {
    num_output: 16
    pad: 1
    kernel_size: 3
    stride: 1
    weight_filler {
      type: "msra"
    }
  }
}
layer {
  name: "group0_block2_conv0_bn"
  type: "BatchNorm"
  bottom: "group0_block2_conv0"
  top: "group0_block2_conv0"
  param {
    lr_mult: 0
    decay_mult: 0
  }
  param {
    lr_mult: 0
    decay_mult: 0
  }
  param {
    lr_mult: 0
    decay_mult: 0
  }
  batch_norm_param {
    use_global_stats: false
    moving_average_fraction: 0.95
  }
}
layer {
  name: "group0_block2_conv0_scale"
  type: "Scale"
  bottom: "group0_block2_conv0"
  top: "group0_block2_conv0"
  scale_param {
    bias_term: true
  }
}
layer {
  name: "group0_block2_conv0_relu"
  type: "ReLU"
  bottom: "group0_block2_conv0"
  top: "group0_block2_conv0"
}
layer {
  name: "group0_block2_conv1"
  type: "Convolution"
  bottom: "group0_block2_conv0"
  top: "group0_block2_conv1"
  param {
    lr_mult: 1
    decay_mult: 1
  }
  convolution_param {
    num_output: 16
    pad: 1
    kernel_size: 3
    stride: 1
    weight_filler {
      type: "msra"
    }
  }
}
layer {
  name: "group0_block2_conv1_bn"
  type: "BatchNorm"
  bottom: "group0_block2_conv1"
  top: "group0_block2_conv1"
  param {
    lr_mult: 0
    decay_mult: 0
  }
  param {
    lr_mult: 0
    decay_mult: 0
  }
  param {
    lr_mult: 0
    decay_mult: 0
  }
  batch_norm_param {
    use_global_stats: false
    moving_average_fraction: 0.95
  }
}
layer {
  name: "group0_block2_conv1_scale"
  type: "Scale"
  bottom: "group0_block2_conv1"
  top: "group0_block2_conv1"
  scale_param {
    bias_term: true
  }
}
layer {
  name: "group0_block2_sum"
  type: "Eltwise"
  bottom: "group0_block2_conv1"
  bottom: "group0_block1_sum"
  top: "group0_block2_sum"
  eltwise_param {
    operation: SUM
  }
}
layer {
  name: "group1_block0_conv0"
  type: "Convolution"
  bottom: "group0_block2_sum"
  top: "group1_block0_conv0"
  param {
    lr_mult: 1
    decay_mult: 1
  }
  convolution_param {
    num_output: 32
    pad: 1
    kernel_size: 3
    stride: 2
    weight_filler {
      type: "msra"
    }
  }
}
layer {
  name: "group1_block0_conv0_bn"
  type: "BatchNorm"
  bottom: "group1_block0_conv0"
  top: "group1_block0_conv0"
  param {
    lr_mult: 0
    decay_mult: 0
  }
  param {
    lr_mult: 0
    decay_mult: 0
  }
  param {
    lr_mult: 0
    decay_mult: 0
  }
  batch_norm_param {
    use_global_stats: false
    moving_average_fraction: 0.95
  }
}
layer {
  name: "group1_block0_conv0_scale"
  type: "Scale"
  bottom: "group1_block0_conv0"
  top: "group1_block0_conv0"
  scale_param {
    bias_term: true
  }
}
layer {
  name: "group1_block0_conv0_relu"
  type: "ReLU"
  bottom: "group1_block0_conv0"
  top: "group1_block0_conv0"
}
layer {
  name: "group1_block0_conv1"
  type: "Convolution"
  bottom: "group1_block0_conv0"
  top: "group1_block0_conv1"
  param {
    lr_mult: 1
    decay_mult: 1
  }
  convolution_param {
    num_output: 32
    pad: 1
    kernel_size: 3
    stride: 1
    weight_filler {
      type: "msra"
    }
  }
}
layer {
  name: "group1_block0_conv1_bn"
  type: "BatchNorm"
  bottom: "group1_block0_conv1"
  top: "group1_block0_conv1"
  param {
    lr_mult: 0
    decay_mult: 0
  }
  param {
    lr_mult: 0
    decay_mult: 0
  }
  param {
    lr_mult: 0
    decay_mult: 0
  }
  batch_norm_param {
    use_global_stats: false
    moving_average_fraction: 0.95
  }
}
layer {
  name: "group1_block0_conv1_scale"
  type: "Scale"
  bottom: "group1_block0_conv1"
  top: "group1_block0_conv1"
  scale_param {
    bias_term: true
  }
}
layer {
  name: "group1_block0_proj"
  type: "Convolution"
  bottom: "group0_block2_sum"
  top: "group1_block0_proj"
  param {
    lr_mult: 1
    decay_mult: 1
  }
  convolution_param {
    num_output: 32
    pad: 0
    kernel_size: 2
    stride: 2
    weight_filler {
      type: "msra"
    }
  }
}
layer {
  name: "group1_block0_proj_bn"
  type: "BatchNorm"
  bottom: "group1_block0_proj"
  top: "group1_block0_proj"
  param {
    lr_mult: 0
    decay_mult: 0
  }
  param {
    lr_mult: 0
    decay_mult: 0
  }
  param {
    lr_mult: 0
    decay_mult: 0
  }
  batch_norm_param {
    use_global_stats: false
    moving_average_fraction: 0.95
  }
}
layer {
  name: "group1_block0_proj_scale"
  type: "Scale"
  bottom: "group1_block0_proj"
  top: "group1_block0_proj"
  scale_param {
    bias_term: true
  }
}
layer {
  name: "group1_block0_sum"
  type: "Eltwise"
  bottom: "group1_block0_proj"
  bottom: "group1_block0_conv1"
  top: "group1_block0_sum"
  eltwise_param {
    operation: SUM
  }
}
layer {
  name: "group1_block1_conv0"
  type: "Convolution"
  bottom: "group1_block0_sum"
  top: "group1_block1_conv0"
  param {
    lr_mult: 1
    decay_mult: 1
  }
  convolution_param {
    num_output: 32
    pad: 1
    kernel_size: 3
    stride: 1
    weight_filler {
      type: "msra"
    }
  }
}
layer {
  name: "group1_block1_conv0_bn"
  type: "BatchNorm"
  bottom: "group1_block1_conv0"
  top: "group1_block1_conv0"
  param {
    lr_mult: 0
    decay_mult: 0
  }
  param {
    lr_mult: 0
    decay_mult: 0
  }
  param {
    lr_mult: 0
    decay_mult: 0
  }
  batch_norm_param {
    use_global_stats: false
    moving_average_fraction: 0.95
  }
}
layer {
  name: "group1_block1_conv0_scale"
  type: "Scale"
  bottom: "group1_block1_conv0"
  top: "group1_block1_conv0"
  scale_param {
    bias_term: true
  }
}
layer {
  name: "group1_block1_conv0_relu"
  type: "ReLU"
  bottom: "group1_block1_conv0"
  top: "group1_block1_conv0"
}
layer {
  name: "group1_block1_conv1"
  type: "Convolution"
  bottom: "group1_block1_conv0"
  top: "group1_block1_conv1"
  param {
    lr_mult: 1
    decay_mult: 1
  }
  convolution_param {
    num_output: 32
    pad: 1
    kernel_size: 3
    stride: 1
    weight_filler {
      type: "msra"
    }
  }
}
layer {
  name: "group1_block1_conv1_bn"
  type: "BatchNorm"
  bottom: "group1_block1_conv1"
  top: "group1_block1_conv1"
  param {
    lr_mult: 0
    decay_mult: 0
  }
  param {
    lr_mult: 0
    decay_mult: 0
  }
  param {
    lr_mult: 0
    decay_mult: 0
  }
  batch_norm_param {
    use_global_stats: false
    moving_average_fraction: 0.95
  }
}
layer {
  name: "group1_block1_conv1_scale"
  type: "Scale"
  bottom: "group1_block1_conv1"
  top: "group1_block1_conv1"
  scale_param {
    bias_term: true
  }
}
layer {
  name: "group1_block1_sum"
  type: "Eltwise"
  bottom: "group1_block1_conv1"
  bottom: "group1_block0_sum"
  top: "group1_block1_sum"
  eltwise_param {
    operation: SUM
  }
}
layer {
  name: "group1_block2_conv0"
  type: "Convolution"
  bottom: "group1_block1_sum"
  top: "group1_block2_conv0"
  param {
    lr_mult: 1
    decay_mult: 1
  }
  convolution_param {
    num_output: 32
    pad: 1
    kernel_size: 3
    stride: 1
    weight_filler {
      type: "msra"
    }
  }
}
layer {
  name: "group1_block2_conv0_bn"
  type: "BatchNorm"
  bottom: "group1_block2_conv0"
  top: "group1_block2_conv0"
  param {
    lr_mult: 0
    decay_mult: 0
  }
  param {
    lr_mult: 0
    decay_mult: 0
  }
  param {
    lr_mult: 0
    decay_mult: 0
  }
  batch_norm_param {
    use_global_stats: false
    moving_average_fraction: 0.95
  }
}
layer {
  name: "group1_block2_conv0_scale"
  type: "Scale"
  bottom: "group1_block2_conv0"
  top: "group1_block2_conv0"
  scale_param {
    bias_term: true
  }
}
layer {
  name: "group1_block2_conv0_relu"
  type: "ReLU"
  bottom: "group1_block2_conv0"
  top: "group1_block2_conv0"
}
layer {
  name: "group1_block2_conv1"
  type: "Convolution"
  bottom: "group1_block2_conv0"
  top: "group1_block2_conv1"
  param {
    lr_mult: 1
    decay_mult: 1
  }
  convolution_param {
    num_output: 32
    pad: 1
    kernel_size: 3
    stride: 1
    weight_filler {
      type: "msra"
    }
  }
}
layer {
  name: "group1_block2_conv1_bn"
  type: "BatchNorm"
  bottom: "group1_block2_conv1"
  top: "group1_block2_conv1"
  param {
    lr_mult: 0
    decay_mult: 0
  }
  param {
    lr_mult: 0
    decay_mult: 0
  }
  param {
    lr_mult: 0
    decay_mult: 0
  }
  batch_norm_param {
    use_global_stats: false
    moving_average_fraction: 0.95
  }
}
layer {
  name: "group1_block2_conv1_scale"
  type: "Scale"
  bottom: "group1_block2_conv1"
  top: "group1_block2_conv1"
  scale_param {
    bias_term: true
  }
}
layer {
  name: "group1_block2_sum"
  type: "Eltwise"
  bottom: "group1_block2_conv1"
  bottom: "group1_block1_sum"
  top: "group1_block2_sum"
  eltwise_param {
    operation: SUM
  }
}
layer {
  name: "group2_block0_conv0"
  type: "Convolution"
  bottom: "group1_block2_sum"
  top: "group2_block0_conv0"
  param {
    lr_mult: 1
    decay_mult: 1
  }
  convolution_param {
    num_output: 64
    pad: 1
    kernel_size: 3
    stride: 2
    weight_filler {
      type: "msra"
    }
  }
}
layer {
  name: "group2_block0_conv0_bn"
  type: "BatchNorm"
  bottom: "group2_block0_conv0"
  top: "group2_block0_conv0"
  param {
    lr_mult: 0
    decay_mult: 0
  }
  param {
    lr_mult: 0
    decay_mult: 0
  }
  param {
    lr_mult: 0
    decay_mult: 0
  }
  batch_norm_param {
    use_global_stats: false
    moving_average_fraction: 0.95
  }
}
layer {
  name: "group2_block0_conv0_scale"
  type: "Scale"
  bottom: "group2_block0_conv0"
  top: "group2_block0_conv0"
  scale_param {
    bias_term: true
  }
}
layer {
  name: "group2_block0_conv0_relu"
  type: "ReLU"
  bottom: "group2_block0_conv0"
  top: "group2_block0_conv0"
}
layer {
  name: "group2_block0_conv1"
  type: "Convolution"
  bottom: "group2_block0_conv0"
  top: "group2_block0_conv1"
  param {
    lr_mult: 1
    decay_mult: 1
  }
  convolution_param {
    num_output: 64
    pad: 1
    kernel_size: 3
    stride: 1
    weight_filler {
      type: "msra"
    }
  }
}
layer {
  name: "group2_block0_conv1_bn"
  type: "BatchNorm"
  bottom: "group2_block0_conv1"
  top: "group2_block0_conv1"
  param {
    lr_mult: 0
    decay_mult: 0
  }
  param {
    lr_mult: 0
    decay_mult: 0
  }
  param {
    lr_mult: 0
    decay_mult: 0
  }
  batch_norm_param {
    use_global_stats: false
    moving_average_fraction: 0.95
  }
}
layer {
  name: "group2_block0_conv1_scale"
  type: "Scale"
  bottom: "group2_block0_conv1"
  top: "group2_block0_conv1"
  scale_param {
    bias_term: true
  }
}
layer {
  name: "group2_block0_proj"
  type: "Convolution"
  bottom: "group1_block2_sum"
  top: "group2_block0_proj"
  param {
    lr_mult: 1
    decay_mult: 1
  }
  convolution_param {
    num_output: 64
    pad: 0
    kernel_size: 2
    stride: 2
    weight_filler {
      type: "msra"
    }
  }
}
layer {
  name: "group2_block0_proj_bn"
  type: "BatchNorm"
  bottom: "group2_block0_proj"
  top: "group2_block0_proj"
  param {
    lr_mult: 0
    decay_mult: 0
  }
  param {
    lr_mult: 0
    decay_mult: 0
  }
  param {
    lr_mult: 0
    decay_mult: 0
  }
  batch_norm_param {
    use_global_stats: false
    moving_average_fraction: 0.95
  }
}
layer {
  name: "group2_block0_proj_scale"
  type: "Scale"
  bottom: "group2_block0_proj"
  top: "group2_block0_proj"
  scale_param {
    bias_term: true
  }
}
layer {
  name: "group2_block0_sum"
  type: "Eltwise"
  bottom: "group2_block0_proj"
  bottom: "group2_block0_conv1"
  top: "group2_block0_sum"
  eltwise_param {
    operation: SUM
  }
}
layer {
  name: "group2_block1_conv0"
  type: "Convolution"
  bottom: "group2_block0_sum"
  top: "group2_block1_conv0"
  param {
    lr_mult: 1
    decay_mult: 1
  }
  convolution_param {
    num_output: 64
    pad: 1
    kernel_size: 3
    stride: 1
    weight_filler {
      type: "msra"
    }
  }
}
layer {
  name: "group2_block1_conv0_bn"
  type: "BatchNorm"
  bottom: "group2_block1_conv0"
  top: "group2_block1_conv0"
  param {
    lr_mult: 0
    decay_mult: 0
  }
  param {
    lr_mult: 0
    decay_mult: 0
  }
  param {
    lr_mult: 0
    decay_mult: 0
  }
  batch_norm_param {
    use_global_stats: false
    moving_average_fraction: 0.95
  }
}
layer {
  name: "group2_block1_conv0_scale"
  type: "Scale"
  bottom: "group2_block1_conv0"
  top: "group2_block1_conv0"
  scale_param {
    bias_term: true
  }
}
layer {
  name: "group2_block1_conv0_relu"
  type: "ReLU"
  bottom: "group2_block1_conv0"
  top: "group2_block1_conv0"
}
layer {
  name: "group2_block1_conv1"
  type: "Convolution"
  bottom: "group2_block1_conv0"
  top: "group2_block1_conv1"
  param {
    lr_mult: 1
    decay_mult: 1
  }
  convolution_param {
    num_output: 64
    pad: 1
    kernel_size: 3
    stride: 1
    weight_filler {
      type: "msra"
    }
  }
}
layer {
  name: "group2_block1_conv1_bn"
  type: "BatchNorm"
  bottom: "group2_block1_conv1"
  top: "group2_block1_conv1"
  param {
    lr_mult: 0
    decay_mult: 0
  }
  param {
    lr_mult: 0
    decay_mult: 0
  }
  param {
    lr_mult: 0
    decay_mult: 0
  }
  batch_norm_param {
    use_global_stats: false
    moving_average_fraction: 0.95
  }
}
layer {
  name: "group2_block1_conv1_scale"
  type: "Scale"
  bottom: "group2_block1_conv1"
  top: "group2_block1_conv1"
  scale_param {
    bias_term: true
  }
}
layer {
  name: "group2_block1_sum"
  type: "Eltwise"
  bottom: "group2_block1_conv1"
  bottom: "group2_block0_sum"
  top: "group2_block1_sum"
  eltwise_param {
    operation: SUM
  }
}
layer {
  name: "group2_block2_conv0"
  type: "Convolution"
  bottom: "group2_block1_sum"
  top: "group2_block2_conv0"
  param {
    lr_mult: 1
    decay_mult: 1
  }
  convolution_param {
    num_output: 64
    pad: 1
    kernel_size: 3
    stride: 1
    weight_filler {
      type: "msra"
    }
  }
}
layer {
  name: "group2_block2_conv0_bn"
  type: "BatchNorm"
  bottom: "group2_block2_conv0"
  top: "group2_block2_conv0"
  param {
    lr_mult: 0
    decay_mult: 0
  }
  param {
    lr_mult: 0
    decay_mult: 0
  }
  param {
    lr_mult: 0
    decay_mult: 0
  }
  batch_norm_param {
    use_global_stats: false
    moving_average_fraction: 0.95
  }
}
layer {
  name: "group2_block2_conv0_scale"
  type: "Scale"
  bottom: "group2_block2_conv0"
  top: "group2_block2_conv0"
  scale_param {
    bias_term: true
  }
}
layer {
  name: "group2_block2_conv0_relu"
  type: "ReLU"
  bottom: "group2_block2_conv0"
  top: "group2_block2_conv0"
}
layer {
  name: "group2_block2_conv1"
  type: "Convolution"
  bottom: "group2_block2_conv0"
  top: "group2_block2_conv1"
  param {
    lr_mult: 1
    decay_mult: 1
  }
  convolution_param {
    num_output: 64
    pad: 1
    kernel_size: 3
    stride: 1
    weight_filler {
      type: "msra"
    }
  }
}
layer {
  name: "group2_block2_conv1_bn"
  type: "BatchNorm"
  bottom: "group2_block2_conv1"
  top: "group2_block2_conv1"
  param {
    lr_mult: 0
    decay_mult: 0
  }
  param {
    lr_mult: 0
    decay_mult: 0
  }
  param {
    lr_mult: 0
    decay_mult: 0
  }
  batch_norm_param {
    use_global_stats: false
    moving_average_fraction: 0.95
  }
}
layer {
  name: "group2_block2_conv1_scale"
  type: "Scale"
  bottom: "group2_block2_conv1"
  top: "group2_block2_conv1"
  scale_param {
    bias_term: true
  }
}
layer {
  name: "group2_block2_sum"
  type: "Eltwise"
  bottom: "group2_block2_conv1"
  bottom: "group2_block1_sum"
  top: "group2_block2_sum"
  eltwise_param {
    operation: SUM
  }
}
layer {
  name: "global_avg_pool"
  type: "Pooling"
  bottom: "group2_block2_sum"
  top: "global_avg_pool"
  pooling_param {
    pool: AVE
    global_pooling: true
  }
}
layer {
  name: "fc"
  type: "InnerProduct"
  bottom: "global_avg_pool"
  top: "fc"
  param {
    lr_mult: 1
    decay_mult: 1
  }
  param {
    lr_mult: 2
    decay_mult: 0
  }
  inner_product_param {
    num_output: 10
    weight_filler {
      type: "msra"
    }
    bias_filler {
      type: "constant"
      value: 0
    }
  }
}
layer {
  name: "loss"
  type: "SoftmaxWithLoss"
  bottom: "fc"
  bottom: "label"
  top: "loss"
}
layer {
  name: "softmax"
  type: "Softmax"
  bottom: "fc"
  top: "softmax"
}
layer {
  name: "Accuracy"
  type: "Accuracy"
  bottom: "softmax"
  bottom: "label"
  top: "Accuracy"
}
I0814 00:25:57.758777 22487 layer_factory.hpp:77] Creating layer data
I0814 00:25:57.759600 22487 net.cpp:100] Creating Layer data
I0814 00:25:57.759626 22487 net.cpp:408] data -> data
I0814 00:25:57.759671 22487 net.cpp:408] data -> label
I0814 00:25:57.771805 22492 db_lmdb.cpp:35] Opened lmdb cifar-10-batches-py/train
I0814 00:25:57.786721 22487 data_layer.cpp:41] output data size: 128,3,32,32
I0814 00:25:57.793411 22487 net.cpp:150] Setting up data
I0814 00:25:57.793432 22487 net.cpp:157] Top shape: 128 3 32 32 (393216)
I0814 00:25:57.793442 22487 net.cpp:157] Top shape: 128 (128)
I0814 00:25:57.793445 22487 net.cpp:165] Memory required for data: 1573376
I0814 00:25:57.793455 22487 layer_factory.hpp:77] Creating layer label_data_1_split
I0814 00:25:57.793469 22487 net.cpp:100] Creating Layer label_data_1_split
I0814 00:25:57.793476 22487 net.cpp:434] label_data_1_split <- label
I0814 00:25:57.793494 22487 net.cpp:408] label_data_1_split -> label_data_1_split_0
I0814 00:25:57.793507 22487 net.cpp:408] label_data_1_split -> label_data_1_split_1
I0814 00:25:57.793578 22487 net.cpp:150] Setting up label_data_1_split
I0814 00:25:57.793589 22487 net.cpp:157] Top shape: 128 (128)
I0814 00:25:57.793594 22487 net.cpp:157] Top shape: 128 (128)
I0814 00:25:57.793598 22487 net.cpp:165] Memory required for data: 1574400
I0814 00:25:57.793602 22487 layer_factory.hpp:77] Creating layer first_conv
I0814 00:25:57.793638 22487 net.cpp:100] Creating Layer first_conv
I0814 00:25:57.793643 22487 net.cpp:434] first_conv <- data
I0814 00:25:57.793656 22487 net.cpp:408] first_conv -> first_conv
I0814 00:25:57.795599 22493 blocking_queue.cpp:50] Waiting for data
I0814 00:25:58.144320 22487 net.cpp:150] Setting up first_conv
I0814 00:25:58.144361 22487 net.cpp:157] Top shape: 128 16 32 32 (2097152)
I0814 00:25:58.144366 22487 net.cpp:165] Memory required for data: 9963008
I0814 00:25:58.144397 22487 layer_factory.hpp:77] Creating layer first_conv_bn
I0814 00:25:58.144412 22487 net.cpp:100] Creating Layer first_conv_bn
I0814 00:25:58.144418 22487 net.cpp:434] first_conv_bn <- first_conv
I0814 00:25:58.144426 22487 net.cpp:395] first_conv_bn -> first_conv (in-place)
I0814 00:25:58.144636 22487 net.cpp:150] Setting up first_conv_bn
I0814 00:25:58.144644 22487 net.cpp:157] Top shape: 128 16 32 32 (2097152)
I0814 00:25:58.144647 22487 net.cpp:165] Memory required for data: 18351616
I0814 00:25:58.144698 22487 layer_factory.hpp:77] Creating layer first_conv_scale
I0814 00:25:58.144712 22487 net.cpp:100] Creating Layer first_conv_scale
I0814 00:25:58.144716 22487 net.cpp:434] first_conv_scale <- first_conv
I0814 00:25:58.144722 22487 net.cpp:395] first_conv_scale -> first_conv (in-place)
I0814 00:25:58.144769 22487 layer_factory.hpp:77] Creating layer first_conv_scale
I0814 00:25:58.144887 22487 net.cpp:150] Setting up first_conv_scale
I0814 00:25:58.144894 22487 net.cpp:157] Top shape: 128 16 32 32 (2097152)
I0814 00:25:58.144898 22487 net.cpp:165] Memory required for data: 26740224
I0814 00:25:58.144906 22487 layer_factory.hpp:77] Creating layer first_conv_relu
I0814 00:25:58.144913 22487 net.cpp:100] Creating Layer first_conv_relu
I0814 00:25:58.144917 22487 net.cpp:434] first_conv_relu <- first_conv
I0814 00:25:58.144922 22487 net.cpp:395] first_conv_relu -> first_conv (in-place)
I0814 00:25:58.145445 22487 net.cpp:150] Setting up first_conv_relu
I0814 00:25:58.145462 22487 net.cpp:157] Top shape: 128 16 32 32 (2097152)
I0814 00:25:58.145465 22487 net.cpp:165] Memory required for data: 35128832
I0814 00:25:58.145470 22487 layer_factory.hpp:77] Creating layer first_conv_first_conv_relu_0_split
I0814 00:25:58.145478 22487 net.cpp:100] Creating Layer first_conv_first_conv_relu_0_split
I0814 00:25:58.145483 22487 net.cpp:434] first_conv_first_conv_relu_0_split <- first_conv
I0814 00:25:58.145489 22487 net.cpp:408] first_conv_first_conv_relu_0_split -> first_conv_first_conv_relu_0_split_0
I0814 00:25:58.145498 22487 net.cpp:408] first_conv_first_conv_relu_0_split -> first_conv_first_conv_relu_0_split_1
I0814 00:25:58.145545 22487 net.cpp:150] Setting up first_conv_first_conv_relu_0_split
I0814 00:25:58.145552 22487 net.cpp:157] Top shape: 128 16 32 32 (2097152)
I0814 00:25:58.145556 22487 net.cpp:157] Top shape: 128 16 32 32 (2097152)
I0814 00:25:58.145560 22487 net.cpp:165] Memory required for data: 51906048
I0814 00:25:58.145563 22487 layer_factory.hpp:77] Creating layer group0_block0_conv0
I0814 00:25:58.145577 22487 net.cpp:100] Creating Layer group0_block0_conv0
I0814 00:25:58.145581 22487 net.cpp:434] group0_block0_conv0 <- first_conv_first_conv_relu_0_split_0
I0814 00:25:58.145588 22487 net.cpp:408] group0_block0_conv0 -> group0_block0_conv0
I0814 00:25:58.148468 22487 net.cpp:150] Setting up group0_block0_conv0
I0814 00:25:58.148486 22487 net.cpp:157] Top shape: 128 16 32 32 (2097152)
I0814 00:25:58.148490 22487 net.cpp:165] Memory required for data: 60294656
I0814 00:25:58.148502 22487 layer_factory.hpp:77] Creating layer group0_block0_conv0_bn
I0814 00:25:58.148516 22487 net.cpp:100] Creating Layer group0_block0_conv0_bn
I0814 00:25:58.148520 22487 net.cpp:434] group0_block0_conv0_bn <- group0_block0_conv0
I0814 00:25:58.148530 22487 net.cpp:395] group0_block0_conv0_bn -> group0_block0_conv0 (in-place)
I0814 00:25:58.148747 22487 net.cpp:150] Setting up group0_block0_conv0_bn
I0814 00:25:58.148754 22487 net.cpp:157] Top shape: 128 16 32 32 (2097152)
I0814 00:25:58.148758 22487 net.cpp:165] Memory required for data: 68683264
I0814 00:25:58.148766 22487 layer_factory.hpp:77] Creating layer group0_block0_conv0_scale
I0814 00:25:58.148774 22487 net.cpp:100] Creating Layer group0_block0_conv0_scale
I0814 00:25:58.148778 22487 net.cpp:434] group0_block0_conv0_scale <- group0_block0_conv0
I0814 00:25:58.148785 22487 net.cpp:395] group0_block0_conv0_scale -> group0_block0_conv0 (in-place)
I0814 00:25:58.148823 22487 layer_factory.hpp:77] Creating layer group0_block0_conv0_scale
I0814 00:25:58.148942 22487 net.cpp:150] Setting up group0_block0_conv0_scale
I0814 00:25:58.148949 22487 net.cpp:157] Top shape: 128 16 32 32 (2097152)
I0814 00:25:58.148952 22487 net.cpp:165] Memory required for data: 77071872
I0814 00:25:58.148959 22487 layer_factory.hpp:77] Creating layer group0_block0_conv0_relu
I0814 00:25:58.148967 22487 net.cpp:100] Creating Layer group0_block0_conv0_relu
I0814 00:25:58.148972 22487 net.cpp:434] group0_block0_conv0_relu <- group0_block0_conv0
I0814 00:25:58.148993 22487 net.cpp:395] group0_block0_conv0_relu -> group0_block0_conv0 (in-place)
I0814 00:25:58.149210 22487 net.cpp:150] Setting up group0_block0_conv0_relu
I0814 00:25:58.149224 22487 net.cpp:157] Top shape: 128 16 32 32 (2097152)
I0814 00:25:58.149227 22487 net.cpp:165] Memory required for data: 85460480
I0814 00:25:58.149231 22487 layer_factory.hpp:77] Creating layer group0_block0_conv1
I0814 00:25:58.149245 22487 net.cpp:100] Creating Layer group0_block0_conv1
I0814 00:25:58.149250 22487 net.cpp:434] group0_block0_conv1 <- group0_block0_conv0
I0814 00:25:58.149257 22487 net.cpp:408] group0_block0_conv1 -> group0_block0_conv1
I0814 00:25:58.151026 22487 net.cpp:150] Setting up group0_block0_conv1
I0814 00:25:58.151044 22487 net.cpp:157] Top shape: 128 16 32 32 (2097152)
I0814 00:25:58.151048 22487 net.cpp:165] Memory required for data: 93849088
I0814 00:25:58.151057 22487 layer_factory.hpp:77] Creating layer group0_block0_conv1_bn
I0814 00:25:58.151070 22487 net.cpp:100] Creating Layer group0_block0_conv1_bn
I0814 00:25:58.151074 22487 net.cpp:434] group0_block0_conv1_bn <- group0_block0_conv1
I0814 00:25:58.151082 22487 net.cpp:395] group0_block0_conv1_bn -> group0_block0_conv1 (in-place)
I0814 00:25:58.151298 22487 net.cpp:150] Setting up group0_block0_conv1_bn
I0814 00:25:58.151304 22487 net.cpp:157] Top shape: 128 16 32 32 (2097152)
I0814 00:25:58.151309 22487 net.cpp:165] Memory required for data: 102237696
I0814 00:25:58.151322 22487 layer_factory.hpp:77] Creating layer group0_block0_conv1_scale
I0814 00:25:58.151330 22487 net.cpp:100] Creating Layer group0_block0_conv1_scale
I0814 00:25:58.151335 22487 net.cpp:434] group0_block0_conv1_scale <- group0_block0_conv1
I0814 00:25:58.151340 22487 net.cpp:395] group0_block0_conv1_scale -> group0_block0_conv1 (in-place)
I0814 00:25:58.151382 22487 layer_factory.hpp:77] Creating layer group0_block0_conv1_scale
I0814 00:25:58.151510 22487 net.cpp:150] Setting up group0_block0_conv1_scale
I0814 00:25:58.151516 22487 net.cpp:157] Top shape: 128 16 32 32 (2097152)
I0814 00:25:58.151520 22487 net.cpp:165] Memory required for data: 110626304
I0814 00:25:58.151526 22487 layer_factory.hpp:77] Creating layer group0_block0_sum
I0814 00:25:58.151535 22487 net.cpp:100] Creating Layer group0_block0_sum
I0814 00:25:58.151537 22487 net.cpp:434] group0_block0_sum <- group0_block0_conv1
I0814 00:25:58.151542 22487 net.cpp:434] group0_block0_sum <- first_conv_first_conv_relu_0_split_1
I0814 00:25:58.151551 22487 net.cpp:408] group0_block0_sum -> group0_block0_sum
I0814 00:25:58.151584 22487 net.cpp:150] Setting up group0_block0_sum
I0814 00:25:58.151592 22487 net.cpp:157] Top shape: 128 16 32 32 (2097152)
I0814 00:25:58.151594 22487 net.cpp:165] Memory required for data: 119014912
I0814 00:25:58.151598 22487 layer_factory.hpp:77] Creating layer group0_block0_sum_group0_block0_sum_0_split
I0814 00:25:58.151605 22487 net.cpp:100] Creating Layer group0_block0_sum_group0_block0_sum_0_split
I0814 00:25:58.151608 22487 net.cpp:434] group0_block0_sum_group0_block0_sum_0_split <- group0_block0_sum
I0814 00:25:58.151614 22487 net.cpp:408] group0_block0_sum_group0_block0_sum_0_split -> group0_block0_sum_group0_block0_sum_0_split_0
I0814 00:25:58.151623 22487 net.cpp:408] group0_block0_sum_group0_block0_sum_0_split -> group0_block0_sum_group0_block0_sum_0_split_1
I0814 00:25:58.151662 22487 net.cpp:150] Setting up group0_block0_sum_group0_block0_sum_0_split
I0814 00:25:58.151669 22487 net.cpp:157] Top shape: 128 16 32 32 (2097152)
I0814 00:25:58.151674 22487 net.cpp:157] Top shape: 128 16 32 32 (2097152)
I0814 00:25:58.151676 22487 net.cpp:165] Memory required for data: 135792128
I0814 00:25:58.151680 22487 layer_factory.hpp:77] Creating layer group0_block1_conv0
I0814 00:25:58.151696 22487 net.cpp:100] Creating Layer group0_block1_conv0
I0814 00:25:58.151701 22487 net.cpp:434] group0_block1_conv0 <- group0_block0_sum_group0_block0_sum_0_split_0
I0814 00:25:58.151708 22487 net.cpp:408] group0_block1_conv0 -> group0_block1_conv0
I0814 00:25:58.153255 22487 net.cpp:150] Setting up group0_block1_conv0
I0814 00:25:58.153295 22487 net.cpp:157] Top shape: 128 16 32 32 (2097152)
I0814 00:25:58.153301 22487 net.cpp:165] Memory required for data: 144180736
I0814 00:25:58.153308 22487 layer_factory.hpp:77] Creating layer group0_block1_conv0_bn
I0814 00:25:58.153317 22487 net.cpp:100] Creating Layer group0_block1_conv0_bn
I0814 00:25:58.153321 22487 net.cpp:434] group0_block1_conv0_bn <- group0_block1_conv0
I0814 00:25:58.153331 22487 net.cpp:395] group0_block1_conv0_bn -> group0_block1_conv0 (in-place)
I0814 00:25:58.153553 22487 net.cpp:150] Setting up group0_block1_conv0_bn
I0814 00:25:58.153560 22487 net.cpp:157] Top shape: 128 16 32 32 (2097152)
I0814 00:25:58.153564 22487 net.cpp:165] Memory required for data: 152569344
I0814 00:25:58.153573 22487 layer_factory.hpp:77] Creating layer group0_block1_conv0_scale
I0814 00:25:58.153579 22487 net.cpp:100] Creating Layer group0_block1_conv0_scale
I0814 00:25:58.153584 22487 net.cpp:434] group0_block1_conv0_scale <- group0_block1_conv0
I0814 00:25:58.153591 22487 net.cpp:395] group0_block1_conv0_scale -> group0_block1_conv0 (in-place)
I0814 00:25:58.153630 22487 layer_factory.hpp:77] Creating layer group0_block1_conv0_scale
I0814 00:25:58.153756 22487 net.cpp:150] Setting up group0_block1_conv0_scale
I0814 00:25:58.153764 22487 net.cpp:157] Top shape: 128 16 32 32 (2097152)
I0814 00:25:58.153766 22487 net.cpp:165] Memory required for data: 160957952
I0814 00:25:58.153774 22487 layer_factory.hpp:77] Creating layer group0_block1_conv0_relu
I0814 00:25:58.153781 22487 net.cpp:100] Creating Layer group0_block1_conv0_relu
I0814 00:25:58.153785 22487 net.cpp:434] group0_block1_conv0_relu <- group0_block1_conv0
I0814 00:25:58.153791 22487 net.cpp:395] group0_block1_conv0_relu -> group0_block1_conv0 (in-place)
I0814 00:25:58.154003 22487 net.cpp:150] Setting up group0_block1_conv0_relu
I0814 00:25:58.154013 22487 net.cpp:157] Top shape: 128 16 32 32 (2097152)
I0814 00:25:58.154017 22487 net.cpp:165] Memory required for data: 169346560
I0814 00:25:58.154021 22487 layer_factory.hpp:77] Creating layer group0_block1_conv1
I0814 00:25:58.154036 22487 net.cpp:100] Creating Layer group0_block1_conv1
I0814 00:25:58.154039 22487 net.cpp:434] group0_block1_conv1 <- group0_block1_conv0
I0814 00:25:58.154047 22487 net.cpp:408] group0_block1_conv1 -> group0_block1_conv1
I0814 00:25:58.155607 22487 net.cpp:150] Setting up group0_block1_conv1
I0814 00:25:58.155624 22487 net.cpp:157] Top shape: 128 16 32 32 (2097152)
I0814 00:25:58.155628 22487 net.cpp:165] Memory required for data: 177735168
I0814 00:25:58.155637 22487 layer_factory.hpp:77] Creating layer group0_block1_conv1_bn
I0814 00:25:58.155647 22487 net.cpp:100] Creating Layer group0_block1_conv1_bn
I0814 00:25:58.155652 22487 net.cpp:434] group0_block1_conv1_bn <- group0_block1_conv1
I0814 00:25:58.155660 22487 net.cpp:395] group0_block1_conv1_bn -> group0_block1_conv1 (in-place)
I0814 00:25:58.155885 22487 net.cpp:150] Setting up group0_block1_conv1_bn
I0814 00:25:58.155892 22487 net.cpp:157] Top shape: 128 16 32 32 (2097152)
I0814 00:25:58.155895 22487 net.cpp:165] Memory required for data: 186123776
I0814 00:25:58.155910 22487 layer_factory.hpp:77] Creating layer group0_block1_conv1_scale
I0814 00:25:58.155920 22487 net.cpp:100] Creating Layer group0_block1_conv1_scale
I0814 00:25:58.155922 22487 net.cpp:434] group0_block1_conv1_scale <- group0_block1_conv1
I0814 00:25:58.155930 22487 net.cpp:395] group0_block1_conv1_scale -> group0_block1_conv1 (in-place)
I0814 00:25:58.155972 22487 layer_factory.hpp:77] Creating layer group0_block1_conv1_scale
I0814 00:25:58.156093 22487 net.cpp:150] Setting up group0_block1_conv1_scale
I0814 00:25:58.156101 22487 net.cpp:157] Top shape: 128 16 32 32 (2097152)
I0814 00:25:58.156105 22487 net.cpp:165] Memory required for data: 194512384
I0814 00:25:58.156111 22487 layer_factory.hpp:77] Creating layer group0_block1_sum
I0814 00:25:58.156121 22487 net.cpp:100] Creating Layer group0_block1_sum
I0814 00:25:58.156124 22487 net.cpp:434] group0_block1_sum <- group0_block1_conv1
I0814 00:25:58.156129 22487 net.cpp:434] group0_block1_sum <- group0_block0_sum_group0_block0_sum_0_split_1
I0814 00:25:58.156150 22487 net.cpp:408] group0_block1_sum -> group0_block1_sum
I0814 00:25:58.156183 22487 net.cpp:150] Setting up group0_block1_sum
I0814 00:25:58.156189 22487 net.cpp:157] Top shape: 128 16 32 32 (2097152)
I0814 00:25:58.156193 22487 net.cpp:165] Memory required for data: 202900992
I0814 00:25:58.156195 22487 layer_factory.hpp:77] Creating layer group0_block1_sum_group0_block1_sum_0_split
I0814 00:25:58.156203 22487 net.cpp:100] Creating Layer group0_block1_sum_group0_block1_sum_0_split
I0814 00:25:58.156205 22487 net.cpp:434] group0_block1_sum_group0_block1_sum_0_split <- group0_block1_sum
I0814 00:25:58.156211 22487 net.cpp:408] group0_block1_sum_group0_block1_sum_0_split -> group0_block1_sum_group0_block1_sum_0_split_0
I0814 00:25:58.156219 22487 net.cpp:408] group0_block1_sum_group0_block1_sum_0_split -> group0_block1_sum_group0_block1_sum_0_split_1
I0814 00:25:58.156261 22487 net.cpp:150] Setting up group0_block1_sum_group0_block1_sum_0_split
I0814 00:25:58.156268 22487 net.cpp:157] Top shape: 128 16 32 32 (2097152)
I0814 00:25:58.156273 22487 net.cpp:157] Top shape: 128 16 32 32 (2097152)
I0814 00:25:58.156275 22487 net.cpp:165] Memory required for data: 219678208
I0814 00:25:58.156280 22487 layer_factory.hpp:77] Creating layer group0_block2_conv0
I0814 00:25:58.156291 22487 net.cpp:100] Creating Layer group0_block2_conv0
I0814 00:25:58.156296 22487 net.cpp:434] group0_block2_conv0 <- group0_block1_sum_group0_block1_sum_0_split_0
I0814 00:25:58.156302 22487 net.cpp:408] group0_block2_conv0 -> group0_block2_conv0
I0814 00:25:58.157851 22487 net.cpp:150] Setting up group0_block2_conv0
I0814 00:25:58.157868 22487 net.cpp:157] Top shape: 128 16 32 32 (2097152)
I0814 00:25:58.157872 22487 net.cpp:165] Memory required for data: 228066816
I0814 00:25:58.157881 22487 layer_factory.hpp:77] Creating layer group0_block2_conv0_bn
I0814 00:25:58.157891 22487 net.cpp:100] Creating Layer group0_block2_conv0_bn
I0814 00:25:58.157896 22487 net.cpp:434] group0_block2_conv0_bn <- group0_block2_conv0
I0814 00:25:58.157902 22487 net.cpp:395] group0_block2_conv0_bn -> group0_block2_conv0 (in-place)
I0814 00:25:58.158128 22487 net.cpp:150] Setting up group0_block2_conv0_bn
I0814 00:25:58.158136 22487 net.cpp:157] Top shape: 128 16 32 32 (2097152)
I0814 00:25:58.158139 22487 net.cpp:165] Memory required for data: 236455424
I0814 00:25:58.158148 22487 layer_factory.hpp:77] Creating layer group0_block2_conv0_scale
I0814 00:25:58.158155 22487 net.cpp:100] Creating Layer group0_block2_conv0_scale
I0814 00:25:58.158159 22487 net.cpp:434] group0_block2_conv0_scale <- group0_block2_conv0
I0814 00:25:58.158166 22487 net.cpp:395] group0_block2_conv0_scale -> group0_block2_conv0 (in-place)
I0814 00:25:58.158205 22487 layer_factory.hpp:77] Creating layer group0_block2_conv0_scale
I0814 00:25:58.158330 22487 net.cpp:150] Setting up group0_block2_conv0_scale
I0814 00:25:58.158344 22487 net.cpp:157] Top shape: 128 16 32 32 (2097152)
I0814 00:25:58.158346 22487 net.cpp:165] Memory required for data: 244844032
I0814 00:25:58.158354 22487 layer_factory.hpp:77] Creating layer group0_block2_conv0_relu
I0814 00:25:58.158361 22487 net.cpp:100] Creating Layer group0_block2_conv0_relu
I0814 00:25:58.158365 22487 net.cpp:434] group0_block2_conv0_relu <- group0_block2_conv0
I0814 00:25:58.158370 22487 net.cpp:395] group0_block2_conv0_relu -> group0_block2_conv0 (in-place)
I0814 00:25:58.158584 22487 net.cpp:150] Setting up group0_block2_conv0_relu
I0814 00:25:58.158594 22487 net.cpp:157] Top shape: 128 16 32 32 (2097152)
I0814 00:25:58.158598 22487 net.cpp:165] Memory required for data: 253232640
I0814 00:25:58.158601 22487 layer_factory.hpp:77] Creating layer group0_block2_conv1
I0814 00:25:58.158620 22487 net.cpp:100] Creating Layer group0_block2_conv1
I0814 00:25:58.158624 22487 net.cpp:434] group0_block2_conv1 <- group0_block2_conv0
I0814 00:25:58.158633 22487 net.cpp:408] group0_block2_conv1 -> group0_block2_conv1
I0814 00:25:58.160202 22487 net.cpp:150] Setting up group0_block2_conv1
I0814 00:25:58.160234 22487 net.cpp:157] Top shape: 128 16 32 32 (2097152)
I0814 00:25:58.160238 22487 net.cpp:165] Memory required for data: 261621248
I0814 00:25:58.160246 22487 layer_factory.hpp:77] Creating layer group0_block2_conv1_bn
I0814 00:25:58.160259 22487 net.cpp:100] Creating Layer group0_block2_conv1_bn
I0814 00:25:58.160264 22487 net.cpp:434] group0_block2_conv1_bn <- group0_block2_conv1
I0814 00:25:58.160270 22487 net.cpp:395] group0_block2_conv1_bn -> group0_block2_conv1 (in-place)
I0814 00:25:58.160497 22487 net.cpp:150] Setting up group0_block2_conv1_bn
I0814 00:25:58.160506 22487 net.cpp:157] Top shape: 128 16 32 32 (2097152)
I0814 00:25:58.160508 22487 net.cpp:165] Memory required for data: 270009856
I0814 00:25:58.160516 22487 layer_factory.hpp:77] Creating layer group0_block2_conv1_scale
I0814 00:25:58.160526 22487 net.cpp:100] Creating Layer group0_block2_conv1_scale
I0814 00:25:58.160529 22487 net.cpp:434] group0_block2_conv1_scale <- group0_block2_conv1
I0814 00:25:58.160536 22487 net.cpp:395] group0_block2_conv1_scale -> group0_block2_conv1 (in-place)
I0814 00:25:58.160575 22487 layer_factory.hpp:77] Creating layer group0_block2_conv1_scale
I0814 00:25:58.160702 22487 net.cpp:150] Setting up group0_block2_conv1_scale
I0814 00:25:58.160709 22487 net.cpp:157] Top shape: 128 16 32 32 (2097152)
I0814 00:25:58.160712 22487 net.cpp:165] Memory required for data: 278398464
I0814 00:25:58.160718 22487 layer_factory.hpp:77] Creating layer group0_block2_sum
I0814 00:25:58.160739 22487 net.cpp:100] Creating Layer group0_block2_sum
I0814 00:25:58.160743 22487 net.cpp:434] group0_block2_sum <- group0_block2_conv1
I0814 00:25:58.160748 22487 net.cpp:434] group0_block2_sum <- group0_block1_sum_group0_block1_sum_0_split_1
I0814 00:25:58.160754 22487 net.cpp:408] group0_block2_sum -> group0_block2_sum
I0814 00:25:58.160783 22487 net.cpp:150] Setting up group0_block2_sum
I0814 00:25:58.160789 22487 net.cpp:157] Top shape: 128 16 32 32 (2097152)
I0814 00:25:58.160791 22487 net.cpp:165] Memory required for data: 286787072
I0814 00:25:58.160795 22487 layer_factory.hpp:77] Creating layer group0_block2_sum_group0_block2_sum_0_split
I0814 00:25:58.160801 22487 net.cpp:100] Creating Layer group0_block2_sum_group0_block2_sum_0_split
I0814 00:25:58.160810 22487 net.cpp:434] group0_block2_sum_group0_block2_sum_0_split <- group0_block2_sum
I0814 00:25:58.160817 22487 net.cpp:408] group0_block2_sum_group0_block2_sum_0_split -> group0_block2_sum_group0_block2_sum_0_split_0
I0814 00:25:58.160825 22487 net.cpp:408] group0_block2_sum_group0_block2_sum_0_split -> group0_block2_sum_group0_block2_sum_0_split_1
I0814 00:25:58.160868 22487 net.cpp:150] Setting up group0_block2_sum_group0_block2_sum_0_split
I0814 00:25:58.160874 22487 net.cpp:157] Top shape: 128 16 32 32 (2097152)
I0814 00:25:58.160878 22487 net.cpp:157] Top shape: 128 16 32 32 (2097152)
I0814 00:25:58.160881 22487 net.cpp:165] Memory required for data: 303564288
I0814 00:25:58.160886 22487 layer_factory.hpp:77] Creating layer group1_block0_conv0
I0814 00:25:58.160897 22487 net.cpp:100] Creating Layer group1_block0_conv0
I0814 00:25:58.160902 22487 net.cpp:434] group1_block0_conv0 <- group0_block2_sum_group0_block2_sum_0_split_0
I0814 00:25:58.160908 22487 net.cpp:408] group1_block0_conv0 -> group1_block0_conv0
I0814 00:25:58.164120 22487 net.cpp:150] Setting up group1_block0_conv0
I0814 00:25:58.164137 22487 net.cpp:157] Top shape: 128 32 16 16 (1048576)
I0814 00:25:58.164141 22487 net.cpp:165] Memory required for data: 307758592
I0814 00:25:58.164149 22487 layer_factory.hpp:77] Creating layer group1_block0_conv0_bn
I0814 00:25:58.164161 22487 net.cpp:100] Creating Layer group1_block0_conv0_bn
I0814 00:25:58.164166 22487 net.cpp:434] group1_block0_conv0_bn <- group1_block0_conv0
I0814 00:25:58.164175 22487 net.cpp:395] group1_block0_conv0_bn -> group1_block0_conv0 (in-place)
I0814 00:25:58.164405 22487 net.cpp:150] Setting up group1_block0_conv0_bn
I0814 00:25:58.164413 22487 net.cpp:157] Top shape: 128 32 16 16 (1048576)
I0814 00:25:58.164430 22487 net.cpp:165] Memory required for data: 311952896
I0814 00:25:58.164440 22487 layer_factory.hpp:77] Creating layer group1_block0_conv0_scale
I0814 00:25:58.164448 22487 net.cpp:100] Creating Layer group1_block0_conv0_scale
I0814 00:25:58.164451 22487 net.cpp:434] group1_block0_conv0_scale <- group1_block0_conv0
I0814 00:25:58.164460 22487 net.cpp:395] group1_block0_conv0_scale -> group1_block0_conv0 (in-place)
I0814 00:25:58.164504 22487 layer_factory.hpp:77] Creating layer group1_block0_conv0_scale
I0814 00:25:58.164629 22487 net.cpp:150] Setting up group1_block0_conv0_scale
I0814 00:25:58.164638 22487 net.cpp:157] Top shape: 128 32 16 16 (1048576)
I0814 00:25:58.164643 22487 net.cpp:165] Memory required for data: 316147200
I0814 00:25:58.164649 22487 layer_factory.hpp:77] Creating layer group1_block0_conv0_relu
I0814 00:25:58.164656 22487 net.cpp:100] Creating Layer group1_block0_conv0_relu
I0814 00:25:58.164659 22487 net.cpp:434] group1_block0_conv0_relu <- group1_block0_conv0
I0814 00:25:58.164665 22487 net.cpp:395] group1_block0_conv0_relu -> group1_block0_conv0 (in-place)
I0814 00:25:58.165212 22487 net.cpp:150] Setting up group1_block0_conv0_relu
I0814 00:25:58.165230 22487 net.cpp:157] Top shape: 128 32 16 16 (1048576)
I0814 00:25:58.165233 22487 net.cpp:165] Memory required for data: 320341504
I0814 00:25:58.165238 22487 layer_factory.hpp:77] Creating layer group1_block0_conv1
I0814 00:25:58.165251 22487 net.cpp:100] Creating Layer group1_block0_conv1
I0814 00:25:58.165256 22487 net.cpp:434] group1_block0_conv1 <- group1_block0_conv0
I0814 00:25:58.165264 22487 net.cpp:408] group1_block0_conv1 -> group1_block0_conv1
I0814 00:25:58.166930 22487 net.cpp:150] Setting up group1_block0_conv1
I0814 00:25:58.166949 22487 net.cpp:157] Top shape: 128 32 16 16 (1048576)
I0814 00:25:58.166954 22487 net.cpp:165] Memory required for data: 324535808
I0814 00:25:58.166961 22487 layer_factory.hpp:77] Creating layer group1_block0_conv1_bn
I0814 00:25:58.166972 22487 net.cpp:100] Creating Layer group1_block0_conv1_bn
I0814 00:25:58.166977 22487 net.cpp:434] group1_block0_conv1_bn <- group1_block0_conv1
I0814 00:25:58.166986 22487 net.cpp:395] group1_block0_conv1_bn -> group1_block0_conv1 (in-place)
I0814 00:25:58.167217 22487 net.cpp:150] Setting up group1_block0_conv1_bn
I0814 00:25:58.167224 22487 net.cpp:157] Top shape: 128 32 16 16 (1048576)
I0814 00:25:58.167227 22487 net.cpp:165] Memory required for data: 328730112
I0814 00:25:58.167237 22487 layer_factory.hpp:77] Creating layer group1_block0_conv1_scale
I0814 00:25:58.167244 22487 net.cpp:100] Creating Layer group1_block0_conv1_scale
I0814 00:25:58.167248 22487 net.cpp:434] group1_block0_conv1_scale <- group1_block0_conv1
I0814 00:25:58.167254 22487 net.cpp:395] group1_block0_conv1_scale -> group1_block0_conv1 (in-place)
I0814 00:25:58.167297 22487 layer_factory.hpp:77] Creating layer group1_block0_conv1_scale
I0814 00:25:58.167433 22487 net.cpp:150] Setting up group1_block0_conv1_scale
I0814 00:25:58.167440 22487 net.cpp:157] Top shape: 128 32 16 16 (1048576)
I0814 00:25:58.167443 22487 net.cpp:165] Memory required for data: 332924416
I0814 00:25:58.167450 22487 layer_factory.hpp:77] Creating layer group1_block0_proj
I0814 00:25:58.167464 22487 net.cpp:100] Creating Layer group1_block0_proj
I0814 00:25:58.167469 22487 net.cpp:434] group1_block0_proj <- group0_block2_sum_group0_block2_sum_0_split_1
I0814 00:25:58.167476 22487 net.cpp:408] group1_block0_proj -> group1_block0_proj
I0814 00:25:58.169046 22487 net.cpp:150] Setting up group1_block0_proj
I0814 00:25:58.169066 22487 net.cpp:157] Top shape: 128 32 16 16 (1048576)
I0814 00:25:58.169071 22487 net.cpp:165] Memory required for data: 337118720
I0814 00:25:58.169095 22487 layer_factory.hpp:77] Creating layer group1_block0_proj_bn
I0814 00:25:58.169106 22487 net.cpp:100] Creating Layer group1_block0_proj_bn
I0814 00:25:58.169111 22487 net.cpp:434] group1_block0_proj_bn <- group1_block0_proj
I0814 00:25:58.169119 22487 net.cpp:395] group1_block0_proj_bn -> group1_block0_proj (in-place)
I0814 00:25:58.169347 22487 net.cpp:150] Setting up group1_block0_proj_bn
I0814 00:25:58.169369 22487 net.cpp:157] Top shape: 128 32 16 16 (1048576)
I0814 00:25:58.169373 22487 net.cpp:165] Memory required for data: 341313024
I0814 00:25:58.169383 22487 layer_factory.hpp:77] Creating layer group1_block0_proj_scale
I0814 00:25:58.169389 22487 net.cpp:100] Creating Layer group1_block0_proj_scale
I0814 00:25:58.169394 22487 net.cpp:434] group1_block0_proj_scale <- group1_block0_proj
I0814 00:25:58.169399 22487 net.cpp:395] group1_block0_proj_scale -> group1_block0_proj (in-place)
I0814 00:25:58.169445 22487 layer_factory.hpp:77] Creating layer group1_block0_proj_scale
I0814 00:25:58.169574 22487 net.cpp:150] Setting up group1_block0_proj_scale
I0814 00:25:58.169581 22487 net.cpp:157] Top shape: 128 32 16 16 (1048576)
I0814 00:25:58.169584 22487 net.cpp:165] Memory required for data: 345507328
I0814 00:25:58.169598 22487 layer_factory.hpp:77] Creating layer group1_block0_sum
I0814 00:25:58.169605 22487 net.cpp:100] Creating Layer group1_block0_sum
I0814 00:25:58.169610 22487 net.cpp:434] group1_block0_sum <- group1_block0_proj
I0814 00:25:58.169613 22487 net.cpp:434] group1_block0_sum <- group1_block0_conv1
I0814 00:25:58.169621 22487 net.cpp:408] group1_block0_sum -> group1_block0_sum
I0814 00:25:58.169644 22487 net.cpp:150] Setting up group1_block0_sum
I0814 00:25:58.169651 22487 net.cpp:157] Top shape: 128 32 16 16 (1048576)
I0814 00:25:58.169653 22487 net.cpp:165] Memory required for data: 349701632
I0814 00:25:58.169657 22487 layer_factory.hpp:77] Creating layer group1_block0_sum_group1_block0_sum_0_split
I0814 00:25:58.169667 22487 net.cpp:100] Creating Layer group1_block0_sum_group1_block0_sum_0_split
I0814 00:25:58.169670 22487 net.cpp:434] group1_block0_sum_group1_block0_sum_0_split <- group1_block0_sum
I0814 00:25:58.169677 22487 net.cpp:408] group1_block0_sum_group1_block0_sum_0_split -> group1_block0_sum_group1_block0_sum_0_split_0
I0814 00:25:58.169685 22487 net.cpp:408] group1_block0_sum_group1_block0_sum_0_split -> group1_block0_sum_group1_block0_sum_0_split_1
I0814 00:25:58.169724 22487 net.cpp:150] Setting up group1_block0_sum_group1_block0_sum_0_split
I0814 00:25:58.169730 22487 net.cpp:157] Top shape: 128 32 16 16 (1048576)
I0814 00:25:58.169735 22487 net.cpp:157] Top shape: 128 32 16 16 (1048576)
I0814 00:25:58.169739 22487 net.cpp:165] Memory required for data: 358090240
I0814 00:25:58.169742 22487 layer_factory.hpp:77] Creating layer group1_block1_conv0
I0814 00:25:58.169752 22487 net.cpp:100] Creating Layer group1_block1_conv0
I0814 00:25:58.169756 22487 net.cpp:434] group1_block1_conv0 <- group1_block0_sum_group1_block0_sum_0_split_0
I0814 00:25:58.169766 22487 net.cpp:408] group1_block1_conv0 -> group1_block1_conv0
I0814 00:25:58.171739 22487 net.cpp:150] Setting up group1_block1_conv0
I0814 00:25:58.171757 22487 net.cpp:157] Top shape: 128 32 16 16 (1048576)
I0814 00:25:58.171761 22487 net.cpp:165] Memory required for data: 362284544
I0814 00:25:58.171769 22487 layer_factory.hpp:77] Creating layer group1_block1_conv0_bn
I0814 00:25:58.171780 22487 net.cpp:100] Creating Layer group1_block1_conv0_bn
I0814 00:25:58.171785 22487 net.cpp:434] group1_block1_conv0_bn <- group1_block1_conv0
I0814 00:25:58.171793 22487 net.cpp:395] group1_block1_conv0_bn -> group1_block1_conv0 (in-place)
I0814 00:25:58.172026 22487 net.cpp:150] Setting up group1_block1_conv0_bn
I0814 00:25:58.172034 22487 net.cpp:157] Top shape: 128 32 16 16 (1048576)
I0814 00:25:58.172037 22487 net.cpp:165] Memory required for data: 366478848
I0814 00:25:58.172046 22487 layer_factory.hpp:77] Creating layer group1_block1_conv0_scale
I0814 00:25:58.172055 22487 net.cpp:100] Creating Layer group1_block1_conv0_scale
I0814 00:25:58.172060 22487 net.cpp:434] group1_block1_conv0_scale <- group1_block1_conv0
I0814 00:25:58.172065 22487 net.cpp:395] group1_block1_conv0_scale -> group1_block1_conv0 (in-place)
I0814 00:25:58.172108 22487 layer_factory.hpp:77] Creating layer group1_block1_conv0_scale
I0814 00:25:58.172245 22487 net.cpp:150] Setting up group1_block1_conv0_scale
I0814 00:25:58.172266 22487 net.cpp:157] Top shape: 128 32 16 16 (1048576)
I0814 00:25:58.172269 22487 net.cpp:165] Memory required for data: 370673152
I0814 00:25:58.172276 22487 layer_factory.hpp:77] Creating layer group1_block1_conv0_relu
I0814 00:25:58.172283 22487 net.cpp:100] Creating Layer group1_block1_conv0_relu
I0814 00:25:58.172287 22487 net.cpp:434] group1_block1_conv0_relu <- group1_block1_conv0
I0814 00:25:58.172296 22487 net.cpp:395] group1_block1_conv0_relu -> group1_block1_conv0 (in-place)
I0814 00:25:58.172516 22487 net.cpp:150] Setting up group1_block1_conv0_relu
I0814 00:25:58.172528 22487 net.cpp:157] Top shape: 128 32 16 16 (1048576)
I0814 00:25:58.172531 22487 net.cpp:165] Memory required for data: 374867456
I0814 00:25:58.172535 22487 layer_factory.hpp:77] Creating layer group1_block1_conv1
I0814 00:25:58.172546 22487 net.cpp:100] Creating Layer group1_block1_conv1
I0814 00:25:58.172550 22487 net.cpp:434] group1_block1_conv1 <- group1_block1_conv0
I0814 00:25:58.172559 22487 net.cpp:408] group1_block1_conv1 -> group1_block1_conv1
I0814 00:25:58.174238 22487 net.cpp:150] Setting up group1_block1_conv1
I0814 00:25:58.174257 22487 net.cpp:157] Top shape: 128 32 16 16 (1048576)
I0814 00:25:58.174259 22487 net.cpp:165] Memory required for data: 379061760
I0814 00:25:58.174268 22487 layer_factory.hpp:77] Creating layer group1_block1_conv1_bn
I0814 00:25:58.174278 22487 net.cpp:100] Creating Layer group1_block1_conv1_bn
I0814 00:25:58.174283 22487 net.cpp:434] group1_block1_conv1_bn <- group1_block1_conv1
I0814 00:25:58.174289 22487 net.cpp:395] group1_block1_conv1_bn -> group1_block1_conv1 (in-place)
I0814 00:25:58.174513 22487 net.cpp:150] Setting up group1_block1_conv1_bn
I0814 00:25:58.174521 22487 net.cpp:157] Top shape: 128 32 16 16 (1048576)
I0814 00:25:58.174525 22487 net.cpp:165] Memory required for data: 383256064
I0814 00:25:58.174532 22487 layer_factory.hpp:77] Creating layer group1_block1_conv1_scale
I0814 00:25:58.174546 22487 net.cpp:100] Creating Layer group1_block1_conv1_scale
I0814 00:25:58.174551 22487 net.cpp:434] group1_block1_conv1_scale <- group1_block1_conv1
I0814 00:25:58.174556 22487 net.cpp:395] group1_block1_conv1_scale -> group1_block1_conv1 (in-place)
I0814 00:25:58.174599 22487 layer_factory.hpp:77] Creating layer group1_block1_conv1_scale
I0814 00:25:58.174741 22487 net.cpp:150] Setting up group1_block1_conv1_scale
I0814 00:25:58.174747 22487 net.cpp:157] Top shape: 128 32 16 16 (1048576)
I0814 00:25:58.174751 22487 net.cpp:165] Memory required for data: 387450368
I0814 00:25:58.174757 22487 layer_factory.hpp:77] Creating layer group1_block1_sum
I0814 00:25:58.174770 22487 net.cpp:100] Creating Layer group1_block1_sum
I0814 00:25:58.174774 22487 net.cpp:434] group1_block1_sum <- group1_block1_conv1
I0814 00:25:58.174780 22487 net.cpp:434] group1_block1_sum <- group1_block0_sum_group1_block0_sum_0_split_1
I0814 00:25:58.174787 22487 net.cpp:408] group1_block1_sum -> group1_block1_sum
I0814 00:25:58.174813 22487 net.cpp:150] Setting up group1_block1_sum
I0814 00:25:58.174818 22487 net.cpp:157] Top shape: 128 32 16 16 (1048576)
I0814 00:25:58.174821 22487 net.cpp:165] Memory required for data: 391644672
I0814 00:25:58.174824 22487 layer_factory.hpp:77] Creating layer group1_block1_sum_group1_block1_sum_0_split
I0814 00:25:58.174831 22487 net.cpp:100] Creating Layer group1_block1_sum_group1_block1_sum_0_split
I0814 00:25:58.174834 22487 net.cpp:434] group1_block1_sum_group1_block1_sum_0_split <- group1_block1_sum
I0814 00:25:58.174844 22487 net.cpp:408] group1_block1_sum_group1_block1_sum_0_split -> group1_block1_sum_group1_block1_sum_0_split_0
I0814 00:25:58.174851 22487 net.cpp:408] group1_block1_sum_group1_block1_sum_0_split -> group1_block1_sum_group1_block1_sum_0_split_1
I0814 00:25:58.174902 22487 net.cpp:150] Setting up group1_block1_sum_group1_block1_sum_0_split
I0814 00:25:58.174919 22487 net.cpp:157] Top shape: 128 32 16 16 (1048576)
I0814 00:25:58.174926 22487 net.cpp:157] Top shape: 128 32 16 16 (1048576)
I0814 00:25:58.174928 22487 net.cpp:165] Memory required for data: 400033280
I0814 00:25:58.174945 22487 layer_factory.hpp:77] Creating layer group1_block2_conv0
I0814 00:25:58.174962 22487 net.cpp:100] Creating Layer group1_block2_conv0
I0814 00:25:58.174968 22487 net.cpp:434] group1_block2_conv0 <- group1_block1_sum_group1_block1_sum_0_split_0
I0814 00:25:58.174975 22487 net.cpp:408] group1_block2_conv0 -> group1_block2_conv0
I0814 00:25:58.176662 22487 net.cpp:150] Setting up group1_block2_conv0
I0814 00:25:58.176681 22487 net.cpp:157] Top shape: 128 32 16 16 (1048576)
I0814 00:25:58.176686 22487 net.cpp:165] Memory required for data: 404227584
I0814 00:25:58.176693 22487 layer_factory.hpp:77] Creating layer group1_block2_conv0_bn
I0814 00:25:58.176705 22487 net.cpp:100] Creating Layer group1_block2_conv0_bn
I0814 00:25:58.176710 22487 net.cpp:434] group1_block2_conv0_bn <- group1_block2_conv0
I0814 00:25:58.176719 22487 net.cpp:395] group1_block2_conv0_bn -> group1_block2_conv0 (in-place)
I0814 00:25:58.176947 22487 net.cpp:150] Setting up group1_block2_conv0_bn
I0814 00:25:58.176962 22487 net.cpp:157] Top shape: 128 32 16 16 (1048576)
I0814 00:25:58.176965 22487 net.cpp:165] Memory required for data: 408421888
I0814 00:25:58.176973 22487 layer_factory.hpp:77] Creating layer group1_block2_conv0_scale
I0814 00:25:58.176981 22487 net.cpp:100] Creating Layer group1_block2_conv0_scale
I0814 00:25:58.176985 22487 net.cpp:434] group1_block2_conv0_scale <- group1_block2_conv0
I0814 00:25:58.176992 22487 net.cpp:395] group1_block2_conv0_scale -> group1_block2_conv0 (in-place)
I0814 00:25:58.177032 22487 layer_factory.hpp:77] Creating layer group1_block2_conv0_scale
I0814 00:25:58.177163 22487 net.cpp:150] Setting up group1_block2_conv0_scale
I0814 00:25:58.177172 22487 net.cpp:157] Top shape: 128 32 16 16 (1048576)
I0814 00:25:58.177176 22487 net.cpp:165] Memory required for data: 412616192
I0814 00:25:58.177182 22487 layer_factory.hpp:77] Creating layer group1_block2_conv0_relu
I0814 00:25:58.177189 22487 net.cpp:100] Creating Layer group1_block2_conv0_relu
I0814 00:25:58.177193 22487 net.cpp:434] group1_block2_conv0_relu <- group1_block2_conv0
I0814 00:25:58.177199 22487 net.cpp:395] group1_block2_conv0_relu -> group1_block2_conv0 (in-place)
I0814 00:25:58.177729 22487 net.cpp:150] Setting up group1_block2_conv0_relu
I0814 00:25:58.177745 22487 net.cpp:157] Top shape: 128 32 16 16 (1048576)
I0814 00:25:58.177749 22487 net.cpp:165] Memory required for data: 416810496
I0814 00:25:58.177753 22487 layer_factory.hpp:77] Creating layer group1_block2_conv1
I0814 00:25:58.177767 22487 net.cpp:100] Creating Layer group1_block2_conv1
I0814 00:25:58.177772 22487 net.cpp:434] group1_block2_conv1 <- group1_block2_conv0
I0814 00:25:58.177781 22487 net.cpp:408] group1_block2_conv1 -> group1_block2_conv1
I0814 00:25:58.179186 22487 net.cpp:150] Setting up group1_block2_conv1
I0814 00:25:58.179203 22487 net.cpp:157] Top shape: 128 32 16 16 (1048576)
I0814 00:25:58.179206 22487 net.cpp:165] Memory required for data: 421004800
I0814 00:25:58.179214 22487 layer_factory.hpp:77] Creating layer group1_block2_conv1_bn
I0814 00:25:58.179225 22487 net.cpp:100] Creating Layer group1_block2_conv1_bn
I0814 00:25:58.179230 22487 net.cpp:434] group1_block2_conv1_bn <- group1_block2_conv1
I0814 00:25:58.179239 22487 net.cpp:395] group1_block2_conv1_bn -> group1_block2_conv1 (in-place)
I0814 00:25:58.179471 22487 net.cpp:150] Setting up group1_block2_conv1_bn
I0814 00:25:58.179478 22487 net.cpp:157] Top shape: 128 32 16 16 (1048576)
I0814 00:25:58.179481 22487 net.cpp:165] Memory required for data: 425199104
I0814 00:25:58.179491 22487 layer_factory.hpp:77] Creating layer group1_block2_conv1_scale
I0814 00:25:58.179499 22487 net.cpp:100] Creating Layer group1_block2_conv1_scale
I0814 00:25:58.179503 22487 net.cpp:434] group1_block2_conv1_scale <- group1_block2_conv1
I0814 00:25:58.179508 22487 net.cpp:395] group1_block2_conv1_scale -> group1_block2_conv1 (in-place)
I0814 00:25:58.179554 22487 layer_factory.hpp:77] Creating layer group1_block2_conv1_scale
I0814 00:25:58.179690 22487 net.cpp:150] Setting up group1_block2_conv1_scale
I0814 00:25:58.179713 22487 net.cpp:157] Top shape: 128 32 16 16 (1048576)
I0814 00:25:58.179716 22487 net.cpp:165] Memory required for data: 429393408
I0814 00:25:58.179723 22487 layer_factory.hpp:77] Creating layer group1_block2_sum
I0814 00:25:58.179731 22487 net.cpp:100] Creating Layer group1_block2_sum
I0814 00:25:58.179734 22487 net.cpp:434] group1_block2_sum <- group1_block2_conv1
I0814 00:25:58.179740 22487 net.cpp:434] group1_block2_sum <- group1_block1_sum_group1_block1_sum_0_split_1
I0814 00:25:58.179749 22487 net.cpp:408] group1_block2_sum -> group1_block2_sum
I0814 00:25:58.179778 22487 net.cpp:150] Setting up group1_block2_sum
I0814 00:25:58.179785 22487 net.cpp:157] Top shape: 128 32 16 16 (1048576)
I0814 00:25:58.179788 22487 net.cpp:165] Memory required for data: 433587712
I0814 00:25:58.179791 22487 layer_factory.hpp:77] Creating layer group1_block2_sum_group1_block2_sum_0_split
I0814 00:25:58.179798 22487 net.cpp:100] Creating Layer group1_block2_sum_group1_block2_sum_0_split
I0814 00:25:58.179801 22487 net.cpp:434] group1_block2_sum_group1_block2_sum_0_split <- group1_block2_sum
I0814 00:25:58.179811 22487 net.cpp:408] group1_block2_sum_group1_block2_sum_0_split -> group1_block2_sum_group1_block2_sum_0_split_0
I0814 00:25:58.179818 22487 net.cpp:408] group1_block2_sum_group1_block2_sum_0_split -> group1_block2_sum_group1_block2_sum_0_split_1
I0814 00:25:58.179858 22487 net.cpp:150] Setting up group1_block2_sum_group1_block2_sum_0_split
I0814 00:25:58.179864 22487 net.cpp:157] Top shape: 128 32 16 16 (1048576)
I0814 00:25:58.179868 22487 net.cpp:157] Top shape: 128 32 16 16 (1048576)
I0814 00:25:58.179872 22487 net.cpp:165] Memory required for data: 441976320
I0814 00:25:58.179874 22487 layer_factory.hpp:77] Creating layer group2_block0_conv0
I0814 00:25:58.179900 22487 net.cpp:100] Creating Layer group2_block0_conv0
I0814 00:25:58.179905 22487 net.cpp:434] group2_block0_conv0 <- group1_block2_sum_group1_block2_sum_0_split_0
I0814 00:25:58.179913 22487 net.cpp:408] group2_block0_conv0 -> group2_block0_conv0
I0814 00:25:58.183094 22487 net.cpp:150] Setting up group2_block0_conv0
I0814 00:25:58.183115 22487 net.cpp:157] Top shape: 128 64 8 8 (524288)
I0814 00:25:58.183118 22487 net.cpp:165] Memory required for data: 444073472
I0814 00:25:58.183128 22487 layer_factory.hpp:77] Creating layer group2_block0_conv0_bn
I0814 00:25:58.183137 22487 net.cpp:100] Creating Layer group2_block0_conv0_bn
I0814 00:25:58.183141 22487 net.cpp:434] group2_block0_conv0_bn <- group2_block0_conv0
I0814 00:25:58.183151 22487 net.cpp:395] group2_block0_conv0_bn -> group2_block0_conv0 (in-place)
I0814 00:25:58.183393 22487 net.cpp:150] Setting up group2_block0_conv0_bn
I0814 00:25:58.183400 22487 net.cpp:157] Top shape: 128 64 8 8 (524288)
I0814 00:25:58.183403 22487 net.cpp:165] Memory required for data: 446170624
I0814 00:25:58.183413 22487 layer_factory.hpp:77] Creating layer group2_block0_conv0_scale
I0814 00:25:58.183419 22487 net.cpp:100] Creating Layer group2_block0_conv0_scale
I0814 00:25:58.183423 22487 net.cpp:434] group2_block0_conv0_scale <- group2_block0_conv0
I0814 00:25:58.183430 22487 net.cpp:395] group2_block0_conv0_scale -> group2_block0_conv0 (in-place)
I0814 00:25:58.183471 22487 layer_factory.hpp:77] Creating layer group2_block0_conv0_scale
I0814 00:25:58.183614 22487 net.cpp:150] Setting up group2_block0_conv0_scale
I0814 00:25:58.183620 22487 net.cpp:157] Top shape: 128 64 8 8 (524288)
I0814 00:25:58.183624 22487 net.cpp:165] Memory required for data: 448267776
I0814 00:25:58.183630 22487 layer_factory.hpp:77] Creating layer group2_block0_conv0_relu
I0814 00:25:58.183637 22487 net.cpp:100] Creating Layer group2_block0_conv0_relu
I0814 00:25:58.183641 22487 net.cpp:434] group2_block0_conv0_relu <- group2_block0_conv0
I0814 00:25:58.183648 22487 net.cpp:395] group2_block0_conv0_relu -> group2_block0_conv0 (in-place)
I0814 00:25:58.184186 22487 net.cpp:150] Setting up group2_block0_conv0_relu
I0814 00:25:58.184201 22487 net.cpp:157] Top shape: 128 64 8 8 (524288)
I0814 00:25:58.184204 22487 net.cpp:165] Memory required for data: 450364928
I0814 00:25:58.184222 22487 layer_factory.hpp:77] Creating layer group2_block0_conv1
I0814 00:25:58.184237 22487 net.cpp:100] Creating Layer group2_block0_conv1
I0814 00:25:58.184242 22487 net.cpp:434] group2_block0_conv1 <- group2_block0_conv0
I0814 00:25:58.184252 22487 net.cpp:408] group2_block0_conv1 -> group2_block0_conv1
I0814 00:25:58.186599 22487 net.cpp:150] Setting up group2_block0_conv1
I0814 00:25:58.186614 22487 net.cpp:157] Top shape: 128 64 8 8 (524288)
I0814 00:25:58.186617 22487 net.cpp:165] Memory required for data: 452462080
I0814 00:25:58.186625 22487 layer_factory.hpp:77] Creating layer group2_block0_conv1_bn
I0814 00:25:58.186636 22487 net.cpp:100] Creating Layer group2_block0_conv1_bn
I0814 00:25:58.186641 22487 net.cpp:434] group2_block0_conv1_bn <- group2_block0_conv1
I0814 00:25:58.186648 22487 net.cpp:395] group2_block0_conv1_bn -> group2_block0_conv1 (in-place)
I0814 00:25:58.186897 22487 net.cpp:150] Setting up group2_block0_conv1_bn
I0814 00:25:58.186904 22487 net.cpp:157] Top shape: 128 64 8 8 (524288)
I0814 00:25:58.186913 22487 net.cpp:165] Memory required for data: 454559232
I0814 00:25:58.186921 22487 layer_factory.hpp:77] Creating layer group2_block0_conv1_scale
I0814 00:25:58.186929 22487 net.cpp:100] Creating Layer group2_block0_conv1_scale
I0814 00:25:58.186933 22487 net.cpp:434] group2_block0_conv1_scale <- group2_block0_conv1
I0814 00:25:58.186939 22487 net.cpp:395] group2_block0_conv1_scale -> group2_block0_conv1 (in-place)
I0814 00:25:58.186988 22487 layer_factory.hpp:77] Creating layer group2_block0_conv1_scale
I0814 00:25:58.187125 22487 net.cpp:150] Setting up group2_block0_conv1_scale
I0814 00:25:58.187132 22487 net.cpp:157] Top shape: 128 64 8 8 (524288)
I0814 00:25:58.187135 22487 net.cpp:165] Memory required for data: 456656384
I0814 00:25:58.187142 22487 layer_factory.hpp:77] Creating layer group2_block0_proj
I0814 00:25:58.187155 22487 net.cpp:100] Creating Layer group2_block0_proj
I0814 00:25:58.187160 22487 net.cpp:434] group2_block0_proj <- group1_block2_sum_group1_block2_sum_0_split_1
I0814 00:25:58.187168 22487 net.cpp:408] group2_block0_proj -> group2_block0_proj
I0814 00:25:58.188611 22487 net.cpp:150] Setting up group2_block0_proj
I0814 00:25:58.188627 22487 net.cpp:157] Top shape: 128 64 8 8 (524288)
I0814 00:25:58.188630 22487 net.cpp:165] Memory required for data: 458753536
I0814 00:25:58.188637 22487 layer_factory.hpp:77] Creating layer group2_block0_proj_bn
I0814 00:25:58.188649 22487 net.cpp:100] Creating Layer group2_block0_proj_bn
I0814 00:25:58.188654 22487 net.cpp:434] group2_block0_proj_bn <- group2_block0_proj
I0814 00:25:58.188663 22487 net.cpp:395] group2_block0_proj_bn -> group2_block0_proj (in-place)
I0814 00:25:58.188908 22487 net.cpp:150] Setting up group2_block0_proj_bn
I0814 00:25:58.188915 22487 net.cpp:157] Top shape: 128 64 8 8 (524288)
I0814 00:25:58.188920 22487 net.cpp:165] Memory required for data: 460850688
I0814 00:25:58.188926 22487 layer_factory.hpp:77] Creating layer group2_block0_proj_scale
I0814 00:25:58.188935 22487 net.cpp:100] Creating Layer group2_block0_proj_scale
I0814 00:25:58.188940 22487 net.cpp:434] group2_block0_proj_scale <- group2_block0_proj
I0814 00:25:58.188946 22487 net.cpp:395] group2_block0_proj_scale -> group2_block0_proj (in-place)
I0814 00:25:58.188990 22487 layer_factory.hpp:77] Creating layer group2_block0_proj_scale
I0814 00:25:58.189137 22487 net.cpp:150] Setting up group2_block0_proj_scale
I0814 00:25:58.189144 22487 net.cpp:157] Top shape: 128 64 8 8 (524288)
I0814 00:25:58.189147 22487 net.cpp:165] Memory required for data: 462947840
I0814 00:25:58.189153 22487 layer_factory.hpp:77] Creating layer group2_block0_sum
I0814 00:25:58.189163 22487 net.cpp:100] Creating Layer group2_block0_sum
I0814 00:25:58.189167 22487 net.cpp:434] group2_block0_sum <- group2_block0_proj
I0814 00:25:58.189172 22487 net.cpp:434] group2_block0_sum <- group2_block0_conv1
I0814 00:25:58.189179 22487 net.cpp:408] group2_block0_sum -> group2_block0_sum
I0814 00:25:58.189204 22487 net.cpp:150] Setting up group2_block0_sum
I0814 00:25:58.189227 22487 net.cpp:157] Top shape: 128 64 8 8 (524288)
I0814 00:25:58.189230 22487 net.cpp:165] Memory required for data: 465044992
I0814 00:25:58.189234 22487 layer_factory.hpp:77] Creating layer group2_block0_sum_group2_block0_sum_0_split
I0814 00:25:58.189241 22487 net.cpp:100] Creating Layer group2_block0_sum_group2_block0_sum_0_split
I0814 00:25:58.189244 22487 net.cpp:434] group2_block0_sum_group2_block0_sum_0_split <- group2_block0_sum
I0814 00:25:58.189256 22487 net.cpp:408] group2_block0_sum_group2_block0_sum_0_split -> group2_block0_sum_group2_block0_sum_0_split_0
I0814 00:25:58.189265 22487 net.cpp:408] group2_block0_sum_group2_block0_sum_0_split -> group2_block0_sum_group2_block0_sum_0_split_1
I0814 00:25:58.189313 22487 net.cpp:150] Setting up group2_block0_sum_group2_block0_sum_0_split
I0814 00:25:58.189319 22487 net.cpp:157] Top shape: 128 64 8 8 (524288)
I0814 00:25:58.189324 22487 net.cpp:157] Top shape: 128 64 8 8 (524288)
I0814 00:25:58.189327 22487 net.cpp:165] Memory required for data: 469239296
I0814 00:25:58.189332 22487 layer_factory.hpp:77] Creating layer group2_block1_conv0
I0814 00:25:58.189342 22487 net.cpp:100] Creating Layer group2_block1_conv0
I0814 00:25:58.189345 22487 net.cpp:434] group2_block1_conv0 <- group2_block0_sum_group2_block0_sum_0_split_0
I0814 00:25:58.189357 22487 net.cpp:408] group2_block1_conv0 -> group2_block1_conv0
I0814 00:25:58.192013 22487 net.cpp:150] Setting up group2_block1_conv0
I0814 00:25:58.192028 22487 net.cpp:157] Top shape: 128 64 8 8 (524288)
I0814 00:25:58.192031 22487 net.cpp:165] Memory required for data: 471336448
I0814 00:25:58.192039 22487 layer_factory.hpp:77] Creating layer group2_block1_conv0_bn
I0814 00:25:58.192050 22487 net.cpp:100] Creating Layer group2_block1_conv0_bn
I0814 00:25:58.192055 22487 net.cpp:434] group2_block1_conv0_bn <- group2_block1_conv0
I0814 00:25:58.192062 22487 net.cpp:395] group2_block1_conv0_bn -> group2_block1_conv0 (in-place)
I0814 00:25:58.192315 22487 net.cpp:150] Setting up group2_block1_conv0_bn
I0814 00:25:58.192323 22487 net.cpp:157] Top shape: 128 64 8 8 (524288)
I0814 00:25:58.192327 22487 net.cpp:165] Memory required for data: 473433600
I0814 00:25:58.192334 22487 layer_factory.hpp:77] Creating layer group2_block1_conv0_scale
I0814 00:25:58.192342 22487 net.cpp:100] Creating Layer group2_block1_conv0_scale
I0814 00:25:58.192345 22487 net.cpp:434] group2_block1_conv0_scale <- group2_block1_conv0
I0814 00:25:58.192351 22487 net.cpp:395] group2_block1_conv0_scale -> group2_block1_conv0 (in-place)
I0814 00:25:58.192399 22487 layer_factory.hpp:77] Creating layer group2_block1_conv0_scale
I0814 00:25:58.192543 22487 net.cpp:150] Setting up group2_block1_conv0_scale
I0814 00:25:58.192551 22487 net.cpp:157] Top shape: 128 64 8 8 (524288)
I0814 00:25:58.192554 22487 net.cpp:165] Memory required for data: 475530752
I0814 00:25:58.192560 22487 layer_factory.hpp:77] Creating layer group2_block1_conv0_relu
I0814 00:25:58.192569 22487 net.cpp:100] Creating Layer group2_block1_conv0_relu
I0814 00:25:58.192574 22487 net.cpp:434] group2_block1_conv0_relu <- group2_block1_conv0
I0814 00:25:58.192579 22487 net.cpp:395] group2_block1_conv0_relu -> group2_block1_conv0 (in-place)
I0814 00:25:58.193121 22487 net.cpp:150] Setting up group2_block1_conv0_relu
I0814 00:25:58.193140 22487 net.cpp:157] Top shape: 128 64 8 8 (524288)
I0814 00:25:58.193143 22487 net.cpp:165] Memory required for data: 477627904
I0814 00:25:58.193148 22487 layer_factory.hpp:77] Creating layer group2_block1_conv1
I0814 00:25:58.193159 22487 net.cpp:100] Creating Layer group2_block1_conv1
I0814 00:25:58.193163 22487 net.cpp:434] group2_block1_conv1 <- group2_block1_conv0
I0814 00:25:58.193174 22487 net.cpp:408] group2_block1_conv1 -> group2_block1_conv1
I0814 00:25:58.195230 22487 net.cpp:150] Setting up group2_block1_conv1
I0814 00:25:58.195245 22487 net.cpp:157] Top shape: 128 64 8 8 (524288)
I0814 00:25:58.195250 22487 net.cpp:165] Memory required for data: 479725056
I0814 00:25:58.195258 22487 layer_factory.hpp:77] Creating layer group2_block1_conv1_bn
I0814 00:25:58.195281 22487 net.cpp:100] Creating Layer group2_block1_conv1_bn
I0814 00:25:58.195286 22487 net.cpp:434] group2_block1_conv1_bn <- group2_block1_conv1
I0814 00:25:58.195297 22487 net.cpp:395] group2_block1_conv1_bn -> group2_block1_conv1 (in-place)
I0814 00:25:58.195551 22487 net.cpp:150] Setting up group2_block1_conv1_bn
I0814 00:25:58.195559 22487 net.cpp:157] Top shape: 128 64 8 8 (524288)
I0814 00:25:58.195562 22487 net.cpp:165] Memory required for data: 481822208
I0814 00:25:58.195590 22487 layer_factory.hpp:77] Creating layer group2_block1_conv1_scale
I0814 00:25:58.195598 22487 net.cpp:100] Creating Layer group2_block1_conv1_scale
I0814 00:25:58.195601 22487 net.cpp:434] group2_block1_conv1_scale <- group2_block1_conv1
I0814 00:25:58.195610 22487 net.cpp:395] group2_block1_conv1_scale -> group2_block1_conv1 (in-place)
I0814 00:25:58.195657 22487 layer_factory.hpp:77] Creating layer group2_block1_conv1_scale
I0814 00:25:58.195802 22487 net.cpp:150] Setting up group2_block1_conv1_scale
I0814 00:25:58.195809 22487 net.cpp:157] Top shape: 128 64 8 8 (524288)
I0814 00:25:58.195813 22487 net.cpp:165] Memory required for data: 483919360
I0814 00:25:58.195821 22487 layer_factory.hpp:77] Creating layer group2_block1_sum
I0814 00:25:58.195827 22487 net.cpp:100] Creating Layer group2_block1_sum
I0814 00:25:58.195832 22487 net.cpp:434] group2_block1_sum <- group2_block1_conv1
I0814 00:25:58.195837 22487 net.cpp:434] group2_block1_sum <- group2_block0_sum_group2_block0_sum_0_split_1
I0814 00:25:58.195844 22487 net.cpp:408] group2_block1_sum -> group2_block1_sum
I0814 00:25:58.195869 22487 net.cpp:150] Setting up group2_block1_sum
I0814 00:25:58.195875 22487 net.cpp:157] Top shape: 128 64 8 8 (524288)
I0814 00:25:58.195878 22487 net.cpp:165] Memory required for data: 486016512
I0814 00:25:58.195883 22487 layer_factory.hpp:77] Creating layer group2_block1_sum_group2_block1_sum_0_split
I0814 00:25:58.195891 22487 net.cpp:100] Creating Layer group2_block1_sum_group2_block1_sum_0_split
I0814 00:25:58.195895 22487 net.cpp:434] group2_block1_sum_group2_block1_sum_0_split <- group2_block1_sum
I0814 00:25:58.195904 22487 net.cpp:408] group2_block1_sum_group2_block1_sum_0_split -> group2_block1_sum_group2_block1_sum_0_split_0
I0814 00:25:58.195911 22487 net.cpp:408] group2_block1_sum_group2_block1_sum_0_split -> group2_block1_sum_group2_block1_sum_0_split_1
I0814 00:25:58.195956 22487 net.cpp:150] Setting up group2_block1_sum_group2_block1_sum_0_split
I0814 00:25:58.195962 22487 net.cpp:157] Top shape: 128 64 8 8 (524288)
I0814 00:25:58.195966 22487 net.cpp:157] Top shape: 128 64 8 8 (524288)
I0814 00:25:58.195969 22487 net.cpp:165] Memory required for data: 490210816
I0814 00:25:58.195973 22487 layer_factory.hpp:77] Creating layer group2_block2_conv0
I0814 00:25:58.195983 22487 net.cpp:100] Creating Layer group2_block2_conv0
I0814 00:25:58.195987 22487 net.cpp:434] group2_block2_conv0 <- group2_block1_sum_group2_block1_sum_0_split_0
I0814 00:25:58.195996 22487 net.cpp:408] group2_block2_conv0 -> group2_block2_conv0
I0814 00:25:58.198345 22487 net.cpp:150] Setting up group2_block2_conv0
I0814 00:25:58.198359 22487 net.cpp:157] Top shape: 128 64 8 8 (524288)
I0814 00:25:58.198364 22487 net.cpp:165] Memory required for data: 492307968
I0814 00:25:58.198371 22487 layer_factory.hpp:77] Creating layer group2_block2_conv0_bn
I0814 00:25:58.198386 22487 net.cpp:100] Creating Layer group2_block2_conv0_bn
I0814 00:25:58.198391 22487 net.cpp:434] group2_block2_conv0_bn <- group2_block2_conv0
I0814 00:25:58.198400 22487 net.cpp:395] group2_block2_conv0_bn -> group2_block2_conv0 (in-place)
I0814 00:25:58.198658 22487 net.cpp:150] Setting up group2_block2_conv0_bn
I0814 00:25:58.198667 22487 net.cpp:157] Top shape: 128 64 8 8 (524288)
I0814 00:25:58.198669 22487 net.cpp:165] Memory required for data: 494405120
I0814 00:25:58.198678 22487 layer_factory.hpp:77] Creating layer group2_block2_conv0_scale
I0814 00:25:58.198688 22487 net.cpp:100] Creating Layer group2_block2_conv0_scale
I0814 00:25:58.198705 22487 net.cpp:434] group2_block2_conv0_scale <- group2_block2_conv0
I0814 00:25:58.198712 22487 net.cpp:395] group2_block2_conv0_scale -> group2_block2_conv0 (in-place)
I0814 00:25:58.198762 22487 layer_factory.hpp:77] Creating layer group2_block2_conv0_scale
I0814 00:25:58.198915 22487 net.cpp:150] Setting up group2_block2_conv0_scale
I0814 00:25:58.198922 22487 net.cpp:157] Top shape: 128 64 8 8 (524288)
I0814 00:25:58.198925 22487 net.cpp:165] Memory required for data: 496502272
I0814 00:25:58.198933 22487 layer_factory.hpp:77] Creating layer group2_block2_conv0_relu
I0814 00:25:58.198942 22487 net.cpp:100] Creating Layer group2_block2_conv0_relu
I0814 00:25:58.198946 22487 net.cpp:434] group2_block2_conv0_relu <- group2_block2_conv0
I0814 00:25:58.198951 22487 net.cpp:395] group2_block2_conv0_relu -> group2_block2_conv0 (in-place)
I0814 00:25:58.199496 22487 net.cpp:150] Setting up group2_block2_conv0_relu
I0814 00:25:58.199508 22487 net.cpp:157] Top shape: 128 64 8 8 (524288)
I0814 00:25:58.199512 22487 net.cpp:165] Memory required for data: 498599424
I0814 00:25:58.199517 22487 layer_factory.hpp:77] Creating layer group2_block2_conv1
I0814 00:25:58.199535 22487 net.cpp:100] Creating Layer group2_block2_conv1
I0814 00:25:58.199542 22487 net.cpp:434] group2_block2_conv1 <- group2_block2_conv0
I0814 00:25:58.199548 22487 net.cpp:408] group2_block2_conv1 -> group2_block2_conv1
I0814 00:25:58.201941 22487 net.cpp:150] Setting up group2_block2_conv1
I0814 00:25:58.201956 22487 net.cpp:157] Top shape: 128 64 8 8 (524288)
I0814 00:25:58.201959 22487 net.cpp:165] Memory required for data: 500696576
I0814 00:25:58.201967 22487 layer_factory.hpp:77] Creating layer group2_block2_conv1_bn
I0814 00:25:58.201977 22487 net.cpp:100] Creating Layer group2_block2_conv1_bn
I0814 00:25:58.201980 22487 net.cpp:434] group2_block2_conv1_bn <- group2_block2_conv1
I0814 00:25:58.201989 22487 net.cpp:395] group2_block2_conv1_bn -> group2_block2_conv1 (in-place)
I0814 00:25:58.202251 22487 net.cpp:150] Setting up group2_block2_conv1_bn
I0814 00:25:58.202258 22487 net.cpp:157] Top shape: 128 64 8 8 (524288)
I0814 00:25:58.202262 22487 net.cpp:165] Memory required for data: 502793728
I0814 00:25:58.202270 22487 layer_factory.hpp:77] Creating layer group2_block2_conv1_scale
I0814 00:25:58.202277 22487 net.cpp:100] Creating Layer group2_block2_conv1_scale
I0814 00:25:58.202281 22487 net.cpp:434] group2_block2_conv1_scale <- group2_block2_conv1
I0814 00:25:58.202288 22487 net.cpp:395] group2_block2_conv1_scale -> group2_block2_conv1 (in-place)
I0814 00:25:58.202333 22487 layer_factory.hpp:77] Creating layer group2_block2_conv1_scale
I0814 00:25:58.202477 22487 net.cpp:150] Setting up group2_block2_conv1_scale
I0814 00:25:58.202484 22487 net.cpp:157] Top shape: 128 64 8 8 (524288)
I0814 00:25:58.202487 22487 net.cpp:165] Memory required for data: 504890880
I0814 00:25:58.202494 22487 layer_factory.hpp:77] Creating layer group2_block2_sum
I0814 00:25:58.202502 22487 net.cpp:100] Creating Layer group2_block2_sum
I0814 00:25:58.202504 22487 net.cpp:434] group2_block2_sum <- group2_block2_conv1
I0814 00:25:58.202510 22487 net.cpp:434] group2_block2_sum <- group2_block1_sum_group2_block1_sum_0_split_1
I0814 00:25:58.202518 22487 net.cpp:408] group2_block2_sum -> group2_block2_sum
I0814 00:25:58.202543 22487 net.cpp:150] Setting up group2_block2_sum
I0814 00:25:58.202553 22487 net.cpp:157] Top shape: 128 64 8 8 (524288)
I0814 00:25:58.202555 22487 net.cpp:165] Memory required for data: 506988032
I0814 00:25:58.202558 22487 layer_factory.hpp:77] Creating layer global_avg_pool
I0814 00:25:58.202566 22487 net.cpp:100] Creating Layer global_avg_pool
I0814 00:25:58.202570 22487 net.cpp:434] global_avg_pool <- group2_block2_sum
I0814 00:25:58.202576 22487 net.cpp:408] global_avg_pool -> global_avg_pool
I0814 00:25:58.202853 22487 net.cpp:150] Setting up global_avg_pool
I0814 00:25:58.202864 22487 net.cpp:157] Top shape: 128 64 1 1 (8192)
I0814 00:25:58.202868 22487 net.cpp:165] Memory required for data: 507020800
I0814 00:25:58.202872 22487 layer_factory.hpp:77] Creating layer fc
I0814 00:25:58.202896 22487 net.cpp:100] Creating Layer fc
I0814 00:25:58.202901 22487 net.cpp:434] fc <- global_avg_pool
I0814 00:25:58.202916 22487 net.cpp:408] fc -> fc
I0814 00:25:58.203078 22487 net.cpp:150] Setting up fc
I0814 00:25:58.203086 22487 net.cpp:157] Top shape: 128 10 (1280)
I0814 00:25:58.203090 22487 net.cpp:165] Memory required for data: 507025920
I0814 00:25:58.203097 22487 layer_factory.hpp:77] Creating layer fc_fc_0_split
I0814 00:25:58.203104 22487 net.cpp:100] Creating Layer fc_fc_0_split
I0814 00:25:58.203107 22487 net.cpp:434] fc_fc_0_split <- fc
I0814 00:25:58.203114 22487 net.cpp:408] fc_fc_0_split -> fc_fc_0_split_0
I0814 00:25:58.203121 22487 net.cpp:408] fc_fc_0_split -> fc_fc_0_split_1
I0814 00:25:58.203162 22487 net.cpp:150] Setting up fc_fc_0_split
I0814 00:25:58.203168 22487 net.cpp:157] Top shape: 128 10 (1280)
I0814 00:25:58.203171 22487 net.cpp:157] Top shape: 128 10 (1280)
I0814 00:25:58.203174 22487 net.cpp:165] Memory required for data: 507036160
I0814 00:25:58.203178 22487 layer_factory.hpp:77] Creating layer loss
I0814 00:25:58.203186 22487 net.cpp:100] Creating Layer loss
I0814 00:25:58.203189 22487 net.cpp:434] loss <- fc_fc_0_split_0
I0814 00:25:58.203194 22487 net.cpp:434] loss <- label_data_1_split_0
I0814 00:25:58.203200 22487 net.cpp:408] loss -> loss
I0814 00:25:58.203210 22487 layer_factory.hpp:77] Creating layer loss
I0814 00:25:58.203891 22487 net.cpp:150] Setting up loss
I0814 00:25:58.203902 22487 net.cpp:157] Top shape: (1)
I0814 00:25:58.203905 22487 net.cpp:160]     with loss weight 1
I0814 00:25:58.203934 22487 net.cpp:165] Memory required for data: 507036164
I0814 00:25:58.203938 22487 layer_factory.hpp:77] Creating layer softmax
I0814 00:25:58.203946 22487 net.cpp:100] Creating Layer softmax
I0814 00:25:58.203950 22487 net.cpp:434] softmax <- fc_fc_0_split_1
I0814 00:25:58.203959 22487 net.cpp:408] softmax -> softmax
I0814 00:25:58.204258 22487 net.cpp:150] Setting up softmax
I0814 00:25:58.204268 22487 net.cpp:157] Top shape: 128 10 (1280)
I0814 00:25:58.204272 22487 net.cpp:165] Memory required for data: 507041284
I0814 00:25:58.204275 22487 layer_factory.hpp:77] Creating layer Accuracy
I0814 00:25:58.204282 22487 net.cpp:100] Creating Layer Accuracy
I0814 00:25:58.204285 22487 net.cpp:434] Accuracy <- softmax
I0814 00:25:58.204291 22487 net.cpp:434] Accuracy <- label_data_1_split_1
I0814 00:25:58.204305 22487 net.cpp:408] Accuracy -> Accuracy
…
