…
I1019 01:44:04.109319 16622 net.cpp:294] The NetState phase (0) differed from the phase (1) specified by a rule in layer data
I1019 01:44:04.110239 16622 net.cpp:51] Initializing net from parameters: 
name: "resnet5-cifar10"
state {
  phase: TRAIN
  level: 0
  stage: ""
}
layer {
  name: "data"
  type: "Data"
  top: "data"
  top: "label"
  include {
    phase: TRAIN
  }
  transform_param {
    scale: 0.0078125
    mirror: true
    crop_size: 32
    mean_value: 128
  }
  data_param {
    source: "cifar-10-batches-py/train"
    batch_size: 128
    backend: LMDB
  }
}
layer {
  name: "first_conv"
  type: "Convolution"
  bottom: "data"
  top: "first_conv"
  param {
    lr_mult: 1
    decay_mult: 1
  }
  convolution_param {
    num_output: 16
    pad: 1
    kernel_size: 3
    stride: 1
    weight_filler {
      type: "msra"
    }
  }
}
layer {
  name: "first_conv_bn"
  type: "BatchNorm"
  bottom: "first_conv"
  top: "first_conv"
  param {
    lr_mult: 0
    decay_mult: 0
  }
  param {
    lr_mult: 0
    decay_mult: 0
  }
  param {
    lr_mult: 0
    decay_mult: 0
  }
}
layer {
  name: "first_conv_scale"
  type: "Scale"
  bottom: "first_conv"
  top: "first_conv"
  scale_param {
    bias_term: true
  }
}
layer {
  name: "first_conv_relu"
  type: "ReLU"
  bottom: "first_conv"
  top: "first_conv"
}
layer {
  name: "group0_block0_conv0"
  type: "Convolution"
  bottom: "first_conv"
  top: "group0_block0_conv0"
  param {
    lr_mult: 1
    decay_mult: 1
  }
  convolution_param {
    num_output: 16
    pad: 1
    kernel_size: 3
    stride: 1
    weight_filler {
      type: "msra"
    }
  }
}
layer {
  name: "group0_block0_conv0_bn"
  type: "BatchNorm"
  bottom: "group0_block0_conv0"
  top: "group0_block0_conv0"
  param {
    lr_mult: 0
    decay_mult: 0
  }
  param {
    lr_mult: 0
    decay_mult: 0
  }
  param {
    lr_mult: 0
    decay_mult: 0
  }
}
layer {
  name: "group0_block0_conv0_scale"
  type: "Scale"
  bottom: "group0_block0_conv0"
  top: "group0_block0_conv0"
  scale_param {
    bias_term: true
  }
}
layer {
  name: "group0_block0_conv0_relu"
  type: "ReLU"
  bottom: "group0_block0_conv0"
  top: "group0_block0_conv0"
}
layer {
  name: "group0_block0_conv1"
  type: "Convolution"
  bottom: "group0_block0_conv0"
  top: "group0_block0_conv1"
  param {
    lr_mult: 1
    decay_mult: 1
  }
  convolution_param {
    num_output: 16
    pad: 1
    kernel_size: 3
    stride: 1
    weight_filler {
      type: "msra"
    }
  }
}
layer {
  name: "group0_block0_conv1_bn"
  type: "BatchNorm"
  bottom: "group0_block0_conv1"
  top: "group0_block0_conv1"
  param {
    lr_mult: 0
    decay_mult: 0
  }
  param {
    lr_mult: 0
    decay_mult: 0
  }
  param {
    lr_mult: 0
    decay_mult: 0
  }
}
layer {
  name: "group0_block0_conv1_scale"
  type: "Scale"
  bottom: "group0_block0_conv1"
  top: "group0_block0_conv1"
  scale_param {
    bias_term: true
  }
}
layer {
  name: "group0_block0_sum"
  type: "Eltwise"
  bottom: "group0_block0_conv1"
  bottom: "first_conv"
  top: "group0_block0_sum"
  eltwise_param {
    operation: SUM
  }
}
layer {
  name: "group0_block0_relu"
  type: "ReLU"
  bottom: "group0_block0_sum"
  top: "group0_block0_sum"
}
layer {
  name: "group0_block1_conv0"
  type: "Convolution"
  bottom: "group0_block0_sum"
  top: "group0_block1_conv0"
  param {
    lr_mult: 1
    decay_mult: 1
  }
  convolution_param {
    num_output: 16
    pad: 1
    kernel_size: 3
    stride: 1
    weight_filler {
      type: "msra"
    }
  }
}
layer {
  name: "group0_block1_conv0_bn"
  type: "BatchNorm"
  bottom: "group0_block1_conv0"
  top: "group0_block1_conv0"
  param {
    lr_mult: 0
    decay_mult: 0
  }
  param {
    lr_mult: 0
    decay_mult: 0
  }
  param {
    lr_mult: 0
    decay_mult: 0
  }
}
layer {
  name: "group0_block1_conv0_scale"
  type: "Scale"
  bottom: "group0_block1_conv0"
  top: "group0_block1_conv0"
  scale_param {
    bias_term: true
  }
}
layer {
  name: "group0_block1_conv0_relu"
  type: "ReLU"
  bottom: "group0_block1_conv0"
  top: "group0_block1_conv0"
}
layer {
  name: "group0_block1_conv1"
  type: "Convolution"
  bottom: "group0_block1_conv0"
  top: "group0_block1_conv1"
  param {
    lr_mult: 1
    decay_mult: 1
  }
  convolution_param {
    num_output: 16
    pad: 1
    kernel_size: 3
    stride: 1
    weight_filler {
      type: "msra"
    }
  }
}
layer {
  name: "group0_block1_conv1_bn"
  type: "BatchNorm"
  bottom: "group0_block1_conv1"
  top: "group0_block1_conv1"
  param {
    lr_mult: 0
    decay_mult: 0
  }
  param {
    lr_mult: 0
    decay_mult: 0
  }
  param {
    lr_mult: 0
    decay_mult: 0
  }
}
layer {
  name: "group0_block1_conv1_scale"
  type: "Scale"
  bottom: "group0_block1_conv1"
  top: "group0_block1_conv1"
  scale_param {
    bias_term: true
  }
}
layer {
  name: "group0_block1_sum"
  type: "Eltwise"
  bottom: "group0_block1_conv1"
  bottom: "group0_block0_sum"
  top: "group0_block1_sum"
  eltwise_param {
    operation: SUM
  }
}
layer {
  name: "group0_block1_relu"
  type: "ReLU"
  bottom: "group0_block1_sum"
  top: "group0_block1_sum"
}
layer {
  name: "group0_block2_conv0"
  type: "Convolution"
  bottom: "group0_block1_sum"
  top: "group0_block2_conv0"
  param {
    lr_mult: 1
    decay_mult: 1
  }
  convolution_param {
    num_output: 16
    pad: 1
    kernel_size: 3
    stride: 1
    weight_filler {
      type: "msra"
    }
  }
}
layer {
  name: "group0_block2_conv0_bn"
  type: "BatchNorm"
  bottom: "group0_block2_conv0"
  top: "group0_block2_conv0"
  param {
    lr_mult: 0
    decay_mult: 0
  }
  param {
    lr_mult: 0
    decay_mult: 0
  }
  param {
    lr_mult: 0
    decay_mult: 0
  }
}
layer {
  name: "group0_block2_conv0_scale"
  type: "Scale"
  bottom: "group0_block2_conv0"
  top: "group0_block2_conv0"
  scale_param {
    bias_term: true
  }
}
layer {
  name: "group0_block2_conv0_relu"
  type: "ReLU"
  bottom: "group0_block2_conv0"
  top: "group0_block2_conv0"
}
layer {
  name: "group0_block2_conv1"
  type: "Convolution"
  bottom: "group0_block2_conv0"
  top: "group0_block2_conv1"
  param {
    lr_mult: 1
    decay_mult: 1
  }
  convolution_param {
    num_output: 16
    pad: 1
    kernel_size: 3
    stride: 1
    weight_filler {
      type: "msra"
    }
  }
}
layer {
  name: "group0_block2_conv1_bn"
  type: "BatchNorm"
  bottom: "group0_block2_conv1"
  top: "group0_block2_conv1"
  param {
    lr_mult: 0
    decay_mult: 0
  }
  param {
    lr_mult: 0
    decay_mult: 0
  }
  param {
    lr_mult: 0
    decay_mult: 0
  }
}
layer {
  name: "group0_block2_conv1_scale"
  type: "Scale"
  bottom: "group0_block2_conv1"
  top: "group0_block2_conv1"
  scale_param {
    bias_term: true
  }
}
layer {
  name: "group0_block2_sum"
  type: "Eltwise"
  bottom: "group0_block2_conv1"
  bottom: "group0_block1_sum"
  top: "group0_block2_sum"
  eltwise_param {
    operation: SUM
  }
}
layer {
  name: "group0_block2_relu"
  type: "ReLU"
  bottom: "group0_block2_sum"
  top: "group0_block2_sum"
}
layer {
  name: "group0_block3_conv0"
  type: "Convolution"
  bottom: "group0_block2_sum"
  top: "group0_block3_conv0"
  param {
    lr_mult: 1
    decay_mult: 1
  }
  convolution_param {
    num_output: 16
    pad: 1
    kernel_size: 3
    stride: 1
    weight_filler {
      type: "msra"
    }
  }
}
layer {
  name: "group0_block3_conv0_bn"
  type: "BatchNorm"
  bottom: "group0_block3_conv0"
  top: "group0_block3_conv0"
  param {
    lr_mult: 0
    decay_mult: 0
  }
  param {
    lr_mult: 0
    decay_mult: 0
  }
  param {
    lr_mult: 0
    decay_mult: 0
  }
}
layer {
  name: "group0_block3_conv0_scale"
  type: "Scale"
  bottom: "group0_block3_conv0"
  top: "group0_block3_conv0"
  scale_param {
    bias_term: true
  }
}
layer {
  name: "group0_block3_conv0_relu"
  type: "ReLU"
  bottom: "group0_block3_conv0"
  top: "group0_block3_conv0"
}
layer {
  name: "group0_block3_conv1"
  type: "Convolution"
  bottom: "group0_block3_conv0"
  top: "group0_block3_conv1"
  param {
    lr_mult: 1
    decay_mult: 1
  }
  convolution_param {
    num_output: 16
    pad: 1
    kernel_size: 3
    stride: 1
    weight_filler {
      type: "msra"
    }
  }
}
layer {
  name: "group0_block3_conv1_bn"
  type: "BatchNorm"
  bottom: "group0_block3_conv1"
  top: "group0_block3_conv1"
  param {
    lr_mult: 0
    decay_mult: 0
  }
  param {
    lr_mult: 0
    decay_mult: 0
  }
  param {
    lr_mult: 0
    decay_mult: 0
  }
}
layer {
  name: "group0_block3_conv1_scale"
  type: "Scale"
  bottom: "group0_block3_conv1"
  top: "group0_block3_conv1"
  scale_param {
    bias_term: true
  }
}
layer {
  name: "group0_block3_sum"
  type: "Eltwise"
  bottom: "group0_block3_conv1"
  bottom: "group0_block2_sum"
  top: "group0_block3_sum"
  eltwise_param {
    operation: SUM
  }
}
layer {
  name: "group0_block3_relu"
  type: "ReLU"
  bottom: "group0_block3_sum"
  top: "group0_block3_sum"
}
layer {
  name: "group0_block4_conv0"
  type: "Convolution"
  bottom: "group0_block3_sum"
  top: "group0_block4_conv0"
  param {
    lr_mult: 1
    decay_mult: 1
  }
  convolution_param {
    num_output: 16
    pad: 1
    kernel_size: 3
    stride: 1
    weight_filler {
      type: "msra"
    }
  }
}
layer {
  name: "group0_block4_conv0_bn"
  type: "BatchNorm"
  bottom: "group0_block4_conv0"
  top: "group0_block4_conv0"
  param {
    lr_mult: 0
    decay_mult: 0
  }
  param {
    lr_mult: 0
    decay_mult: 0
  }
  param {
    lr_mult: 0
    decay_mult: 0
  }
}
layer {
  name: "group0_block4_conv0_scale"
  type: "Scale"
  bottom: "group0_block4_conv0"
  top: "group0_block4_conv0"
  scale_param {
    bias_term: true
  }
}
layer {
  name: "group0_block4_conv0_relu"
  type: "ReLU"
  bottom: "group0_block4_conv0"
  top: "group0_block4_conv0"
}
layer {
  name: "group0_block4_conv1"
  type: "Convolution"
  bottom: "group0_block4_conv0"
  top: "group0_block4_conv1"
  param {
    lr_mult: 1
    decay_mult: 1
  }
  convolution_param {
    num_output: 16
    pad: 1
    kernel_size: 3
    stride: 1
    weight_filler {
      type: "msra"
    }
  }
}
layer {
  name: "group0_block4_conv1_bn"
  type: "BatchNorm"
  bottom: "group0_block4_conv1"
  top: "group0_block4_conv1"
  param {
    lr_mult: 0
    decay_mult: 0
  }
  param {
    lr_mult: 0
    decay_mult: 0
  }
  param {
    lr_mult: 0
    decay_mult: 0
  }
}
layer {
  name: "group0_block4_conv1_scale"
  type: "Scale"
  bottom: "group0_block4_conv1"
  top: "group0_block4_conv1"
  scale_param {
    bias_term: true
  }
}
layer {
  name: "group0_block4_sum"
  type: "Eltwise"
  bottom: "group0_block4_conv1"
  bottom: "group0_block3_sum"
  top: "group0_block4_sum"
  eltwise_param {
    operation: SUM
  }
}
layer {
  name: "group0_block4_relu"
  type: "ReLU"
  bottom: "group0_block4_sum"
  top: "group0_block4_sum"
}
layer {
  name: "group1_block0_conv0"
  type: "Convolution"
  bottom: "group0_block4_sum"
  top: "group1_block0_conv0"
  param {
    lr_mult: 1
    decay_mult: 1
  }
  convolution_param {
    num_output: 32
    pad: 1
    kernel_size: 3
    stride: 2
    weight_filler {
      type: "msra"
    }
  }
}
layer {
  name: "group1_block0_conv0_bn"
  type: "BatchNorm"
  bottom: "group1_block0_conv0"
  top: "group1_block0_conv0"
  param {
    lr_mult: 0
    decay_mult: 0
  }
  param {
    lr_mult: 0
    decay_mult: 0
  }
  param {
    lr_mult: 0
    decay_mult: 0
  }
}
layer {
  name: "group1_block0_conv0_scale"
  type: "Scale"
  bottom: "group1_block0_conv0"
  top: "group1_block0_conv0"
  scale_param {
    bias_term: true
  }
}
layer {
  name: "group1_block0_conv0_relu"
  type: "ReLU"
  bottom: "group1_block0_conv0"
  top: "group1_block0_conv0"
}
layer {
  name: "group1_block0_conv1"
  type: "Convolution"
  bottom: "group1_block0_conv0"
  top: "group1_block0_conv1"
  param {
    lr_mult: 1
    decay_mult: 1
  }
  convolution_param {
    num_output: 32
    pad: 1
    kernel_size: 3
    stride: 1
    weight_filler {
      type: "msra"
    }
  }
}
layer {
  name: "group1_block0_conv1_bn"
  type: "BatchNorm"
  bottom: "group1_block0_conv1"
  top: "group1_block0_conv1"
  param {
    lr_mult: 0
    decay_mult: 0
  }
  param {
    lr_mult: 0
    decay_mult: 0
  }
  param {
    lr_mult: 0
    decay_mult: 0
  }
}
layer {
  name: "group1_block0_conv1_scale"
  type: "Scale"
  bottom: "group1_block0_conv1"
  top: "group1_block0_conv1"
  scale_param {
    bias_term: true
  }
}
layer {
  name: "group1_block0_proj"
  type: "Convolution"
  bottom: "group0_block4_sum"
  top: "group1_block0_proj"
  param {
    lr_mult: 1
    decay_mult: 1
  }
  convolution_param {
    num_output: 32
    pad: 0
    kernel_size: 1
    stride: 2
    weight_filler {
      type: "msra"
    }
  }
}
layer {
  name: "group1_block0_proj_bn"
  type: "BatchNorm"
  bottom: "group1_block0_proj"
  top: "group1_block0_proj"
  param {
    lr_mult: 0
    decay_mult: 0
  }
  param {
    lr_mult: 0
    decay_mult: 0
  }
  param {
    lr_mult: 0
    decay_mult: 0
  }
}
layer {
  name: "group1_block0_proj_scale"
  type: "Scale"
  bottom: "group1_block0_proj"
  top: "group1_block0_proj"
  scale_param {
    bias_term: true
  }
}
layer {
  name: "group1_block0_sum"
  type: "Eltwise"
  bottom: "group1_block0_proj"
  bottom: "group1_block0_conv1"
  top: "group1_block0_sum"
  eltwise_param {
    operation: SUM
  }
}
layer {
  name: "group1_block0_relu"
  type: "ReLU"
  bottom: "group1_block0_sum"
  top: "group1_block0_sum"
}
layer {
  name: "group1_block1_conv0"
  type: "Convolution"
  bottom: "group1_block0_sum"
  top: "group1_block1_conv0"
  param {
    lr_mult: 1
    decay_mult: 1
  }
  convolution_param {
    num_output: 32
    pad: 1
    kernel_size: 3
    stride: 1
    weight_filler {
      type: "msra"
    }
  }
}
layer {
  name: "group1_block1_conv0_bn"
  type: "BatchNorm"
  bottom: "group1_block1_conv0"
  top: "group1_block1_conv0"
  param {
    lr_mult: 0
    decay_mult: 0
  }
  param {
    lr_mult: 0
    decay_mult: 0
  }
  param {
    lr_mult: 0
    decay_mult: 0
  }
}
layer {
  name: "group1_block1_conv0_scale"
  type: "Scale"
  bottom: "group1_block1_conv0"
  top: "group1_block1_conv0"
  scale_param {
    bias_term: true
  }
}
layer {
  name: "group1_block1_conv0_relu"
  type: "ReLU"
  bottom: "group1_block1_conv0"
  top: "group1_block1_conv0"
}
layer {
  name: "group1_block1_conv1"
  type: "Convolution"
  bottom: "group1_block1_conv0"
  top: "group1_block1_conv1"
  param {
    lr_mult: 1
    decay_mult: 1
  }
  convolution_param {
    num_output: 32
    pad: 1
    kernel_size: 3
    stride: 1
    weight_filler {
      type: "msra"
    }
  }
}
layer {
  name: "group1_block1_conv1_bn"
  type: "BatchNorm"
  bottom: "group1_block1_conv1"
  top: "group1_block1_conv1"
  param {
    lr_mult: 0
    decay_mult: 0
  }
  param {
    lr_mult: 0
    decay_mult: 0
  }
  param {
    lr_mult: 0
    decay_mult: 0
  }
}
layer {
  name: "group1_block1_conv1_scale"
  type: "Scale"
  bottom: "group1_block1_conv1"
  top: "group1_block1_conv1"
  scale_param {
    bias_term: true
  }
}
layer {
  name: "group1_block1_sum"
  type: "Eltwise"
  bottom: "group1_block1_conv1"
  bottom: "group1_block0_sum"
  top: "group1_block1_sum"
  eltwise_param {
    operation: SUM
  }
}
layer {
  name: "group1_block1_relu"
  type: "ReLU"
  bottom: "group1_block1_sum"
  top: "group1_block1_sum"
}
layer {
  name: "group1_block2_conv0"
  type: "Convolution"
  bottom: "group1_block1_sum"
  top: "group1_block2_conv0"
  param {
    lr_mult: 1
    decay_mult: 1
  }
  convolution_param {
    num_output: 32
    pad: 1
    kernel_size: 3
    stride: 1
    weight_filler {
      type: "msra"
    }
  }
}
layer {
  name: "group1_block2_conv0_bn"
  type: "BatchNorm"
  bottom: "group1_block2_conv0"
  top: "group1_block2_conv0"
  param {
    lr_mult: 0
    decay_mult: 0
  }
  param {
    lr_mult: 0
    decay_mult: 0
  }
  param {
    lr_mult: 0
    decay_mult: 0
  }
}
layer {
  name: "group1_block2_conv0_scale"
  type: "Scale"
  bottom: "group1_block2_conv0"
  top: "group1_block2_conv0"
  scale_param {
    bias_term: true
  }
}
layer {
  name: "group1_block2_conv0_relu"
  type: "ReLU"
  bottom: "group1_block2_conv0"
  top: "group1_block2_conv0"
}
layer {
  name: "group1_block2_conv1"
  type: "Convolution"
  bottom: "group1_block2_conv0"
  top: "group1_block2_conv1"
  param {
    lr_mult: 1
    decay_mult: 1
  }
  convolution_param {
    num_output: 32
    pad: 1
    kernel_size: 3
    stride: 1
    weight_filler {
      type: "msra"
    }
  }
}
layer {
  name: "group1_block2_conv1_bn"
  type: "BatchNorm"
  bottom: "group1_block2_conv1"
  top: "group1_block2_conv1"
  param {
    lr_mult: 0
    decay_mult: 0
  }
  param {
    lr_mult: 0
    decay_mult: 0
  }
  param {
    lr_mult: 0
    decay_mult: 0
  }
}
layer {
  name: "group1_block2_conv1_scale"
  type: "Scale"
  bottom: "group1_block2_conv1"
  top: "group1_block2_conv1"
  scale_param {
    bias_term: true
  }
}
layer {
  name: "group1_block2_sum"
  type: "Eltwise"
  bottom: "group1_block2_conv1"
  bottom: "group1_block1_sum"
  top: "group1_block2_sum"
  eltwise_param {
    operation: SUM
  }
}
layer {
  name: "group1_block2_relu"
  type: "ReLU"
  bottom: "group1_block2_sum"
  top: "group1_block2_sum"
}
layer {
  name: "group1_block3_conv0"
  type: "Convolution"
  bottom: "group1_block2_sum"
  top: "group1_block3_conv0"
  param {
    lr_mult: 1
    decay_mult: 1
  }
  convolution_param {
    num_output: 32
    pad: 1
    kernel_size: 3
    stride: 1
    weight_filler {
      type: "msra"
    }
  }
}
layer {
  name: "group1_block3_conv0_bn"
  type: "BatchNorm"
  bottom: "group1_block3_conv0"
  top: "group1_block3_conv0"
  param {
    lr_mult: 0
    decay_mult: 0
  }
  param {
    lr_mult: 0
    decay_mult: 0
  }
  param {
    lr_mult: 0
    decay_mult: 0
  }
}
layer {
  name: "group1_block3_conv0_scale"
  type: "Scale"
  bottom: "group1_block3_conv0"
  top: "group1_block3_conv0"
  scale_param {
    bias_term: true
  }
}
layer {
  name: "group1_block3_conv0_relu"
  type: "ReLU"
  bottom: "group1_block3_conv0"
  top: "group1_block3_conv0"
}
layer {
  name: "group1_block3_conv1"
  type: "Convolution"
  bottom: "group1_block3_conv0"
  top: "group1_block3_conv1"
  param {
    lr_mult: 1
    decay_mult: 1
  }
  convolution_param {
    num_output: 32
    pad: 1
    kernel_size: 3
    stride: 1
    weight_filler {
      type: "msra"
    }
  }
}
layer {
  name: "group1_block3_conv1_bn"
  type: "BatchNorm"
  bottom: "group1_block3_conv1"
  top: "group1_block3_conv1"
  param {
    lr_mult: 0
    decay_mult: 0
  }
  param {
    lr_mult: 0
    decay_mult: 0
  }
  param {
    lr_mult: 0
    decay_mult: 0
  }
}
layer {
  name: "group1_block3_conv1_scale"
  type: "Scale"
  bottom: "group1_block3_conv1"
  top: "group1_block3_conv1"
  scale_param {
    bias_term: true
  }
}
layer {
  name: "group1_block3_sum"
  type: "Eltwise"
  bottom: "group1_block3_conv1"
  bottom: "group1_block2_sum"
  top: "group1_block3_sum"
  eltwise_param {
    operation: SUM
  }
}
layer {
  name: "group1_block3_relu"
  type: "ReLU"
  bottom: "group1_block3_sum"
  top: "group1_block3_sum"
}
layer {
  name: "group1_block4_conv0"
  type: "Convolution"
  bottom: "group1_block3_sum"
  top: "group1_block4_conv0"
  param {
    lr_mult: 1
    decay_mult: 1
  }
  convolution_param {
    num_output: 32
    pad: 1
    kernel_size: 3
    stride: 1
    weight_filler {
      type: "msra"
    }
  }
}
layer {
  name: "group1_block4_conv0_bn"
  type: "BatchNorm"
  bottom: "group1_block4_conv0"
  top: "group1_block4_conv0"
  param {
    lr_mult: 0
    decay_mult: 0
  }
  param {
    lr_mult: 0
    decay_mult: 0
  }
  param {
    lr_mult: 0
    decay_mult: 0
  }
}
layer {
  name: "group1_block4_conv0_scale"
  type: "Scale"
  bottom: "group1_block4_conv0"
  top: "group1_block4_conv0"
  scale_param {
    bias_term: true
  }
}
layer {
  name: "group1_block4_conv0_relu"
  type: "ReLU"
  bottom: "group1_block4_conv0"
  top: "group1_block4_conv0"
}
layer {
  name: "group1_block4_conv1"
  type: "Convolution"
  bottom: "group1_block4_conv0"
  top: "group1_block4_conv1"
  param {
    lr_mult: 1
    decay_mult: 1
  }
  convolution_param {
    num_output: 32
    pad: 1
    kernel_size: 3
    stride: 1
    weight_filler {
      type: "msra"
    }
  }
}
layer {
  name: "group1_block4_conv1_bn"
  type: "BatchNorm"
  bottom: "group1_block4_conv1"
  top: "group1_block4_conv1"
  param {
    lr_mult: 0
    decay_mult: 0
  }
  param {
    lr_mult: 0
    decay_mult: 0
  }
  param {
    lr_mult: 0
    decay_mult: 0
  }
}
layer {
  name: "group1_block4_conv1_scale"
  type: "Scale"
  bottom: "group1_block4_conv1"
  top: "group1_block4_conv1"
  scale_param {
    bias_term: true
  }
}
layer {
  name: "group1_block4_sum"
  type: "Eltwise"
  bottom: "group1_block4_conv1"
  bottom: "group1_block3_sum"
  top: "group1_block4_sum"
  eltwise_param {
    operation: SUM
  }
}
layer {
  name: "group1_block4_relu"
  type: "ReLU"
  bottom: "group1_block4_sum"
  top: "group1_block4_sum"
}
layer {
  name: "group2_block0_conv0"
  type: "Convolution"
  bottom: "group1_block4_sum"
  top: "group2_block0_conv0"
  param {
    lr_mult: 1
    decay_mult: 1
  }
  convolution_param {
    num_output: 64
    pad: 1
    kernel_size: 3
    stride: 2
    weight_filler {
      type: "msra"
    }
  }
}
layer {
  name: "group2_block0_conv0_bn"
  type: "BatchNorm"
  bottom: "group2_block0_conv0"
  top: "group2_block0_conv0"
  param {
    lr_mult: 0
    decay_mult: 0
  }
  param {
    lr_mult: 0
    decay_mult: 0
  }
  param {
    lr_mult: 0
    decay_mult: 0
  }
}
layer {
  name: "group2_block0_conv0_scale"
  type: "Scale"
  bottom: "group2_block0_conv0"
  top: "group2_block0_conv0"
  scale_param {
    bias_term: true
  }
}
layer {
  name: "group2_block0_conv0_relu"
  type: "ReLU"
  bottom: "group2_block0_conv0"
  top: "group2_block0_conv0"
}
layer {
  name: "group2_block0_conv1"
  type: "Convolution"
  bottom: "group2_block0_conv0"
  top: "group2_block0_conv1"
  param {
    lr_mult: 1
    decay_mult: 1
  }
  convolution_param {
    num_output: 64
    pad: 1
    kernel_size: 3
    stride: 1
    weight_filler {
      type: "msra"
    }
  }
}
layer {
  name: "group2_block0_conv1_bn"
  type: "BatchNorm"
  bottom: "group2_block0_conv1"
  top: "group2_block0_conv1"
  param {
    lr_mult: 0
    decay_mult: 0
  }
  param {
    lr_mult: 0
    decay_mult: 0
  }
  param {
    lr_mult: 0
    decay_mult: 0
  }
}
layer {
  name: "group2_block0_conv1_scale"
  type: "Scale"
  bottom: "group2_block0_conv1"
  top: "group2_block0_conv1"
  scale_param {
    bias_term: true
  }
}
layer {
  name: "group2_block0_proj"
  type: "Convolution"
  bottom: "group1_block4_sum"
  top: "group2_block0_proj"
  param {
    lr_mult: 1
    decay_mult: 1
  }
  convolution_param {
    num_output: 64
    pad: 0
    kernel_size: 1
    stride: 2
    weight_filler {
      type: "msra"
    }
  }
}
layer {
  name: "group2_block0_proj_bn"
  type: "BatchNorm"
  bottom: "group2_block0_proj"
  top: "group2_block0_proj"
  param {
    lr_mult: 0
    decay_mult: 0
  }
  param {
    lr_mult: 0
    decay_mult: 0
  }
  param {
    lr_mult: 0
    decay_mult: 0
  }
}
layer {
  name: "group2_block0_proj_scale"
  type: "Scale"
  bottom: "group2_block0_proj"
  top: "group2_block0_proj"
  scale_param {
    bias_term: true
  }
}
layer {
  name: "group2_block0_sum"
  type: "Eltwise"
  bottom: "group2_block0_proj"
  bottom: "group2_block0_conv1"
  top: "group2_block0_sum"
  eltwise_param {
    operation: SUM
  }
}
layer {
  name: "group2_block0_relu"
  type: "ReLU"
  bottom: "group2_block0_sum"
  top: "group2_block0_sum"
}
layer {
  name: "group2_block1_conv0"
  type: "Convolution"
  bottom: "group2_block0_sum"
  top: "group2_block1_conv0"
  param {
    lr_mult: 1
    decay_mult: 1
  }
  convolution_param {
    num_output: 64
    pad: 1
    kernel_size: 3
    stride: 1
    weight_filler {
      type: "msra"
    }
  }
}
layer {
  name: "group2_block1_conv0_bn"
  type: "BatchNorm"
  bottom: "group2_block1_conv0"
  top: "group2_block1_conv0"
  param {
    lr_mult: 0
    decay_mult: 0
  }
  param {
    lr_mult: 0
    decay_mult: 0
  }
  param {
    lr_mult: 0
    decay_mult: 0
  }
}
layer {
  name: "group2_block1_conv0_scale"
  type: "Scale"
  bottom: "group2_block1_conv0"
  top: "group2_block1_conv0"
  scale_param {
    bias_term: true
  }
}
layer {
  name: "group2_block1_conv0_relu"
  type: "ReLU"
  bottom: "group2_block1_conv0"
  top: "group2_block1_conv0"
}
layer {
  name: "group2_block1_conv1"
  type: "Convolution"
  bottom: "group2_block1_conv0"
  top: "group2_block1_conv1"
  param {
    lr_mult: 1
    decay_mult: 1
  }
  convolution_param {
    num_output: 64
    pad: 1
    kernel_size: 3
    stride: 1
    weight_filler {
      type: "msra"
    }
  }
}
layer {
  name: "group2_block1_conv1_bn"
  type: "BatchNorm"
  bottom: "group2_block1_conv1"
  top: "group2_block1_conv1"
  param {
    lr_mult: 0
    decay_mult: 0
  }
  param {
    lr_mult: 0
    decay_mult: 0
  }
  param {
    lr_mult: 0
    decay_mult: 0
  }
}
layer {
  name: "group2_block1_conv1_scale"
  type: "Scale"
  bottom: "group2_block1_conv1"
  top: "group2_block1_conv1"
  scale_param {
    bias_term: true
  }
}
layer {
  name: "group2_block1_sum"
  type: "Eltwise"
  bottom: "group2_block1_conv1"
  bottom: "group2_block0_sum"
  top: "group2_block1_sum"
  eltwise_param {
    operation: SUM
  }
}
layer {
  name: "group2_block1_relu"
  type: "ReLU"
  bottom: "group2_block1_sum"
  top: "group2_block1_sum"
}
layer {
  name: "group2_block2_conv0"
  type: "Convolution"
  bottom: "group2_block1_sum"
  top: "group2_block2_conv0"
  param {
    lr_mult: 1
    decay_mult: 1
  }
  convolution_param {
    num_output: 64
    pad: 1
    kernel_size: 3
    stride: 1
    weight_filler {
      type: "msra"
    }
  }
}
layer {
  name: "group2_block2_conv0_bn"
  type: "BatchNorm"
  bottom: "group2_block2_conv0"
  top: "group2_block2_conv0"
  param {
    lr_mult: 0
    decay_mult: 0
  }
  param {
    lr_mult: 0
    decay_mult: 0
  }
  param {
    lr_mult: 0
    decay_mult: 0
  }
}
layer {
  name: "group2_block2_conv0_scale"
  type: "Scale"
  bottom: "group2_block2_conv0"
  top: "group2_block2_conv0"
  scale_param {
    bias_term: true
  }
}
layer {
  name: "group2_block2_conv0_relu"
  type: "ReLU"
  bottom: "group2_block2_conv0"
  top: "group2_block2_conv0"
}
layer {
  name: "group2_block2_conv1"
  type: "Convolution"
  bottom: "group2_block2_conv0"
  top: "group2_block2_conv1"
  param {
    lr_mult: 1
    decay_mult: 1
  }
  convolution_param {
    num_output: 64
    pad: 1
    kernel_size: 3
    stride: 1
    weight_filler {
      type: "msra"
    }
  }
}
layer {
  name: "group2_block2_conv1_bn"
  type: "BatchNorm"
  bottom: "group2_block2_conv1"
  top: "group2_block2_conv1"
  param {
    lr_mult: 0
    decay_mult: 0
  }
  param {
    lr_mult: 0
    decay_mult: 0
  }
  param {
    lr_mult: 0
    decay_mult: 0
  }
}
layer {
  name: "group2_block2_conv1_scale"
  type: "Scale"
  bottom: "group2_block2_conv1"
  top: "group2_block2_conv1"
  scale_param {
    bias_term: true
  }
}
layer {
  name: "group2_block2_sum"
  type: "Eltwise"
  bottom: "group2_block2_conv1"
  bottom: "group2_block1_sum"
  top: "group2_block2_sum"
  eltwise_param {
    operation: SUM
  }
}
layer {
  name: "group2_block2_relu"
  type: "ReLU"
  bottom: "group2_block2_sum"
  top: "group2_block2_sum"
}
layer {
  name: "group2_block3_conv0"
  type: "Convolution"
  bottom: "group2_block2_sum"
  top: "group2_block3_conv0"
  param {
    lr_mult: 1
    decay_mult: 1
  }
  convolution_param {
    num_output: 64
    pad: 1
    kernel_size: 3
    stride: 1
    weight_filler {
      type: "msra"
    }
  }
}
layer {
  name: "group2_block3_conv0_bn"
  type: "BatchNorm"
  bottom: "group2_block3_conv0"
  top: "group2_block3_conv0"
  param {
    lr_mult: 0
    decay_mult: 0
  }
  param {
    lr_mult: 0
    decay_mult: 0
  }
  param {
    lr_mult: 0
    decay_mult: 0
  }
}
layer {
  name: "group2_block3_conv0_scale"
  type: "Scale"
  bottom: "group2_block3_conv0"
  top: "group2_block3_conv0"
  scale_param {
    bias_term: true
  }
}
layer {
  name: "group2_block3_conv0_relu"
  type: "ReLU"
  bottom: "group2_block3_conv0"
  top: "group2_block3_conv0"
}
layer {
  name: "group2_block3_conv1"
  type: "Convolution"
  bottom: "group2_block3_conv0"
  top: "group2_block3_conv1"
  param {
    lr_mult: 1
    decay_mult: 1
  }
  convolution_param {
    num_output: 64
    pad: 1
    kernel_size: 3
    stride: 1
    weight_filler {
      type: "msra"
    }
  }
}
layer {
  name: "group2_block3_conv1_bn"
  type: "BatchNorm"
  bottom: "group2_block3_conv1"
  top: "group2_block3_conv1"
  param {
    lr_mult: 0
    decay_mult: 0
  }
  param {
    lr_mult: 0
    decay_mult: 0
  }
  param {
    lr_mult: 0
    decay_mult: 0
  }
}
layer {
  name: "group2_block3_conv1_scale"
  type: "Scale"
  bottom: "group2_block3_conv1"
  top: "group2_block3_conv1"
  scale_param {
    bias_term: true
  }
}
layer {
  name: "group2_block3_sum"
  type: "Eltwise"
  bottom: "group2_block3_conv1"
  bottom: "group2_block2_sum"
  top: "group2_block3_sum"
  eltwise_param {
    operation: SUM
  }
}
layer {
  name: "group2_block3_relu"
  type: "ReLU"
  bottom: "group2_block3_sum"
  top: "group2_block3_sum"
}
layer {
  name: "group2_block4_conv0"
  type: "Convolution"
  bottom: "group2_block3_sum"
  top: "group2_block4_conv0"
  param {
    lr_mult: 1
    decay_mult: 1
  }
  convolution_param {
    num_output: 64
    pad: 1
    kernel_size: 3
    stride: 1
    weight_filler {
      type: "msra"
    }
  }
}
layer {
  name: "group2_block4_conv0_bn"
  type: "BatchNorm"
  bottom: "group2_block4_conv0"
  top: "group2_block4_conv0"
  param {
    lr_mult: 0
    decay_mult: 0
  }
  param {
    lr_mult: 0
    decay_mult: 0
  }
  param {
    lr_mult: 0
    decay_mult: 0
  }
}
layer {
  name: "group2_block4_conv0_scale"
  type: "Scale"
  bottom: "group2_block4_conv0"
  top: "group2_block4_conv0"
  scale_param {
    bias_term: true
  }
}
layer {
  name: "group2_block4_conv0_relu"
  type: "ReLU"
  bottom: "group2_block4_conv0"
  top: "group2_block4_conv0"
}
layer {
  name: "group2_block4_conv1"
  type: "Convolution"
  bottom: "group2_block4_conv0"
  top: "group2_block4_conv1"
  param {
    lr_mult: 1
    decay_mult: 1
  }
  convolution_param {
    num_output: 64
 
I1019 01:44:04.111137 16622 layer_factory.hpp:77] Creating layer data
I1019 01:44:04.111255 16622 db_lmdb.cpp:35] Opened lmdb cifar-10-batches-py/train
I1019 01:44:04.111296 16622 net.cpp:84] Creating Layer data
I1019 01:44:04.111307 16622 net.cpp:380] data -> data
I1019 01:44:04.111333 16622 net.cpp:380] data -> label
I1019 01:44:04.112689 16622 data_layer.cpp:45] output data size: 128,3,32,32
I1019 01:44:04.119956 16622 net.cpp:122] Setting up data
I1019 01:44:04.119971 16622 net.cpp:129] Top shape: 128 3 32 32 (393216)
I1019 01:44:04.119976 16622 net.cpp:129] Top shape: 128 (128)
I1019 01:44:04.119977 16622 net.cpp:137] Memory required for data: 1573376
I1019 01:44:04.119983 16622 layer_factory.hpp:77] Creating layer label_data_1_split
I1019 01:44:04.119992 16622 net.cpp:84] Creating Layer label_data_1_split
I1019 01:44:04.119997 16622 net.cpp:406] label_data_1_split <- label
I1019 01:44:04.120008 16622 net.cpp:380] label_data_1_split -> label_data_1_split_0
I1019 01:44:04.120018 16622 net.cpp:380] label_data_1_split -> label_data_1_split_1
I1019 01:44:04.120067 16622 net.cpp:122] Setting up label_data_1_split
I1019 01:44:04.120074 16622 net.cpp:129] Top shape: 128 (128)
I1019 01:44:04.120077 16622 net.cpp:129] Top shape: 128 (128)
I1019 01:44:04.120079 16622 net.cpp:137] Memory required for data: 1574400
I1019 01:44:04.120082 16622 layer_factory.hpp:77] Creating layer first_conv
I1019 01:44:04.120097 16622 net.cpp:84] Creating Layer first_conv
I1019 01:44:04.120101 16622 net.cpp:406] first_conv <- data
I1019 01:44:04.120110 16622 net.cpp:380] first_conv -> first_conv
I1019 01:44:04.121330 16622 net.cpp:122] Setting up first_conv
I1019 01:44:04.121343 16622 net.cpp:129] Top shape: 128 16 32 32 (2097152)
I1019 01:44:04.121346 16622 net.cpp:137] Memory required for data: 9963008
I1019 01:44:04.121377 16622 layer_factory.hpp:77] Creating layer first_conv_bn
I1019 01:44:04.121384 16622 net.cpp:84] Creating Layer first_conv_bn
I1019 01:44:04.121387 16622 net.cpp:406] first_conv_bn <- first_conv
I1019 01:44:04.121393 16622 net.cpp:367] first_conv_bn -> first_conv (in-place)
I1019 01:44:04.121567 16622 net.cpp:122] Setting up first_conv_bn
I1019 01:44:04.121575 16622 net.cpp:129] Top shape: 128 16 32 32 (2097152)
I1019 01:44:04.121577 16622 net.cpp:137] Memory required for data: 18351616
I1019 01:44:04.121587 16622 layer_factory.hpp:77] Creating layer first_conv_scale
I1019 01:44:04.121596 16622 net.cpp:84] Creating Layer first_conv_scale
I1019 01:44:04.121599 16622 net.cpp:406] first_conv_scale <- first_conv
I1019 01:44:04.121604 16622 net.cpp:367] first_conv_scale -> first_conv (in-place)
I1019 01:44:04.121635 16622 layer_factory.hpp:77] Creating layer first_conv_scale
I1019 01:44:04.121738 16622 net.cpp:122] Setting up first_conv_scale
I1019 01:44:04.121745 16622 net.cpp:129] Top shape: 128 16 32 32 (2097152)
I1019 01:44:04.121747 16622 net.cpp:137] Memory required for data: 26740224
I1019 01:44:04.121752 16622 layer_factory.hpp:77] Creating layer first_conv_relu
I1019 01:44:04.121758 16622 net.cpp:84] Creating Layer first_conv_relu
I1019 01:44:04.121762 16622 net.cpp:406] first_conv_relu <- first_conv
I1019 01:44:04.121765 16622 net.cpp:367] first_conv_relu -> first_conv (in-place)
I1019 01:44:04.121770 16622 net.cpp:122] Setting up first_conv_relu
I1019 01:44:04.121773 16622 net.cpp:129] Top shape: 128 16 32 32 (2097152)
I1019 01:44:04.121775 16622 net.cpp:137] Memory required for data: 35128832
I1019 01:44:04.121778 16622 layer_factory.hpp:77] Creating layer first_conv_first_conv_relu_0_split
I1019 01:44:04.121783 16622 net.cpp:84] Creating Layer first_conv_first_conv_relu_0_split
I1019 01:44:04.121784 16622 net.cpp:406] first_conv_first_conv_relu_0_split <- first_conv
I1019 01:44:04.121789 16622 net.cpp:380] first_conv_first_conv_relu_0_split -> first_conv_first_conv_relu_0_split_0
I1019 01:44:04.121795 16622 net.cpp:380] first_conv_first_conv_relu_0_split -> first_conv_first_conv_relu_0_split_1
I1019 01:44:04.121827 16622 net.cpp:122] Setting up first_conv_first_conv_relu_0_split
I1019 01:44:04.121834 16622 net.cpp:129] Top shape: 128 16 32 32 (2097152)
I1019 01:44:04.121837 16622 net.cpp:129] Top shape: 128 16 32 32 (2097152)
I1019 01:44:04.121840 16622 net.cpp:137] Memory required for data: 51906048
I1019 01:44:04.121841 16622 layer_factory.hpp:77] Creating layer group0_block0_conv0
I1019 01:44:04.121848 16622 net.cpp:84] Creating Layer group0_block0_conv0
I1019 01:44:04.121851 16622 net.cpp:406] group0_block0_conv0 <- first_conv_first_conv_relu_0_split_0
I1019 01:44:04.121857 16622 net.cpp:380] group0_block0_conv0 -> group0_block0_conv0
I1019 01:44:04.123070 16622 net.cpp:122] Setting up group0_block0_conv0
I1019 01:44:04.123082 16622 net.cpp:129] Top shape: 128 16 32 32 (2097152)
I1019 01:44:04.123085 16622 net.cpp:137] Memory required for data: 60294656
I1019 01:44:04.123100 16622 layer_factory.hpp:77] Creating layer group0_block0_conv0_bn
I1019 01:44:04.123109 16622 net.cpp:84] Creating Layer group0_block0_conv0_bn
I1019 01:44:04.123113 16622 net.cpp:406] group0_block0_conv0_bn <- group0_block0_conv0
I1019 01:44:04.123121 16622 net.cpp:367] group0_block0_conv0_bn -> group0_block0_conv0 (in-place)
I1019 01:44:04.123405 16622 net.cpp:122] Setting up group0_block0_conv0_bn
I1019 01:44:04.123411 16622 net.cpp:129] Top shape: 128 16 32 32 (2097152)
I1019 01:44:04.123414 16622 net.cpp:137] Memory required for data: 68683264
I1019 01:44:04.123420 16622 layer_factory.hpp:77] Creating layer group0_block0_conv0_scale
I1019 01:44:04.123427 16622 net.cpp:84] Creating Layer group0_block0_conv0_scale
I1019 01:44:04.123430 16622 net.cpp:406] group0_block0_conv0_scale <- group0_block0_conv0
I1019 01:44:04.123435 16622 net.cpp:367] group0_block0_conv0_scale -> group0_block0_conv0 (in-place)
I1019 01:44:04.123464 16622 layer_factory.hpp:77] Creating layer group0_block0_conv0_scale
I1019 01:44:04.123580 16622 net.cpp:122] Setting up group0_block0_conv0_scale
I1019 01:44:04.123589 16622 net.cpp:129] Top shape: 128 16 32 32 (2097152)
I1019 01:44:04.123590 16622 net.cpp:137] Memory required for data: 77071872
I1019 01:44:04.123595 16622 layer_factory.hpp:77] Creating layer group0_block0_conv0_relu
I1019 01:44:04.123600 16622 net.cpp:84] Creating Layer group0_block0_conv0_relu
I1019 01:44:04.123603 16622 net.cpp:406] group0_block0_conv0_relu <- group0_block0_conv0
I1019 01:44:04.123610 16622 net.cpp:367] group0_block0_conv0_relu -> group0_block0_conv0 (in-place)
I1019 01:44:04.123616 16622 net.cpp:122] Setting up group0_block0_conv0_relu
I1019 01:44:04.123620 16622 net.cpp:129] Top shape: 128 16 32 32 (2097152)
I1019 01:44:04.123621 16622 net.cpp:137] Memory required for data: 85460480
I1019 01:44:04.123625 16622 layer_factory.hpp:77] Creating layer group0_block0_conv1
I1019 01:44:04.123632 16622 net.cpp:84] Creating Layer group0_block0_conv1
I1019 01:44:04.123636 16622 net.cpp:406] group0_block0_conv1 <- group0_block0_conv0
I1019 01:44:04.123641 16622 net.cpp:380] group0_block0_conv1 -> group0_block0_conv1
I1019 01:44:04.123888 16622 net.cpp:122] Setting up group0_block0_conv1
I1019 01:44:04.123898 16622 net.cpp:129] Top shape: 128 16 32 32 (2097152)
I1019 01:44:04.123900 16622 net.cpp:137] Memory required for data: 93849088
I1019 01:44:04.123905 16622 layer_factory.hpp:77] Creating layer group0_block0_conv1_bn
I1019 01:44:04.123912 16622 net.cpp:84] Creating Layer group0_block0_conv1_bn
I1019 01:44:04.123915 16622 net.cpp:406] group0_block0_conv1_bn <- group0_block0_conv1
I1019 01:44:04.123921 16622 net.cpp:367] group0_block0_conv1_bn -> group0_block0_conv1 (in-place)
I1019 01:44:04.124081 16622 net.cpp:122] Setting up group0_block0_conv1_bn
I1019 01:44:04.124089 16622 net.cpp:129] Top shape: 128 16 32 32 (2097152)
I1019 01:44:04.124090 16622 net.cpp:137] Memory required for data: 102237696
I1019 01:44:04.124099 16622 layer_factory.hpp:77] Creating layer group0_block0_conv1_scale
I1019 01:44:04.124107 16622 net.cpp:84] Creating Layer group0_block0_conv1_scale
I1019 01:44:04.124109 16622 net.cpp:406] group0_block0_conv1_scale <- group0_block0_conv1
I1019 01:44:04.124115 16622 net.cpp:367] group0_block0_conv1_scale -> group0_block0_conv1 (in-place)
I1019 01:44:04.124145 16622 layer_factory.hpp:77] Creating layer group0_block0_conv1_scale
I1019 01:44:04.124243 16622 net.cpp:122] Setting up group0_block0_conv1_scale
I1019 01:44:04.124249 16622 net.cpp:129] Top shape: 128 16 32 32 (2097152)
I1019 01:44:04.124251 16622 net.cpp:137] Memory required for data: 110626304
I1019 01:44:04.124256 16622 layer_factory.hpp:77] Creating layer group0_block0_sum
I1019 01:44:04.124264 16622 net.cpp:84] Creating Layer group0_block0_sum
I1019 01:44:04.124265 16622 net.cpp:406] group0_block0_sum <- group0_block0_conv1
I1019 01:44:04.124269 16622 net.cpp:406] group0_block0_sum <- first_conv_first_conv_relu_0_split_1
I1019 01:44:04.124274 16622 net.cpp:380] group0_block0_sum -> group0_block0_sum
I1019 01:44:04.124299 16622 net.cpp:122] Setting up group0_block0_sum
I1019 01:44:04.124305 16622 net.cpp:129] Top shape: 128 16 32 32 (2097152)
I1019 01:44:04.124307 16622 net.cpp:137] Memory required for data: 119014912
I1019 01:44:04.124310 16622 layer_factory.hpp:77] Creating layer group0_block0_relu
I1019 01:44:04.124315 16622 net.cpp:84] Creating Layer group0_block0_relu
I1019 01:44:04.124317 16622 net.cpp:406] group0_block0_relu <- group0_block0_sum
I1019 01:44:04.124322 16622 net.cpp:367] group0_block0_relu -> group0_block0_sum (in-place)
I1019 01:44:04.124327 16622 net.cpp:122] Setting up group0_block0_relu
I1019 01:44:04.124331 16622 net.cpp:129] Top shape: 128 16 32 32 (2097152)
I1019 01:44:04.124333 16622 net.cpp:137] Memory required for data: 127403520
I1019 01:44:04.124336 16622 layer_factory.hpp:77] Creating layer group0_block0_sum_group0_block0_relu_0_split
I1019 01:44:04.124344 16622 net.cpp:84] Creating Layer group0_block0_sum_group0_block0_relu_0_split
I1019 01:44:04.124347 16622 net.cpp:406] group0_block0_sum_group0_block0_relu_0_split <- group0_block0_sum
I1019 01:44:04.124366 16622 net.cpp:380] group0_block0_sum_group0_block0_relu_0_split -> group0_block0_sum_group0_block0_relu_0_split_0
I1019 01:44:04.124373 16622 net.cpp:380] group0_block0_sum_group0_block0_relu_0_split -> group0_block0_sum_group0_block0_relu_0_split_1
I1019 01:44:04.124405 16622 net.cpp:122] Setting up group0_block0_sum_group0_block0_relu_0_split
I1019 01:44:04.124411 16622 net.cpp:129] Top shape: 128 16 32 32 (2097152)
I1019 01:44:04.124416 16622 net.cpp:129] Top shape: 128 16 32 32 (2097152)
I1019 01:44:04.124418 16622 net.cpp:137] Memory required for data: 144180736
I1019 01:44:04.124421 16622 layer_factory.hpp:77] Creating layer group0_block1_conv0
I1019 01:44:04.124429 16622 net.cpp:84] Creating Layer group0_block1_conv0
I1019 01:44:04.124431 16622 net.cpp:406] group0_block1_conv0 <- group0_block0_sum_group0_block0_relu_0_split_0
I1019 01:44:04.124439 16622 net.cpp:380] group0_block1_conv0 -> group0_block1_conv0
I1019 01:44:04.124657 16622 net.cpp:122] Setting up group0_block1_conv0
I1019 01:44:04.124665 16622 net.cpp:129] Top shape: 128 16 32 32 (2097152)
I1019 01:44:04.124666 16622 net.cpp:137] Memory required for data: 152569344
I1019 01:44:04.124671 16622 layer_factory.hpp:77] Creating layer group0_block1_conv0_bn
I1019 01:44:04.124677 16622 net.cpp:84] Creating Layer group0_block1_conv0_bn
I1019 01:44:04.124680 16622 net.cpp:406] group0_block1_conv0_bn <- group0_block1_conv0
I1019 01:44:04.124691 16622 net.cpp:367] group0_block1_conv0_bn -> group0_block1_conv0 (in-place)
I1019 01:44:04.124851 16622 net.cpp:122] Setting up group0_block1_conv0_bn
I1019 01:44:04.124858 16622 net.cpp:129] Top shape: 128 16 32 32 (2097152)
I1019 01:44:04.124861 16622 net.cpp:137] Memory required for data: 160957952
I1019 01:44:04.124866 16622 layer_factory.hpp:77] Creating layer group0_block1_conv0_scale
I1019 01:44:04.124871 16622 net.cpp:84] Creating Layer group0_block1_conv0_scale
I1019 01:44:04.124874 16622 net.cpp:406] group0_block1_conv0_scale <- group0_block1_conv0
I1019 01:44:04.124878 16622 net.cpp:367] group0_block1_conv0_scale -> group0_block1_conv0 (in-place)
I1019 01:44:04.124907 16622 layer_factory.hpp:77] Creating layer group0_block1_conv0_scale
I1019 01:44:04.124997 16622 net.cpp:122] Setting up group0_block1_conv0_scale
I1019 01:44:04.125003 16622 net.cpp:129] Top shape: 128 16 32 32 (2097152)
I1019 01:44:04.125006 16622 net.cpp:137] Memory required for data: 169346560
I1019 01:44:04.125010 16622 layer_factory.hpp:77] Creating layer group0_block1_conv0_relu
I1019 01:44:04.125016 16622 net.cpp:84] Creating Layer group0_block1_conv0_relu
I1019 01:44:04.125018 16622 net.cpp:406] group0_block1_conv0_relu <- group0_block1_conv0
I1019 01:44:04.125025 16622 net.cpp:367] group0_block1_conv0_relu -> group0_block1_conv0 (in-place)
I1019 01:44:04.125032 16622 net.cpp:122] Setting up group0_block1_conv0_relu
I1019 01:44:04.125036 16622 net.cpp:129] Top shape: 128 16 32 32 (2097152)
I1019 01:44:04.125038 16622 net.cpp:137] Memory required for data: 177735168
I1019 01:44:04.125041 16622 layer_factory.hpp:77] Creating layer group0_block1_conv1
I1019 01:44:04.125046 16622 net.cpp:84] Creating Layer group0_block1_conv1
I1019 01:44:04.125049 16622 net.cpp:406] group0_block1_conv1 <- group0_block1_conv0
I1019 01:44:04.125056 16622 net.cpp:380] group0_block1_conv1 -> group0_block1_conv1
I1019 01:44:04.125270 16622 net.cpp:122] Setting up group0_block1_conv1
I1019 01:44:04.125278 16622 net.cpp:129] Top shape: 128 16 32 32 (2097152)
I1019 01:44:04.125280 16622 net.cpp:137] Memory required for data: 186123776
I1019 01:44:04.125285 16622 layer_factory.hpp:77] Creating layer group0_block1_conv1_bn
I1019 01:44:04.125290 16622 net.cpp:84] Creating Layer group0_block1_conv1_bn
I1019 01:44:04.125293 16622 net.cpp:406] group0_block1_conv1_bn <- group0_block1_conv1
I1019 01:44:04.125298 16622 net.cpp:367] group0_block1_conv1_bn -> group0_block1_conv1 (in-place)
I1019 01:44:04.125458 16622 net.cpp:122] Setting up group0_block1_conv1_bn
I1019 01:44:04.125465 16622 net.cpp:129] Top shape: 128 16 32 32 (2097152)
I1019 01:44:04.125479 16622 net.cpp:137] Memory required for data: 194512384
I1019 01:44:04.125491 16622 layer_factory.hpp:77] Creating layer group0_block1_conv1_scale
I1019 01:44:04.125499 16622 net.cpp:84] Creating Layer group0_block1_conv1_scale
I1019 01:44:04.125501 16622 net.cpp:406] group0_block1_conv1_scale <- group0_block1_conv1
I1019 01:44:04.125505 16622 net.cpp:367] group0_block1_conv1_scale -> group0_block1_conv1 (in-place)
I1019 01:44:04.125541 16622 layer_factory.hpp:77] Creating layer group0_block1_conv1_scale
I1019 01:44:04.125649 16622 net.cpp:122] Setting up group0_block1_conv1_scale
I1019 01:44:04.125658 16622 net.cpp:129] Top shape: 128 16 32 32 (2097152)
I1019 01:44:04.125660 16622 net.cpp:137] Memory required for data: 202900992
I1019 01:44:04.125669 16622 layer_factory.hpp:77] Creating layer group0_block1_sum
I1019 01:44:04.125679 16622 net.cpp:84] Creating Layer group0_block1_sum
I1019 01:44:04.125684 16622 net.cpp:406] group0_block1_sum <- group0_block1_conv1
I1019 01:44:04.125689 16622 net.cpp:406] group0_block1_sum <- group0_block0_sum_group0_block0_relu_0_split_1
I1019 01:44:04.125697 16622 net.cpp:380] group0_block1_sum -> group0_block1_sum
I1019 01:44:04.125725 16622 net.cpp:122] Setting up group0_block1_sum
I1019 01:44:04.125733 16622 net.cpp:129] Top shape: 128 16 32 32 (2097152)
I1019 01:44:04.125736 16622 net.cpp:137] Memory required for data: 211289600
I1019 01:44:04.125741 16622 layer_factory.hpp:77] Creating layer group0_block1_relu
I1019 01:44:04.125747 16622 net.cpp:84] Creating Layer group0_block1_relu
I1019 01:44:04.125752 16622 net.cpp:406] group0_block1_relu <- group0_block1_sum
I1019 01:44:04.125766 16622 net.cpp:367] group0_block1_relu -> group0_block1_sum (in-place)
I1019 01:44:04.125773 16622 net.cpp:122] Setting up group0_block1_relu
I1019 01:44:04.125779 16622 net.cpp:129] Top shape: 128 16 32 32 (2097152)
I1019 01:44:04.125783 16622 net.cpp:137] Memory required for data: 219678208
I1019 01:44:04.125787 16622 layer_factory.hpp:77] Creating layer group0_block1_sum_group0_block1_relu_0_split
I1019 01:44:04.125794 16622 net.cpp:84] Creating Layer group0_block1_sum_group0_block1_relu_0_split
I1019 01:44:04.125797 16622 net.cpp:406] group0_block1_sum_group0_block1_relu_0_split <- group0_block1_sum
I1019 01:44:04.125805 16622 net.cpp:380] group0_block1_sum_group0_block1_relu_0_split -> group0_block1_sum_group0_block1_relu_0_split_0
I1019 01:44:04.125813 16622 net.cpp:380] group0_block1_sum_group0_block1_relu_0_split -> group0_block1_sum_group0_block1_relu_0_split_1
I1019 01:44:04.125854 16622 net.cpp:122] Setting up group0_block1_sum_group0_block1_relu_0_split
I1019 01:44:04.125860 16622 net.cpp:129] Top shape: 128 16 32 32 (2097152)
I1019 01:44:04.125865 16622 net.cpp:129] Top shape: 128 16 32 32 (2097152)
I1019 01:44:04.125869 16622 net.cpp:137] Memory required for data: 236455424
I1019 01:44:04.125874 16622 layer_factory.hpp:77] Creating layer group0_block2_conv0
I1019 01:44:04.125885 16622 net.cpp:84] Creating Layer group0_block2_conv0
I1019 01:44:04.125890 16622 net.cpp:406] group0_block2_conv0 <- group0_block1_sum_group0_block1_relu_0_split_0
I1019 01:44:04.125897 16622 net.cpp:380] group0_block2_conv0 -> group0_block2_conv0
I1019 01:44:04.126127 16622 net.cpp:122] Setting up group0_block2_conv0
I1019 01:44:04.126135 16622 net.cpp:129] Top shape: 128 16 32 32 (2097152)
I1019 01:44:04.126138 16622 net.cpp:137] Memory required for data: 244844032
I1019 01:44:04.126145 16622 layer_factory.hpp:77] Creating layer group0_block2_conv0_bn
I1019 01:44:04.126155 16622 net.cpp:84] Creating Layer group0_block2_conv0_bn
I1019 01:44:04.126161 16622 net.cpp:406] group0_block2_conv0_bn <- group0_block2_conv0
I1019 01:44:04.126169 16622 net.cpp:367] group0_block2_conv0_bn -> group0_block2_conv0 (in-place)
I1019 01:44:04.126340 16622 net.cpp:122] Setting up group0_block2_conv0_bn
I1019 01:44:04.126348 16622 net.cpp:129] Top shape: 128 16 32 32 (2097152)
I1019 01:44:04.126351 16622 net.cpp:137] Memory required for data: 253232640
I1019 01:44:04.126372 16622 layer_factory.hpp:77] Creating layer group0_block2_conv0_scale
I1019 01:44:04.126381 16622 net.cpp:84] Creating Layer group0_block2_conv0_scale
I1019 01:44:04.126384 16622 net.cpp:406] group0_block2_conv0_scale <- group0_block2_conv0
I1019 01:44:04.126389 16622 net.cpp:367] group0_block2_conv0_scale -> group0_block2_conv0 (in-place)
I1019 01:44:04.126420 16622 layer_factory.hpp:77] Creating layer group0_block2_conv0_scale
I1019 01:44:04.126524 16622 net.cpp:122] Setting up group0_block2_conv0_scale
I1019 01:44:04.126533 16622 net.cpp:129] Top shape: 128 16 32 32 (2097152)
I1019 01:44:04.126535 16622 net.cpp:137] Memory required for data: 261621248
I1019 01:44:04.126540 16622 layer_factory.hpp:77] Creating layer group0_block2_conv0_relu
I1019 01:44:04.126544 16622 net.cpp:84] Creating Layer group0_block2_conv0_relu
I1019 01:44:04.126547 16622 net.cpp:406] group0_block2_conv0_relu <- group0_block2_conv0
I1019 01:44:04.126551 16622 net.cpp:367] group0_block2_conv0_relu -> group0_block2_conv0 (in-place)
I1019 01:44:04.126556 16622 net.cpp:122] Setting up group0_block2_conv0_relu
I1019 01:44:04.126559 16622 net.cpp:129] Top shape: 128 16 32 32 (2097152)
I1019 01:44:04.126562 16622 net.cpp:137] Memory required for data: 270009856
I1019 01:44:04.126564 16622 layer_factory.hpp:77] Creating layer group0_block2_conv1
I1019 01:44:04.126572 16622 net.cpp:84] Creating Layer group0_block2_conv1
I1019 01:44:04.126579 16622 net.cpp:406] group0_block2_conv1 <- group0_block2_conv0
I1019 01:44:04.126588 16622 net.cpp:380] group0_block2_conv1 -> group0_block2_conv1
I1019 01:44:04.126988 16622 net.cpp:122] Setting up group0_block2_conv1
I1019 01:44:04.126997 16622 net.cpp:129] Top shape: 128 16 32 32 (2097152)
I1019 01:44:04.127001 16622 net.cpp:137] Memory required for data: 278398464
I1019 01:44:04.127008 16622 layer_factory.hpp:77] Creating layer group0_block2_conv1_bn
I1019 01:44:04.127022 16622 net.cpp:84] Creating Layer group0_block2_conv1_bn
I1019 01:44:04.127027 16622 net.cpp:406] group0_block2_conv1_bn <- group0_block2_conv1
I1019 01:44:04.127032 16622 net.cpp:367] group0_block2_conv1_bn -> group0_block2_conv1 (in-place)
I1019 01:44:04.127200 16622 net.cpp:122] Setting up group0_block2_conv1_bn
I1019 01:44:04.127208 16622 net.cpp:129] Top shape: 128 16 32 32 (2097152)
I1019 01:44:04.127210 16622 net.cpp:137] Memory required for data: 286787072
I1019 01:44:04.127216 16622 layer_factory.hpp:77] Creating layer group0_block2_conv1_scale
I1019 01:44:04.127223 16622 net.cpp:84] Creating Layer group0_block2_conv1_scale
I1019 01:44:04.127229 16622 net.cpp:406] group0_block2_conv1_scale <- group0_block2_conv1
I1019 01:44:04.127234 16622 net.cpp:367] group0_block2_conv1_scale -> group0_block2_conv1 (in-place)
I1019 01:44:04.127265 16622 layer_factory.hpp:77] Creating layer group0_block2_conv1_scale
I1019 01:44:04.127362 16622 net.cpp:122] Setting up group0_block2_conv1_scale
I1019 01:44:04.127368 16622 net.cpp:129] Top shape: 128 16 32 32 (2097152)
I1019 01:44:04.127372 16622 net.cpp:137] Memory required for data: 295175680
I1019 01:44:04.127377 16622 layer_factory.hpp:77] Creating layer group0_block2_sum
I1019 01:44:04.127382 16622 net.cpp:84] Creating Layer group0_block2_sum
I1019 01:44:04.127385 16622 net.cpp:406] group0_block2_sum <- group0_block2_conv1
I1019 01:44:04.127389 16622 net.cpp:406] group0_block2_sum <- group0_block1_sum_group0_block1_relu_0_split_1
I1019 01:44:04.127395 16622 net.cpp:380] group0_block2_sum -> group0_block2_sum
I1019 01:44:04.127418 16622 net.cpp:122] Setting up group0_block2_sum
I1019 01:44:04.127424 16622 net.cpp:129] Top shape: 128 16 32 32 (2097152)
I1019 01:44:04.127426 16622 net.cpp:137] Memory required for data: 303564288
I1019 01:44:04.127429 16622 layer_factory.hpp:77] Creating layer group0_block2_relu
I1019 01:44:04.127434 16622 net.cpp:84] Creating Layer group0_block2_relu
I1019 01:44:04.127437 16622 net.cpp:406] group0_block2_relu <- group0_block2_sum
I1019 01:44:04.127441 16622 net.cpp:367] group0_block2_relu -> group0_block2_sum (in-place)
I1019 01:44:04.127446 16622 net.cpp:122] Setting up group0_block2_relu
I1019 01:44:04.127465 16622 net.cpp:129] Top shape: 128 16 32 32 (2097152)
I1019 01:44:04.127467 16622 net.cpp:137] Memory required for data: 311952896
I1019 01:44:04.127471 16622 layer_factory.hpp:77] Creating layer group0_block2_sum_group0_block2_relu_0_split
I1019 01:44:04.127478 16622 net.cpp:84] Creating Layer group0_block2_sum_group0_block2_relu_0_split
I1019 01:44:04.127486 16622 net.cpp:406] group0_block2_sum_group0_block2_relu_0_split <- group0_block2_sum
I1019 01:44:04.127492 16622 net.cpp:380] group0_block2_sum_group0_block2_relu_0_split -> group0_block2_sum_group0_block2_relu_0_split_0
I1019 01:44:04.127502 16622 net.cpp:380] group0_block2_sum_group0_block2_relu_0_split -> group0_block2_sum_group0_block2_relu_0_split_1
I1019 01:44:04.127540 16622 net.cpp:122] Setting up group0_block2_sum_group0_block2_relu_0_split
I1019 01:44:04.127547 16622 net.cpp:129] Top shape: 128 16 32 32 (2097152)
I1019 01:44:04.127550 16622 net.cpp:129] Top shape: 128 16 32 32 (2097152)
I1019 01:44:04.127552 16622 net.cpp:137] Memory required for data: 328730112
I1019 01:44:04.127555 16622 layer_factory.hpp:77] Creating layer group0_block3_conv0
I1019 01:44:04.127564 16622 net.cpp:84] Creating Layer group0_block3_conv0
I1019 01:44:04.127568 16622 net.cpp:406] group0_block3_conv0 <- group0_block2_sum_group0_block2_relu_0_split_0
I1019 01:44:04.127573 16622 net.cpp:380] group0_block3_conv0 -> group0_block3_conv0
I1019 01:44:04.127806 16622 net.cpp:122] Setting up group0_block3_conv0
I1019 01:44:04.127815 16622 net.cpp:129] Top shape: 128 16 32 32 (2097152)
I1019 01:44:04.127816 16622 net.cpp:137] Memory required for data: 337118720
I1019 01:44:04.127822 16622 layer_factory.hpp:77] Creating layer group0_block3_conv0_bn
I1019 01:44:04.127828 16622 net.cpp:84] Creating Layer group0_block3_conv0_bn
I1019 01:44:04.127831 16622 net.cpp:406] group0_block3_conv0_bn <- group0_block3_conv0
I1019 01:44:04.127837 16622 net.cpp:367] group0_block3_conv0_bn -> group0_block3_conv0 (in-place)
I1019 01:44:04.128005 16622 net.cpp:122] Setting up group0_block3_conv0_bn
I1019 01:44:04.128012 16622 net.cpp:129] Top shape: 128 16 32 32 (2097152)
I1019 01:44:04.128015 16622 net.cpp:137] Memory required for data: 345507328
I1019 01:44:04.128021 16622 layer_factory.hpp:77] Creating layer group0_block3_conv0_scale
I1019 01:44:04.128029 16622 net.cpp:84] Creating Layer group0_block3_conv0_scale
I1019 01:44:04.128032 16622 net.cpp:406] group0_block3_conv0_scale <- group0_block3_conv0
I1019 01:44:04.128036 16622 net.cpp:367] group0_block3_conv0_scale -> group0_block3_conv0 (in-place)
I1019 01:44:04.128063 16622 layer_factory.hpp:77] Creating layer group0_block3_conv0_scale
I1019 01:44:04.128156 16622 net.cpp:122] Setting up group0_block3_conv0_scale
I1019 01:44:04.128165 16622 net.cpp:129] Top shape: 128 16 32 32 (2097152)
I1019 01:44:04.128167 16622 net.cpp:137] Memory required for data: 353895936
I1019 01:44:04.128172 16622 layer_factory.hpp:77] Creating layer group0_block3_conv0_relu
I1019 01:44:04.128176 16622 net.cpp:84] Creating Layer group0_block3_conv0_relu
I1019 01:44:04.128180 16622 net.cpp:406] group0_block3_conv0_relu <- group0_block3_conv0
I1019 01:44:04.128183 16622 net.cpp:367] group0_block3_conv0_relu -> group0_block3_conv0 (in-place)
I1019 01:44:04.128187 16622 net.cpp:122] Setting up group0_block3_conv0_relu
I1019 01:44:04.128191 16622 net.cpp:129] Top shape: 128 16 32 32 (2097152)
I1019 01:44:04.128193 16622 net.cpp:137] Memory required for data: 362284544
I1019 01:44:04.128196 16622 layer_factory.hpp:77] Creating layer group0_block3_conv1
I1019 01:44:04.128202 16622 net.cpp:84] Creating Layer group0_block3_conv1
I1019 01:44:04.128207 16622 net.cpp:406] group0_block3_conv1 <- group0_block3_conv0
I1019 01:44:04.128214 16622 net.cpp:380] group0_block3_conv1 -> group0_block3_conv1
I1019 01:44:04.128434 16622 net.cpp:122] Setting up group0_block3_conv1
I1019 01:44:04.128442 16622 net.cpp:129] Top shape: 128 16 32 32 (2097152)
I1019 01:44:04.128444 16622 net.cpp:137] Memory required for data: 370673152
I1019 01:44:04.128448 16622 layer_factory.hpp:77] Creating layer group0_block3_conv1_bn
I1019 01:44:04.128468 16622 net.cpp:84] Creating Layer group0_block3_conv1_bn
I1019 01:44:04.128471 16622 net.cpp:406] group0_block3_conv1_bn <- group0_block3_conv1
I1019 01:44:04.128476 16622 net.cpp:367] group0_block3_conv1_bn -> group0_block3_conv1 (in-place)
I1019 01:44:04.128643 16622 net.cpp:122] Setting up group0_block3_conv1_bn
I1019 01:44:04.128650 16622 net.cpp:129] Top shape: 128 16 32 32 (2097152)
I1019 01:44:04.128653 16622 net.cpp:137] Memory required for data: 379061760
I1019 01:44:04.128659 16622 layer_factory.hpp:77] Creating layer group0_block3_conv1_scale
I1019 01:44:04.128664 16622 net.cpp:84] Creating Layer group0_block3_conv1_scale
I1019 01:44:04.128667 16622 net.cpp:406] group0_block3_conv1_scale <- group0_block3_conv1
I1019 01:44:04.128671 16622 net.cpp:367] group0_block3_conv1_scale -> group0_block3_conv1 (in-place)
I1019 01:44:04.128700 16622 layer_factory.hpp:77] Creating layer group0_block3_conv1_scale
I1019 01:44:04.128794 16622 net.cpp:122] Setting up group0_block3_conv1_scale
I1019 01:44:04.128801 16622 net.cpp:129] Top shape: 128 16 32 32 (2097152)
I1019 01:44:04.128803 16622 net.cpp:137] Memory required for data: 387450368
I1019 01:44:04.128808 16622 layer_factory.hpp:77] Creating layer group0_block3_sum
I1019 01:44:04.128813 16622 net.cpp:84] Creating Layer group0_block3_sum
I1019 01:44:04.128815 16622 net.cpp:406] group0_block3_sum <- group0_block3_conv1
I1019 01:44:04.128819 16622 net.cpp:406] group0_block3_sum <- group0_block2_sum_group0_block2_relu_0_split_1
I1019 01:44:04.128828 16622 net.cpp:380] group0_block3_sum -> group0_block3_sum
I1019 01:44:04.128850 16622 net.cpp:122] Setting up group0_block3_sum
I1019 01:44:04.128855 16622 net.cpp:129] Top shape: 128 16 32 32 (2097152)
I1019 01:44:04.128859 16622 net.cpp:137] Memory required for data: 395838976
I1019 01:44:04.128860 16622 layer_factory.hpp:77] Creating layer group0_block3_relu
I1019 01:44:04.128865 16622 net.cpp:84] Creating Layer group0_block3_relu
I1019 01:44:04.128867 16622 net.cpp:406] group0_block3_relu <- group0_block3_sum
I1019 01:44:04.128871 16622 net.cpp:367] group0_block3_relu -> group0_block3_sum (in-place)
I1019 01:44:04.128875 16622 net.cpp:122] Setting up group0_block3_relu
I1019 01:44:04.128878 16622 net.cpp:129] Top shape: 128 16 32 32 (2097152)
I1019 01:44:04.128881 16622 net.cpp:137] Memory required for data: 404227584
I1019 01:44:04.128883 16622 layer_factory.hpp:77] Creating layer group0_block3_sum_group0_block3_relu_0_split
I1019 01:44:04.128890 16622 net.cpp:84] Creating Layer group0_block3_sum_group0_block3_relu_0_split
I1019 01:44:04.128891 16622 net.cpp:406] group0_block3_sum_group0_block3_relu_0_split <- group0_block3_sum
I1019 01:44:04.128896 16622 net.cpp:380] group0_block3_sum_group0_block3_relu_0_split -> group0_block3_sum_group0_block3_relu_0_split_0
I1019 01:44:04.128901 16622 net.cpp:380] group0_block3_sum_group0_block3_relu_0_split -> group0_block3_sum_group0_block3_relu_0_split_1
I1019 01:44:04.128931 16622 net.cpp:122] Setting up group0_block3_sum_group0_block3_relu_0_split
I1019 01:44:04.128937 16622 net.cpp:129] Top shape: 128 16 32 32 (2097152)
I1019 01:44:04.128940 16622 net.cpp:129] Top shape: 128 16 32 32 (2097152)
I1019 01:44:04.128942 16622 net.cpp:137] Memory required for data: 421004800
I1019 01:44:04.128945 16622 layer_factory.hpp:77] Creating layer group0_block4_conv0
I1019 01:44:04.128952 16622 net.cpp:84] Creating Layer group0_block4_conv0
I1019 01:44:04.128954 16622 net.cpp:406] group0_block4_conv0 <- group0_block3_sum_group0_block3_relu_0_split_0
I1019 01:44:04.128962 16622 net.cpp:380] group0_block4_conv0 -> group0_block4_conv0
I1019 01:44:04.129176 16622 net.cpp:122] Setting up group0_block4_conv0
I1019 01:44:04.129184 16622 net.cpp:129] Top shape: 128 16 32 32 (2097152)
I1019 01:44:04.129185 16622 net.cpp:137] Memory required for data: 429393408
I1019 01:44:04.129197 16622 layer_factory.hpp:77] Creating layer group0_block4_conv0_bn
I1019 01:44:04.129206 16622 net.cpp:84] Creating Layer group0_block4_conv0_bn
I1019 01:44:04.129220 16622 net.cpp:406] group0_block4_conv0_bn <- group0_block4_conv0
I1019 01:44:04.129226 16622 net.cpp:367] group0_block4_conv0_bn -> group0_block4_conv0 (in-place)
I1019 01:44:04.129390 16622 net.cpp:122] Setting up group0_block4_conv0_bn
I1019 01:44:04.129397 16622 net.cpp:129] Top shape: 128 16 32 32 (2097152)
I1019 01:44:04.129400 16622 net.cpp:137] Memory required for data: 437782016
I1019 01:44:04.129406 16622 layer_factory.hpp:77] Creating layer group0_block4_conv0_scale
I1019 01:44:04.129410 16622 net.cpp:84] Creating Layer group0_block4_conv0_scale
I1019 01:44:04.129413 16622 net.cpp:406] group0_block4_conv0_scale <- group0_block4_conv0
I1019 01:44:04.129418 16622 net.cpp:367] group0_block4_conv0_scale -> group0_block4_conv0 (in-place)
I1019 01:44:04.129446 16622 layer_factory.hpp:77] Creating layer group0_block4_conv0_scale
I1019 01:44:04.129542 16622 net.cpp:122] Setting up group0_block4_conv0_scale
I1019 01:44:04.129549 16622 net.cpp:129] Top shape: 128 16 32 32 (2097152)
I1019 01:44:04.129551 16622 net.cpp:137] Memory required for data: 446170624
I1019 01:44:04.129556 16622 layer_factory.hpp:77] Creating layer group0_block4_conv0_relu
I1019 01:44:04.129562 16622 net.cpp:84] Creating Layer group0_block4_conv0_relu
I1019 01:44:04.129565 16622 net.cpp:406] group0_block4_conv0_relu <- group0_block4_conv0
I1019 01:44:04.129568 16622 net.cpp:367] group0_block4_conv0_relu -> group0_block4_conv0 (in-place)
I1019 01:44:04.129573 16622 net.cpp:122] Setting up group0_block4_conv0_relu
I1019 01:44:04.129576 16622 net.cpp:129] Top shape: 128 16 32 32 (2097152)
I1019 01:44:04.129578 16622 net.cpp:137] Memory required for data: 454559232
I1019 01:44:04.129581 16622 layer_factory.hpp:77] Creating layer group0_block4_conv1
I1019 01:44:04.129590 16622 net.cpp:84] Creating Layer group0_block4_conv1
I1019 01:44:04.129592 16622 net.cpp:406] group0_block4_conv1 <- group0_block4_conv0
I1019 01:44:04.129598 16622 net.cpp:380] group0_block4_conv1 -> group0_block4_conv1
I1019 01:44:04.129822 16622 net.cpp:122] Setting up group0_block4_conv1
I1019 01:44:04.129830 16622 net.cpp:129] Top shape: 128 16 32 32 (2097152)
I1019 01:44:04.129832 16622 net.cpp:137] Memory required for data: 462947840
I1019 01:44:04.129837 16622 layer_factory.hpp:77] Creating layer group0_block4_conv1_bn
I1019 01:44:04.129843 16622 net.cpp:84] Creating Layer group0_block4_conv1_bn
I1019 01:44:04.129846 16622 net.cpp:406] group0_block4_conv1_bn <- group0_block4_conv1
I1019 01:44:04.129853 16622 net.cpp:367] group0_block4_conv1_bn -> group0_block4_conv1 (in-place)
I1019 01:44:04.130020 16622 net.cpp:122] Setting up group0_block4_conv1_bn
I1019 01:44:04.130026 16622 net.cpp:129] Top shape: 128 16 32 32 (2097152)
I1019 01:44:04.130029 16622 net.cpp:137] Memory required for data: 471336448
I1019 01:44:04.130035 16622 layer_factory.hpp:77] Creating layer group0_block4_conv1_scale
I1019 01:44:04.130041 16622 net.cpp:84] Creating Layer group0_block4_conv1_scale
I1019 01:44:04.130045 16622 net.cpp:406] group0_block4_conv1_scale <- group0_block4_conv1
I1019 01:44:04.130049 16622 net.cpp:367] group0_block4_conv1_scale -> group0_block4_conv1 (in-place)
I1019 01:44:04.130077 16622 layer_factory.hpp:77] Creating layer group0_block4_conv1_scale
I1019 01:44:04.130170 16622 net.cpp:122] Setting up group0_block4_conv1_scale
I1019 01:44:04.130179 16622 net.cpp:129] Top shape: 128 16 32 32 (2097152)
I1019 01:44:04.130182 16622 net.cpp:137] Memory required for data: 479725056
I1019 01:44:04.130187 16622 layer_factory.hpp:77] Creating layer group0_block4_sum
I1019 01:44:04.130192 16622 net.cpp:84] Creating Layer group0_block4_sum
I1019 01:44:04.130193 16622 net.cpp:406] group0_block4_sum <- group0_block4_conv1
I1019 01:44:04.130198 16622 net.cpp:406] group0_block4_sum <- group0_block3_sum_group0_block3_relu_0_split_1
I1019 01:44:04.130203 16622 net.cpp:380] group0_block4_sum -> group0_block4_sum
I1019 01:44:04.130338 16622 net.cpp:122] Setting up group0_block4_sum
I1019 01:44:04.130347 16622 net.cpp:129] Top shape: 128 16 32 32 (2097152)
I1019 01:44:04.130349 16622 net.cpp:137] Memory required for data: 488113664
I1019 01:44:04.130362 16622 layer_factory.hpp:77] Creating layer group0_block4_relu
I1019 01:44:04.130368 16622 net.cpp:84] Creating Layer group0_block4_relu
I1019 01:44:04.130370 16622 net.cpp:406] group0_block4_relu <- group0_block4_sum
I1019 01:44:04.130375 16622 net.cpp:367] group0_block4_relu -> group0_block4_sum (in-place)
I1019 01:44:04.130379 16622 net.cpp:122] Setting up group0_block4_relu
I1019 01:44:04.130383 16622 net.cpp:129] Top shape: 128 16 32 32 (2097152)
I1019 01:44:04.130385 16622 net.cpp:137] Memory required for data: 496502272
I1019 01:44:04.130388 16622 layer_factory.hpp:77] Creating layer group0_block4_sum_group0_block4_relu_0_split
I1019 01:44:04.130391 16622 net.cpp:84] Creating Layer group0_block4_sum_group0_block4_relu_0_split
I1019 01:44:04.130394 16622 net.cpp:406] group0_block4_sum_group0_block4_relu_0_split <- group0_block4_sum
I1019 01:44:04.130400 16622 net.cpp:380] group0_block4_sum_group0_block4_relu_0_split -> group0_block4_sum_group0_block4_relu_0_split_0
I1019 01:44:04.130405 16622 net.cpp:380] group0_block4_sum_group0_block4_relu_0_split -> group0_block4_sum_group0_block4_relu_0_split_1
I1019 01:44:04.130439 16622 net.cpp:122] Setting up group0_block4_sum_group0_block4_relu_0_split
I1019 01:44:04.130446 16622 net.cpp:129] Top shape: 128 16 32 32 (2097152)
I1019 01:44:04.130450 16622 net.cpp:129] Top shape: 128 16 32 32 (2097152)
I1019 01:44:04.130452 16622 net.cpp:137] Memory required for data: 513279488
I1019 01:44:04.130455 16622 layer_factory.hpp:77] Creating layer group1_block0_conv0
I1019 01:44:04.130461 16622 net.cpp:84] Creating Layer group1_block0_conv0
I1019 01:44:04.130466 16622 net.cpp:406] group1_block0_conv0 <- group0_block4_sum_group0_block4_relu_0_split_0
I1019 01:44:04.130473 16622 net.cpp:380] group1_block0_conv0 -> group1_block0_conv0
I1019 01:44:04.131680 16622 net.cpp:122] Setting up group1_block0_conv0
I1019 01:44:04.131695 16622 net.cpp:129] Top shape: 128 32 16 16 (1048576)
I1019 01:44:04.131697 16622 net.cpp:137] Memory required for data: 517473792
I1019 01:44:04.131703 16622 layer_factory.hpp:77] Creating layer group1_block0_conv0_bn
I1019 01:44:04.131709 16622 net.cpp:84] Creating Layer group1_block0_conv0_bn
I1019 01:44:04.131712 16622 net.cpp:406] group1_block0_conv0_bn <- group1_block0_conv0
I1019 01:44:04.131721 16622 net.cpp:367] group1_block0_conv0_bn -> group1_block0_conv0 (in-place)
I1019 01:44:04.131889 16622 net.cpp:122] Setting up group1_block0_conv0_bn
I1019 01:44:04.131896 16622 net.cpp:129] Top shape: 128 32 16 16 (1048576)
I1019 01:44:04.131899 16622 net.cpp:137] Memory required for data: 521668096
I1019 01:44:04.131906 16622 layer_factory.hpp:77] Creating layer group1_block0_conv0_scale
I1019 01:44:04.131911 16622 net.cpp:84] Creating Layer group1_block0_conv0_scale
I1019 01:44:04.131913 16622 net.cpp:406] group1_block0_conv0_scale <- group1_block0_conv0
I1019 01:44:04.131917 16622 net.cpp:367] group1_block0_conv0_scale -> group1_block0_conv0 (in-place)
I1019 01:44:04.131947 16622 layer_factory.hpp:77] Creating layer group1_block0_conv0_scale
I1019 01:44:04.132050 16622 net.cpp:122] Setting up group1_block0_conv0_scale
I1019 01:44:04.132056 16622 net.cpp:129] Top shape: 128 32 16 16 (1048576)
I1019 01:44:04.132058 16622 net.cpp:137] Memory required for data: 525862400
I1019 01:44:04.132063 16622 layer_factory.hpp:77] Creating layer group1_block0_conv0_relu
I1019 01:44:04.132067 16622 net.cpp:84] Creating Layer group1_block0_conv0_relu
I1019 01:44:04.132071 16622 net.cpp:406] group1_block0_conv0_relu <- group1_block0_conv0
I1019 01:44:04.132076 16622 net.cpp:367] group1_block0_conv0_relu -> group1_block0_conv0 (in-place)
I1019 01:44:04.132081 16622 net.cpp:122] Setting up group1_block0_conv0_relu
I1019 01:44:04.132084 16622 net.cpp:129] Top shape: 128 32 16 16 (1048576)
I1019 01:44:04.132086 16622 net.cpp:137] Memory required for data: 530056704
I1019 01:44:04.132088 16622 layer_factory.hpp:77] Creating layer group1_block0_conv1
I1019 01:44:04.132097 16622 net.cpp:84] Creating Layer group1_block0_conv1
I1019 01:44:04.132113 16622 net.cpp:406] group1_block0_conv1 <- group1_block0_conv0
I1019 01:44:04.132119 16622 net.cpp:380] group1_block0_conv1 -> group1_block0_conv1
I1019 01:44:04.132422 16622 net.cpp:122] Setting up group1_block0_conv1
I1019 01:44:04.132431 16622 net.cpp:129] Top shape: 128 32 16 16 (1048576)
I1019 01:44:04.132432 16622 net.cpp:137] Memory required for data: 534251008
I1019 01:44:04.132437 16622 layer_factory.hpp:77] Creating layer group1_block0_conv1_bn
I1019 01:44:04.132443 16622 net.cpp:84] Creating Layer group1_block0_conv1_bn
I1019 01:44:04.132445 16622 net.cpp:406] group1_block0_conv1_bn <- group1_block0_conv1
I1019 01:44:04.132452 16622 net.cpp:367] group1_block0_conv1_bn -> group1_block0_conv1 (in-place)
I1019 01:44:04.132616 16622 net.cpp:122] Setting up group1_block0_conv1_bn
I1019 01:44:04.132622 16622 net.cpp:129] Top shape: 128 32 16 16 (1048576)
I1019 01:44:04.132623 16622 net.cpp:137] Memory required for data: 538445312
I1019 01:44:04.132629 16622 layer_factory.hpp:77] Creating layer group1_block0_conv1_scale
I1019 01:44:04.132634 16622 net.cpp:84] Creating Layer group1_block0_conv1_scale
I1019 01:44:04.132637 16622 net.cpp:406] group1_block0_conv1_scale <- group1_block0_conv1
I1019 01:44:04.132642 16622 net.cpp:367] group1_block0_conv1_scale -> group1_block0_conv1 (in-place)
I1019 01:44:04.132670 16622 layer_factory.hpp:77] Creating layer group1_block0_conv1_scale
I1019 01:44:04.132768 16622 net.cpp:122] Setting up group1_block0_conv1_scale
I1019 01:44:04.132776 16622 net.cpp:129] Top shape: 128 32 16 16 (1048576)
I1019 01:44:04.132778 16622 net.cpp:137] Memory required for data: 542639616
I1019 01:44:04.132783 16622 layer_factory.hpp:77] Creating layer group1_block0_proj
I1019 01:44:04.132804 16622 net.cpp:84] Creating Layer group1_block0_proj
I1019 01:44:04.132810 16622 net.cpp:406] group1_block0_proj <- group0_block4_sum_group0_block4_relu_0_split_1
I1019 01:44:04.132817 16622 net.cpp:380] group1_block0_proj -> group1_block0_proj
I1019 01:44:04.133025 16622 net.cpp:122] Setting up group1_block0_proj
I1019 01:44:04.133033 16622 net.cpp:129] Top shape: 128 32 16 16 (1048576)
I1019 01:44:04.133035 16622 net.cpp:137] Memory required for data: 546833920
I1019 01:44:04.133040 16622 layer_factory.hpp:77] Creating layer group1_block0_proj_bn
I1019 01:44:04.133045 16622 net.cpp:84] Creating Layer group1_block0_proj_bn
I1019 01:44:04.133049 16622 net.cpp:406] group1_block0_proj_bn <- group1_block0_proj
I1019 01:44:04.133052 16622 net.cpp:367] group1_block0_proj_bn -> group1_block0_proj (in-place)
I1019 01:44:04.133214 16622 net.cpp:122] Setting up group1_block0_proj_bn
I1019 01:44:04.133221 16622 net.cpp:129] Top shape: 128 32 16 16 (1048576)
I1019 01:44:04.133224 16622 net.cpp:137] Memory required for data: 551028224
I1019 01:44:04.133229 16622 layer_factory.hpp:77] Creating layer group1_block0_proj_scale
I1019 01:44:04.133236 16622 net.cpp:84] Creating Layer group1_block0_proj_scale
I1019 01:44:04.133240 16622 net.cpp:406] group1_block0_proj_scale <- group1_block0_proj
I1019 01:44:04.133244 16622 net.cpp:367] group1_block0_proj_scale -> group1_block0_proj (in-place)
I1019 01:44:04.133278 16622 layer_factory.hpp:77] Creating layer group1_block0_proj_scale
I1019 01:44:04.133400 16622 net.cpp:122] Setting up group1_block0_proj_scale
I1019 01:44:04.133409 16622 net.cpp:129] Top shape: 128 32 16 16 (1048576)
I1019 01:44:04.133410 16622 net.cpp:137] Memory required for data: 555222528
I1019 01:44:04.133415 16622 layer_factory.hpp:77] Creating layer group1_block0_sum
I1019 01:44:04.133422 16622 net.cpp:84] Creating Layer group1_block0_sum
I1019 01:44:04.133424 16622 net.cpp:406] group1_block0_sum <- group1_block0_proj
I1019 01:44:04.133428 16622 net.cpp:406] group1_block0_sum <- group1_block0_conv1
I1019 01:44:04.133433 16622 net.cpp:380] group1_block0_sum -> group1_block0_sum
I1019 01:44:04.133453 16622 net.cpp:122] Setting up group1_block0_sum
I1019 01:44:04.133460 16622 net.cpp:129] Top shape: 128 32 16 16 (1048576)
I1019 01:44:04.133461 16622 net.cpp:137] Memory required for data: 559416832
I1019 01:44:04.133476 16622 layer_factory.hpp:77] Creating layer group1_block0_relu
I1019 01:44:04.133481 16622 net.cpp:84] Creating Layer group1_block0_relu
I1019 01:44:04.133483 16622 net.cpp:406] group1_block0_relu <- group1_block0_sum
I1019 01:44:04.133491 16622 net.cpp:367] group1_block0_relu -> group1_block0_sum (in-place)
I1019 01:44:04.133498 16622 net.cpp:122] Setting up group1_block0_relu
I1019 01:44:04.133502 16622 net.cpp:129] Top shape: 128 32 16 16 (1048576)
I1019 01:44:04.133504 16622 net.cpp:137] Memory required for data: 563611136
I1019 01:44:04.133507 16622 layer_factory.hpp:77] Creating layer group1_block0_sum_group1_block0_relu_0_split
I1019 01:44:04.133512 16622 net.cpp:84] Creating Layer group1_block0_sum_group1_block0_relu_0_split
I1019 01:44:04.133513 16622 net.cpp:406] group1_block0_sum_group1_block0_relu_0_split <- group1_block0_sum
I1019 01:44:04.133518 16622 net.cpp:380] group1_block0_sum_group1_block0_relu_0_split -> group1_block0_sum_group1_block0_relu_0_split_0
I1019 01:44:04.133523 16622 net.cpp:380] group1_block0_sum_group1_block0_relu_0_split -> group1_block0_sum_group1_block0_relu_0_split_1
I1019 01:44:04.133620 16622 net.cpp:122] Setting up group1_block0_sum_group1_block0_relu_0_split
I1019 01:44:04.133626 16622 net.cpp:129] Top shape: 128 32 16 16 (1048576)
I1019 01:44:04.133630 16622 net.cpp:129] Top shape: 128 32 16 16 (1048576)
I1019 01:44:04.133632 16622 net.cpp:137] Memory required for data: 571999744
I1019 01:44:04.133635 16622 layer_factory.hpp:77] Creating layer group1_block1_conv0
I1019 01:44:04.133643 16622 net.cpp:84] Creating Layer group1_block1_conv0
I1019 01:44:04.133646 16622 net.cpp:406] group1_block1_conv0 <- group1_block0_sum_group1_block0_relu_0_split_0
I1019 01:44:04.133653 16622 net.cpp:380] group1_block1_conv0 -> group1_block1_conv0
I1019 01:44:04.133951 16622 net.cpp:122] Setting up group1_block1_conv0
I1019 01:44:04.133960 16622 net.cpp:129] Top shape: 128 32 16 16 (1048576)
I1019 01:44:04.133962 16622 net.cpp:137] Memory required for data: 576194048
I1019 01:44:04.133966 16622 layer_factory.hpp:77] Creating layer group1_block1_conv0_bn
I1019 01:44:04.133975 16622 net.cpp:84] Creating Layer group1_block1_conv0_bn
I1019 01:44:04.133978 16622 net.cpp:406] group1_block1_conv0_bn <- group1_block1_conv0
I1019 01:44:04.133983 16622 net.cpp:367] group1_block1_conv0_bn -> group1_block1_conv0 (in-place)
I1019 01:44:04.134146 16622 net.cpp:122] Setting up group1_block1_conv0_bn
I1019 01:44:04.134153 16622 net.cpp:129] Top shape: 128 32 16 16 (1048576)
I1019 01:44:04.134155 16622 net.cpp:137] Memory required for data: 580388352
I1019 01:44:04.134161 16622 layer_factory.hpp:77] Creating layer group1_block1_conv0_scale
I1019 01:44:04.134166 16622 net.cpp:84] Creating Layer group1_block1_conv0_scale
I1019 01:44:04.134169 16622 net.cpp:406] group1_block1_conv0_scale <- group1_block1_conv0
I1019 01:44:04.134176 16622 net.cpp:367] group1_block1_conv0_scale -> group1_block1_conv0 (in-place)
I1019 01:44:04.134203 16622 layer_factory.hpp:77] Creating layer group1_block1_conv0_scale
I1019 01:44:04.134300 16622 net.cpp:122] Setting up group1_block1_conv0_scale
I1019 01:44:04.134307 16622 net.cpp:129] Top shape: 128 32 16 16 (1048576)
I1019 01:44:04.134310 16622 net.cpp:137] Memory required for data: 584582656
I1019 01:44:04.134315 16622 layer_factory.hpp:77] Creating layer group1_block1_conv0_relu
I1019 01:44:04.134320 16622 net.cpp:84] Creating Layer group1_block1_conv0_relu
I1019 01:44:04.134323 16622 net.cpp:406] group1_block1_conv0_relu <- group1_block1_conv0
I1019 01:44:04.134327 16622 net.cpp:367] group1_block1_conv0_relu -> group1_block1_conv0 (in-place)
I1019 01:44:04.134331 16622 net.cpp:122] Setting up group1_block1_conv0_relu
I1019 01:44:04.134335 16622 net.cpp:129] Top shape: 128 32 16 16 (1048576)
I1019 01:44:04.134337 16622 net.cpp:137] Memory required for data: 588776960
I1019 01:44:04.134340 16622 layer_factory.hpp:77] Creating layer group1_block1_conv1
I1019 01:44:04.134347 16622 net.cpp:84] Creating Layer group1_block1_conv1
I1019 01:44:04.134351 16622 net.cpp:406] group1_block1_conv1 <- group1_block1_conv0
I1019 01:44:04.134368 16622 net.cpp:380] group1_block1_conv1 -> group1_block1_conv1
I1019 01:44:04.134673 16622 net.cpp:122] Setting up group1_block1_conv1
I1019 01:44:04.134681 16622 net.cpp:129] Top shape: 128 32 16 16 (1048576)
I1019 01:44:04.134683 16622 net.cpp:137] Memory required for data: 592971264
I1019 01:44:04.134688 16622 layer_factory.hpp:77] Creating layer group1_block1_conv1_bn
I1019 01:44:04.134696 16622 net.cpp:84] Creating Layer group1_block1_conv1_bn
I1019 01:44:04.134699 16622 net.cpp:406] group1_block1_conv1_bn <- group1_block1_conv1
I1019 01:44:04.134706 16622 net.cpp:367] group1_block1_conv1_bn -> group1_block1_conv1 (in-place)
I1019 01:44:04.134868 16622 net.cpp:122] Setting up group1_block1_conv1_bn
I1019 01:44:04.134874 16622 net.cpp:129] Top shape: 128 32 16 16 (1048576)
I1019 01:44:04.134876 16622 net.cpp:137] Memory required for data: 597165568
I1019 01:44:04.134882 16622 layer_factory.hpp:77] Creating layer group1_block1_conv1_scale
I1019 01:44:04.134887 16622 net.cpp:84] Creating Layer group1_block1_conv1_scale
I1019 01:44:04.134889 16622 net.cpp:406] group1_block1_conv1_scale <- group1_block1_conv1
I1019 01:44:04.134896 16622 net.cpp:367] group1_block1_conv1_scale -> group1_block1_conv1 (in-place)
I1019 01:44:04.134923 16622 layer_factory.hpp:77] Creating layer group1_block1_conv1_scale
I1019 01:44:04.135020 16622 net.cpp:122] Setting up group1_block1_conv1_scale
I1019 01:44:04.135028 16622 net.cpp:129] Top shape: 128 32 16 16 (1048576)
I1019 01:44:04.135030 16622 net.cpp:137] Memory required for data: 601359872
I1019 01:44:04.135035 16622 layer_factory.hpp:77] Creating layer group1_block1_sum
I1019 01:44:04.135040 16622 net.cpp:84] Creating Layer group1_block1_sum
I1019 01:44:04.135044 16622 net.cpp:406] group1_block1_sum <- group1_block1_conv1
I1019 01:44:04.135048 16622 net.cpp:406] group1_block1_sum <- group1_block0_sum_group1_block0_relu_0_split_1
I1019 01:44:04.135052 16622 net.cpp:380] group1_block1_sum -> group1_block1_sum
I1019 01:44:04.135071 16622 net.cpp:122] Setting up group1_block1_sum
I1019 01:44:04.135076 16622 net.cpp:129] Top shape: 128 32 16 16 (1048576)
I1019 01:44:04.135078 16622 net.cpp:137] Memory required for data: 605554176
I1019 01:44:04.135082 16622 layer_factory.hpp:77] Creating layer group1_block1_relu
I1019 01:44:04.135085 16622 net.cpp:84] Creating Layer group1_block1_relu
I1019 01:44:04.135087 16622 net.cpp:406] group1_block1_relu <- group1_block1_sum
I1019 01:44:04.135094 16622 net.cpp:367] group1_block1_relu -> group1_block1_sum (in-place)
I1019 01:44:04.135099 16622 net.cpp:122] Setting up group1_block1_relu
I1019 01:44:04.135102 16622 net.cpp:129] Top shape: 128 32 16 16 (1048576)
I1019 01:44:04.135104 16622 net.cpp:137] Memory required for data: 609748480
I1019 01:44:04.135107 16622 layer_factory.hpp:77] Creating layer group1_block1_sum_group1_block1_relu_0_split
I1019 01:44:04.135112 16622 net.cpp:84] Creating Layer group1_block1_sum_group1_block1_relu_0_split
I1019 01:44:04.135113 16622 net.cpp:406] group1_block1_sum_group1_block1_relu_0_split <- group1_block1_sum
I1019 01:44:04.135119 16622 net.cpp:380] group1_block1_sum_group1_block1_relu_0_split -> group1_block1_sum_group1_block1_relu_0_split_0
I1019 01:44:04.135125 16622 net.cpp:380] group1_block1_sum_group1_block1_relu_0_split -> group1_block1_sum_group1_block1_relu_0_split_1
I1019 01:44:04.135155 16622 net.cpp:122] Setting up group1_block1_sum_group1_block1_relu_0_split
I1019 01:44:04.135160 16622 net.cpp:129] Top shape: 128 32 16 16 (1048576)
I1019 01:44:04.135164 16622 net.cpp:129] Top shape: 128 32 16 16 (1048576)
I1019 01:44:04.135166 16622 net.cpp:137] Memory required for data: 618137088
I1019 01:44:04.135169 16622 layer_factory.hpp:77] Creating layer group1_block2_conv0
I1019 01:44:04.135176 16622 net.cpp:84] Creating Layer group1_block2_conv0
I1019 01:44:04.135179 16622 net.cpp:406] group1_block2_conv0 <- group1_block1_sum_group1_block1_relu_0_split_0
I1019 01:44:04.135185 16622 net.cpp:380] group1_block2_conv0 -> group1_block2_conv0
I1019 01:44:04.135499 16622 net.cpp:122] Setting up group1_block2_conv0
I1019 01:44:04.135507 16622 net.cpp:129] Top shape: 128 32 16 16 (1048576)
I1019 01:44:04.135510 16622 net.cpp:137] Memory required for data: 622331392
I1019 01:44:04.135515 16622 layer_factory.hpp:77] Creating layer group1_block2_conv0_bn
I1019 01:44:04.135521 16622 net.cpp:84] Creating Layer group1_block2_conv0_bn
I1019 01:44:04.135526 16622 net.cpp:406] group1_block2_conv0_bn <- group1_block2_conv0
I1019 01:44:04.135530 16622 net.cpp:367] group1_block2_conv0_bn -> group1_block2_conv0 (in-place)
I1019 01:44:04.135711 16622 net.cpp:122] Setting up group1_block2_conv0_bn
I1019 01:44:04.135718 16622 net.cpp:129] Top shape: 128 32 16 16 (1048576)
I1019 01:44:04.135721 16622 net.cpp:137] Memory required for data: 626525696
I1019 01:44:04.135727 16622 layer_factory.hpp:77] Creating layer group1_block2_conv0_scale
I1019 01:44:04.135733 16622 net.cpp:84] Creating Layer group1_block2_conv0_scale
I1019 01:44:04.135736 16622 net.cpp:406] group1_block2_conv0_scale <- group1_block2_conv0
I1019 01:44:04.135740 16622 net.cpp:367] group1_block2_conv0_scale -> group1_block2_conv0 (in-place)
I1019 01:44:04.135776 16622 layer_factory.hpp:77] Creating layer group1_block2_conv0_scale
I1019 01:44:04.135876 16622 net.cpp:122] Setting up group1_block2_conv0_scale
I1019 01:44:04.135884 16622 net.cpp:129] Top shape: 128 32 16 16 (1048576)
I1019 01:44:04.135885 16622 net.cpp:137] Memory required for data: 630720000
I1019 01:44:04.135890 16622 layer_factory.hpp:77] Creating layer group1_block2_conv0_relu
I1019 01:44:04.135895 16622 net.cpp:84] Creating Layer group1_block2_conv0_relu
I1019 01:44:04.135898 16622 net.cpp:406] group1_block2_conv0_relu <- group1_block2_conv0
I1019 01:44:04.135902 16622 net.cpp:367] group1_block2_conv0_relu -> group1_block2_conv0 (in-place)
I1019 01:44:04.135907 16622 net.cpp:122] Setting up group1_block2_conv0_relu
I1019 01:44:04.135911 16622 net.cpp:129] Top shape: 128 32 16 16 (1048576)
I1019 01:44:04.135913 16622 net.cpp:137] Memory required for data: 634914304
I1019 01:44:04.135915 16622 layer_factory.hpp:77] Creating layer group1_block2_conv1
I1019 01:44:04.135924 16622 net.cpp:84] Creating Layer group1_block2_conv1
I1019 01:44:04.135926 16622 net.cpp:406] group1_block2_conv1 <- group1_block2_conv0
I1019 01:44:04.135932 16622 net.cpp:380] group1_block2_conv1 -> group1_block2_conv1
I1019 01:44:04.136230 16622 net.cpp:122] Setting up group1_block2_conv1
I1019 01:44:04.136236 16622 net.cpp:129] Top shape: 128 32 16 16 (1048576)
I1019 01:44:04.136240 16622 net.cpp:137] Memory required for data: 639108608
I1019 01:44:04.136243 16622 layer_factory.hpp:77] Creating layer group1_block2_conv1_bn
I1019 01:44:04.136250 16622 net.cpp:84] Creating Layer group1_block2_conv1_bn
I1019 01:44:04.136252 16622 net.cpp:406] group1_block2_conv1_bn <- group1_block2_conv1
I1019 01:44:04.136258 16622 net.cpp:367] group1_block2_conv1_bn -> group1_block2_conv1 (in-place)
I1019 01:44:04.136422 16622 net.cpp:122] Setting up group1_block2_conv1_bn
I1019 01:44:04.136428 16622 net.cpp:129] Top shape: 128 32 16 16 (1048576)
I1019 01:44:04.136431 16622 net.cpp:137] Memory required for data: 643302912
I1019 01:44:04.136436 16622 layer_factory.hpp:77] Creating layer group1_block2_conv1_scale
I1019 01:44:04.136441 16622 net.cpp:84] Creating Layer group1_block2_conv1_scale
I1019 01:44:04.136443 16622 net.cpp:406] group1_block2_conv1_scale <- group1_block2_conv1
I1019 01:44:04.136447 16622 net.cpp:367] group1_block2_conv1_scale -> group1_block2_conv1 (in-place)
I1019 01:44:04.136481 16622 layer_factory.hpp:77] Creating layer group1_block2_conv1_scale
I1019 01:44:04.136580 16622 net.cpp:122] Setting up group1_block2_conv1_scale
I1019 01:44:04.136586 16622 net.cpp:129] Top shape: 128 32 16 16 (1048576)
I1019 01:44:04.136590 16622 net.cpp:137] Memory required for data: 647497216
I1019 01:44:04.136597 16622 layer_factory.hpp:77] Creating layer group1_block2_sum
I1019 01:44:04.136606 16622 net.cpp:84] Creating Layer group1_block2_sum
I1019 01:44:04.136611 16622 net.cpp:406] group1_block2_sum <- group1_block2_conv1
I1019 01:44:04.136631 16622 net.cpp:406] group1_block2_sum <- group1_block1_sum_group1_block1_relu_0_split_1
I1019 01:44:04.136644 16622 net.cpp:380] group1_block2_sum -> group1_block2_sum
I1019 01:44:04.136674 16622 net.cpp:122] Setting up group1_block2_sum
I1019 01:44:04.136680 16622 net.cpp:129] Top shape: 128 32 16 16 (1048576)
I1019 01:44:04.136683 16622 net.cpp:137] Memory required for data: 651691520
I1019 01:44:04.136687 16622 layer_factory.hpp:77] Creating layer group1_block2_relu
I1019 01:44:04.136698 16622 net.cpp:84] Creating Layer group1_block2_relu
I1019 01:44:04.136704 16622 net.cpp:406] group1_block2_relu <- group1_block2_sum
I1019 01:44:04.136713 16622 net.cpp:367] group1_block2_relu -> group1_block2_sum (in-place)
I1019 01:44:04.136723 16622 net.cpp:122] Setting up group1_block2_relu
I1019 01:44:04.136729 16622 net.cpp:129] Top shape: 128 32 16 16 (1048576)
I1019 01:44:04.136734 16622 net.cpp:137] Memory required for data: 655885824
I1019 01:44:04.136737 16622 layer_factory.hpp:77] Creating layer group1_block2_sum_group1_block2_relu_0_split
I1019 01:44:04.136744 16622 net.cpp:84] Creating Layer group1_block2_sum_group1_block2_relu_0_split
I1019 01:44:04.136749 16622 net.cpp:406] group1_block2_sum_group1_block2_relu_0_split <- group1_block2_sum
I1019 01:44:04.136755 16622 net.cpp:380] group1_block2_sum_group1_block2_relu_0_split -> group1_block2_sum_group1_block2_relu_0_split_0
I1019 01:44:04.136765 16622 net.cpp:380] group1_block2_sum_group1_block2_relu_0_split -> group1_block2_sum_group1_block2_relu_0_split_1
I1019 01:44:04.136804 16622 net.cpp:122] Setting up group1_block2_sum_group1_block2_relu_0_split
I1019 01:44:04.136811 16622 net.cpp:129] Top shape: 128 32 16 16 (1048576)
I1019 01:44:04.136816 16622 net.cpp:129] Top shape: 128 32 16 16 (1048576)
I1019 01:44:04.136819 16622 net.cpp:137] Memory required for data: 664274432
I1019 01:44:04.136824 16622 layer_factory.hpp:77] Creating layer group1_block3_conv0
I1019 01:44:04.136837 16622 net.cpp:84] Creating Layer group1_block3_conv0
I1019 01:44:04.136842 16622 net.cpp:406] group1_block3_conv0 <- group1_block2_sum_group1_block2_relu_0_split_0
I1019 01:44:04.136849 16622 net.cpp:380] group1_block3_conv0 -> group1_block3_conv0
I1019 01:44:04.137171 16622 net.cpp:122] Setting up group1_block3_conv0
I1019 01:44:04.137179 16622 net.cpp:129] Top shape: 128 32 16 16 (1048576)
I1019 01:44:04.137182 16622 net.cpp:137] Memory required for data: 668468736
I1019 01:44:04.137190 16622 layer_factory.hpp:77] Creating layer group1_block3_conv0_bn
I1019 01:44:04.137198 16622 net.cpp:84] Creating Layer group1_block3_conv0_bn
I1019 01:44:04.137202 16622 net.cpp:406] group1_block3_conv0_bn <- group1_block3_conv0
I1019 01:44:04.137208 16622 net.cpp:367] group1_block3_conv0_bn -> group1_block3_conv0 (in-place)
I1019 01:44:04.137373 16622 net.cpp:122] Setting up group1_block3_conv0_bn
I1019 01:44:04.137380 16622 net.cpp:129] Top shape: 128 32 16 16 (1048576)
I1019 01:44:04.137382 16622 net.cpp:137] Memory required for data: 672663040
I1019 01:44:04.137403 16622 layer_factory.hpp:77] Creating layer group1_block3_conv0_scale
I1019 01:44:04.137409 16622 net.cpp:84] Creating Layer group1_block3_conv0_scale
I1019 01:44:04.137413 16622 net.cpp:406] group1_block3_conv0_scale <- group1_block3_conv0
I1019 01:44:04.137423 16622 net.cpp:367] group1_block3_conv0_scale -> group1_block3_conv0 (in-place)
I1019 01:44:04.137460 16622 layer_factory.hpp:77] Creating layer group1_block3_conv0_scale
I1019 01:44:04.137567 16622 net.cpp:122] Setting up group1_block3_conv0_scale
I1019 01:44:04.137574 16622 net.cpp:129] Top shape: 128 32 16 16 (1048576)
I1019 01:44:04.137578 16622 net.cpp:137] Memory required for data: 676857344
I1019 01:44:04.137585 16622 layer_factory.hpp:77] Creating layer group1_block3_conv0_relu
I1019 01:44:04.137593 16622 net.cpp:84] Creating Layer group1_block3_conv0_relu
I1019 01:44:04.137596 16622 net.cpp:406] group1_block3_conv0_relu <- group1_block3_conv0
I1019 01:44:04.137603 16622 net.cpp:367] group1_block3_conv0_relu -> group1_block3_conv0 (in-place)
I1019 01:44:04.137624 16622 net.cpp:122] Setting up group1_block3_conv0_relu
I1019 01:44:04.137632 16622 net.cpp:129] Top shape: 128 32 16 16 (1048576)
I1019 01:44:04.137635 16622 net.cpp:137] Memory required for data: 681051648
I1019 01:44:04.137639 16622 layer_factory.hpp:77] Creating layer group1_block3_conv1
I1019 01:44:04.137650 16622 net.cpp:84] Creating Layer group1_block3_conv1
I1019 01:44:04.137655 16622 net.cpp:406] group1_block3_conv1 <- group1_block3_conv0
I1019 01:44:04.137665 16622 net.cpp:380] group1_block3_conv1 -> group1_block3_conv1
I1019 01:44:04.137982 16622 net.cpp:122] Setting up group1_block3_conv1
I1019 01:44:04.137991 16622 net.cpp:129] Top shape: 128 32 16 16 (1048576)
I1019 01:44:04.137995 16622 net.cpp:137] Memory required for data: 685245952
I1019 01:44:04.138002 16622 layer_factory.hpp:77] Creating layer group1_block3_conv1_bn
I1019 01:44:04.138008 16622 net.cpp:84] Creating Layer group1_block3_conv1_bn
I1019 01:44:04.138011 16622 net.cpp:406] group1_block3_conv1_bn <- group1_block3_conv1
I1019 01:44:04.138021 16622 net.cpp:367] group1_block3_conv1_bn -> group1_block3_conv1 (in-place)
I1019 01:44:04.138190 16622 net.cpp:122] Setting up group1_block3_conv1_bn
I1019 01:44:04.138195 16622 net.cpp:129] Top shape: 128 32 16 16 (1048576)
I1019 01:44:04.138198 16622 net.cpp:137] Memory required for data: 689440256
I1019 01:44:04.138203 16622 layer_factory.hpp:77] Creating layer group1_block3_conv1_scale
I1019 01:44:04.138212 16622 net.cpp:84] Creating Layer group1_block3_conv1_scale
I1019 01:44:04.138217 16622 net.cpp:406] group1_block3_conv1_scale <- group1_block3_conv1
I1019 01:44:04.138224 16622 net.cpp:367] group1_block3_conv1_scale -> group1_block3_conv1 (in-place)
I1019 01:44:04.138262 16622 layer_factory.hpp:77] Creating layer group1_block3_conv1_scale
I1019 01:44:04.138370 16622 net.cpp:122] Setting up group1_block3_conv1_scale
I1019 01:44:04.138376 16622 net.cpp:129] Top shape: 128 32 16 16 (1048576)
I1019 01:44:04.138379 16622 net.cpp:137] Memory required for data: 693634560
I1019 01:44:04.138387 16622 layer_factory.hpp:77] Creating layer group1_block3_sum
I1019 01:44:04.138397 16622 net.cpp:84] Creating Layer group1_block3_sum
I1019 01:44:04.138402 16622 net.cpp:406] group1_block3_sum <- group1_block3_conv1
I1019 01:44:04.138406 16622 net.cpp:406] group1_block3_sum <- group1_block2_sum_group1_block2_relu_0_split_1
I1019 01:44:04.138413 16622 net.cpp:380] group1_block3_sum -> group1_block3_sum
I1019 01:44:04.138433 16622 net.cpp:122] Setting up group1_block3_sum
I1019 01:44:04.138439 16622 net.cpp:129] Top shape: 128 32 16 16 (1048576)
I1019 01:44:04.138442 16622 net.cpp:137] Memory required for data: 697828864
I1019 01:44:04.138444 16622 layer_factory.hpp:77] Creating layer group1_block3_relu
I1019 01:44:04.138450 16622 net.cpp:84] Creating Layer group1_block3_relu
I1019 01:44:04.138453 16622 net.cpp:406] group1_block3_relu <- group1_block3_sum
I1019 01:44:04.138458 16622 net.cpp:367] group1_block3_relu -> group1_block3_sum (in-place)
I1019 01:44:04.138463 16622 net.cpp:122] Setting up group1_block3_relu
I1019 01:44:04.138468 16622 net.cpp:129] Top shape: 128 32 16 16 (1048576)
I1019 01:44:04.138469 16622 net.cpp:137] Memory required for data: 702023168
I1019 01:44:04.138471 16622 layer_factory.hpp:77] Creating layer group1_block3_sum_group1_block3_relu_0_split
I1019 01:44:04.138476 16622 net.cpp:84] Creating Layer group1_block3_sum_group1_block3_relu_0_split
I1019 01:44:04.138478 16622 net.cpp:406] group1_block3_sum_group1_block3_relu_0_split <- group1_block3_sum
I1019 01:44:04.138484 16622 net.cpp:380] group1_block3_sum_group1_block3_relu_0_split -> group1_block3_sum_group1_block3_relu_0_split_0
I1019 01:44:04.138489 16622 net.cpp:380] group1_block3_sum_group1_block3_relu_0_split -> group1_block3_sum_group1_block3_relu_0_split_1
I1019 01:44:04.138519 16622 net.cpp:122] Setting up group1_block3_sum_group1_block3_relu_0_split
I1019 01:44:04.138525 16622 net.cpp:129] Top shape: 128 32 16 16 (1048576)
I1019 01:44:04.138528 16622 net.cpp:129] Top shape: 128 32 16 16 (1048576)
I1019 01:44:04.138541 16622 net.cpp:137] Memory required for data: 710411776
I1019 01:44:04.138545 16622 layer_factory.hpp:77] Creating layer group1_block4_conv0
I1019 01:44:04.138553 16622 net.cpp:84] Creating Layer group1_block4_conv0
I1019 01:44:04.138557 16622 net.cpp:406] group1_block4_conv0 <- group1_block3_sum_group1_block3_relu_0_split_0
I1019 01:44:04.138562 16622 net.cpp:380] group1_block4_conv0 -> group1_block4_conv0
I1019 01:44:04.138870 16622 net.cpp:122] Setting up group1_block4_conv0
I1019 01:44:04.138877 16622 net.cpp:129] Top shape: 128 32 16 16 (1048576)
I1019 01:44:04.138880 16622 net.cpp:137] Memory required for data: 714606080
I1019 01:44:04.138885 16622 layer_factory.hpp:77] Creating layer group1_block4_conv0_bn
I1019 01:44:04.138890 16622 net.cpp:84] Creating Layer group1_block4_conv0_bn
I1019 01:44:04.138892 16622 net.cpp:406] group1_block4_conv0_bn <- group1_block4_conv0
I1019 01:44:04.138898 16622 net.cpp:367] group1_block4_conv0_bn -> group1_block4_conv0 (in-place)
I1019 01:44:04.139060 16622 net.cpp:122] Setting up group1_block4_conv0_bn
I1019 01:44:04.139065 16622 net.cpp:129] Top shape: 128 32 16 16 (1048576)
I1019 01:44:04.139068 16622 net.cpp:137] Memory required for data: 718800384
I1019 01:44:04.139073 16622 layer_factory.hpp:77] Creating layer group1_block4_conv0_scale
I1019 01:44:04.139082 16622 net.cpp:84] Creating Layer group1_block4_conv0_scale
I1019 01:44:04.139086 16622 net.cpp:406] group1_block4_conv0_scale <- group1_block4_conv0
I1019 01:44:04.139091 16622 net.cpp:367] group1_block4_conv0_scale -> group1_block4_conv0 (in-place)
I1019 01:44:04.139120 16622 layer_factory.hpp:77] Creating layer group1_block4_conv0_scale
I1019 01:44:04.139220 16622 net.cpp:122] Setting up group1_block4_conv0_scale
I1019 01:44:04.139227 16622 net.cpp:129] Top shape: 128 32 16 16 (1048576)
I1019 01:44:04.139230 16622 net.cpp:137] Memory required for data: 722994688
I1019 01:44:04.139235 16622 layer_factory.hpp:77] Creating layer group1_block4_conv0_relu
I1019 01:44:04.139238 16622 net.cpp:84] Creating Layer group1_block4_conv0_relu
I1019 01:44:04.139241 16622 net.cpp:406] group1_block4_conv0_relu <- group1_block4_conv0
I1019 01:44:04.139246 16622 net.cpp:367] group1_block4_conv0_relu -> group1_block4_conv0 (in-place)
I1019 01:44:04.139251 16622 net.cpp:122] Setting up group1_block4_conv0_relu
I1019 01:44:04.139255 16622 net.cpp:129] Top shape: 128 32 16 16 (1048576)
I1019 01:44:04.139256 16622 net.cpp:137] Memory required for data: 727188992
I1019 01:44:04.139259 16622 layer_factory.hpp:77] Creating layer group1_block4_conv1
I1019 01:44:04.139267 16622 net.cpp:84] Creating Layer group1_block4_conv1
I1019 01:44:04.139269 16622 net.cpp:406] group1_block4_conv1 <- group1_block4_conv0
I1019 01:44:04.139274 16622 net.cpp:380] group1_block4_conv1 -> group1_block4_conv1
I1019 01:44:04.139586 16622 net.cpp:122] Setting up group1_block4_conv1
I1019 01:44:04.139595 16622 net.cpp:129] Top shape: 128 32 16 16 (1048576)
I1019 01:44:04.139597 16622 net.cpp:137] Memory required for data: 731383296
I1019 01:44:04.139602 16622 layer_factory.hpp:77] Creating layer group1_block4_conv1_bn
I1019 01:44:04.139611 16622 net.cpp:84] Creating Layer group1_block4_conv1_bn
I1019 01:44:04.139616 16622 net.cpp:406] group1_block4_conv1_bn <- group1_block4_conv1
I1019 01:44:04.139619 16622 net.cpp:367] group1_block4_conv1_bn -> group1_block4_conv1 (in-place)
I1019 01:44:04.139788 16622 net.cpp:122] Setting up group1_block4_conv1_bn
I1019 01:44:04.139796 16622 net.cpp:129] Top shape: 128 32 16 16 (1048576)
I1019 01:44:04.139797 16622 net.cpp:137] Memory required for data: 735577600
I1019 01:44:04.139803 16622 layer_factory.hpp:77] Creating layer group1_block4_conv1_scale
I1019 01:44:04.139811 16622 net.cpp:84] Creating Layer group1_block4_conv1_scale
I1019 01:44:04.139813 16622 net.cpp:406] group1_block4_conv1_scale <- group1_block4_conv1
I1019 01:44:04.139817 16622 net.cpp:367] group1_block4_conv1_scale -> group1_block4_conv1 (in-place)
I1019 01:44:04.139847 16622 layer_factory.hpp:77] Creating layer group1_block4_conv1_scale
I1019 01:44:04.139961 16622 net.cpp:122] Setting up group1_block4_conv1_scale
I1019 01:44:04.139967 16622 net.cpp:129] Top shape: 128 32 16 16 (1048576)
I1019 01:44:04.139969 16622 net.cpp:137] Memory required for data: 739771904
I1019 01:44:04.139974 16622 layer_factory.hpp:77] Creating layer group1_block4_sum
I1019 01:44:04.139981 16622 net.cpp:84] Creating Layer group1_block4_sum
I1019 01:44:04.139986 16622 net.cpp:406] group1_block4_sum <- group1_block4_conv1
I1019 01:44:04.139988 16622 net.cpp:406] group1_block4_sum <- group1_block3_sum_group1_block3_relu_0_split_1
I1019 01:44:04.139994 16622 net.cpp:380] group1_block4_sum -> group1_block4_sum
I1019 01:44:04.140012 16622 net.cpp:122] Setting up group1_block4_sum
I1019 01:44:04.140018 16622 net.cpp:129] Top shape: 128 32 16 16 (1048576)
I1019 01:44:04.140020 16622 net.cpp:137] Memory required for data: 743966208
I1019 01:44:04.140022 16622 layer_factory.hpp:77] Creating layer group1_block4_relu
I1019 01:44:04.140028 16622 net.cpp:84] Creating Layer group1_block4_relu
I1019 01:44:04.140033 16622 net.cpp:406] group1_block4_relu <- group1_block4_sum
I1019 01:44:04.140039 16622 net.cpp:367] group1_block4_relu -> group1_block4_sum (in-place)
I1019 01:44:04.140044 16622 net.cpp:122] Setting up group1_block4_relu
I1019 01:44:04.140048 16622 net.cpp:129] Top shape: 128 32 16 16 (1048576)
I1019 01:44:04.140050 16622 net.cpp:137] Memory required for data: 748160512
I1019 01:44:04.140053 16622 layer_factory.hpp:77] Creating layer group1_block4_sum_group1_block4_relu_0_split
I1019 01:44:04.140058 16622 net.cpp:84] Creating Layer group1_block4_sum_group1_block4_relu_0_split
I1019 01:44:04.140059 16622 net.cpp:406] group1_block4_sum_group1_block4_relu_0_split <- group1_block4_sum
I1019 01:44:04.140064 16622 net.cpp:380] group1_block4_sum_group1_block4_relu_0_split -> group1_block4_sum_group1_block4_relu_0_split_0
I1019 01:44:04.140069 16622 net.cpp:380] group1_block4_sum_group1_block4_relu_0_split -> group1_block4_sum_group1_block4_relu_0_split_1
I1019 01:44:04.140103 16622 net.cpp:122] Setting up group1_block4_sum_group1_block4_relu_0_split
I1019 01:44:04.140110 16622 net.cpp:129] Top shape: 128 32 16 16 (1048576)
I1019 01:44:04.140112 16622 net.cpp:129] Top shape: 128 32 16 16 (1048576)
I1019 01:44:04.140115 16622 net.cpp:137] Memory required for data: 756549120
I1019 01:44:04.140117 16622 layer_factory.hpp:77] Creating layer group2_block0_conv0
I1019 01:44:04.140125 16622 net.cpp:84] Creating Layer group2_block0_conv0
I1019 01:44:04.140128 16622 net.cpp:406] group2_block0_conv0 <- group1_block4_sum_group1_block4_relu_0_split_0
I1019 01:44:04.140136 16622 net.cpp:380] group2_block0_conv0 -> group2_block0_conv0
I1019 01:44:04.141464 16622 net.cpp:122] Setting up group2_block0_conv0
I1019 01:44:04.141477 16622 net.cpp:129] Top shape: 128 64 8 8 (524288)
I1019 01:44:04.141480 16622 net.cpp:137] Memory required for data: 758646272
I1019 01:44:04.141486 16622 layer_factory.hpp:77] Creating layer group2_block0_conv0_bn
I1019 01:44:04.141494 16622 net.cpp:84] Creating Layer group2_block0_conv0_bn
I1019 01:44:04.141499 16622 net.cpp:406] group2_block0_conv0_bn <- group2_block0_conv0
I1019 01:44:04.141507 16622 net.cpp:367] group2_block0_conv0_bn -> group2_block0_conv0 (in-place)
I1019 01:44:04.141688 16622 net.cpp:122] Setting up group2_block0_conv0_bn
I1019 01:44:04.141695 16622 net.cpp:129] Top shape: 128 64 8 8 (524288)
I1019 01:44:04.141698 16622 net.cpp:137] Memory required for data: 760743424
I1019 01:44:04.141708 16622 layer_factory.hpp:77] Creating layer group2_block0_conv0_scale
I1019 01:44:04.141716 16622 net.cpp:84] Creating Layer group2_block0_conv0_scale
I1019 01:44:04.141719 16622 net.cpp:406] group2_block0_conv0_scale <- group2_block0_conv0
I1019 01:44:04.141723 16622 net.cpp:367] group2_block0_conv0_scale -> group2_block0_conv0 (in-place)
I1019 01:44:04.141757 16622 layer_factory.hpp:77] Creating layer group2_block0_conv0_scale
I1019 01:44:04.141861 16622 net.cpp:122] Setting up group2_block0_conv0_scale
I1019 01:44:04.141867 16622 net.cpp:129] Top shape: 128 64 8 8 (524288)
I1019 01:44:04.141882 16622 net.cpp:137] Memory required for data: 762840576
I1019 01:44:04.141888 16622 layer_factory.hpp:77] Creating layer group2_block0_conv0_relu
I1019 01:44:04.141894 16622 net.cpp:84] Creating Layer group2_block0_conv0_relu
I1019 01:44:04.141897 16622 net.cpp:406] group2_block0_conv0_relu <- group2_block0_conv0
I1019 01:44:04.141901 16622 net.cpp:367] group2_block0_conv0_relu -> group2_block0_conv0 (in-place)
I1019 01:44:04.141906 16622 net.cpp:122] Setting up group2_block0_conv0_relu
I1019 01:44:04.141911 16622 net.cpp:129] Top shape: 128 64 8 8 (524288)
I1019 01:44:04.141913 16622 net.cpp:137] Memory required for data: 764937728
I1019 01:44:04.141916 16622 layer_factory.hpp:77] Creating layer group2_block0_conv1
I1019 01:44:04.141924 16622 net.cpp:84] Creating Layer group2_block0_conv1
I1019 01:44:04.141928 16622 net.cpp:406] group2_block0_conv1 <- group2_block0_conv0
I1019 01:44:04.141934 16622 net.cpp:380] group2_block0_conv1 -> group2_block0_conv1
I1019 01:44:04.142549 16622 net.cpp:122] Setting up group2_block0_conv1
I1019 01:44:04.142557 16622 net.cpp:129] Top shape: 128 64 8 8 (524288)
I1019 01:44:04.142561 16622 net.cpp:137] Memory required for data: 767034880
I1019 01:44:04.142568 16622 layer_factory.hpp:77] Creating layer group2_block0_conv1_bn
I1019 01:44:04.142577 16622 net.cpp:84] Creating Layer group2_block0_conv1_bn
I1019 01:44:04.142582 16622 net.cpp:406] group2_block0_conv1_bn <- group2_block0_conv1
I1019 01:44:04.142588 16622 net.cpp:367] group2_block0_conv1_bn -> group2_block0_conv1 (in-place)
I1019 01:44:04.142758 16622 net.cpp:122] Setting up group2_block0_conv1_bn
I1019 01:44:04.142765 16622 net.cpp:129] Top shape: 128 64 8 8 (524288)
I1019 01:44:04.142766 16622 net.cpp:137] Memory required for data: 769132032
I1019 01:44:04.142772 16622 layer_factory.hpp:77] Creating layer group2_block0_conv1_scale
I1019 01:44:04.142781 16622 net.cpp:84] Creating Layer group2_block0_conv1_scale
I1019 01:44:04.142783 16622 net.cpp:406] group2_block0_conv1_scale <- group2_block0_conv1
I1019 01:44:04.142791 16622 net.cpp:367] group2_block0_conv1_scale -> group2_block0_conv1 (in-place)
I1019 01:44:04.142824 16622 layer_factory.hpp:77] Creating layer group2_block0_conv1_scale
I1019 01:44:04.142927 16622 net.cpp:122] Setting up group2_block0_conv1_scale
I1019 01:44:04.142935 16622 net.cpp:129] Top shape: 128 64 8 8 (524288)
I1019 01:44:04.142936 16622 net.cpp:137] Memory required for data: 771229184
I1019 01:44:04.142941 16622 layer_factory.hpp:77] Creating layer group2_block0_proj
I1019 01:44:04.142951 16622 net.cpp:84] Creating Layer group2_block0_proj
I1019 01:44:04.142954 16622 net.cpp:406] group2_block0_proj <- group1_block4_sum_group1_block4_relu_0_split_1
I1019 01:44:04.142961 16622 net.cpp:380] group2_block0_proj -> group2_block0_proj
I1019 01:44:04.143193 16622 net.cpp:122] Setting up group2_block0_proj
I1019 01:44:04.143200 16622 net.cpp:129] Top shape: 128 64 8 8 (524288)
I1019 01:44:04.143203 16622 net.cpp:137] Memory required for data: 773326336
I1019 01:44:04.143209 16622 layer_factory.hpp:77] Creating layer group2_block0_proj_bn
I1019 01:44:04.143218 16622 net.cpp:84] Creating Layer group2_block0_proj_bn
I1019 01:44:04.143224 16622 net.cpp:406] group2_block0_proj_bn <- group2_block0_proj
I1019 01:44:04.143232 16622 net.cpp:367] group2_block0_proj_bn -> group2_block0_proj (in-place)
I1019 01:44:04.143417 16622 net.cpp:122] Setting up group2_block0_proj_bn
I1019 01:44:04.143425 16622 net.cpp:129] Top shape: 128 64 8 8 (524288)
I1019 01:44:04.143429 16622 net.cpp:137] Memory required for data: 775423488
I1019 01:44:04.143436 16622 layer_factory.hpp:77] Creating layer group2_block0_proj_scale
I1019 01:44:04.143443 16622 net.cpp:84] Creating Layer group2_block0_proj_scale
I1019 01:44:04.143446 16622 net.cpp:406] group2_block0_proj_scale <- group2_block0_proj
I1019 01:44:04.143450 16622 net.cpp:367] group2_block0_proj_scale -> group2_block0_proj (in-place)
I1019 01:44:04.143482 16622 layer_factory.hpp:77] Creating layer group2_block0_proj_scale
I1019 01:44:04.143584 16622 net.cpp:122] Setting up group2_block0_proj_scale
I1019 01:44:04.143602 16622 net.cpp:129] Top shape: 128 64 8 8 (524288)
I1019 01:44:04.143605 16622 net.cpp:137] Memory required for data: 777520640
I1019 01:44:04.143610 16622 layer_factory.hpp:77] Creating layer group2_block0_sum
I1019 01:44:04.143615 16622 net.cpp:84] Creating Layer group2_block0_sum
I1019 01:44:04.143618 16622 net.cpp:406] group2_block0_sum <- group2_block0_proj
I1019 01:44:04.143621 16622 net.cpp:406] group2_block0_sum <- group2_block0_conv1
I1019 01:44:04.143628 16622 net.cpp:380] group2_block0_sum -> group2_block0_sum
I1019 01:44:04.143648 16622 net.cpp:122] Setting up group2_block0_sum
I1019 01:44:04.143654 16622 net.cpp:129] Top shape: 128 64 8 8 (524288)
I1019 01:44:04.143657 16622 net.cpp:137] Memory required for data: 779617792
I1019 01:44:04.143659 16622 layer_factory.hpp:77] Creating layer group2_block0_relu
I1019 01:44:04.143672 16622 net.cpp:84] Creating Layer group2_block0_relu
I1019 01:44:04.143676 16622 net.cpp:406] group2_block0_relu <- group2_block0_sum
I1019 01:44:04.143681 16622 net.cpp:367] group2_block0_relu -> group2_block0_sum (in-place)
I1019 01:44:04.143685 16622 net.cpp:122] Setting up group2_block0_relu
I1019 01:44:04.143689 16622 net.cpp:129] Top shape: 128 64 8 8 (524288)
I1019 01:44:04.143692 16622 net.cpp:137] Memory required for data: 781714944
I1019 01:44:04.143693 16622 layer_factory.hpp:77] Creating layer group2_block0_sum_group2_block0_relu_0_split
I1019 01:44:04.143698 16622 net.cpp:84] Creating Layer group2_block0_sum_group2_block0_relu_0_split
I1019 01:44:04.143700 16622 net.cpp:406] group2_block0_sum_group2_block0_relu_0_split <- group2_block0_sum
I1019 01:44:04.143704 16622 net.cpp:380] group2_block0_sum_group2_block0_relu_0_split -> group2_block0_sum_group2_block0_relu_0_split_0
I1019 01:44:04.143710 16622 net.cpp:380] group2_block0_sum_group2_block0_relu_0_split -> group2_block0_sum_group2_block0_relu_0_split_1
I1019 01:44:04.143743 16622 net.cpp:122] Setting up group2_block0_sum_group2_block0_relu_0_split
I1019 01:44:04.143749 16622 net.cpp:129] Top shape: 128 64 8 8 (524288)
I1019 01:44:04.143754 16622 net.cpp:129] Top shape: 128 64 8 8 (524288)
I1019 01:44:04.143755 16622 net.cpp:137] Memory required for data: 785909248
I1019 01:44:04.143757 16622 layer_factory.hpp:77] Creating layer group2_block1_conv0
I1019 01:44:04.143766 16622 net.cpp:84] Creating Layer group2_block1_conv0
I1019 01:44:04.143770 16622 net.cpp:406] group2_block1_conv0 <- group2_block0_sum_group2_block0_relu_0_split_0
I1019 01:44:04.143775 16622 net.cpp:380] group2_block1_conv0 -> group2_block1_conv0
I1019 01:44:04.144390 16622 net.cpp:122] Setting up group2_block1_conv0
I1019 01:44:04.144398 16622 net.cpp:129] Top shape: 128 64 8 8 (524288)
I1019 01:44:04.144400 16622 net.cpp:137] Memory required for data: 788006400
I1019 01:44:04.144407 16622 layer_factory.hpp:77] Creating layer group2_block1_conv0_bn
I1019 01:44:04.144417 16622 net.cpp:84] Creating Layer group2_block1_conv0_bn
I1019 01:44:04.144423 16622 net.cpp:406] group2_block1_conv0_bn <- group2_block1_conv0
I1019 01:44:04.144429 16622 net.cpp:367] group2_block1_conv0_bn -> group2_block1_conv0 (in-place)
I1019 01:44:04.144614 16622 net.cpp:122] Setting up group2_block1_conv0_bn
I1019 01:44:04.144623 16622 net.cpp:129] Top shape: 128 64 8 8 (524288)
I1019 01:44:04.144625 16622 net.cpp:137] Memory required for data: 790103552
I1019 01:44:04.144634 16622 layer_factory.hpp:77] Creating layer group2_block1_conv0_scale
I1019 01:44:04.144642 16622 net.cpp:84] Creating Layer group2_block1_conv0_scale
I1019 01:44:04.144645 16622 net.cpp:406] group2_block1_conv0_scale <- group2_block1_conv0
I1019 01:44:04.144649 16622 net.cpp:367] group2_block1_conv0_scale -> group2_block1_conv0 (in-place)
I1019 01:44:04.144682 16622 layer_factory.hpp:77] Creating layer group2_block1_conv0_scale
I1019 01:44:04.144789 16622 net.cpp:122] Setting up group2_block1_conv0_scale
I1019 01:44:04.144796 16622 net.cpp:129] Top shape: 128 64 8 8 (524288)
I1019 01:44:04.144798 16622 net.cpp:137] Memory required for data: 792200704
I1019 01:44:04.144815 16622 layer_factory.hpp:77] Creating layer group2_block1_conv0_relu
I1019 01:44:04.144822 16622 net.cpp:84] Creating Layer group2_block1_conv0_relu
I1019 01:44:04.144826 16622 net.cpp:406] group2_block1_conv0_relu <- group2_block1_conv0
I1019 01:44:04.144834 16622 net.cpp:367] group2_block1_conv0_relu -> group2_block1_conv0 (in-place)
I1019 01:44:04.144840 16622 net.cpp:122] Setting up group2_block1_conv0_relu
I1019 01:44:04.144843 16622 net.cpp:129] Top shape: 128 64 8 8 (524288)
I1019 01:44:04.144845 16622 net.cpp:137] Memory required for data: 794297856
I1019 01:44:04.144847 16622 layer_factory.hpp:77] Creating layer group2_block1_conv1
I1019 01:44:04.144856 16622 net.cpp:84] Creating Layer group2_block1_conv1
I1019 01:44:04.144860 16622 net.cpp:406] group2_block1_conv1 <- group2_block1_conv0
I1019 01:44:04.144866 16622 net.cpp:380] group2_block1_conv1 -> group2_block1_conv1
I1019 01:44:04.145468 16622 net.cpp:122] Setting up group2_block1_conv1
I1019 01:44:04.145475 16622 net.cpp:129] Top shape: 128 64 8 8 (524288)
I1019 01:44:04.145478 16622 net.cpp:137] Memory required for data: 796395008
I1019 01:44:04.145483 16622 layer_factory.hpp:77] Creating layer group2_block1_conv1_bn
I1019 01:44:04.145509 16622 net.cpp:84] Creating Layer group2_block1_conv1_bn
I1019 01:44:04.145514 16622 net.cpp:406] group2_block1_conv1_bn <- group2_block1_conv1
I1019 01:44:04.145519 16622 net.cpp:367] group2_block1_conv1_bn -> group2_block1_conv1 (in-place)
I1019 01:44:04.145689 16622 net.cpp:122] Setting up group2_block1_conv1_bn
I1019 01:44:04.145696 16622 net.cpp:129] Top shape: 128 64 8 8 (524288)
I1019 01:44:04.145699 16622 net.cpp:137] Memory required for data: 798492160
I1019 01:44:04.145704 16622 layer_factory.hpp:77] Creating layer group2_block1_conv1_scale
I1019 01:44:04.145712 16622 net.cpp:84] Creating Layer group2_block1_conv1_scale
I1019 01:44:04.145715 16622 net.cpp:406] group2_block1_conv1_scale <- group2_block1_conv1
I1019 01:44:04.145720 16622 net.cpp:367] group2_block1_conv1_scale -> group2_block1_conv1 (in-place)
I1019 01:44:04.145751 16622 layer_factory.hpp:77] Creating layer group2_block1_conv1_scale
I1019 01:44:04.145859 16622 net.cpp:122] Setting up group2_block1_conv1_scale
I1019 01:44:04.145866 16622 net.cpp:129] Top shape: 128 64 8 8 (524288)
I1019 01:44:04.145869 16622 net.cpp:137] Memory required for data: 800589312
I1019 01:44:04.145877 16622 layer_factory.hpp:77] Creating layer group2_block1_sum
I1019 01:44:04.145887 16622 net.cpp:84] Creating Layer group2_block1_sum
I1019 01:44:04.145895 16622 net.cpp:406] group2_block1_sum <- group2_block1_conv1
I1019 01:44:04.145898 16622 net.cpp:406] group2_block1_sum <- group2_block0_sum_group2_block0_relu_0_split_1
I1019 01:44:04.145910 16622 net.cpp:380] group2_block1_sum -> group2_block1_sum
I1019 01:44:04.145931 16622 net.cpp:122] Setting up group2_block1_sum
I1019 01:44:04.145937 16622 net.cpp:129] Top shape: 128 64 8 8 (524288)
I1019 01:44:04.145941 16622 net.cpp:137] Memory required for data: 802686464
I1019 01:44:04.145944 16622 layer_factory.hpp:77] Creating layer group2_block1_relu
I1019 01:44:04.145951 16622 net.cpp:84] Creating Layer group2_block1_relu
I1019 01:44:04.145956 16622 net.cpp:406] group2_block1_relu <- group2_block1_sum
I1019 01:44:04.145965 16622 net.cpp:367] group2_block1_relu -> group2_block1_sum (in-place)
I1019 01:44:04.145972 16622 net.cpp:122] Setting up group2_block1_relu
I1019 01:44:04.145977 16622 net.cpp:129] Top shape: 128 64 8 8 (524288)
I1019 01:44:04.145978 16622 net.cpp:137] Memory required for data: 804783616
I1019 01:44:04.145982 16622 layer_factory.hpp:77] Creating layer group2_block1_sum_group2_block1_relu_0_split
I1019 01:44:04.145987 16622 net.cpp:84] Creating Layer group2_block1_sum_group2_block1_relu_0_split
I1019 01:44:04.145988 16622 net.cpp:406] group2_block1_sum_group2_block1_relu_0_split <- group2_block1_sum
I1019 01:44:04.145992 16622 net.cpp:380] group2_block1_sum_group2_block1_relu_0_split -> group2_block1_sum_group2_block1_relu_0_split_0
I1019 01:44:04.145998 16622 net.cpp:380] group2_block1_sum_group2_block1_relu_0_split -> group2_block1_sum_group2_block1_relu_0_split_1
I1019 01:44:04.146044 16622 net.cpp:122] Setting up group2_block1_sum_group2_block1_relu_0_split
I1019 01:44:04.146050 16622 net.cpp:129] Top shape: 128 64 8 8 (524288)
I1019 01:44:04.146054 16622 net.cpp:129] Top shape: 128 64 8 8 (524288)
I1019 01:44:04.146056 16622 net.cpp:137] Memory required for data: 808977920
I1019 01:44:04.146059 16622 layer_factory.hpp:77] Creating layer group2_block2_conv0
I1019 01:44:04.146067 16622 net.cpp:84] Creating Layer group2_block2_conv0
I1019 01:44:04.146070 16622 net.cpp:406] group2_block2_conv0 <- group2_block1_sum_group2_block1_relu_0_split_0
I1019 01:44:04.146076 16622 net.cpp:380] group2_block2_conv0 -> group2_block2_conv0
I1019 01:44:04.146683 16622 net.cpp:122] Setting up group2_block2_conv0
I1019 01:44:04.146690 16622 net.cpp:129] Top shape: 128 64 8 8 (524288)
I1019 01:44:04.146693 16622 net.cpp:137] Memory required for data: 811075072
I1019 01:44:04.146697 16622 layer_factory.hpp:77] Creating layer group2_block2_conv0_bn
I1019 01:44:04.146704 16622 net.cpp:84] Creating Layer group2_block2_conv0_bn
I1019 01:44:04.146708 16622 net.cpp:406] group2_block2_conv0_bn <- group2_block2_conv0
I1019 01:44:04.146713 16622 net.cpp:367] group2_block2_conv0_bn -> group2_block2_conv0 (in-place)
I1019 01:44:04.146885 16622 net.cpp:122] Setting up group2_block2_conv0_bn
I1019 01:44:04.146893 16622 net.cpp:129] Top shape: 128 64 8 8 (524288)
I1019 01:44:04.146894 16622 net.cpp:137] Memory required for data: 813172224
I1019 01:44:04.146901 16622 layer_factory.hpp:77] Creating layer group2_block2_conv0_scale
I1019 01:44:04.146911 16622 net.cpp:84] Creating Layer group2_block2_conv0_scale
I1019 01:44:04.146917 16622 net.cpp:406] group2_block2_conv0_scale <- group2_block2_conv0
I1019 01:44:04.146924 16622 net.cpp:367] group2_block2_conv0_scale -> group2_block2_conv0 (in-place)
I1019 01:44:04.146960 16622 layer_factory.hpp:77] Creating layer group2_block2_conv0_scale
I1019 01:44:04.147074 16622 net.cpp:122] Setting up group2_block2_conv0_scale
I1019 01:44:04.147081 16622 net.cpp:129] Top shape: 128 64 8 8 (524288)
I1019 01:44:04.147085 16622 net.cpp:137] Memory required for data: 815269376
I1019 01:44:04.147094 16622 layer_factory.hpp:77] Creating layer group2_block2_conv0_relu
I1019 01:44:04.147102 16622 net.cpp:84] Creating Layer group2_block2_conv0_relu
I1019 01:44:04.147109 16622 net.cpp:406] group2_block2_conv0_relu <- group2_block2_conv0
I1019 01:44:04.147114 16622 net.cpp:367] group2_block2_conv0_relu -> group2_block2_conv0 (in-place)
I1019 01:44:04.147121 16622 net.cpp:122] Setting up group2_block2_conv0_relu
I1019 01:44:04.147127 16622 net.cpp:129] Top shape: 128 64 8 8 (524288)
I1019 01:44:04.147130 16622 net.cpp:137] Memory required for data: 817366528
I1019 01:44:04.147135 16622 layer_factory.hpp:77] Creating layer group2_block2_conv1
I1019 01:44:04.147148 16622 net.cpp:84] Creating Layer group2_block2_conv1
I1019 01:44:04.147153 16622 net.cpp:406] group2_block2_conv1 <- group2_block2_conv0
I1019 01:44:04.147161 16622 net.cpp:380] group2_block2_conv1 -> group2_block2_conv1
I1019 01:44:04.147789 16622 net.cpp:122] Setting up group2_block2_conv1
I1019 01:44:04.147799 16622 net.cpp:129] Top shape: 128 64 8 8 (524288)
I1019 01:44:04.147801 16622 net.cpp:137] Memory required for data: 819463680
I1019 01:44:04.147809 16622 layer_factory.hpp:77] Creating layer group2_block2_conv1_bn
I1019 01:44:04.147816 16622 net.cpp:84] Creating Layer group2_block2_conv1_bn
I1019 01:44:04.147819 16622 net.cpp:406] group2_block2_conv1_bn <- group2_block2_conv1
I1019 01:44:04.147825 16622 net.cpp:367] group2_block2_conv1_bn -> group2_block2_conv1 (in-place)
I1019 01:44:04.147997 16622 net.cpp:122] Setting up group2_block2_conv1_bn
I1019 01:44:04.148003 16622 net.cpp:129] Top shape: 128 64 8 8 (524288)
I1019 01:44:04.148006 16622 net.cpp:137] Memory required for data: 821560832
I1019 01:44:04.148012 16622 layer_factory.hpp:77] Creating layer group2_block2_conv1_scale
I1019 01:44:04.148020 16622 net.cpp:84] Creating Layer group2_block2_conv1_scale
I1019 01:44:04.148036 16622 net.cpp:406] group2_block2_conv1_scale <- group2_block2_conv1
I1019 01:44:04.148041 16622 net.cpp:367] group2_block2_conv1_scale -> group2_block2_conv1 (in-place)
I1019 01:44:04.148079 16622 layer_factory.hpp:77] Creating layer group2_block2_conv1_scale
I1019 01:44:04.148192 16622 net.cpp:122] Setting up group2_block2_conv1_scale
I1019 01:44:04.148201 16622 net.cpp:129] Top shape: 128 64 8 8 (524288)
I1019 01:44:04.148207 16622 net.cpp:137] Memory required for data: 823657984
I1019 01:44:04.148214 16622 layer_factory.hpp:77] Creating layer group2_block2_sum
I1019 01:44:04.148223 16622 net.cpp:84] Creating Layer group2_block2_sum
I1019 01:44:04.148228 16622 net.cpp:406] group2_block2_sum <- group2_block2_conv1
I1019 01:44:04.148234 16622 net.cpp:406] group2_block2_sum <- group2_block1_sum_group2_block1_relu_0_split_1
I1019 01:44:04.148243 16622 net.cpp:380] group2_block2_sum -> group2_block2_sum
I1019 01:44:04.148268 16622 net.cpp:122] Setting up group2_block2_sum
I1019 01:44:04.148274 16622 net.cpp:129] Top shape: 128 64 8 8 (524288)
I1019 01:44:04.148277 16622 net.cpp:137] Memory required for data: 825755136
I1019 01:44:04.148281 16622 layer_factory.hpp:77] Creating layer group2_block2_relu
I1019 01:44:04.148289 16622 net.cpp:84] Creating Layer group2_block2_relu
I1019 01:44:04.148293 16622 net.cpp:406] group2_block2_relu <- group2_block2_sum
I1019 01:44:04.148303 16622 net.cpp:367] group2_block2_relu -> group2_block2_sum (in-place)
I1019 01:44:04.148309 16622 net.cpp:122] Setting up group2_block2_relu
I1019 01:44:04.148315 16622 net.cpp:129] Top shape: 128 64 8 8 (524288)
I1019 01:44:04.148320 16622 net.cpp:137] Memory required for data: 827852288
I1019 01:44:04.148324 16622 layer_factory.hpp:77] Creating layer group2_block2_sum_group2_block2_relu_0_split
I1019 01:44:04.148329 16622 net.cpp:84] Creating Layer group2_block2_sum_group2_block2_relu_0_split
I1019 01:44:04.148335 16622 net.cpp:406] group2_block2_sum_group2_block2_relu_0_split <- group2_block2_sum
I1019 01:44:04.148344 16622 net.cpp:380] group2_block2_sum_group2_block2_relu_0_split -> group2_block2_sum_group2_block2_relu_0_split_0
I1019 01:44:04.148353 16622 net.cpp:380] group2_block2_sum_group2_block2_relu_0_split -> group2_block2_sum_group2_block2_relu_0_split_1
I1019 01:44:04.148389 16622 net.cpp:122] Setting up group2_block2_sum_group2_block2_relu_0_split
I1019 01:44:04.148396 16622 net.cpp:129] Top shape: 128 64 8 8 (524288)
I1019 01:44:04.148401 16622 net.cpp:129] Top shape: 128 64 8 8 (524288)
I1019 01:44:04.148404 16622 net.cpp:137] Memory required for data: 832046592
I1019 01:44:04.148408 16622 layer_factory.hpp:77] Creating layer group2_block3_conv0
I1019 01:44:04.148422 16622 net.cpp:84] Creating Layer group2_block3_conv0
I1019 01:44:04.148425 16622 net.cpp:406] group2_block3_conv0 <- group2_block2_sum_group2_block2_relu_0_split_0
I1019 01:44:04.148433 16622 net.cpp:380] group2_block3_conv0 -> group2_block3_conv0
I1019 01:44:04.149055 16622 net.cpp:122] Setting up group2_block3_conv0
I1019 01:44:04.149062 16622 net.cpp:129] Top shape: 128 64 8 8 (524288)
I1019 01:44:04.149066 16622 net.cpp:137] Memory required for data: 834143744
I1019 01:44:04.149073 16622 layer_factory.hpp:77] Creating layer group2_block3_conv0_bn
I1019 01:44:04.149083 16622 net.cpp:84] Creating Layer group2_block3_conv0_bn
I1019 01:44:04.149087 16622 net.cpp:406] group2_block3_conv0_bn <- group2_block3_conv0
I1019 01:44:04.149091 16622 net.cpp:367] group2_block3_conv0_bn -> group2_block3_conv0 (in-place)
I1019 01:44:04.149267 16622 net.cpp:122] Setting up group2_block3_conv0_bn
I1019 01:44:04.149274 16622 net.cpp:129] Top shape: 128 64 8 8 (524288)
I1019 01:44:04.149276 16622 net.cpp:137] Memory required for data: 836240896
I1019 01:44:04.149282 16622 layer_factory.hpp:77] Creating layer group2_block3_conv0_scale
I1019 01:44:04.149286 16622 net.cpp:84] Creating Layer group2_block3_conv0_scale
I1019 01:44:04.149289 16622 net.cpp:406] group2_block3_conv0_scale <- group2_block3_conv0
I1019 01:44:04.149293 16622 net.cpp:367] group2_block3_conv0_scale -> group2_block3_conv0 (in-place)
I1019 01:44:04.149345 16622 layer_factory.hpp:77] Creating layer group2_block3_conv0_scale
I1019 01:44:04.149461 16622 net.cpp:122] Setting up group2_block3_conv0_scale
I1019 01:44:04.149469 16622 net.cpp:129] Top shape: 128 64 8 8 (524288)
I1019 01:44:04.149472 16622 net.cpp:137] Memory required for data: 838338048
I1019 01:44:04.149480 16622 layer_factory.hpp:77] Creating layer group2_block3_conv0_relu
I1019 01:44:04.149490 16622 net.cpp:84] Creating Layer group2_block3_conv0_relu
I1019 01:44:04.149497 16622 net.cpp:406] group2_block3_conv0_relu <- group2_block3_conv0
I1019 01:44:04.149502 16622 net.cpp:367] group2_block3_conv0_relu -> group2_block3_conv0 (in-place)
I1019 01:44:04.149507 16622 net.cpp:122] Setting up group2_block3_conv0_relu
I1019 01:44:04.149510 16622 net.cpp:129] Top shape: 128 64 8 8 (524288)
I1019 01:44:04.149513 16622 net.cpp:137] Memory required for data: 840435200
I1019 01:44:04.149514 16622 layer_factory.hpp:77] Creating layer group2_block3_conv1
I1019 01:44:04.149523 16622 net.cpp:84] Creating Layer group2_block3_conv1
I1019 01:44:04.149526 16622 net.cpp:406] group2_block3_conv1 <- group2_block3_conv0
I1019 01:44:04.149533 16622 net.cpp:380] group2_block3_conv1 -> group2_block3_conv1
I1019 01:44:04.150135 16622 net.cpp:122] Setting up group2_block3_conv1
I1019 01:44:04.150143 16622 net.cpp:129] Top shape: 128 64 8 8 (524288)
I1019 01:44:04.150146 16622 net.cpp:137] Memory required for data: 842532352
I1019 01:44:04.150151 16622 layer_factory.hpp:77] Creating layer group2_block3_conv1_bn
I1019 01:44:04.150156 16622 net.cpp:84] Creating Layer group2_block3_conv1_bn
I1019 01:44:04.150161 16622 net.cpp:406] group2_block3_conv1_bn <- group2_block3_conv1
I1019 01:44:04.150166 16622 net.cpp:367] group2_block3_conv1_bn -> group2_block3_conv1 (in-place)
I1019 01:44:04.150342 16622 net.cpp:122] Setting up group2_block3_conv1_bn
I1019 01:44:04.150348 16622 net.cpp:129] Top shape: 128 64 8 8 (524288)
I1019 01:44:04.150351 16622 net.cpp:137] Memory required for data: 844629504
I1019 01:44:04.150357 16622 layer_factory.hpp:77] Creating layer group2_block3_conv1_scale
I1019 01:44:04.150364 16622 net.cpp:84] Creating Layer group2_block3_conv1_scale
I1019 01:44:04.150368 16622 net.cpp:406] group2_block3_conv1_scale <- group2_block3_conv1
I1019 01:44:04.150375 16622 net.cpp:367] group2_block3_conv1_scale -> group2_block3_conv1 (in-place)
I1019 01:44:04.150413 16622 layer_factory.hpp:77] Creating layer group2_block3_conv1_scale
I1019 01:44:04.150523 16622 net.cpp:122] Setting up group2_block3_conv1_scale
I1019 01:44:04.150530 16622 net.cpp:129] Top shape: 128 64 8 8 (524288)
I1019 01:44:04.150534 16622 net.cpp:137] Memory required for data: 846726656
I1019 01:44:04.150542 16622 layer_factory.hpp:77] Creating layer group2_block3_sum
I1019 01:44:04.150552 16622 net.cpp:84] Creating Layer group2_block3_sum
I1019 01:44:04.150558 16622 net.cpp:406] group2_block3_sum <- group2_block3_conv1
I1019 01:44:04.150563 16622 net.cpp:406] group2_block3_sum <- group2_block2_sum_group2_block2_relu_0_split_1
I1019 01:44:04.150569 16622 net.cpp:380] group2_block3_sum -> group2_block3_sum
I1019 01:44:04.150596 16622 net.cpp:122] Setting up group2_block3_sum
I1019 01:44:04.150602 16622 net.cpp:129] Top shape: 128 64 8 8 (524288)
I1019 01:44:04.150605 16622 net.cpp:137] Memory required for data: 848823808
I1019 01:44:04.150609 16622 layer_factory.hpp:77] Creating layer group2_block3_relu
I1019 01:44:04.150616 16622 net.cpp:84] Creating Layer group2_block3_relu
I1019 01:44:04.150620 16622 net.cpp:406] group2_block3_relu <- group2_block3_sum
I1019 01:44:04.150629 16622 net.cpp:367] group2_block3_relu -> group2_block3_sum (in-place)
I1019 01:44:04.150637 16622 net.cpp:122] Setting up group2_block3_relu
I1019 01:44:04.150643 16622 net.cpp:129] Top shape: 128 64 8 8 (524288)
I1019 01:44:04.150647 16622 net.cpp:137] Memory required for data: 850920960
I1019 01:44:04.150650 16622 layer_factory.hpp:77] Creating layer group2_block3_sum_group2_block3_relu_0_split
I1019 01:44:04.150656 16622 net.cpp:84] Creating Layer group2_block3_sum_group2_block3_relu_0_split
I1019 01:44:04.150673 16622 net.cpp:406] group2_block3_sum_group2_block3_relu_0_split <- group2_block3_sum
I1019 01:44:04.150681 16622 net.cpp:380] group2_block3_sum_group2_block3_relu_0_split -> group2_block3_sum_group2_block3_relu_0_split_0
I1019 01:44:04.150688 16622 net.cpp:380] group2_block3_sum_group2_block3_relu_0_split -> group2_block3_sum_group2_block3_relu_0_split_1
I1019 01:44:04.150724 16622 net.cpp:122] Setting up group2_block3_sum_group2_block3_relu_0_split
I1019 01:44:04.150732 16622 net.cpp:129] Top shape: 128 64 8 8 (524288)
I1019 01:44:04.150734 16622 net.cpp:129] Top shape: 128 64 8 8 (524288)
I1019 01:44:04.150737 16622 net.cpp:137] Memory required for data: 855115264
I1019 01:44:04.150739 16622 layer_factory.hpp:77] Creating layer group2_block4_conv0
I1019 01:44:04.150748 16622 net.cpp:84] Creating Layer group2_block4_conv0
I1019 01:44:04.150753 16622 net.cpp:406] group2_block4_conv0 <- group2_block3_sum_group2_block3_relu_0_split_0
I1019 01:44:04.150758 16622 net.cpp:380] group2_block4_conv0 -> group2_block4_conv0
I1019 01:44:04.151365 16622 net.cpp:122] Setting up group2_block4_conv0
I1019 01:44:04.151372 16622 net.cpp:129] Top shape: 128 64 8 8 (524288)
I1019 01:44:04.151374 16622 net.cpp:137] Memory required for data: 857212416
I1019 01:44:04.151379 16622 layer_factory.hpp:77] Creating layer group2_block4_conv0_bn
I1019 01:44:04.151386 16622 net.cpp:84] Creating Layer group2_block4_conv0_bn
I1019 01:44:04.151389 16622 net.cpp:406] group2_block4_conv0_bn <- group2_block4_conv0
I1019 01:44:04.151393 16622 net.cpp:367] group2_block4_conv0_bn -> group2_block4_conv0 (in-place)
I1019 01:44:04.151566 16622 net.cpp:122] Setting up group2_block4_conv0_bn
I1019 01:44:04.151572 16622 net.cpp:129] Top shape: 128 64 8 8 (524288)
I1019 01:44:04.151574 16622 net.cpp:137] Memory required for data: 859309568
I1019 01:44:04.151581 16622 layer_factory.hpp:77] Creating layer group2_block4_conv0_scale
I1019 01:44:04.151588 16622 net.cpp:84] Creating Layer group2_block4_conv0_scale
I1019 01:44:04.151592 16622 net.cpp:406] group2_block4_conv0_scale <- group2_block4_conv0
I1019 01:44:04.151595 16622 net.cpp:367] group2_block4_conv0_scale -> group2_block4_conv0 (in-place)
I1019 01:44:04.151629 16622 layer_factory.hpp:77] Creating layer group2_block4_conv0_scale
I1019 01:44:04.151753 16622 net.cpp:122] Setting up group2_block4_conv0_scale
I1019 01:44:04.151762 16622 net.cpp:129] Top shape: 128 64 8 8 (524288)
I1019 01:44:04.151764 16622 net.cpp:137] Memory required for data: 861406720
I1019 01:44:04.151772 16622 layer_factory.hpp:77] Creating layer group2_block4_conv0_relu
I1019 01:44:04.151779 16622 net.cpp:84] Creating Layer group2_block4_conv0_relu
I1019 01:44:04.151783 16622 net.cpp:406] group2_block4_conv0_relu <- group2_block4_conv0
I1019 01:44:04.151793 16622 net.cpp:367] group2_block4_conv0_relu -> group2_block4_conv0 (in-place)
I1019 01:44:04.151800 16622 net.cpp:122] Setting up group2_block4_conv0_relu
I1019 01:44:04.151808 16622 net.cpp:129] Top shape: 128 64 8 8 (524288)
I1019 01:44:04.151811 16622 net.cpp:137] Memory required for data: 863503872
I1019 01:44:04.151815 16622 layer_factory.hpp:77] Creating layer group2_block4_conv1
I1019 01:44:04.151826 16622 net.cpp:84] Creating Layer group2_block4_conv1
I1019 01:44:04.151830 16622 net.cpp:406] group2_block4_conv1 <- group2_block4_conv0
I1019 01:44:04.151837 16622 net.cpp:380] group2_block4_conv1 -> group2_block4_conv1
I1019 01:44:04.152443 16622 net.cpp:122] Setting up group2_block4_conv1
I1019 01:44:04.152451 16622 net.cpp:129] Top shape: 128 64 8 8 (524288)
I1019 01:44:04.152453 16622 net.cpp:137] Memory required for data: 865601024
I1019 01:44:04.152457 16622 layer_factory.hpp:77] Creating layer group2_block4_conv1_bn
I1019 01:44:04.152462 16622 net.cpp:84] Creating Layer group2_block4_conv1_bn
I1019 01:44:04.152465 16622 net.cpp:406] group2_block4_conv1_bn <- group2_block4_conv1
I1019 01:44:04.152470 16622 net.cpp:367] group2_block4_conv1_bn -> group2_block4_conv1 (in-place)
I1019 01:44:04.152648 16622 net.cpp:122] Setting up group2_block4_conv1_bn
I1019 01:44:04.152667 16622 net.cpp:129] Top shape: 128 64 8 8 (524288)
I1019 01:44:04.152669 16622 net.cpp:137] Memory required for data: 867698176
I1019 01:44:04.152675 16622 layer_factory.hpp:77] Creating layer group2_block4_conv1_scale
I1019 01:44:04.152680 16622 net.cpp:84] Creating Layer group2_block4_conv1_scale
I1019 01:44:04.152683 16622 net.cpp:406] group2_block4_conv1_scale <- group2_block4_conv1
I1019 01:44:04.152688 16622 net.cpp:367] group2_block4_conv1_scale -> group2_block4_conv1 (in-place)
I1019 01:44:04.152721 16622 layer_factory.hpp:77] Creating layer group2_block4_conv1_scale
I1019 01:44:04.152824 16622 net.cpp:122] Setting up group2_block4_conv1_scale
I1019 01:44:04.152830 16622 net.cpp:129] Top shape: 128 64 8 8 (524288)
I1019 01:44:04.152833 16622 net.cpp:137] Memory required for data: 869795328
I1019 01:44:04.152837 16622 layer_factory.hpp:77] Creating layer group2_block4_sum
I1019 01:44:04.152844 16622 net.cpp:84] Creating Layer group2_block4_sum
I1019 01:44:04.152848 16622 net.cpp:406] group2_block4_sum <- group2_block4_conv1
I1019 01:44:04.152851 16622 net.cpp:406] group2_block4_sum <- group2_block3_sum_group2_block3_relu_0_split_1
I1019 01:44:04.152856 16622 net.cpp:380] group2_block4_sum -> group2_block4_sum
I1019 01:44:04.152874 16622 net.cpp:122] Setting up group2_block4_sum
I1019 01:44:04.152880 16622 net.cpp:129] Top shape: 128 64 8 8 (524288)
I1019 01:44:04.152882 16622 net.cpp:137] Memory required for data: 871892480
I1019 01:44:04.152884 16622 layer_factory.hpp:77] Creating layer group2_block4_relu
I1019 01:44:04.152889 16622 net.cpp:84] Creating Layer group2_block4_relu
I1019 01:44:04.152891 16622 net.cpp:406] group2_block4_relu <- group2_block4_sum
I1019 01:44:04.152896 16622 net.cpp:367] group2_block4_relu -> group2_block4_sum (in-place)
I1019 01:44:04.152901 16622 net.cpp:122] Setting up group2_block4_relu
I1019 01:44:04.152905 16622 net.cpp:129] Top shape: 128 64 8 8 (524288)
I1019 01:44:04.152907 16622 net.cpp:137] Memory required for data: 873989632
I1019 01:44:04.152909 16622 layer_factory.hpp:77] Creating layer global_avg_pool
I1019 01:44:04.152915 16622 net.cpp:84] Creating Layer global_avg_pool
I1019 01:44:04.152917 16622 net.cpp:406] global_avg_pool <- group2_block4_sum
I1019 01:44:04.152921 16622 net.cpp:380] global_avg_pool -> global_avg_pool
I1019 01:44:04.152954 16622 net.cpp:122] Setting up global_avg_pool
I1019 01:44:04.152961 16622 net.cpp:129] Top shape: 128 64 1 1 (8192)
I1019 01:44:04.152963 16622 net.cpp:137] Memory required for data: 874022400
I1019 01:44:04.152966 16622 layer_factory.hpp:77] Creating layer fc
I1019 01:44:04.152972 16622 net.cpp:84] Creating Layer fc
I1019 01:44:04.152974 16622 net.cpp:406] fc <- global_avg_pool
I1019 01:44:04.152979 16622 net.cpp:380] fc -> fc
I1019 01:44:04.153084 16622 net.cpp:122] Setting up fc
I1019 01:44:04.153090 16622 net.cpp:129] Top shape: 128 10 (1280)
I1019 01:44:04.153091 16622 net.cpp:137] Memory required for data: 874027520
I1019 01:44:04.153096 16622 layer_factory.hpp:77] Creating layer fc_fc_0_split
I1019 01:44:04.153100 16622 net.cpp:84] Creating Layer fc_fc_0_split
I1019 01:44:04.153103 16622 net.cpp:406] fc_fc_0_split <- fc
I1019 01:44:04.153108 16622 net.cpp:380] fc_fc_0_split -> fc_fc_0_split_0
I1019 01:44:04.153115 16622 net.cpp:380] fc_fc_0_split -> fc_fc_0_split_1
I1019 01:44:04.153141 16622 net.cpp:122] Setting up fc_fc_0_split
I1019 01:44:04.153146 16622 net.cpp:129] Top shape: 128 10 (1280)
I1019 01:44:04.153149 16622 net.cpp:129] Top shape: 128 10 (1280)
I1019 01:44:04.153151 16622 net.cpp:137] Memory required for data: 874037760
I1019 01:44:04.153153 16622 layer_factory.hpp:77] Creating layer loss
I1019 01:44:04.153159 16622 net.cpp:84] Creating Layer loss
I1019 01:44:04.153162 16622 net.cpp:406] loss <- fc_fc_0_split_0
I1019 01:44:04.153167 16622 net.cpp:406] loss <- label_data_1_split_0
I1019 01:44:04.153170 16622 net.cpp:380] loss -> loss
I1019 01:44:04.153177 16622 layer_factory.hpp:77] Creating layer loss
I1019 01:44:04.153257 16622 net.cpp:122] Setting up loss
I1019 01:44:04.153273 16622 net.cpp:129] Top shape: (1)
I1019 01:44:04.153276 16622 net.cpp:132]     with loss weight 1
I1019 01:44:04.153296 16622 net.cpp:137] Memory required for data: 874037764
I1019 01:44:04.153300 16622 layer_factory.hpp:77] Creating layer softmax
I1019 01:44:04.153306 16622 net.cpp:84] Creating Layer softmax
I1019 01:44:04.153311 16622 net.cpp:406] softmax <- fc_fc_0_split_1
I1019 01:44:04.153317 16622 net.cpp:380] softmax -> softmax
I1019 01:44:04.153378 16622 net.cpp:122] Setting up softmax
I1019 01:44:04.153383 16622 net.cpp:129] Top shape: 128 10 (1280)
I1019 01:44:04.153385 16622 net.cpp:137] Memory required for data: 874042884
I1019 01:44:04.153388 16622 layer_factory.hpp:77] Creating layer Accuracy
I1019 01:44:04.153393 16622 net.cpp:84] Creating Layer Accuracy
I1019 01:44:04.153395 16622 net.cpp:406] Accuracy <- softmax
I1019 01:44:04.153399 16622 net.cpp:406] Accuracy <- label_data_1_split_1
I1019 01:44:04.153403 16622 net.cpp:380] Accuracy -> Accuracy
…
I1019 01:44:04.155591 16622 solver.cpp:172] Creating test net (#0) specified by net file: resnet-32/trainval.prototxt
I1019 01:44:04.155730 16622 net.cpp:294] The NetState phase (1) differed from the phase (0) specified by a rule in layer data
I1019 01:44:04.156594 16622 net.cpp:51] Initializing net from parameters: 
name: "resnet5-cifar10"
state {
  phase: TEST
}
layer {
  name: "data"
  type: "Data"
  top: "data"
  top: "label"
  include {
    phase: TEST
  }
  transform_param {
    scale: 0.0078125
    mean_value: 128
  }
  data_param {
    source: "cifar-10-batches-py/test"
    batch_size: 100
    backend: LMDB
  }
}
layer {
  name: "first_conv"
  type: "Convolution"
  bottom: "data"
  top: "first_conv"
  param {
    lr_mult: 1
    decay_mult: 1
  }
  convolution_param {
    num_output: 16
    pad: 1
    kernel_size: 3
    stride: 1
    weight_filler {
      type: "msra"
    }
  }
}
layer {
  name: "first_conv_bn"
  type: "BatchNorm"
  bottom: "first_conv"
  top: "first_conv"
  param {
    lr_mult: 0
    decay_mult: 0
  }
  param {
    lr_mult: 0
    decay_mult: 0
  }
  param {
    lr_mult: 0
    decay_mult: 0
  }
}
layer {
  name: "first_conv_scale"
  type: "Scale"
  bottom: "first_conv"
  top: "first_conv"
  scale_param {
    bias_term: true
  }
}
layer {
  name: "first_conv_relu"
  type: "ReLU"
  bottom: "first_conv"
  top: "first_conv"
}
layer {
  name: "group0_block0_conv0"
  type: "Convolution"
  bottom: "first_conv"
  top: "group0_block0_conv0"
  param {
    lr_mult: 1
    decay_mult: 1
  }
  convolution_param {
    num_output: 16
    pad: 1
    kernel_size: 3
    stride: 1
    weight_filler {
      type: "msra"
    }
  }
}
layer {
  name: "group0_block0_conv0_bn"
  type: "BatchNorm"
  bottom: "group0_block0_conv0"
  top: "group0_block0_conv0"
  param {
    lr_mult: 0
    decay_mult: 0
  }
  param {
    lr_mult: 0
    decay_mult: 0
  }
  param {
    lr_mult: 0
    decay_mult: 0
  }
}
layer {
  name: "group0_block0_conv0_scale"
  type: "Scale"
  bottom: "group0_block0_conv0"
  top: "group0_block0_conv0"
  scale_param {
    bias_term: true
  }
}
layer {
  name: "group0_block0_conv0_relu"
  type: "ReLU"
  bottom: "group0_block0_conv0"
  top: "group0_block0_conv0"
}
layer {
  name: "group0_block0_conv1"
  type: "Convolution"
  bottom: "group0_block0_conv0"
  top: "group0_block0_conv1"
  param {
    lr_mult: 1
    decay_mult: 1
  }
  convolution_param {
    num_output: 16
    pad: 1
    kernel_size: 3
    stride: 1
    weight_filler {
      type: "msra"
    }
  }
}
layer {
  name: "group0_block0_conv1_bn"
  type: "BatchNorm"
  bottom: "group0_block0_conv1"
  top: "group0_block0_conv1"
  param {
    lr_mult: 0
    decay_mult: 0
  }
  param {
    lr_mult: 0
    decay_mult: 0
  }
  param {
    lr_mult: 0
    decay_mult: 0
  }
}
layer {
  name: "group0_block0_conv1_scale"
  type: "Scale"
  bottom: "group0_block0_conv1"
  top: "group0_block0_conv1"
  scale_param {
    bias_term: true
  }
}
layer {
  name: "group0_block0_sum"
  type: "Eltwise"
  bottom: "group0_block0_conv1"
  bottom: "first_conv"
  top: "group0_block0_sum"
  eltwise_param {
    operation: SUM
  }
}
layer {
  name: "group0_block0_relu"
  type: "ReLU"
  bottom: "group0_block0_sum"
  top: "group0_block0_sum"
}
layer {
  name: "group0_block1_conv0"
  type: "Convolution"
  bottom: "group0_block0_sum"
  top: "group0_block1_conv0"
  param {
    lr_mult: 1
    decay_mult: 1
  }
  convolution_param {
    num_output: 16
    pad: 1
    kernel_size: 3
    stride: 1
    weight_filler {
      type: "msra"
    }
  }
}
layer {
  name: "group0_block1_conv0_bn"
  type: "BatchNorm"
  bottom: "group0_block1_conv0"
  top: "group0_block1_conv0"
  param {
    lr_mult: 0
    decay_mult: 0
  }
  param {
    lr_mult: 0
    decay_mult: 0
  }
  param {
    lr_mult: 0
    decay_mult: 0
  }
}
layer {
  name: "group0_block1_conv0_scale"
  type: "Scale"
  bottom: "group0_block1_conv0"
  top: "group0_block1_conv0"
  scale_param {
    bias_term: true
  }
}
layer {
  name: "group0_block1_conv0_relu"
  type: "ReLU"
  bottom: "group0_block1_conv0"
  top: "group0_block1_conv0"
}
layer {
  name: "group0_block1_conv1"
  type: "Convolution"
  bottom: "group0_block1_conv0"
  top: "group0_block1_conv1"
  param {
    lr_mult: 1
    decay_mult: 1
  }
  convolution_param {
    num_output: 16
    pad: 1
    kernel_size: 3
    stride: 1
    weight_filler {
      type: "msra"
    }
  }
}
layer {
  name: "group0_block1_conv1_bn"
  type: "BatchNorm"
  bottom: "group0_block1_conv1"
  top: "group0_block1_conv1"
  param {
    lr_mult: 0
    decay_mult: 0
  }
  param {
    lr_mult: 0
    decay_mult: 0
  }
  param {
    lr_mult: 0
    decay_mult: 0
  }
}
layer {
  name: "group0_block1_conv1_scale"
  type: "Scale"
  bottom: "group0_block1_conv1"
  top: "group0_block1_conv1"
  scale_param {
    bias_term: true
  }
}
layer {
  name: "group0_block1_sum"
  type: "Eltwise"
  bottom: "group0_block1_conv1"
  bottom: "group0_block0_sum"
  top: "group0_block1_sum"
  eltwise_param {
    operation: SUM
  }
}
layer {
  name: "group0_block1_relu"
  type: "ReLU"
  bottom: "group0_block1_sum"
  top: "group0_block1_sum"
}
layer {
  name: "group0_block2_conv0"
  type: "Convolution"
  bottom: "group0_block1_sum"
  top: "group0_block2_conv0"
  param {
    lr_mult: 1
    decay_mult: 1
  }
  convolution_param {
    num_output: 16
    pad: 1
    kernel_size: 3
    stride: 1
    weight_filler {
      type: "msra"
    }
  }
}
layer {
  name: "group0_block2_conv0_bn"
  type: "BatchNorm"
  bottom: "group0_block2_conv0"
  top: "group0_block2_conv0"
  param {
    lr_mult: 0
    decay_mult: 0
  }
  param {
    lr_mult: 0
    decay_mult: 0
  }
  param {
    lr_mult: 0
    decay_mult: 0
  }
}
layer {
  name: "group0_block2_conv0_scale"
  type: "Scale"
  bottom: "group0_block2_conv0"
  top: "group0_block2_conv0"
  scale_param {
    bias_term: true
  }
}
layer {
  name: "group0_block2_conv0_relu"
  type: "ReLU"
  bottom: "group0_block2_conv0"
  top: "group0_block2_conv0"
}
layer {
  name: "group0_block2_conv1"
  type: "Convolution"
  bottom: "group0_block2_conv0"
  top: "group0_block2_conv1"
  param {
    lr_mult: 1
    decay_mult: 1
  }
  convolution_param {
    num_output: 16
    pad: 1
    kernel_size: 3
    stride: 1
    weight_filler {
      type: "msra"
    }
  }
}
layer {
  name: "group0_block2_conv1_bn"
  type: "BatchNorm"
  bottom: "group0_block2_conv1"
  top: "group0_block2_conv1"
  param {
    lr_mult: 0
    decay_mult: 0
  }
  param {
    lr_mult: 0
    decay_mult: 0
  }
  param {
    lr_mult: 0
    decay_mult: 0
  }
}
layer {
  name: "group0_block2_conv1_scale"
  type: "Scale"
  bottom: "group0_block2_conv1"
  top: "group0_block2_conv1"
  scale_param {
    bias_term: true
  }
}
layer {
  name: "group0_block2_sum"
  type: "Eltwise"
  bottom: "group0_block2_conv1"
  bottom: "group0_block1_sum"
  top: "group0_block2_sum"
  eltwise_param {
    operation: SUM
  }
}
layer {
  name: "group0_block2_relu"
  type: "ReLU"
  bottom: "group0_block2_sum"
  top: "group0_block2_sum"
}
layer {
  name: "group0_block3_conv0"
  type: "Convolution"
  bottom: "group0_block2_sum"
  top: "group0_block3_conv0"
  param {
    lr_mult: 1
    decay_mult: 1
  }
  convolution_param {
    num_output: 16
    pad: 1
    kernel_size: 3
    stride: 1
    weight_filler {
      type: "msra"
    }
  }
}
layer {
  name: "group0_block3_conv0_bn"
  type: "BatchNorm"
  bottom: "group0_block3_conv0"
  top: "group0_block3_conv0"
  param {
    lr_mult: 0
    decay_mult: 0
  }
  param {
    lr_mult: 0
    decay_mult: 0
  }
  param {
    lr_mult: 0
    decay_mult: 0
  }
}
layer {
  name: "group0_block3_conv0_scale"
  type: "Scale"
  bottom: "group0_block3_conv0"
  top: "group0_block3_conv0"
  scale_param {
    bias_term: true
  }
}
layer {
  name: "group0_block3_conv0_relu"
  type: "ReLU"
  bottom: "group0_block3_conv0"
  top: "group0_block3_conv0"
}
layer {
  name: "group0_block3_conv1"
  type: "Convolution"
  bottom: "group0_block3_conv0"
  top: "group0_block3_conv1"
  param {
    lr_mult: 1
    decay_mult: 1
  }
  convolution_param {
    num_output: 16
    pad: 1
    kernel_size: 3
    stride: 1
    weight_filler {
      type: "msra"
    }
  }
}
layer {
  name: "group0_block3_conv1_bn"
  type: "BatchNorm"
  bottom: "group0_block3_conv1"
  top: "group0_block3_conv1"
  param {
    lr_mult: 0
    decay_mult: 0
  }
  param {
    lr_mult: 0
    decay_mult: 0
  }
  param {
    lr_mult: 0
    decay_mult: 0
  }
}
layer {
  name: "group0_block3_conv1_scale"
  type: "Scale"
  bottom: "group0_block3_conv1"
  top: "group0_block3_conv1"
  scale_param {
    bias_term: true
  }
}
layer {
  name: "group0_block3_sum"
  type: "Eltwise"
  bottom: "group0_block3_conv1"
  bottom: "group0_block2_sum"
  top: "group0_block3_sum"
  eltwise_param {
    operation: SUM
  }
}
layer {
  name: "group0_block3_relu"
  type: "ReLU"
  bottom: "group0_block3_sum"
  top: "group0_block3_sum"
}
layer {
  name: "group0_block4_conv0"
  type: "Convolution"
  bottom: "group0_block3_sum"
  top: "group0_block4_conv0"
  param {
    lr_mult: 1
    decay_mult: 1
  }
  convolution_param {
    num_output: 16
    pad: 1
    kernel_size: 3
    stride: 1
    weight_filler {
      type: "msra"
    }
  }
}
layer {
  name: "group0_block4_conv0_bn"
  type: "BatchNorm"
  bottom: "group0_block4_conv0"
  top: "group0_block4_conv0"
  param {
    lr_mult: 0
    decay_mult: 0
  }
  param {
    lr_mult: 0
    decay_mult: 0
  }
  param {
    lr_mult: 0
    decay_mult: 0
  }
}
layer {
  name: "group0_block4_conv0_scale"
  type: "Scale"
  bottom: "group0_block4_conv0"
  top: "group0_block4_conv0"
  scale_param {
    bias_term: true
  }
}
layer {
  name: "group0_block4_conv0_relu"
  type: "ReLU"
  bottom: "group0_block4_conv0"
  top: "group0_block4_conv0"
}
layer {
  name: "group0_block4_conv1"
  type: "Convolution"
  bottom: "group0_block4_conv0"
  top: "group0_block4_conv1"
  param {
    lr_mult: 1
    decay_mult: 1
  }
  convolution_param {
    num_output: 16
    pad: 1
    kernel_size: 3
    stride: 1
    weight_filler {
      type: "msra"
    }
  }
}
layer {
  name: "group0_block4_conv1_bn"
  type: "BatchNorm"
  bottom: "group0_block4_conv1"
  top: "group0_block4_conv1"
  param {
    lr_mult: 0
    decay_mult: 0
  }
  param {
    lr_mult: 0
    decay_mult: 0
  }
  param {
    lr_mult: 0
    decay_mult: 0
  }
}
layer {
  name: "group0_block4_conv1_scale"
  type: "Scale"
  bottom: "group0_block4_conv1"
  top: "group0_block4_conv1"
  scale_param {
    bias_term: true
  }
}
layer {
  name: "group0_block4_sum"
  type: "Eltwise"
  bottom: "group0_block4_conv1"
  bottom: "group0_block3_sum"
  top: "group0_block4_sum"
  eltwise_param {
    operation: SUM
  }
}
layer {
  name: "group0_block4_relu"
  type: "ReLU"
  bottom: "group0_block4_sum"
  top: "group0_block4_sum"
}
layer {
  name: "group1_block0_conv0"
  type: "Convolution"
  bottom: "group0_block4_sum"
  top: "group1_block0_conv0"
  param {
    lr_mult: 1
    decay_mult: 1
  }
  convolution_param {
    num_output: 32
    pad: 1
    kernel_size: 3
    stride: 2
    weight_filler {
      type: "msra"
    }
  }
}
layer {
  name: "group1_block0_conv0_bn"
  type: "BatchNorm"
  bottom: "group1_block0_conv0"
  top: "group1_block0_conv0"
  param {
    lr_mult: 0
    decay_mult: 0
  }
  param {
    lr_mult: 0
    decay_mult: 0
  }
  param {
    lr_mult: 0
    decay_mult: 0
  }
}
layer {
  name: "group1_block0_conv0_scale"
  type: "Scale"
  bottom: "group1_block0_conv0"
  top: "group1_block0_conv0"
  scale_param {
    bias_term: true
  }
}
layer {
  name: "group1_block0_conv0_relu"
  type: "ReLU"
  bottom: "group1_block0_conv0"
  top: "group1_block0_conv0"
}
layer {
  name: "group1_block0_conv1"
  type: "Convolution"
  bottom: "group1_block0_conv0"
  top: "group1_block0_conv1"
  param {
    lr_mult: 1
    decay_mult: 1
  }
  convolution_param {
    num_output: 32
    pad: 1
    kernel_size: 3
    stride: 1
    weight_filler {
      type: "msra"
    }
  }
}
layer {
  name: "group1_block0_conv1_bn"
  type: "BatchNorm"
  bottom: "group1_block0_conv1"
  top: "group1_block0_conv1"
  param {
    lr_mult: 0
    decay_mult: 0
  }
  param {
    lr_mult: 0
    decay_mult: 0
  }
  param {
    lr_mult: 0
    decay_mult: 0
  }
}
layer {
  name: "group1_block0_conv1_scale"
  type: "Scale"
  bottom: "group1_block0_conv1"
  top: "group1_block0_conv1"
  scale_param {
    bias_term: true
  }
}
layer {
  name: "group1_block0_proj"
  type: "Convolution"
  bottom: "group0_block4_sum"
  top: "group1_block0_proj"
  param {
    lr_mult: 1
    decay_mult: 1
  }
  convolution_param {
    num_output: 32
    pad: 0
    kernel_size: 1
    stride: 2
    weight_filler {
      type: "msra"
    }
  }
}
layer {
  name: "group1_block0_proj_bn"
  type: "BatchNorm"
  bottom: "group1_block0_proj"
  top: "group1_block0_proj"
  param {
    lr_mult: 0
    decay_mult: 0
  }
  param {
    lr_mult: 0
    decay_mult: 0
  }
  param {
    lr_mult: 0
    decay_mult: 0
  }
}
layer {
  name: "group1_block0_proj_scale"
  type: "Scale"
  bottom: "group1_block0_proj"
  top: "group1_block0_proj"
  scale_param {
    bias_term: true
  }
}
layer {
  name: "group1_block0_sum"
  type: "Eltwise"
  bottom: "group1_block0_proj"
  bottom: "group1_block0_conv1"
  top: "group1_block0_sum"
  eltwise_param {
    operation: SUM
  }
}
layer {
  name: "group1_block0_relu"
  type: "ReLU"
  bottom: "group1_block0_sum"
  top: "group1_block0_sum"
}
layer {
  name: "group1_block1_conv0"
  type: "Convolution"
  bottom: "group1_block0_sum"
  top: "group1_block1_conv0"
  param {
    lr_mult: 1
    decay_mult: 1
  }
  convolution_param {
    num_output: 32
    pad: 1
    kernel_size: 3
    stride: 1
    weight_filler {
      type: "msra"
    }
  }
}
layer {
  name: "group1_block1_conv0_bn"
  type: "BatchNorm"
  bottom: "group1_block1_conv0"
  top: "group1_block1_conv0"
  param {
    lr_mult: 0
    decay_mult: 0
  }
  param {
    lr_mult: 0
    decay_mult: 0
  }
  param {
    lr_mult: 0
    decay_mult: 0
  }
}
layer {
  name: "group1_block1_conv0_scale"
  type: "Scale"
  bottom: "group1_block1_conv0"
  top: "group1_block1_conv0"
  scale_param {
    bias_term: true
  }
}
layer {
  name: "group1_block1_conv0_relu"
  type: "ReLU"
  bottom: "group1_block1_conv0"
  top: "group1_block1_conv0"
}
layer {
  name: "group1_block1_conv1"
  type: "Convolution"
  bottom: "group1_block1_conv0"
  top: "group1_block1_conv1"
  param {
    lr_mult: 1
    decay_mult: 1
  }
  convolution_param {
    num_output: 32
    pad: 1
    kernel_size: 3
    stride: 1
    weight_filler {
      type: "msra"
    }
  }
}
layer {
  name: "group1_block1_conv1_bn"
  type: "BatchNorm"
  bottom: "group1_block1_conv1"
  top: "group1_block1_conv1"
  param {
    lr_mult: 0
    decay_mult: 0
  }
…
I1019 01:44:04.184932 16622 net.cpp:380] group1_block2_sum -> group1_block2_sum
I1019 01:44:04.184953 16622 net.cpp:122] Setting up group1_block2_sum
I1019 01:44:04.184959 16622 net.cpp:129] Top shape: 100 32 16 16 (819200)
I1019 01:44:04.184962 16622 net.cpp:137] Memory required for data: 509134000
I1019 01:44:04.184964 16622 layer_factory.hpp:77] Creating layer group1_block2_relu
I1019 01:44:04.184968 16622 net.cpp:84] Creating Layer group1_block2_relu
I1019 01:44:04.184972 16622 net.cpp:406] group1_block2_relu <- group1_block2_sum
I1019 01:44:04.184976 16622 net.cpp:367] group1_block2_relu -> group1_block2_sum (in-place)
I1019 01:44:04.184980 16622 net.cpp:122] Setting up group1_block2_relu
I1019 01:44:04.184984 16622 net.cpp:129] Top shape: 100 32 16 16 (819200)
I1019 01:44:04.184986 16622 net.cpp:137] Memory required for data: 512410800
I1019 01:44:04.184989 16622 layer_factory.hpp:77] Creating layer group1_block2_sum_group1_block2_relu_0_split
I1019 01:44:04.184993 16622 net.cpp:84] Creating Layer group1_block2_sum_group1_block2_relu_0_split
I1019 01:44:04.184995 16622 net.cpp:406] group1_block2_sum_group1_block2_relu_0_split <- group1_block2_sum
I1019 01:44:04.185000 16622 net.cpp:380] group1_block2_sum_group1_block2_relu_0_split -> group1_block2_sum_group1_block2_relu_0_split_0
I1019 01:44:04.185006 16622 net.cpp:380] group1_block2_sum_group1_block2_relu_0_split -> group1_block2_sum_group1_block2_relu_0_split_1
I1019 01:44:04.185037 16622 net.cpp:122] Setting up group1_block2_sum_group1_block2_relu_0_split
I1019 01:44:04.185043 16622 net.cpp:129] Top shape: 100 32 16 16 (819200)
I1019 01:44:04.185047 16622 net.cpp:129] Top shape: 100 32 16 16 (819200)
I1019 01:44:04.185050 16622 net.cpp:137] Memory required for data: 518964400
I1019 01:44:04.185051 16622 layer_factory.hpp:77] Creating layer group1_block3_conv0
I1019 01:44:04.185060 16622 net.cpp:84] Creating Layer group1_block3_conv0
I1019 01:44:04.185063 16622 net.cpp:406] group1_block3_conv0 <- group1_block2_sum_group1_block2_relu_0_split_0
I1019 01:44:04.185068 16622 net.cpp:380] group1_block3_conv0 -> group1_block3_conv0
I1019 01:44:04.185386 16622 net.cpp:122] Setting up group1_block3_conv0
I1019 01:44:04.185395 16622 net.cpp:129] Top shape: 100 32 16 16 (819200)
I1019 01:44:04.185396 16622 net.cpp:137] Memory required for data: 522241200
I1019 01:44:04.185401 16622 layer_factory.hpp:77] Creating layer group1_block3_conv0_bn
I1019 01:44:04.185407 16622 net.cpp:84] Creating Layer group1_block3_conv0_bn
I1019 01:44:04.185410 16622 net.cpp:406] group1_block3_conv0_bn <- group1_block3_conv0
I1019 01:44:04.185415 16622 net.cpp:367] group1_block3_conv0_bn -> group1_block3_conv0 (in-place)
I1019 01:44:04.185591 16622 net.cpp:122] Setting up group1_block3_conv0_bn
I1019 01:44:04.185597 16622 net.cpp:129] Top shape: 100 32 16 16 (819200)
I1019 01:44:04.185600 16622 net.cpp:137] Memory required for data: 525518000
I1019 01:44:04.185618 16622 layer_factory.hpp:77] Creating layer group1_block3_conv0_scale
I1019 01:44:04.185624 16622 net.cpp:84] Creating Layer group1_block3_conv0_scale
I1019 01:44:04.185627 16622 net.cpp:406] group1_block3_conv0_scale <- group1_block3_conv0
I1019 01:44:04.185633 16622 net.cpp:367] group1_block3_conv0_scale -> group1_block3_conv0 (in-place)
I1019 01:44:04.185670 16622 layer_factory.hpp:77] Creating layer group1_block3_conv0_scale
I1019 01:44:04.185775 16622 net.cpp:122] Setting up group1_block3_conv0_scale
I1019 01:44:04.185781 16622 net.cpp:129] Top shape: 100 32 16 16 (819200)
I1019 01:44:04.185783 16622 net.cpp:137] Memory required for data: 528794800
I1019 01:44:04.185788 16622 layer_factory.hpp:77] Creating layer group1_block3_conv0_relu
I1019 01:44:04.185792 16622 net.cpp:84] Creating Layer group1_block3_conv0_relu
I1019 01:44:04.185796 16622 net.cpp:406] group1_block3_conv0_relu <- group1_block3_conv0
I1019 01:44:04.185801 16622 net.cpp:367] group1_block3_conv0_relu -> group1_block3_conv0 (in-place)
I1019 01:44:04.185817 16622 net.cpp:122] Setting up group1_block3_conv0_relu
I1019 01:44:04.185822 16622 net.cpp:129] Top shape: 100 32 16 16 (819200)
I1019 01:44:04.185824 16622 net.cpp:137] Memory required for data: 532071600
I1019 01:44:04.185827 16622 layer_factory.hpp:77] Creating layer group1_block3_conv1
I1019 01:44:04.185837 16622 net.cpp:84] Creating Layer group1_block3_conv1
I1019 01:44:04.185840 16622 net.cpp:406] group1_block3_conv1 <- group1_block3_conv0
I1019 01:44:04.185844 16622 net.cpp:380] group1_block3_conv1 -> group1_block3_conv1
I1019 01:44:04.186161 16622 net.cpp:122] Setting up group1_block3_conv1
I1019 01:44:04.186168 16622 net.cpp:129] Top shape: 100 32 16 16 (819200)
I1019 01:44:04.186170 16622 net.cpp:137] Memory required for data: 535348400
I1019 01:44:04.186175 16622 layer_factory.hpp:77] Creating layer group1_block3_conv1_bn
I1019 01:44:04.186182 16622 net.cpp:84] Creating Layer group1_block3_conv1_bn
I1019 01:44:04.186187 16622 net.cpp:406] group1_block3_conv1_bn <- group1_block3_conv1
I1019 01:44:04.186192 16622 net.cpp:367] group1_block3_conv1_bn -> group1_block3_conv1 (in-place)
I1019 01:44:04.186364 16622 net.cpp:122] Setting up group1_block3_conv1_bn
I1019 01:44:04.186370 16622 net.cpp:129] Top shape: 100 32 16 16 (819200)
I1019 01:44:04.186372 16622 net.cpp:137] Memory required for data: 538625200
I1019 01:44:04.186379 16622 layer_factory.hpp:77] Creating layer group1_block3_conv1_scale
I1019 01:44:04.186385 16622 net.cpp:84] Creating Layer group1_block3_conv1_scale
I1019 01:44:04.186389 16622 net.cpp:406] group1_block3_conv1_scale <- group1_block3_conv1
I1019 01:44:04.186393 16622 net.cpp:367] group1_block3_conv1_scale -> group1_block3_conv1 (in-place)
I1019 01:44:04.186430 16622 layer_factory.hpp:77] Creating layer group1_block3_conv1_scale
I1019 01:44:04.186534 16622 net.cpp:122] Setting up group1_block3_conv1_scale
I1019 01:44:04.186542 16622 net.cpp:129] Top shape: 100 32 16 16 (819200)
I1019 01:44:04.186543 16622 net.cpp:137] Memory required for data: 541902000
I1019 01:44:04.186547 16622 layer_factory.hpp:77] Creating layer group1_block3_sum
I1019 01:44:04.186554 16622 net.cpp:84] Creating Layer group1_block3_sum
I1019 01:44:04.186556 16622 net.cpp:406] group1_block3_sum <- group1_block3_conv1
I1019 01:44:04.186560 16622 net.cpp:406] group1_block3_sum <- group1_block2_sum_group1_block2_relu_0_split_1
I1019 01:44:04.186565 16622 net.cpp:380] group1_block3_sum -> group1_block3_sum
I1019 01:44:04.186588 16622 net.cpp:122] Setting up group1_block3_sum
I1019 01:44:04.186594 16622 net.cpp:129] Top shape: 100 32 16 16 (819200)
I1019 01:44:04.186596 16622 net.cpp:137] Memory required for data: 545178800
I1019 01:44:04.186600 16622 layer_factory.hpp:77] Creating layer group1_block3_relu
I1019 01:44:04.186606 16622 net.cpp:84] Creating Layer group1_block3_relu
I1019 01:44:04.186609 16622 net.cpp:406] group1_block3_relu <- group1_block3_sum
I1019 01:44:04.186615 16622 net.cpp:367] group1_block3_relu -> group1_block3_sum (in-place)
I1019 01:44:04.186622 16622 net.cpp:122] Setting up group1_block3_relu
I1019 01:44:04.186625 16622 net.cpp:129] Top shape: 100 32 16 16 (819200)
I1019 01:44:04.186627 16622 net.cpp:137] Memory required for data: 548455600
I1019 01:44:04.186630 16622 layer_factory.hpp:77] Creating layer group1_block3_sum_group1_block3_relu_0_split
I1019 01:44:04.186635 16622 net.cpp:84] Creating Layer group1_block3_sum_group1_block3_relu_0_split
I1019 01:44:04.186637 16622 net.cpp:406] group1_block3_sum_group1_block3_relu_0_split <- group1_block3_sum
I1019 01:44:04.186641 16622 net.cpp:380] group1_block3_sum_group1_block3_relu_0_split -> group1_block3_sum_group1_block3_relu_0_split_0
I1019 01:44:04.186647 16622 net.cpp:380] group1_block3_sum_group1_block3_relu_0_split -> group1_block3_sum_group1_block3_relu_0_split_1
I1019 01:44:04.186684 16622 net.cpp:122] Setting up group1_block3_sum_group1_block3_relu_0_split
I1019 01:44:04.186691 16622 net.cpp:129] Top shape: 100 32 16 16 (819200)
I1019 01:44:04.186704 16622 net.cpp:129] Top shape: 100 32 16 16 (819200)
I1019 01:44:04.186707 16622 net.cpp:137] Memory required for data: 555009200
I1019 01:44:04.186709 16622 layer_factory.hpp:77] Creating layer group1_block4_conv0
I1019 01:44:04.186717 16622 net.cpp:84] Creating Layer group1_block4_conv0
I1019 01:44:04.186720 16622 net.cpp:406] group1_block4_conv0 <- group1_block3_sum_group1_block3_relu_0_split_0
I1019 01:44:04.186728 16622 net.cpp:380] group1_block4_conv0 -> group1_block4_conv0
I1019 01:44:04.187067 16622 net.cpp:122] Setting up group1_block4_conv0
I1019 01:44:04.187077 16622 net.cpp:129] Top shape: 100 32 16 16 (819200)
I1019 01:44:04.187079 16622 net.cpp:137] Memory required for data: 558286000
I1019 01:44:04.187088 16622 layer_factory.hpp:77] Creating layer group1_block4_conv0_bn
I1019 01:44:04.187095 16622 net.cpp:84] Creating Layer group1_block4_conv0_bn
I1019 01:44:04.187100 16622 net.cpp:406] group1_block4_conv0_bn <- group1_block4_conv0
I1019 01:44:04.187105 16622 net.cpp:367] group1_block4_conv0_bn -> group1_block4_conv0 (in-place)
I1019 01:44:04.187280 16622 net.cpp:122] Setting up group1_block4_conv0_bn
I1019 01:44:04.187288 16622 net.cpp:129] Top shape: 100 32 16 16 (819200)
I1019 01:44:04.187289 16622 net.cpp:137] Memory required for data: 561562800
I1019 01:44:04.187297 16622 layer_factory.hpp:77] Creating layer group1_block4_conv0_scale
I1019 01:44:04.187305 16622 net.cpp:84] Creating Layer group1_block4_conv0_scale
I1019 01:44:04.187311 16622 net.cpp:406] group1_block4_conv0_scale <- group1_block4_conv0
I1019 01:44:04.187319 16622 net.cpp:367] group1_block4_conv0_scale -> group1_block4_conv0 (in-place)
I1019 01:44:04.187361 16622 layer_factory.hpp:77] Creating layer group1_block4_conv0_scale
I1019 01:44:04.187474 16622 net.cpp:122] Setting up group1_block4_conv0_scale
I1019 01:44:04.187487 16622 net.cpp:129] Top shape: 100 32 16 16 (819200)
I1019 01:44:04.187492 16622 net.cpp:137] Memory required for data: 564839600
I1019 01:44:04.187500 16622 layer_factory.hpp:77] Creating layer group1_block4_conv0_relu
I1019 01:44:04.187507 16622 net.cpp:84] Creating Layer group1_block4_conv0_relu
I1019 01:44:04.187511 16622 net.cpp:406] group1_block4_conv0_relu <- group1_block4_conv0
I1019 01:44:04.187518 16622 net.cpp:367] group1_block4_conv0_relu -> group1_block4_conv0 (in-place)
I1019 01:44:04.187525 16622 net.cpp:122] Setting up group1_block4_conv0_relu
I1019 01:44:04.187532 16622 net.cpp:129] Top shape: 100 32 16 16 (819200)
I1019 01:44:04.187536 16622 net.cpp:137] Memory required for data: 568116400
I1019 01:44:04.187539 16622 layer_factory.hpp:77] Creating layer group1_block4_conv1
I1019 01:44:04.187551 16622 net.cpp:84] Creating Layer group1_block4_conv1
I1019 01:44:04.187556 16622 net.cpp:406] group1_block4_conv1 <- group1_block4_conv0
I1019 01:44:04.187563 16622 net.cpp:380] group1_block4_conv1 -> group1_block4_conv1
I1019 01:44:04.187913 16622 net.cpp:122] Setting up group1_block4_conv1
I1019 01:44:04.187922 16622 net.cpp:129] Top shape: 100 32 16 16 (819200)
I1019 01:44:04.187925 16622 net.cpp:137] Memory required for data: 571393200
I1019 01:44:04.187933 16622 layer_factory.hpp:77] Creating layer group1_block4_conv1_bn
I1019 01:44:04.187942 16622 net.cpp:84] Creating Layer group1_block4_conv1_bn
I1019 01:44:04.187947 16622 net.cpp:406] group1_block4_conv1_bn <- group1_block4_conv1
I1019 01:44:04.187952 16622 net.cpp:367] group1_block4_conv1_bn -> group1_block4_conv1 (in-place)
I1019 01:44:04.188129 16622 net.cpp:122] Setting up group1_block4_conv1_bn
I1019 01:44:04.188135 16622 net.cpp:129] Top shape: 100 32 16 16 (819200)
I1019 01:44:04.188138 16622 net.cpp:137] Memory required for data: 574670000
I1019 01:44:04.188146 16622 layer_factory.hpp:77] Creating layer group1_block4_conv1_scale
I1019 01:44:04.188156 16622 net.cpp:84] Creating Layer group1_block4_conv1_scale
I1019 01:44:04.188163 16622 net.cpp:406] group1_block4_conv1_scale <- group1_block4_conv1
I1019 01:44:04.188169 16622 net.cpp:367] group1_block4_conv1_scale -> group1_block4_conv1 (in-place)
I1019 01:44:04.188215 16622 layer_factory.hpp:77] Creating layer group1_block4_conv1_scale
I1019 01:44:04.188346 16622 net.cpp:122] Setting up group1_block4_conv1_scale
I1019 01:44:04.188354 16622 net.cpp:129] Top shape: 100 32 16 16 (819200)
I1019 01:44:04.188357 16622 net.cpp:137] Memory required for data: 577946800
I1019 01:44:04.188366 16622 layer_factory.hpp:77] Creating layer group1_block4_sum
I1019 01:44:04.188379 16622 net.cpp:84] Creating Layer group1_block4_sum
I1019 01:44:04.188383 16622 net.cpp:406] group1_block4_sum <- group1_block4_conv1
I1019 01:44:04.188387 16622 net.cpp:406] group1_block4_sum <- group1_block3_sum_group1_block3_relu_0_split_1
I1019 01:44:04.188396 16622 net.cpp:380] group1_block4_sum -> group1_block4_sum
I1019 01:44:04.188423 16622 net.cpp:122] Setting up group1_block4_sum
I1019 01:44:04.188431 16622 net.cpp:129] Top shape: 100 32 16 16 (819200)
I1019 01:44:04.188433 16622 net.cpp:137] Memory required for data: 581223600
I1019 01:44:04.188437 16622 layer_factory.hpp:77] Creating layer group1_block4_relu
I1019 01:44:04.188442 16622 net.cpp:84] Creating Layer group1_block4_relu
I1019 01:44:04.188446 16622 net.cpp:406] group1_block4_relu <- group1_block4_sum
I1019 01:44:04.188449 16622 net.cpp:367] group1_block4_relu -> group1_block4_sum (in-place)
I1019 01:44:04.188455 16622 net.cpp:122] Setting up group1_block4_relu
I1019 01:44:04.188462 16622 net.cpp:129] Top shape: 100 32 16 16 (819200)
I1019 01:44:04.188463 16622 net.cpp:137] Memory required for data: 584500400
I1019 01:44:04.188465 16622 layer_factory.hpp:77] Creating layer group1_block4_sum_group1_block4_relu_0_split
I1019 01:44:04.188469 16622 net.cpp:84] Creating Layer group1_block4_sum_group1_block4_relu_0_split
I1019 01:44:04.188472 16622 net.cpp:406] group1_block4_sum_group1_block4_relu_0_split <- group1_block4_sum
I1019 01:44:04.188477 16622 net.cpp:380] group1_block4_sum_group1_block4_relu_0_split -> group1_block4_sum_group1_block4_relu_0_split_0
I1019 01:44:04.188482 16622 net.cpp:380] group1_block4_sum_group1_block4_relu_0_split -> group1_block4_sum_group1_block4_relu_0_split_1
I1019 01:44:04.188516 16622 net.cpp:122] Setting up group1_block4_sum_group1_block4_relu_0_split
I1019 01:44:04.188522 16622 net.cpp:129] Top shape: 100 32 16 16 (819200)
I1019 01:44:04.188525 16622 net.cpp:129] Top shape: 100 32 16 16 (819200)
I1019 01:44:04.188527 16622 net.cpp:137] Memory required for data: 591054000
I1019 01:44:04.188530 16622 layer_factory.hpp:77] Creating layer group2_block0_conv0
I1019 01:44:04.188536 16622 net.cpp:84] Creating Layer group2_block0_conv0
I1019 01:44:04.188540 16622 net.cpp:406] group2_block0_conv0 <- group1_block4_sum_group1_block4_relu_0_split_0
I1019 01:44:04.188547 16622 net.cpp:380] group2_block0_conv0 -> group2_block0_conv0
I1019 01:44:04.188967 16622 net.cpp:122] Setting up group2_block0_conv0
I1019 01:44:04.188976 16622 net.cpp:129] Top shape: 100 64 8 8 (409600)
I1019 01:44:04.188977 16622 net.cpp:137] Memory required for data: 592692400
I1019 01:44:04.188983 16622 layer_factory.hpp:77] Creating layer group2_block0_conv0_bn
I1019 01:44:04.188993 16622 net.cpp:84] Creating Layer group2_block0_conv0_bn
I1019 01:44:04.188999 16622 net.cpp:406] group2_block0_conv0_bn <- group2_block0_conv0
I1019 01:44:04.189007 16622 net.cpp:367] group2_block0_conv0_bn -> group2_block0_conv0 (in-place)
I1019 01:44:04.189201 16622 net.cpp:122] Setting up group2_block0_conv0_bn
I1019 01:44:04.189208 16622 net.cpp:129] Top shape: 100 64 8 8 (409600)
I1019 01:44:04.189211 16622 net.cpp:137] Memory required for data: 594330800
I1019 01:44:04.189219 16622 layer_factory.hpp:77] Creating layer group2_block0_conv0_scale
I1019 01:44:04.189226 16622 net.cpp:84] Creating Layer group2_block0_conv0_scale
I1019 01:44:04.189229 16622 net.cpp:406] group2_block0_conv0_scale <- group2_block0_conv0
I1019 01:44:04.189234 16622 net.cpp:367] group2_block0_conv0_scale -> group2_block0_conv0 (in-place)
I1019 01:44:04.189273 16622 layer_factory.hpp:77] Creating layer group2_block0_conv0_scale
I1019 01:44:04.189383 16622 net.cpp:122] Setting up group2_block0_conv0_scale
I1019 01:44:04.189390 16622 net.cpp:129] Top shape: 100 64 8 8 (409600)
I1019 01:44:04.189404 16622 net.cpp:137] Memory required for data: 595969200
I1019 01:44:04.189409 16622 layer_factory.hpp:77] Creating layer group2_block0_conv0_relu
I1019 01:44:04.189417 16622 net.cpp:84] Creating Layer group2_block0_conv0_relu
I1019 01:44:04.189421 16622 net.cpp:406] group2_block0_conv0_relu <- group2_block0_conv0
I1019 01:44:04.189425 16622 net.cpp:367] group2_block0_conv0_relu -> group2_block0_conv0 (in-place)
I1019 01:44:04.189430 16622 net.cpp:122] Setting up group2_block0_conv0_relu
I1019 01:44:04.189435 16622 net.cpp:129] Top shape: 100 64 8 8 (409600)
I1019 01:44:04.189436 16622 net.cpp:137] Memory required for data: 597607600
I1019 01:44:04.189438 16622 layer_factory.hpp:77] Creating layer group2_block0_conv1
I1019 01:44:04.189447 16622 net.cpp:84] Creating Layer group2_block0_conv1
I1019 01:44:04.189450 16622 net.cpp:406] group2_block0_conv1 <- group2_block0_conv0
I1019 01:44:04.189456 16622 net.cpp:380] group2_block0_conv1 -> group2_block0_conv1
I1019 01:44:04.190081 16622 net.cpp:122] Setting up group2_block0_conv1
I1019 01:44:04.190088 16622 net.cpp:129] Top shape: 100 64 8 8 (409600)
I1019 01:44:04.190090 16622 net.cpp:137] Memory required for data: 599246000
I1019 01:44:04.190096 16622 layer_factory.hpp:77] Creating layer group2_block0_conv1_bn
I1019 01:44:04.190104 16622 net.cpp:84] Creating Layer group2_block0_conv1_bn
I1019 01:44:04.190110 16622 net.cpp:406] group2_block0_conv1_bn <- group2_block0_conv1
I1019 01:44:04.190119 16622 net.cpp:367] group2_block0_conv1_bn -> group2_block0_conv1 (in-place)
I1019 01:44:04.190317 16622 net.cpp:122] Setting up group2_block0_conv1_bn
I1019 01:44:04.190325 16622 net.cpp:129] Top shape: 100 64 8 8 (409600)
I1019 01:44:04.190328 16622 net.cpp:137] Memory required for data: 600884400
I1019 01:44:04.190337 16622 layer_factory.hpp:77] Creating layer group2_block0_conv1_scale
I1019 01:44:04.190347 16622 net.cpp:84] Creating Layer group2_block0_conv1_scale
I1019 01:44:04.190353 16622 net.cpp:406] group2_block0_conv1_scale <- group2_block0_conv1
I1019 01:44:04.190359 16622 net.cpp:367] group2_block0_conv1_scale -> group2_block0_conv1 (in-place)
I1019 01:44:04.190402 16622 layer_factory.hpp:77] Creating layer group2_block0_conv1_scale
I1019 01:44:04.190523 16622 net.cpp:122] Setting up group2_block0_conv1_scale
I1019 01:44:04.190531 16622 net.cpp:129] Top shape: 100 64 8 8 (409600)
I1019 01:44:04.190534 16622 net.cpp:137] Memory required for data: 602522800
I1019 01:44:04.190542 16622 layer_factory.hpp:77] Creating layer group2_block0_proj
I1019 01:44:04.190554 16622 net.cpp:84] Creating Layer group2_block0_proj
I1019 01:44:04.190559 16622 net.cpp:406] group2_block0_proj <- group1_block4_sum_group1_block4_relu_0_split_1
I1019 01:44:04.190569 16622 net.cpp:380] group2_block0_proj -> group2_block0_proj
I1019 01:44:04.190834 16622 net.cpp:122] Setting up group2_block0_proj
I1019 01:44:04.190841 16622 net.cpp:129] Top shape: 100 64 8 8 (409600)
I1019 01:44:04.190845 16622 net.cpp:137] Memory required for data: 604161200
I1019 01:44:04.190852 16622 layer_factory.hpp:77] Creating layer group2_block0_proj_bn
I1019 01:44:04.190863 16622 net.cpp:84] Creating Layer group2_block0_proj_bn
I1019 01:44:04.190870 16622 net.cpp:406] group2_block0_proj_bn <- group2_block0_proj
I1019 01:44:04.190876 16622 net.cpp:367] group2_block0_proj_bn -> group2_block0_proj (in-place)
I1019 01:44:04.191058 16622 net.cpp:122] Setting up group2_block0_proj_bn
I1019 01:44:04.191066 16622 net.cpp:129] Top shape: 100 64 8 8 (409600)
I1019 01:44:04.191067 16622 net.cpp:137] Memory required for data: 605799600
I1019 01:44:04.191073 16622 layer_factory.hpp:77] Creating layer group2_block0_proj_scale
I1019 01:44:04.191079 16622 net.cpp:84] Creating Layer group2_block0_proj_scale
I1019 01:44:04.191083 16622 net.cpp:406] group2_block0_proj_scale <- group2_block0_proj
I1019 01:44:04.191087 16622 net.cpp:367] group2_block0_proj_scale -> group2_block0_proj (in-place)
I1019 01:44:04.191124 16622 layer_factory.hpp:77] Creating layer group2_block0_proj_scale
I1019 01:44:04.191247 16622 net.cpp:122] Setting up group2_block0_proj_scale
I1019 01:44:04.191256 16622 net.cpp:129] Top shape: 100 64 8 8 (409600)
I1019 01:44:04.191257 16622 net.cpp:137] Memory required for data: 607438000
I1019 01:44:04.191262 16622 layer_factory.hpp:77] Creating layer group2_block0_sum
I1019 01:44:04.191267 16622 net.cpp:84] Creating Layer group2_block0_sum
I1019 01:44:04.191269 16622 net.cpp:406] group2_block0_sum <- group2_block0_proj
I1019 01:44:04.191273 16622 net.cpp:406] group2_block0_sum <- group2_block0_conv1
I1019 01:44:04.191279 16622 net.cpp:380] group2_block0_sum -> group2_block0_sum
I1019 01:44:04.191303 16622 net.cpp:122] Setting up group2_block0_sum
I1019 01:44:04.191309 16622 net.cpp:129] Top shape: 100 64 8 8 (409600)
I1019 01:44:04.191311 16622 net.cpp:137] Memory required for data: 609076400
I1019 01:44:04.191313 16622 layer_factory.hpp:77] Creating layer group2_block0_relu
I1019 01:44:04.191318 16622 net.cpp:84] Creating Layer group2_block0_relu
I1019 01:44:04.191320 16622 net.cpp:406] group2_block0_relu <- group2_block0_sum
I1019 01:44:04.191324 16622 net.cpp:367] group2_block0_relu -> group2_block0_sum (in-place)
I1019 01:44:04.191329 16622 net.cpp:122] Setting up group2_block0_relu
I1019 01:44:04.191332 16622 net.cpp:129] Top shape: 100 64 8 8 (409600)
I1019 01:44:04.191334 16622 net.cpp:137] Memory required for data: 610714800
I1019 01:44:04.191337 16622 layer_factory.hpp:77] Creating layer group2_block0_sum_group2_block0_relu_0_split
I1019 01:44:04.191341 16622 net.cpp:84] Creating Layer group2_block0_sum_group2_block0_relu_0_split
I1019 01:44:04.191344 16622 net.cpp:406] group2_block0_sum_group2_block0_relu_0_split <- group2_block0_sum
I1019 01:44:04.191349 16622 net.cpp:380] group2_block0_sum_group2_block0_relu_0_split -> group2_block0_sum_group2_block0_relu_0_split_0
I1019 01:44:04.191359 16622 net.cpp:380] group2_block0_sum_group2_block0_relu_0_split -> group2_block0_sum_group2_block0_relu_0_split_1
I1019 01:44:04.191395 16622 net.cpp:122] Setting up group2_block0_sum_group2_block0_relu_0_split
I1019 01:44:04.191401 16622 net.cpp:129] Top shape: 100 64 8 8 (409600)
I1019 01:44:04.191404 16622 net.cpp:129] Top shape: 100 64 8 8 (409600)
I1019 01:44:04.191406 16622 net.cpp:137] Memory required for data: 613991600
I1019 01:44:04.191408 16622 layer_factory.hpp:77] Creating layer group2_block1_conv0
I1019 01:44:04.191416 16622 net.cpp:84] Creating Layer group2_block1_conv0
I1019 01:44:04.191421 16622 net.cpp:406] group2_block1_conv0 <- group2_block0_sum_group2_block0_relu_0_split_0
I1019 01:44:04.191426 16622 net.cpp:380] group2_block1_conv0 -> group2_block1_conv0
I1019 01:44:04.192059 16622 net.cpp:122] Setting up group2_block1_conv0
I1019 01:44:04.192068 16622 net.cpp:129] Top shape: 100 64 8 8 (409600)
I1019 01:44:04.192070 16622 net.cpp:137] Memory required for data: 615630000
I1019 01:44:04.192075 16622 layer_factory.hpp:77] Creating layer group2_block1_conv0_bn
I1019 01:44:04.192085 16622 net.cpp:84] Creating Layer group2_block1_conv0_bn
I1019 01:44:04.192088 16622 net.cpp:406] group2_block1_conv0_bn <- group2_block1_conv0
I1019 01:44:04.192093 16622 net.cpp:367] group2_block1_conv0_bn -> group2_block1_conv0 (in-place)
I1019 01:44:04.192277 16622 net.cpp:122] Setting up group2_block1_conv0_bn
I1019 01:44:04.192286 16622 net.cpp:129] Top shape: 100 64 8 8 (409600)
I1019 01:44:04.192288 16622 net.cpp:137] Memory required for data: 617268400
I1019 01:44:04.192297 16622 layer_factory.hpp:77] Creating layer group2_block1_conv0_scale
I1019 01:44:04.192304 16622 net.cpp:84] Creating Layer group2_block1_conv0_scale
I1019 01:44:04.192308 16622 net.cpp:406] group2_block1_conv0_scale <- group2_block1_conv0
I1019 01:44:04.192312 16622 net.cpp:367] group2_block1_conv0_scale -> group2_block1_conv0 (in-place)
I1019 01:44:04.192353 16622 layer_factory.hpp:77] Creating layer group2_block1_conv0_scale
I1019 01:44:04.192466 16622 net.cpp:122] Setting up group2_block1_conv0_scale
I1019 01:44:04.192472 16622 net.cpp:129] Top shape: 100 64 8 8 (409600)
I1019 01:44:04.192476 16622 net.cpp:137] Memory required for data: 618906800
I1019 01:44:04.192495 16622 layer_factory.hpp:77] Creating layer group2_block1_conv0_relu
I1019 01:44:04.192502 16622 net.cpp:84] Creating Layer group2_block1_conv0_relu
I1019 01:44:04.192505 16622 net.cpp:406] group2_block1_conv0_relu <- group2_block1_conv0
I1019 01:44:04.192512 16622 net.cpp:367] group2_block1_conv0_relu -> group2_block1_conv0 (in-place)
I1019 01:44:04.192517 16622 net.cpp:122] Setting up group2_block1_conv0_relu
I1019 01:44:04.192522 16622 net.cpp:129] Top shape: 100 64 8 8 (409600)
I1019 01:44:04.192523 16622 net.cpp:137] Memory required for data: 620545200
I1019 01:44:04.192526 16622 layer_factory.hpp:77] Creating layer group2_block1_conv1
I1019 01:44:04.192534 16622 net.cpp:84] Creating Layer group2_block1_conv1
I1019 01:44:04.192538 16622 net.cpp:406] group2_block1_conv1 <- group2_block1_conv0
I1019 01:44:04.192543 16622 net.cpp:380] group2_block1_conv1 -> group2_block1_conv1
I1019 01:44:04.193171 16622 net.cpp:122] Setting up group2_block1_conv1
I1019 01:44:04.193178 16622 net.cpp:129] Top shape: 100 64 8 8 (409600)
I1019 01:44:04.193181 16622 net.cpp:137] Memory required for data: 622183600
I1019 01:44:04.193186 16622 layer_factory.hpp:77] Creating layer group2_block1_conv1_bn
I1019 01:44:04.193217 16622 net.cpp:84] Creating Layer group2_block1_conv1_bn
I1019 01:44:04.193222 16622 net.cpp:406] group2_block1_conv1_bn <- group2_block1_conv1
I1019 01:44:04.193226 16622 net.cpp:367] group2_block1_conv1_bn -> group2_block1_conv1 (in-place)
I1019 01:44:04.193410 16622 net.cpp:122] Setting up group2_block1_conv1_bn
I1019 01:44:04.193418 16622 net.cpp:129] Top shape: 100 64 8 8 (409600)
I1019 01:44:04.193419 16622 net.cpp:137] Memory required for data: 623822000
I1019 01:44:04.193428 16622 layer_factory.hpp:77] Creating layer group2_block1_conv1_scale
I1019 01:44:04.193439 16622 net.cpp:84] Creating Layer group2_block1_conv1_scale
I1019 01:44:04.193444 16622 net.cpp:406] group2_block1_conv1_scale <- group2_block1_conv1
I1019 01:44:04.193449 16622 net.cpp:367] group2_block1_conv1_scale -> group2_block1_conv1 (in-place)
I1019 01:44:04.193495 16622 layer_factory.hpp:77] Creating layer group2_block1_conv1_scale
I1019 01:44:04.193615 16622 net.cpp:122] Setting up group2_block1_conv1_scale
I1019 01:44:04.193625 16622 net.cpp:129] Top shape: 100 64 8 8 (409600)
I1019 01:44:04.193631 16622 net.cpp:137] Memory required for data: 625460400
I1019 01:44:04.193639 16622 layer_factory.hpp:77] Creating layer group2_block1_sum
I1019 01:44:04.193646 16622 net.cpp:84] Creating Layer group2_block1_sum
I1019 01:44:04.193652 16622 net.cpp:406] group2_block1_sum <- group2_block1_conv1
I1019 01:44:04.193657 16622 net.cpp:406] group2_block1_sum <- group2_block0_sum_group2_block0_relu_0_split_1
I1019 01:44:04.193667 16622 net.cpp:380] group2_block1_sum -> group2_block1_sum
I1019 01:44:04.193696 16622 net.cpp:122] Setting up group2_block1_sum
I1019 01:44:04.193704 16622 net.cpp:129] Top shape: 100 64 8 8 (409600)
I1019 01:44:04.193709 16622 net.cpp:137] Memory required for data: 627098800
I1019 01:44:04.193712 16622 layer_factory.hpp:77] Creating layer group2_block1_relu
I1019 01:44:04.193719 16622 net.cpp:84] Creating Layer group2_block1_relu
I1019 01:44:04.193725 16622 net.cpp:406] group2_block1_relu <- group2_block1_sum
I1019 01:44:04.193730 16622 net.cpp:367] group2_block1_relu -> group2_block1_sum (in-place)
I1019 01:44:04.193738 16622 net.cpp:122] Setting up group2_block1_relu
I1019 01:44:04.193745 16622 net.cpp:129] Top shape: 100 64 8 8 (409600)
I1019 01:44:04.193748 16622 net.cpp:137] Memory required for data: 628737200
I1019 01:44:04.193753 16622 layer_factory.hpp:77] Creating layer group2_block1_sum_group2_block1_relu_0_split
I1019 01:44:04.193759 16622 net.cpp:84] Creating Layer group2_block1_sum_group2_block1_relu_0_split
I1019 01:44:04.193764 16622 net.cpp:406] group2_block1_sum_group2_block1_relu_0_split <- group2_block1_sum
I1019 01:44:04.193773 16622 net.cpp:380] group2_block1_sum_group2_block1_relu_0_split -> group2_block1_sum_group2_block1_relu_0_split_0
I1019 01:44:04.193794 16622 net.cpp:380] group2_block1_sum_group2_block1_relu_0_split -> group2_block1_sum_group2_block1_relu_0_split_1
I1019 01:44:04.193842 16622 net.cpp:122] Setting up group2_block1_sum_group2_block1_relu_0_split
I1019 01:44:04.193850 16622 net.cpp:129] Top shape: 100 64 8 8 (409600)
I1019 01:44:04.193856 16622 net.cpp:129] Top shape: 100 64 8 8 (409600)
I1019 01:44:04.193861 16622 net.cpp:137] Memory required for data: 632014000
I1019 01:44:04.193862 16622 layer_factory.hpp:77] Creating layer group2_block2_conv0
I1019 01:44:04.193873 16622 net.cpp:84] Creating Layer group2_block2_conv0
I1019 01:44:04.193878 16622 net.cpp:406] group2_block2_conv0 <- group2_block1_sum_group2_block1_relu_0_split_0
I1019 01:44:04.193888 16622 net.cpp:380] group2_block2_conv0 -> group2_block2_conv0
I1019 01:44:04.194528 16622 net.cpp:122] Setting up group2_block2_conv0
I1019 01:44:04.194537 16622 net.cpp:129] Top shape: 100 64 8 8 (409600)
I1019 01:44:04.194542 16622 net.cpp:137] Memory required for data: 633652400
I1019 01:44:04.194550 16622 layer_factory.hpp:77] Creating layer group2_block2_conv0_bn
I1019 01:44:04.194559 16622 net.cpp:84] Creating Layer group2_block2_conv0_bn
I1019 01:44:04.194566 16622 net.cpp:406] group2_block2_conv0_bn <- group2_block2_conv0
I1019 01:44:04.194574 16622 net.cpp:367] group2_block2_conv0_bn -> group2_block2_conv0 (in-place)
I1019 01:44:04.194769 16622 net.cpp:122] Setting up group2_block2_conv0_bn
I1019 01:44:04.194777 16622 net.cpp:129] Top shape: 100 64 8 8 (409600)
I1019 01:44:04.194780 16622 net.cpp:137] Memory required for data: 635290800
I1019 01:44:04.194790 16622 layer_factory.hpp:77] Creating layer group2_block2_conv0_scale
I1019 01:44:04.194797 16622 net.cpp:84] Creating Layer group2_block2_conv0_scale
I1019 01:44:04.194803 16622 net.cpp:406] group2_block2_conv0_scale <- group2_block2_conv0
I1019 01:44:04.194814 16622 net.cpp:367] group2_block2_conv0_scale -> group2_block2_conv0 (in-place)
I1019 01:44:04.194856 16622 layer_factory.hpp:77] Creating layer group2_block2_conv0_scale
I1019 01:44:04.194975 16622 net.cpp:122] Setting up group2_block2_conv0_scale
I1019 01:44:04.194983 16622 net.cpp:129] Top shape: 100 64 8 8 (409600)
I1019 01:44:04.194986 16622 net.cpp:137] Memory required for data: 636929200
I1019 01:44:04.194993 16622 layer_factory.hpp:77] Creating layer group2_block2_conv0_relu
I1019 01:44:04.194999 16622 net.cpp:84] Creating Layer group2_block2_conv0_relu
I1019 01:44:04.195003 16622 net.cpp:406] group2_block2_conv0_relu <- group2_block2_conv0
I1019 01:44:04.195008 16622 net.cpp:367] group2_block2_conv0_relu -> group2_block2_conv0 (in-place)
I1019 01:44:04.195013 16622 net.cpp:122] Setting up group2_block2_conv0_relu
I1019 01:44:04.195019 16622 net.cpp:129] Top shape: 100 64 8 8 (409600)
I1019 01:44:04.195020 16622 net.cpp:137] Memory required for data: 638567600
I1019 01:44:04.195022 16622 layer_factory.hpp:77] Creating layer group2_block2_conv1
I1019 01:44:04.195034 16622 net.cpp:84] Creating Layer group2_block2_conv1
I1019 01:44:04.195039 16622 net.cpp:406] group2_block2_conv1 <- group2_block2_conv0
I1019 01:44:04.195045 16622 net.cpp:380] group2_block2_conv1 -> group2_block2_conv1
I1019 01:44:04.196725 16622 net.cpp:122] Setting up group2_block2_conv1
I1019 01:44:04.196738 16622 net.cpp:129] Top shape: 100 64 8 8 (409600)
I1019 01:44:04.196741 16622 net.cpp:137] Memory required for data: 640206000
I1019 01:44:04.196746 16622 layer_factory.hpp:77] Creating layer group2_block2_conv1_bn
I1019 01:44:04.196758 16622 net.cpp:84] Creating Layer group2_block2_conv1_bn
I1019 01:44:04.196763 16622 net.cpp:406] group2_block2_conv1_bn <- group2_block2_conv1
I1019 01:44:04.196768 16622 net.cpp:367] group2_block2_conv1_bn -> group2_block2_conv1 (in-place)
I1019 01:44:04.196967 16622 net.cpp:122] Setting up group2_block2_conv1_bn
I1019 01:44:04.196975 16622 net.cpp:129] Top shape: 100 64 8 8 (409600)
I1019 01:44:04.196979 16622 net.cpp:137] Memory required for data: 641844400
I1019 01:44:04.196990 16622 layer_factory.hpp:77] Creating layer group2_block2_conv1_scale
I1019 01:44:04.196998 16622 net.cpp:84] Creating Layer group2_block2_conv1_scale
I1019 01:44:04.197017 16622 net.cpp:406] group2_block2_conv1_scale <- group2_block2_conv1
I1019 01:44:04.197026 16622 net.cpp:367] group2_block2_conv1_scale -> group2_block2_conv1 (in-place)
I1019 01:44:04.197073 16622 layer_factory.hpp:77] Creating layer group2_block2_conv1_scale
I1019 01:44:04.197201 16622 net.cpp:122] Setting up group2_block2_conv1_scale
I1019 01:44:04.197208 16622 net.cpp:129] Top shape: 100 64 8 8 (409600)
I1019 01:44:04.197214 16622 net.cpp:137] Memory required for data: 643482800
I1019 01:44:04.197221 16622 layer_factory.hpp:77] Creating layer group2_block2_sum
I1019 01:44:04.197232 16622 net.cpp:84] Creating Layer group2_block2_sum
I1019 01:44:04.197237 16622 net.cpp:406] group2_block2_sum <- group2_block2_conv1
I1019 01:44:04.197242 16622 net.cpp:406] group2_block2_sum <- group2_block1_sum_group2_block1_relu_0_split_1
I1019 01:44:04.197252 16622 net.cpp:380] group2_block2_sum -> group2_block2_sum
I1019 01:44:04.197279 16622 net.cpp:122] Setting up group2_block2_sum
I1019 01:44:04.197286 16622 net.cpp:129] Top shape: 100 64 8 8 (409600)
I1019 01:44:04.197290 16622 net.cpp:137] Memory required for data: 645121200
I1019 01:44:04.197293 16622 layer_factory.hpp:77] Creating layer group2_block2_relu
I1019 01:44:04.197300 16622 net.cpp:84] Creating Layer group2_block2_relu
I1019 01:44:04.197304 16622 net.cpp:406] group2_block2_relu <- group2_block2_sum
I1019 01:44:04.197309 16622 net.cpp:367] group2_block2_relu -> group2_block2_sum (in-place)
I1019 01:44:04.197314 16622 net.cpp:122] Setting up group2_block2_relu
I1019 01:44:04.197317 16622 net.cpp:129] Top shape: 100 64 8 8 (409600)
I1019 01:44:04.197320 16622 net.cpp:137] Memory required for data: 646759600
I1019 01:44:04.197322 16622 layer_factory.hpp:77] Creating layer group2_block2_sum_group2_block2_relu_0_split
I1019 01:44:04.197326 16622 net.cpp:84] Creating Layer group2_block2_sum_group2_block2_relu_0_split
I1019 01:44:04.197329 16622 net.cpp:406] group2_block2_sum_group2_block2_relu_0_split <- group2_block2_sum
I1019 01:44:04.197333 16622 net.cpp:380] group2_block2_sum_group2_block2_relu_0_split -> group2_block2_sum_group2_block2_relu_0_split_0
I1019 01:44:04.197342 16622 net.cpp:380] group2_block2_sum_group2_block2_relu_0_split -> group2_block2_sum_group2_block2_relu_0_split_1
I1019 01:44:04.197377 16622 net.cpp:122] Setting up group2_block2_sum_group2_block2_relu_0_split
I1019 01:44:04.197383 16622 net.cpp:129] Top shape: 100 64 8 8 (409600)
I1019 01:44:04.197386 16622 net.cpp:129] Top shape: 100 64 8 8 (409600)
I1019 01:44:04.197388 16622 net.cpp:137] Memory required for data: 650036400
I1019 01:44:04.197391 16622 layer_factory.hpp:77] Creating layer group2_block3_conv0
I1019 01:44:04.197401 16622 net.cpp:84] Creating Layer group2_block3_conv0
I1019 01:44:04.197404 16622 net.cpp:406] group2_block3_conv0 <- group2_block2_sum_group2_block2_relu_0_split_0
I1019 01:44:04.197410 16622 net.cpp:380] group2_block3_conv0 -> group2_block3_conv0
I1019 01:44:04.198026 16622 net.cpp:122] Setting up group2_block3_conv0
I1019 01:44:04.198035 16622 net.cpp:129] Top shape: 100 64 8 8 (409600)
I1019 01:44:04.198036 16622 net.cpp:137] Memory required for data: 651674800
I1019 01:44:04.198041 16622 layer_factory.hpp:77] Creating layer group2_block3_conv0_bn
I1019 01:44:04.198050 16622 net.cpp:84] Creating Layer group2_block3_conv0_bn
I1019 01:44:04.198053 16622 net.cpp:406] group2_block3_conv0_bn <- group2_block3_conv0
I1019 01:44:04.198057 16622 net.cpp:367] group2_block3_conv0_bn -> group2_block3_conv0 (in-place)
I1019 01:44:04.198237 16622 net.cpp:122] Setting up group2_block3_conv0_bn
I1019 01:44:04.198245 16622 net.cpp:129] Top shape: 100 64 8 8 (409600)
I1019 01:44:04.198246 16622 net.cpp:137] Memory required for data: 653313200
I1019 01:44:04.198252 16622 layer_factory.hpp:77] Creating layer group2_block3_conv0_scale
I1019 01:44:04.198257 16622 net.cpp:84] Creating Layer group2_block3_conv0_scale
I1019 01:44:04.198261 16622 net.cpp:406] group2_block3_conv0_scale <- group2_block3_conv0
I1019 01:44:04.198276 16622 net.cpp:367] group2_block3_conv0_scale -> group2_block3_conv0 (in-place)
I1019 01:44:04.198319 16622 layer_factory.hpp:77] Creating layer group2_block3_conv0_scale
I1019 01:44:04.198431 16622 net.cpp:122] Setting up group2_block3_conv0_scale
I1019 01:44:04.198438 16622 net.cpp:129] Top shape: 100 64 8 8 (409600)
I1019 01:44:04.198441 16622 net.cpp:137] Memory required for data: 654951600
I1019 01:44:04.198446 16622 layer_factory.hpp:77] Creating layer group2_block3_conv0_relu
I1019 01:44:04.198451 16622 net.cpp:84] Creating Layer group2_block3_conv0_relu
I1019 01:44:04.198454 16622 net.cpp:406] group2_block3_conv0_relu <- group2_block3_conv0
I1019 01:44:04.198458 16622 net.cpp:367] group2_block3_conv0_relu -> group2_block3_conv0 (in-place)
I1019 01:44:04.198463 16622 net.cpp:122] Setting up group2_block3_conv0_relu
I1019 01:44:04.198467 16622 net.cpp:129] Top shape: 100 64 8 8 (409600)
I1019 01:44:04.198469 16622 net.cpp:137] Memory required for data: 656590000
I1019 01:44:04.198472 16622 layer_factory.hpp:77] Creating layer group2_block3_conv1
I1019 01:44:04.198479 16622 net.cpp:84] Creating Layer group2_block3_conv1
I1019 01:44:04.198483 16622 net.cpp:406] group2_block3_conv1 <- group2_block3_conv0
I1019 01:44:04.198488 16622 net.cpp:380] group2_block3_conv1 -> group2_block3_conv1
I1019 01:44:04.199107 16622 net.cpp:122] Setting up group2_block3_conv1
I1019 01:44:04.199115 16622 net.cpp:129] Top shape: 100 64 8 8 (409600)
I1019 01:44:04.199116 16622 net.cpp:137] Memory required for data: 658228400
I1019 01:44:04.199121 16622 layer_factory.hpp:77] Creating layer group2_block3_conv1_bn
I1019 01:44:04.199128 16622 net.cpp:84] Creating Layer group2_block3_conv1_bn
I1019 01:44:04.199131 16622 net.cpp:406] group2_block3_conv1_bn <- group2_block3_conv1
I1019 01:44:04.199136 16622 net.cpp:367] group2_block3_conv1_bn -> group2_block3_conv1 (in-place)
I1019 01:44:04.199318 16622 net.cpp:122] Setting up group2_block3_conv1_bn
I1019 01:44:04.199326 16622 net.cpp:129] Top shape: 100 64 8 8 (409600)
I1019 01:44:04.199327 16622 net.cpp:137] Memory required for data: 659866800
I1019 01:44:04.199333 16622 layer_factory.hpp:77] Creating layer group2_block3_conv1_scale
I1019 01:44:04.199339 16622 net.cpp:84] Creating Layer group2_block3_conv1_scale
I1019 01:44:04.199342 16622 net.cpp:406] group2_block3_conv1_scale <- group2_block3_conv1
I1019 01:44:04.199347 16622 net.cpp:367] group2_block3_conv1_scale -> group2_block3_conv1 (in-place)
I1019 01:44:04.199383 16622 layer_factory.hpp:77] Creating layer group2_block3_conv1_scale
I1019 01:44:04.199499 16622 net.cpp:122] Setting up group2_block3_conv1_scale
I1019 01:44:04.199506 16622 net.cpp:129] Top shape: 100 64 8 8 (409600)
I1019 01:44:04.199507 16622 net.cpp:137] Memory required for data: 661505200
I1019 01:44:04.199512 16622 layer_factory.hpp:77] Creating layer group2_block3_sum
I1019 01:44:04.199519 16622 net.cpp:84] Creating Layer group2_block3_sum
I1019 01:44:04.199522 16622 net.cpp:406] group2_block3_sum <- group2_block3_conv1
I1019 01:44:04.199525 16622 net.cpp:406] group2_block3_sum <- group2_block2_sum_group2_block2_relu_0_split_1
I1019 01:44:04.199532 16622 net.cpp:380] group2_block3_sum -> group2_block3_sum
I1019 01:44:04.199560 16622 net.cpp:122] Setting up group2_block3_sum
I1019 01:44:04.199566 16622 net.cpp:129] Top shape: 100 64 8 8 (409600)
I1019 01:44:04.199569 16622 net.cpp:137] Memory required for data: 663143600
I1019 01:44:04.199571 16622 layer_factory.hpp:77] Creating layer group2_block3_relu
I1019 01:44:04.199575 16622 net.cpp:84] Creating Layer group2_block3_relu
I1019 01:44:04.199579 16622 net.cpp:406] group2_block3_relu <- group2_block3_sum
I1019 01:44:04.199582 16622 net.cpp:367] group2_block3_relu -> group2_block3_sum (in-place)
I1019 01:44:04.199587 16622 net.cpp:122] Setting up group2_block3_relu
I1019 01:44:04.199590 16622 net.cpp:129] Top shape: 100 64 8 8 (409600)
I1019 01:44:04.199592 16622 net.cpp:137] Memory required for data: 664782000
I1019 01:44:04.199595 16622 layer_factory.hpp:77] Creating layer group2_block3_sum_group2_block3_relu_0_split
I1019 01:44:04.199610 16622 net.cpp:84] Creating Layer group2_block3_sum_group2_block3_relu_0_split
I1019 01:44:04.199614 16622 net.cpp:406] group2_block3_sum_group2_block3_relu_0_split <- group2_block3_sum
I1019 01:44:04.199618 16622 net.cpp:380] group2_block3_sum_group2_block3_relu_0_split -> group2_block3_sum_group2_block3_relu_0_split_0
I1019 01:44:04.199625 16622 net.cpp:380] group2_block3_sum_group2_block3_relu_0_split -> group2_block3_sum_group2_block3_relu_0_split_1
I1019 01:44:04.199661 16622 net.cpp:122] Setting up group2_block3_sum_group2_block3_relu_0_split
I1019 01:44:04.199681 16622 net.cpp:129] Top shape: 100 64 8 8 (409600)
I1019 01:44:04.199685 16622 net.cpp:129] Top shape: 100 64 8 8 (409600)
I1019 01:44:04.199687 16622 net.cpp:137] Memory required for data: 668058800
I1019 01:44:04.199690 16622 layer_factory.hpp:77] Creating layer group2_block4_conv0
I1019 01:44:04.199699 16622 net.cpp:84] Creating Layer group2_block4_conv0
I1019 01:44:04.199705 16622 net.cpp:406] group2_block4_conv0 <- group2_block3_sum_group2_block3_relu_0_split_0
I1019 01:44:04.199712 16622 net.cpp:380] group2_block4_conv0 -> group2_block4_conv0
I1019 01:44:04.200328 16622 net.cpp:122] Setting up group2_block4_conv0
I1019 01:44:04.200336 16622 net.cpp:129] Top shape: 100 64 8 8 (409600)
I1019 01:44:04.200338 16622 net.cpp:137] Memory required for data: 669697200
I1019 01:44:04.200343 16622 layer_factory.hpp:77] Creating layer group2_block4_conv0_bn
I1019 01:44:04.200350 16622 net.cpp:84] Creating Layer group2_block4_conv0_bn
I1019 01:44:04.200356 16622 net.cpp:406] group2_block4_conv0_bn <- group2_block4_conv0
I1019 01:44:04.200359 16622 net.cpp:367] group2_block4_conv0_bn -> group2_block4_conv0 (in-place)
I1019 01:44:04.200546 16622 net.cpp:122] Setting up group2_block4_conv0_bn
I1019 01:44:04.200551 16622 net.cpp:129] Top shape: 100 64 8 8 (409600)
I1019 01:44:04.200553 16622 net.cpp:137] Memory required for data: 671335600
I1019 01:44:04.200561 16622 layer_factory.hpp:77] Creating layer group2_block4_conv0_scale
I1019 01:44:04.200565 16622 net.cpp:84] Creating Layer group2_block4_conv0_scale
I1019 01:44:04.200569 16622 net.cpp:406] group2_block4_conv0_scale <- group2_block4_conv0
I1019 01:44:04.200573 16622 net.cpp:367] group2_block4_conv0_scale -> group2_block4_conv0 (in-place)
I1019 01:44:04.200613 16622 layer_factory.hpp:77] Creating layer group2_block4_conv0_scale
I1019 01:44:04.200723 16622 net.cpp:122] Setting up group2_block4_conv0_scale
I1019 01:44:04.200731 16622 net.cpp:129] Top shape: 100 64 8 8 (409600)
I1019 01:44:04.200733 16622 net.cpp:137] Memory required for data: 672974000
I1019 01:44:04.200737 16622 layer_factory.hpp:77] Creating layer group2_block4_conv0_relu
I1019 01:44:04.200742 16622 net.cpp:84] Creating Layer group2_block4_conv0_relu
I1019 01:44:04.200745 16622 net.cpp:406] group2_block4_conv0_relu <- group2_block4_conv0
I1019 01:44:04.200752 16622 net.cpp:367] group2_block4_conv0_relu -> group2_block4_conv0 (in-place)
I1019 01:44:04.200758 16622 net.cpp:122] Setting up group2_block4_conv0_relu
I1019 01:44:04.200762 16622 net.cpp:129] Top shape: 100 64 8 8 (409600)
I1019 01:44:04.200764 16622 net.cpp:137] Memory required for data: 674612400
I1019 01:44:04.200767 16622 layer_factory.hpp:77] Creating layer group2_block4_conv1
I1019 01:44:04.200775 16622 net.cpp:84] Creating Layer group2_block4_conv1
I1019 01:44:04.200779 16622 net.cpp:406] group2_block4_conv1 <- group2_block4_conv0
I1019 01:44:04.200786 16622 net.cpp:380] group2_block4_conv1 -> group2_block4_conv1
I1019 01:44:04.201408 16622 net.cpp:122] Setting up group2_block4_conv1
I1019 01:44:04.201416 16622 net.cpp:129] Top shape: 100 64 8 8 (409600)
I1019 01:44:04.201417 16622 net.cpp:137] Memory required for data: 676250800
I1019 01:44:04.201429 16622 layer_factory.hpp:77] Creating layer group2_block4_conv1_bn
I1019 01:44:04.201436 16622 net.cpp:84] Creating Layer group2_block4_conv1_bn
I1019 01:44:04.201439 16622 net.cpp:406] group2_block4_conv1_bn <- group2_block4_conv1
I1019 01:44:04.201444 16622 net.cpp:367] group2_block4_conv1_bn -> group2_block4_conv1 (in-place)
I1019 01:44:04.201642 16622 net.cpp:122] Setting up group2_block4_conv1_bn
I1019 01:44:04.201648 16622 net.cpp:129] Top shape: 100 64 8 8 (409600)
I1019 01:44:04.201650 16622 net.cpp:137] Memory required for data: 677889200
I1019 01:44:04.201658 16622 layer_factory.hpp:77] Creating layer group2_block4_conv1_scale
I1019 01:44:04.201664 16622 net.cpp:84] Creating Layer group2_block4_conv1_scale
I1019 01:44:04.201668 16622 net.cpp:406] group2_block4_conv1_scale <- group2_block4_conv1
I1019 01:44:04.201673 16622 net.cpp:367] group2_block4_conv1_scale -> group2_block4_conv1 (in-place)
I1019 01:44:04.201711 16622 layer_factory.hpp:77] Creating layer group2_block4_conv1_scale
I1019 01:44:04.201822 16622 net.cpp:122] Setting up group2_block4_conv1_scale
I1019 01:44:04.201828 16622 net.cpp:129] Top shape: 100 64 8 8 (409600)
I1019 01:44:04.201830 16622 net.cpp:137] Memory required for data: 679527600
I1019 01:44:04.201834 16622 layer_factory.hpp:77] Creating layer group2_block4_sum
I1019 01:44:04.201841 16622 net.cpp:84] Creating Layer group2_block4_sum
I1019 01:44:04.201844 16622 net.cpp:406] group2_block4_sum <- group2_block4_conv1
I1019 01:44:04.201848 16622 net.cpp:406] group2_block4_sum <- group2_block3_sum_group2_block3_relu_0_split_1
I1019 01:44:04.201853 16622 net.cpp:380] group2_block4_sum -> group2_block4_sum
I1019 01:44:04.201876 16622 net.cpp:122] Setting up group2_block4_sum
I1019 01:44:04.201882 16622 net.cpp:129] Top shape: 100 64 8 8 (409600)
I1019 01:44:04.201884 16622 net.cpp:137] Memory required for data: 681166000
I1019 01:44:04.201886 16622 layer_factory.hpp:77] Creating layer group2_block4_relu
I1019 01:44:04.201890 16622 net.cpp:84] Creating Layer group2_block4_relu
I1019 01:44:04.201894 16622 net.cpp:406] group2_block4_relu <- group2_block4_sum
I1019 01:44:04.201897 16622 net.cpp:367] group2_block4_relu -> group2_block4_sum (in-place)
I1019 01:44:04.201902 16622 net.cpp:122] Setting up group2_block4_relu
I1019 01:44:04.201905 16622 net.cpp:129] Top shape: 100 64 8 8 (409600)
I1019 01:44:04.201907 16622 net.cpp:137] Memory required for data: 682804400
I1019 01:44:04.201910 16622 layer_factory.hpp:77] Creating layer global_avg_pool
I1019 01:44:04.201915 16622 net.cpp:84] Creating Layer global_avg_pool
I1019 01:44:04.201917 16622 net.cpp:406] global_avg_pool <- group2_block4_sum
I1019 01:44:04.201921 16622 net.cpp:380] global_avg_pool -> global_avg_pool
I1019 01:44:04.201948 16622 net.cpp:122] Setting up global_avg_pool
I1019 01:44:04.201956 16622 net.cpp:129] Top shape: 100 64 1 1 (6400)
I1019 01:44:04.201958 16622 net.cpp:137] Memory required for data: 682830000
I1019 01:44:04.201962 16622 layer_factory.hpp:77] Creating layer fc
I1019 01:44:04.201970 16622 net.cpp:84] Creating Layer fc
I1019 01:44:04.201974 16622 net.cpp:406] fc <- global_avg_pool
I1019 01:44:04.201978 16622 net.cpp:380] fc -> fc
I1019 01:44:04.202090 16622 net.cpp:122] Setting up fc
I1019 01:44:04.202097 16622 net.cpp:129] Top shape: 100 10 (1000)
I1019 01:44:04.202100 16622 net.cpp:137] Memory required for data: 682834000
I1019 01:44:04.202105 16622 layer_factory.hpp:77] Creating layer fc_fc_0_split
I1019 01:44:04.202109 16622 net.cpp:84] Creating Layer fc_fc_0_split
I1019 01:44:04.202111 16622 net.cpp:406] fc_fc_0_split <- fc
I1019 01:44:04.202118 16622 net.cpp:380] fc_fc_0_split -> fc_fc_0_split_0
I1019 01:44:04.202127 16622 net.cpp:380] fc_fc_0_split -> fc_fc_0_split_1
I1019 01:44:04.202165 16622 net.cpp:122] Setting up fc_fc_0_split
I1019 01:44:04.202172 16622 net.cpp:129] Top shape: 100 10 (1000)
I1019 01:44:04.202174 16622 net.cpp:129] Top shape: 100 10 (1000)
I1019 01:44:04.202177 16622 net.cpp:137] Memory required for data: 682842000
I1019 01:44:04.202178 16622 layer_factory.hpp:77] Creating layer loss
I1019 01:44:04.202186 16622 net.cpp:84] Creating Layer loss
I1019 01:44:04.202189 16622 net.cpp:406] loss <- fc_fc_0_split_0
I1019 01:44:04.202194 16622 net.cpp:406] loss <- label_data_1_split_0
I1019 01:44:04.202198 16622 net.cpp:380] loss -> loss
I1019 01:44:04.202204 16622 layer_factory.hpp:77] Creating layer loss
I1019 01:44:04.202304 16622 net.cpp:122] Setting up loss
I1019 01:44:04.202311 16622 net.cpp:129] Top shape: (1)
I1019 01:44:04.202313 16622 net.cpp:132]     with loss weight 1
I1019 01:44:04.202322 16622 net.cpp:137] Memory required for data: 682842004
I1019 01:44:04.202325 16622 layer_factory.hpp:77] Creating layer softmax
I1019 01:44:04.202330 16622 net.cpp:84] Creating Layer softmax
I1019 01:44:04.202337 16622 net.cpp:406] softmax <- fc_fc_0_split_1
I1019 01:44:04.202345 16622 net.cpp:380] softmax -> softmax
I1019 01:44:04.202409 16622 net.cpp:122] Setting up softmax
I1019 01:44:04.202416 16622 net.cpp:129] Top shape: 100 10 (1000)
I1019 01:44:04.202419 16622 net.cpp:137] Memory required for data: 682846004
I1019 01:44:04.202424 16622 layer_factory.hpp:77] Creating layer Accuracy
I1019 01:44:04.202430 16622 net.cpp:84] Creating Layer Accuracy
I1019 01:44:04.202436 16622 net.cpp:406] Accuracy <- softmax
I1019 01:44:04.202442 16622 net.cpp:406] Accuracy <- label_data_1_split_1
I1019 01:44:04.202450 16622 net.cpp:380] Accuracy -> Accuracy
…
