…
I1023 12:27:51.252267 16540 net.cpp:296] The NetState phase (0) differed from the phase (1) specified by a rule in layer data
I1023 12:27:51.253782 16540 net.cpp:53] Initializing net from parameters: 
name: "resnet9-cifar10"
state {
  phase: TRAIN
  level: 0
  stage: ""
}
layer {
  name: "data"
  type: "Data"
  top: "data"
  top: "label"
  include {
    phase: TRAIN
  }
  transform_param {
    mirror: true
    crop_size: 32
    mean_value: 128
  }
  data_param {
    source: "cifar-10-batches-py/train"
    batch_size: 128
    backend: LMDB
  }
}
layer {
  name: "first_conv"
  type: "Convolution"
  bottom: "data"
  top: "first_conv"
  param {
    lr_mult: 1
    decay_mult: 1
  }
  param {
    lr_mult: 2
    decay_mult: 0
  }
  convolution_param {
    num_output: 16
    pad: 1
    kernel_size: 3
    stride: 1
    weight_filler {
      type: "msra"
    }
    bias_filler {
      type: "constant"
      value: 0
    }
  }
}
layer {
  name: "first_conv_bn"
  type: "BatchNorm"
  bottom: "first_conv"
  top: "first_conv"
  param {
    lr_mult: 0
    decay_mult: 0
  }
  param {
    lr_mult: 0
    decay_mult: 0
  }
  param {
    lr_mult: 0
    decay_mult: 0
  }
  batch_norm_param {
    moving_average_fraction: 0.9
  }
}
layer {
  name: "first_conv_scale"
  type: "Scale"
  bottom: "first_conv"
  top: "first_conv"
  param {
    lr_mult: 1
    decay_mult: 1
  }
  param {
    lr_mult: 2
    decay_mult: 0
  }
  scale_param {
    bias_term: true
  }
}
layer {
  name: "first_conv_relu"
  type: "ReLU"
  bottom: "first_conv"
  top: "first_conv"
}
layer {
  name: "group0_block0_conv0"
  type: "Convolution"
  bottom: "first_conv"
  top: "group0_block0_conv0"
  param {
    lr_mult: 1
    decay_mult: 1
  }
  convolution_param {
    num_output: 16
    bias_term: false
    pad: 1
    kernel_size: 3
    stride: 1
    weight_filler {
      type: "msra"
    }
  }
}
layer {
  name: "group0_block0_conv0_bn"
  type: "BatchNorm"
  bottom: "group0_block0_conv0"
  top: "group0_block0_conv0"
  param {
    lr_mult: 0
    decay_mult: 0
  }
  param {
    lr_mult: 0
    decay_mult: 0
  }
  param {
    lr_mult: 0
    decay_mult: 0
  }
  batch_norm_param {
    moving_average_fraction: 0.9
  }
}
layer {
  name: "group0_block0_conv0_scale"
  type: "Scale"
  bottom: "group0_block0_conv0"
  top: "group0_block0_conv0"
  param {
    lr_mult: 1
    decay_mult: 1
  }
  param {
    lr_mult: 2
    decay_mult: 0
  }
  scale_param {
    bias_term: true
  }
}
layer {
  name: "group0_block0_conv0_relu"
  type: "ReLU"
  bottom: "group0_block0_conv0"
  top: "group0_block0_conv0"
}
layer {
  name: "group0_block0_conv1"
  type: "Convolution"
  bottom: "group0_block0_conv0"
  top: "group0_block0_conv1"
  param {
    lr_mult: 1
    decay_mult: 1
  }
  convolution_param {
    num_output: 16
    bias_term: false
    pad: 1
    kernel_size: 3
    stride: 1
    weight_filler {
      type: "msra"
    }
  }
}
layer {
  name: "group0_block0_conv1_bn"
  type: "BatchNorm"
  bottom: "group0_block0_conv1"
  top: "group0_block0_conv1"
  param {
    lr_mult: 0
    decay_mult: 0
  }
  param {
    lr_mult: 0
    decay_mult: 0
  }
  param {
    lr_mult: 0
    decay_mult: 0
  }
  batch_norm_param {
    moving_average_fraction: 0.9
  }
}
layer {
  name: "group0_block0_conv1_scale"
  type: "Scale"
  bottom: "group0_block0_conv1"
  top: "group0_block0_conv1"
  param {
    lr_mult: 1
    decay_mult: 1
  }
  param {
    lr_mult: 2
    decay_mult: 0
  }
  scale_param {
    bias_term: true
  }
}
layer {
  name: "group0_block0_sum"
  type: "Eltwise"
  bottom: "group0_block0_conv1"
  bottom: "first_conv"
  top: "group0_block0_sum"
  eltwise_param {
    operation: SUM
  }
}
layer {
  name: "group0_block0_relu"
  type: "ReLU"
  bottom: "group0_block0_sum"
  top: "group0_block0_sum"
}
layer {
  name: "group0_block1_conv0"
  type: "Convolution"
  bottom: "group0_block0_sum"
  top: "group0_block1_conv0"
  param {
    lr_mult: 1
    decay_mult: 1
  }
  convolution_param {
    num_output: 16
    bias_term: false
    pad: 1
    kernel_size: 3
    stride: 1
    weight_filler {
      type: "msra"
    }
  }
}
layer {
  name: "group0_block1_conv0_bn"
  type: "BatchNorm"
  bottom: "group0_block1_conv0"
  top: "group0_block1_conv0"
  param {
    lr_mult: 0
    decay_mult: 0
  }
  param {
    lr_mult: 0
    decay_mult: 0
  }
  param {
    lr_mult: 0
    decay_mult: 0
  }
  batch_norm_param {
    moving_average_fraction: 0.9
  }
}
layer {
  name: "group0_block1_conv0_scale"
  type: "Scale"
  bottom: "group0_block1_conv0"
  top: "group0_block1_conv0"
  param {
    lr_mult: 1
    decay_mult: 1
  }
  param {
    lr_mult: 2
    decay_mult: 0
  }
  scale_param {
    bias_term: true
  }
}
layer {
  name: "group0_block1_conv0_relu"
  type: "ReLU"
  bottom: "group0_block1_conv0"
  top: "group0_block1_conv0"
}
layer {
  name: "group0_block1_conv1"
  type: "Convolution"
  bottom: "group0_block1_conv0"
  top: "group0_block1_conv1"
  param {
    lr_mult: 1
    decay_mult: 1
  }
  convolution_param {
    num_output: 16
    bias_term: false
    pad: 1
    kernel_size: 3
    stride: 1
    weight_filler {
      type: "msra"
    }
  }
}
layer {
  name: "group0_block1_conv1_bn"
  type: "BatchNorm"
  bottom: "group0_block1_conv1"
  top: "group0_block1_conv1"
  param {
    lr_mult: 0
    decay_mult: 0
  }
  param {
    lr_mult: 0
    decay_mult: 0
  }
  param {
    lr_mult: 0
    decay_mult: 0
  }
  batch_norm_param {
    moving_average_fraction: 0.9
  }
}
layer {
  name: "group0_block1_conv1_scale"
  type: "Scale"
  bottom: "group0_block1_conv1"
  top: "group0_block1_conv1"
  param {
    lr_mult: 1
    decay_mult: 1
  }
  param {
    lr_mult: 2
    decay_mult: 0
  }
  scale_param {
    bias_term: true
  }
}
layer {
  name: "group0_block1_sum"
  type: "Eltwise"
  bottom: "group0_block1_conv1"
  bottom: "group0_block0_sum"
  top: "group0_block1_sum"
  eltwise_param {
    operation: SUM
  }
}
layer {
  name: "group0_block1_relu"
  type: "ReLU"
  bottom: "group0_block1_sum"
  top: "group0_block1_sum"
}
layer {
  name: "group0_block2_conv0"
  type: "Convolution"
  bottom: "group0_block1_sum"
  top: "group0_block2_conv0"
  param {
    lr_mult: 1
    decay_mult: 1
  }
  convolution_param {
    num_output: 16
    bias_term: false
    pad: 1
    kernel_size: 3
    stride: 1
    weight_filler {
      type: "msra"
    }
  }
}
layer {
  name: "group0_block2_conv0_bn"
  type: "BatchNorm"
  bottom: "group0_block2_conv0"
  top: "group0_block2_conv0"
  param {
    lr_mult: 0
    decay_mult: 0
  }
  param {
    lr_mult: 0
    decay_mult: 0
  }
  param {
    lr_mult: 0
    decay_mult: 0
  }
  batch_norm_param {
    moving_average_fraction: 0.9
  }
}
layer {
  name: "group0_block2_conv0_scale"
  type: "Scale"
  bottom: "group0_block2_conv0"
  top: "group0_block2_conv0"
  param {
    lr_mult: 1
    decay_mult: 1
  }
  param {
    lr_mult: 2
    decay_mult: 0
  }
  scale_param {
    bias_term: true
  }
}
layer {
  name: "group0_block2_conv0_relu"
  type: "ReLU"
  bottom: "group0_block2_conv0"
  top: "group0_block2_conv0"
}
layer {
  name: "group0_block2_conv1"
  type: "Convolution"
  bottom: "group0_block2_conv0"
  top: "group0_block2_conv1"
  param {
    lr_mult: 1
    decay_mult: 1
  }
  convolution_param {
    num_output: 16
    bias_term: false
    pad: 1
    kernel_size: 3
    stride: 1
    weight_filler {
      type: "msra"
    }
  }
}
layer {
  name: "group0_block2_conv1_bn"
  type: "BatchNorm"
  bottom: "group0_block2_conv1"
  top: "group0_block2_conv1"
  param {
    lr_mult: 0
    decay_mult: 0
  }
  param {
    lr_mult: 0
    decay_mult: 0
  }
  param {
    lr_mult: 0
    decay_mult: 0
  }
  batch_norm_param {
    moving_average_fraction: 0.9
  }
}
layer {
  name: "group0_block2_conv1_scale"
  type: "Scale"
  bottom: "group0_block2_conv1"
  top: "group0_block2_conv1"
  param {
    lr_mult: 1
    decay_mult: 1
  }
  param {
    lr_mult: 2
    decay_mult: 0
  }
  scale_param {
    bias_term: true
  }
}
layer {
  name: "group0_block2_sum"
  type: "Eltwise"
  bottom: "group0_block2_conv1"
  bottom: "group0_block1_sum"
  top: "group0_block2_sum"
  eltwise_param {
    operation: SUM
  }
}
layer {
  name: "group0_block2_relu"
  type: "ReLU"
  bottom: "group0_block2_sum"
  top: "group0_block2_sum"
}
layer {
  name: "group0_block3_conv0"
  type: "Convolution"
  bottom: "group0_block2_sum"
  top: "group0_block3_conv0"
  param {
    lr_mult: 1
    decay_mult: 1
  }
  convolution_param {
    num_output: 16
    bias_term: false
    pad: 1
    kernel_size: 3
    stride: 1
    weight_filler {
      type: "msra"
    }
  }
}
layer {
  name: "group0_block3_conv0_bn"
  type: "BatchNorm"
  bottom: "group0_block3_conv0"
  top: "group0_block3_conv0"
  param {
    lr_mult: 0
    decay_mult: 0
  }
  param {
    lr_mult: 0
    decay_mult: 0
  }
  param {
    lr_mult: 0
    decay_mult: 0
  }
  batch_norm_param {
    moving_average_fraction: 0.9
  }
}
layer {
  name: "group0_block3_conv0_scale"
  type: "Scale"
  bottom: "group0_block3_conv0"
  top: "group0_block3_conv0"
  param {
    lr_mult: 1
    decay_mult: 1
  }
  param {
    lr_mult: 2
    decay_mult: 0
  }
  scale_param {
    bias_term: true
  }
}
layer {
  name: "group0_block3_conv0_relu"
  type: "ReLU"
  bottom: "group0_block3_conv0"
  top: "group0_block3_conv0"
}
layer {
  name: "group0_block3_conv1"
  type: "Convolution"
  bottom: "group0_block3_conv0"
  top: "group0_block3_conv1"
  param {
    lr_mult: 1
    decay_mult: 1
  }
  convolution_param {
    num_output: 16
    bias_term: false
    pad: 1
    kernel_size: 3
    stride: 1
    weight_filler {
      type: "msra"
    }
  }
}
layer {
  name: "group0_block3_conv1_bn"
  type: "BatchNorm"
  bottom: "group0_block3_conv1"
  top: "group0_block3_conv1"
  param {
    lr_mult: 0
    decay_mult: 0
  }
  param {
    lr_mult: 0
    decay_mult: 0
  }
  param {
    lr_mult: 0
    decay_mult: 0
  }
  batch_norm_param {
    moving_average_fraction: 0.9
  }
}
layer {
  name: "group0_block3_conv1_scale"
  type: "Scale"
  bottom: "group0_block3_conv1"
  top: "group0_block3_conv1"
  param {
    lr_mult: 1
    decay_mult: 1
  }
  param {
    lr_mult: 2
    decay_mult: 0
  }
  scale_param {
    bias_term: true
  }
}
layer {
  name: "group0_block3_sum"
  type: "Eltwise"
  bottom: "group0_block3_conv1"
  bottom: "group0_block2_sum"
  top: "group0_block3_sum"
  eltwise_param {
    operation: SUM
  }
}
layer {
  name: "group0_block3_relu"
  type: "ReLU"
  bottom: "group0_block3_sum"
  top: "group0_block3_sum"
}
layer {
  name: "group0_block4_conv0"
  type: "Convolution"
  bottom: "group0_block3_sum"
  top: "group0_block4_conv0"
  param {
    lr_mult: 1
    decay_mult: 1
  }
  convolution_param {
    num_output: 16
    bias_term: false
    pad: 1
    kernel_size: 3
    stride: 1
    weight_filler {
      type: "msra"
    }
  }
}
layer {
  name: "group0_block4_conv0_bn"
  type: "BatchNorm"
  bottom: "group0_block4_conv0"
  top: "group0_block4_conv0"
  param {
    lr_mult: 0
    decay_mult: 0
  }
  param {
    lr_mult: 0
    decay_mult: 0
  }
  param {
    lr_mult: 0
    decay_mult: 0
  }
  batch_norm_param {
    moving_average_fraction: 0.9
  }
}
layer {
  name: "group0_block4_conv0_scale"
  type: "Scale"
  bottom: "group0_block4_conv0"
  top: "group0_block4_conv0"
  param {
    lr_mult: 1
    decay_mult: 1
  }
  param {
    lr_mult: 2
    decay_mult: 0
  }
  scale_param {
    bias_term: true
  }
}
layer {
  name: "group0_block4_conv0_relu"
  type: "ReLU"
  bottom: "group0_block4_conv0"
  top: "group0_block4_conv0"
}
layer {
  name: "group0_block4_conv1"
  type: "Convolution"
  bottom: "group0_block4_conv0"
  top: "group0_block4_conv1"
  param {
    lr_mult: 1
    decay_mult: 1
  }
  convolution_param {
    num_output: 16
    bias_term: false
    pad: 1
    kernel_size: 3
    stride: 1
    weight_filler {
      type: "msra"
    }
  }
}
layer {
  name: "group0_block4_conv1_bn"
  type: "BatchNorm"
  bottom: "group0_block4_conv1"
  top: "group0_block4_conv1"
  param {
    lr_mult: 0
    decay_mult: 0
  }
  param {
    lr_mult: 0
    decay_mult: 0
  }
  param {
    lr_mult: 0
    decay_mult: 0
  }
  batch_norm_param {
    moving_average_fraction: 0.9
  }
}
layer {
  name: "group0_block4_conv1_scale"
  type: "Scale"
  bottom: "group0_block4_conv1"
  top: "group0_block4_conv1"
  param {
    lr_mult: 1
    decay_mult: 1
  }
  param {
    lr_mult: 2
    decay_mult: 0
  }
  scale_param {
    bias_term: true
  }
}
layer {
  name: "group0_block4_sum"
  type: "Eltwise"
  bottom: "group0_block4_conv1"
  bottom: "group0_block3_sum"
  top: "group0_block4_sum"
  eltwise_param {
    operation: SUM
  }
}
layer {
  name: "group0_block4_relu"
  type: "ReLU"
  bottom: "group0_block4_sum"
  top: "group0_block4_sum"
}
layer {
  name: "group0_block5_conv0"
  type: "Convolution"
  bottom: "group0_block4_sum"
  top: "group0_block5_conv0"
  param {
    lr_mult: 1
    decay_mult: 1
  }
  convolution_param {
    num_output: 16
    bias_term: false
    pad: 1
    kernel_size: 3
    stride: 1
    weight_filler {
      type: "msra"
    }
  }
}
layer {
  name: "group0_block5_conv0_bn"
  type: "BatchNorm"
  bottom: "group0_block5_conv0"
  top: "group0_block5_conv0"
  param {
    lr_mult: 0
    decay_mult: 0
  }
  param {
    lr_mult: 0
    decay_mult: 0
  }
  param {
    lr_mult: 0
    decay_mult: 0
  }
  batch_norm_param {
    moving_average_fraction: 0.9
  }
}
layer {
  name: "group0_block5_conv0_scale"
  type: "Scale"
  bottom: "group0_block5_conv0"
  top: "group0_block5_conv0"
  param {
    lr_mult: 1
    decay_mult: 1
  }
  param {
    lr_mult: 2
    decay_mult: 0
  }
  scale_param {
    bias_term: true
  }
}
layer {
  name: "group0_block5_conv0_relu"
  type: "ReLU"
  bottom: "group0_block5_conv0"
  top: "group0_block5_conv0"
}
layer {
  name: "group0_block5_conv1"
  type: "Convolution"
  bottom: "group0_block5_conv0"
  top: "group0_block5_conv1"
  param {
    lr_mult: 1
    decay_mult: 1
  }
  convolution_param {
    num_output: 16
    bias_term: false
    pad: 1
    kernel_size: 3
    stride: 1
    weight_filler {
      type: "msra"
    }
  }
}
layer {
  name: "group0_block5_conv1_bn"
  type: "BatchNorm"
  bottom: "group0_block5_conv1"
  top: "group0_block5_conv1"
  param {
    lr_mult: 0
    decay_mult: 0
  }
  param {
    lr_mult: 0
    decay_mult: 0
  }
  param {
    lr_mult: 0
    decay_mult: 0
  }
  batch_norm_param {
    moving_average_fraction: 0.9
  }
}
layer {
  name: "group0_block5_conv1_scale"
  type: "Scale"
  bottom: "group0_block5_conv1"
  top: "group0_block5_conv1"
  param {
    lr_mult: 1
    decay_mult: 1
  }
  param {
    lr_mult: 2
    decay_mult: 0
  }
  scale_param {
    bias_term: true
  }
}
layer {
  name: "group0_block5_sum"
  type: "Eltwise"
  bottom: "group0_block5_conv1"
  bottom: "group0_block4_sum"
  top: "group0_block5_sum"
  eltwise_param {
    operation: SUM
  }
}
layer {
  name: "group0_block5_relu"
  type: "ReLU"
  bottom: "group0_block5_sum"
  top: "group0_block5_sum"
}
layer {
  name: "group0_block6_conv0"
  type: "Convolution"
  bottom: "group0_block5_sum"
  top: "group0_block6_conv0"
  param {
    lr_mult: 1
    decay_mult: 1
  }
  convolution_param {
    num_output: 16
    bias_term: false
    pad: 1
    kernel_size: 3
    stride: 1
    weight_filler {
      type: "msra"
    }
  }
}
layer {
  name: "group0_block6_conv0_bn"
  type: "BatchNorm"
  bottom: "group0_block6_conv0"
  top: "group0_block6_conv0"
  param {
    lr_mult: 0
    decay_mult: 0
  }
  param {
    lr_mult: 0
    decay_mult: 0
  }
  param {
    lr_mult: 0
    decay_mult: 0
  }
  batch_norm_param {
    moving_average_fraction: 0.9
  }
}
layer {
  name: "group0_block6_conv0_scale"
  type: "Scale"
  bottom: "group0_block6_conv0"
  top: "group0_block6_conv0"
  param {
    lr_mult: 1
    decay_mult: 1
  }
  param {
    lr_mult: 2
    decay_mult: 0
  }
  scale_param {
    bias_term: true
  }
}
layer {
  name: "group0_block6_conv0_relu"
  type: "ReLU"
  bottom: "group0_block6_conv0"
  top: "group0_block6_conv0"
}
layer {
  name: "group0_block6_conv1"
  type: "Convolution"
  bottom: "group0_block6_conv0"
  top: "group0_block6_conv1"
  param {
    lr_mult: 1
    decay_mult: 1
  }
  convolution_param {
    num_output: 16
    bias_term: false
    pad: 1
    kernel_size: 3
    stride: 1
    weight_filler {
      type: "msra"
    }
  }
}
layer {
  name: "group0_block6_conv1_bn"
  type: "BatchNorm"
  bottom: "group0_block6_conv1"
  top: "group0_block6_conv1"
  param {
    lr_mult: 0
    decay_mult: 0
  }
  param {
    lr_mult: 0
    decay_mult: 0
  }
  param {
    lr_mult: 0
    decay_mult: 0
  }
  batch_norm_param {
    moving_average_fraction: 0.9
  }
}
layer {
  name: "group0_block6_conv1_scale"
  type: "Scale"
  bottom: "group0_block6_conv1"
  top: "group0_block6_conv1"
  param {
    lr_mult: 1
    decay_mult: 1
  }
  param {
    lr_mult: 2
    decay_mult: 0
  }
  scale_param {
    bias_term: true
  }
}
layer {
  name: "group0_block6_sum"
  type: "Eltwise"
  bottom: "group0_block6_conv1"
  bottom: "group0_block5_sum"
  top: "group0_block6_sum"
  eltwise_param {
    operation: SUM
  }
}
layer {
  name: "group0_block6_relu"
  type: "ReLU"
  bottom: "group0_block6_sum"
  top: "group0_block6_sum"
}
layer {
  name: "group0_block7_conv0"
  type: "Convolution"
  bottom: "group0_block6_sum"
  top: "group0_block7_conv0"
  param {
    lr_mult: 1
    decay_mult: 1
  }
  convolution_param {
    num_output: 16
    bias_term: false
    pad: 1
    kernel_size: 3
    stride: 1
    weight_filler {
      type: "msra"
    }
  }
}
layer {
  name: "group0_block7_conv0_bn"
  type: "BatchNorm"
  bottom: "group0_block7_conv0"
  top: "group0_block7_conv0"
  param {
    lr_mult: 0
    decay_mult: 0
  }
  param {
    lr_mult: 0
    decay_mult: 0
  }
  param {
    lr_mult: 0
    decay_mult: 0
  }
  batch_norm_param {
    moving_average_fraction: 0.9
  }
}
layer {
  name: "group0_block7_conv0_scale"
  type: "Scale"
  bottom: "group0_block7_conv0"
  top: "group0_block7_conv0"
  param {
    lr_mult: 1
    decay_mult: 1
  }
  param {
    lr_mult: 2
    decay_mult: 0
  }
  scale_param {
    bias_term: true
  }
}
layer {
  name: "group0_block7_conv0_relu"
  type: "ReLU"
  bottom: "group0_block7_conv0"
  top: "group0_block7_conv0"
}
layer {
  name: "group0_block7_conv1"
  type: "Convolution"
  bottom: "group0_block7_conv0"
  top: "group0_block7_conv1"
  param {
    lr_mult: 1
    decay_mult: 1
  }
  convolution_param {
    num_output: 16
    bias_term: false
    pad: 1
    kernel_size: 3
    stride: 1
    weight_filler {
      type: "msra"
    }
  }
}
layer {
  name: "group0_block7_conv1_bn"
  type: "BatchNorm"
  bottom: "group0_block7_conv1"
  top: "group0_block7_conv1"
  param {
    lr_mult: 0
    decay_mult: 0
  }
  param {
    lr_mult: 0
    decay_mult: 0
  }
  param {
    lr_mult: 0
    decay_mult: 0
  }
  batch_norm_param {
    moving_average_fraction: 0.9
  }
}
layer {
  name: "group0_block7_conv1_scale"
  type: "Scale"
  bottom: "group0_block7_conv1"
  top: "group0_block7_conv1"
  param {
    lr_mult: 1
    decay_mult: 1
  }
  param {
    lr_mult: 2
    decay_mult: 0
  }
  scale_param {
    bias_term: true
  }
}
layer {
  name: "group0_block7_sum"
  type: "Eltwise"
  bottom: "group0_block7_conv1"
  bottom: "group0_block6_sum"
  top: "group0_block7_sum"
  eltwise_param {
    operation: SUM
  }
}
layer {
  name: "group0_block7_relu"
  type: "ReLU"
  bottom: "group0_block7_sum"
  top: "group0_block7_sum"
}
layer {
  name: "group0_block8_conv0"
  type: "Convolution"
  bottom: "group0_block7_sum"
  top: "group0_block8_conv0"
  param {
    lr_mult: 1
    decay_mult: 1
  }
  convolution_param {
    num_output: 16
    bias_term: false
    pad: 1
    kernel_size: 3
    stride: 1
    weight_filler {
      type: "msra"
    }
  }
}
layer {
  name: "group0_block8_conv0_bn"
  type: "BatchNorm"
  bottom: "group0_block8_conv0"
  top: "group0_block8_conv0"
  param {
    lr_mult: 0
    decay_mult: 0
  }
  param {
    lr_mult: 0
    decay_mult: 0
  }
  param {
    lr_mult: 0
    decay_mult: 0
  }
  batch_norm_param {
    moving_average_fraction: 0.9
  }
}
layer {
  name: "group0_block8_conv0_scale"
  type: "Scale"
  bottom: "group0_block8_conv0"
  top: "group0_block8_conv0"
  param {
    lr_mult: 1
    decay_mult: 1
  }
  param {
    lr_mult: 2
    decay_mult: 0
  }
  scale_param {
    bias_term: true
  }
}
layer {
  name: "group0_block8_conv0_relu"
  type: "ReLU"
  bottom: "group0_block8_conv0"
  top: "group0_block8_conv0"
}
layer {
  name: "group0_block8_conv1"
  type: "Convolution"
  bottom: "group0_block8_conv0"
  top: "group0_block8_conv1"
  param {
    lr_mult: 1
    decay_mult: 1
  }
  convolution_param {
    num_output: 16
    bias_term: false
    pad: 1
    kernel_size: 3
    stride: 1
    weight_filler {
      type: "msra"
    }
  }
}
layer {
  name: "group0_block8_conv1_bn"
  type: "BatchNorm"
  bottom: "group0_block8_conv1"
  top: "group0_block8_conv1"
  param {
    lr_mult: 0
    decay_mult: 0
  }
  param {
    lr_mult: 0
    decay_mult: 0
  }
  param {
    lr_mult: 0
    decay_mult: 0
  }
  batch_norm_param {
    moving_average_fraction: 0.9
  }
}
layer {
  name: "group0_block8_conv1_scale"
  type: "Scale"
  bottom: "group0_block8_conv1"
  top: "group0_block8_conv1"
  param {
    lr_mult: 1
    decay_mult: 1
  }
  param {
    lr_mult: 2
    decay_mult: 0
  }
  scale_param {
    bias_term: true
  }
}
layer {
  name: "group0_block8_sum"
  type: "Eltwise"
  bottom: "group0_block8_conv1"
  bottom: "group0_block7_sum"
  top: "group0_block8_sum"
  eltwise_param {
    operation: SUM
  }
}
layer {
  name: "group0_block8_relu"
  type: "ReLU"
  bottom: "group0_block8_sum"
  top: "group0_block8_sum"
}
layer {
  name: "group1_block0_conv0"
  type: "Convolution"
  bottom: "group0_block8_sum"
  top: "group1_block0_conv0"
  param {
    lr_mult: 1
    decay_mult: 1
  }
  convolution_param {
    num_output: 32
    bias_term: false
    pad: 1
    kernel_size: 3
    stride: 2
    weight_filler {
      type: "msra"
    }
  }
}
layer {
  name: "group1_block0_conv0_bn"
  type: "BatchNorm"
  bottom: "group1_block0_conv0"
  top: "group1_block0_conv0"
  param {
    lr_mult: 0
    decay_mult: 0
  }
  param {
    lr_mult: 0
    decay_mult: 0
  }
  param {
    lr_mult: 0
    decay_mult: 0
  }
  batch_norm_param {
    moving_average_fraction: 0.9
  }
}
layer {
  name: "group1_block0_conv0_scale"
  type: "Scale"
  bottom: "group1_block0_conv0"
  top: "group1_block0_conv0"
  param {
    lr_mult: 1
    decay_mult: 1
  }
  param {
    lr_mult: 2
    decay_mult: 0
  }
  scale_param {
    bias_term: true
  }
}
layer {
  name: "group1_block0_conv0_relu"
  type: "ReLU"
  bottom: "group1_block0_conv0"
  top: "group1_block0_conv0"
}
layer {
  name: "group1_block0_conv1"
  type: "Convolution"
  bottom: "group1_block0_conv0"
  top: "group1_block0_conv1"
  param {
    lr_mult: 1
    decay_mult: 1
  }
  convolution_param {
    num_output: 32
    bias_term: false
    pad: 1
    kernel_size: 3
    stride: 1
    weight_filler {
      type: "msra"
    }
  }
}
layer {
  name: "group1_block0_conv1_bn"
  type: "BatchNorm"
  bottom: "group1_block0_conv1"
  top: "group1_block0_conv1"
  param {
    lr_mult: 0
    decay_mult: 0
  }
  param {
    lr_mult: 0
    decay_mult: 0
  }
  param {
    lr_mult: 0
    decay_mult: 0
  }
  batch_norm_param {
    moving_average_fraction: 0.9
  }
}
layer {
  name: "group1_block0_conv1_scale"
  type: "Scale"
  bottom: "group1_block0_conv1"
  top: "group1_block0_conv1"
  param {
    lr_mult: 1
    decay_mult: 1
  }
  param {
    lr_mult: 2
    decay_mult: 0
  }
  scale_param {
    bias_term: true
  }
}
layer {
  name: "group1_block0_proj"
  type: "Convolution"
  bottom: "group0_block8_sum"
  top: "group1_block0_proj"
  param {
    lr_mult: 1
    decay_mult: 1
  }
  convolution_param {
    num_output: 32
    bias_term: false
    pad: 0
    kernel_size: 1
    stride: 2
    weight_filler {
      type: "msra"
    }
  }
}
layer {
  name: "group1_block0_proj_bn"
  type: "BatchNorm"
  bottom: "group1_block0_proj"
  top: "group1_block0_proj"
  param {
    lr_mult: 0
    decay_mult: 0
  }
  param {
    lr_mult: 0
    decay_mult: 0
  }
  param {
    lr_mult: 0
    decay_mult: 0
  }
  batch_norm_param {
    moving_average_fraction: 0.9
  }
}
layer {
  name: "group1_block0_proj_scale"
  type: "Scale"
  bottom: "group1_block0_proj"
  top: "group1_block0_proj"
  param {
    lr_mult: 1
    decay_mult: 1
  }
  param {
    lr_mult: 2
    decay_mult: 0
  }
  scale_param {
    bias_term: true
  }
}
layer {
  name: "group1_block0_sum"
  type: "Eltwise"
  bottom: "group1_block0_proj"
  bottom: "group1_block0_conv1"
  top: "group1_block0_sum"
  eltwise_param {
    operation: SUM
  }
}
layer {
  name: "group1_block0_relu"
  type: "ReLU"
  bottom: "group1_block0_sum"
  top: "group1_block0_sum"
}
layer {
  name: "group1_block1_conv0"
  type: "Convolution"
  bottom: "group1_block0_sum"
  top: "group1_block1_conv0"
  param {
    lr_mult: 1
    decay_mult: 1
  }
  convolution_param {
    num_output: 32
    bias_term: false
    pad: 1
    kernel_size: 3
    stride: 1
    weight_filler {
      type: "msra"
    }
  }
}
layer {
  name: "group1_block1_conv0_bn"
  type: "BatchNorm"
  bottom: "group1_block1_conv0"
  top: "group1_block1_conv0"
  param {
    lr_mult: 0
    decay_mult: 0
  }
  param {
    lr_mult: 0
    decay_mult: 0
  }
  param {
    lr_mult: 0
    decay_mult: 0
  }
  batch_norm_param {
    moving_average_fraction: 0.9
  }
}
layer {
  name: "group1_block1_conv0_scale"
  type: "Scale"
  bottom: "group1_block1_conv0"
  top: "group1_block1_conv0"
  param {
    lr_mult: 1
    decay_mult: 1
  }
  param {
    lr_mult: 2
    decay_mult: 0
  }
  scale_param {
    bias_term: true
  }
}
layer {
  name: "group1_block1_conv0_relu"
  type: "ReLU"
  bottom: "group1_block1_conv0"
  top: "group1_block1_conv0"
}
layer {
  name: "group1_block1_conv1"
  type: "Convolution"
  bottom: "group1_block1_conv0"
  top: "group1_block1_conv1"
  param {
    lr_mult: 1
    decay_mult: 1
  }
  convolution_param {
    num_output: 32
    bias_term: false
    pad: 1
    kernel_size: 3
    stride: 1
    weight_filler {
      type: "msra"
    }
  }
}
layer {
  name: "group1_block1_conv1_bn"
  type: "BatchNorm"
  bottom: "group1_block1_conv1"
  top: "group1_block1_conv1"
  param {
    lr_mult: 0
    decay_mult: 0
  }
  param {
    lr_mult: 0
    decay_mult: 0
  }
  param {
    lr_mult: 0
    decay_mult: 0
  }
  batch_norm_param {
    moving_average_fraction: 0.9
  }
}
layer {
  name: "group1_block1_conv1_scale"
  type: "Scale"
  bottom: "group1_block1_conv1"
  top: "group1_block1_conv1"
  param {
    lr_mult: 1
    decay_mult: 1
  }
  param {
    lr_mult: 2
    decay_mult: 0
  }
  scale_param {
    bias_term: true
  }
}
layer {
  name: "group1_block1_sum"
  type: "Eltwise"
  bottom: "group1_block1_conv1"
  bottom: "group1_block0_sum"
  top: "group1_block1_sum"
  eltwise_param {
    operation: SUM
  }
}
layer {
  name: "group1_block1_relu"
  type: "ReLU"
  bottom: "group1_block1_sum"
  top: "group1_block1_sum"
}
layer {
  name: "group1_block2_conv0"
  type: "Convolution"
  bottom: "group1_block1_sum"
  top: "group1_block2_conv0"
  param {
    lr_mult: 1
    decay_mult: 1
  }
  convolution_param {
    num_output: 32
    bias_term: false
    pad: 1
    kernel_size: 3
    stride: 1
    weight_filler {
      type: "msra"
    }
  }
}
layer {
  name: "group1_block2_conv0_bn"
  type: "BatchNorm"
  bottom: "group1_block2_conv0"
  top: "group1_block2_conv0"
  param {
    lr_mult: 0
    decay_mult: 0
  }
  param {
    lr_mult: 0
    decay_mult: 0
  }
  param {
    lr_mult: 0
    decay_mult: 0
  }
  batch_norm_param {
    moving_average_fraction: 0.9
  }
}
layer {
  name: "group1_block2_conv0_scale"
  type: "Scale"
  bottom: "group1_block2_conv0"
  top: "group1_block2_conv0"
  param {
    lr_mult: 1
    decay_mult: 1
  }
  param {
    lr_mult: 2
    decay_mult: 0
  }
  scale_param {
    bias_term: true
  }
}
layer {
  name: "group1_block2_conv0_relu"
  type: "ReLU"
  bottom: "group1_block2_conv0"
  top: "group1_block2_conv0"
}
layer {
  name: "group1_block2_conv1"
  type: "Convolution"
  bottom: "group1_block2_conv0"
  top: "group1_block2_conv1"
  param {
    lr_mult: 1
    decay_mult: 1
  }
  convolution_param {
    num_output: 32
    bias_term: false
    pad: 1
    kernel_size: 3
    stride: 1
    weight_filler {
      type: "msra"
    }
  }
}
layer {
  name: "group1_block2_conv1_bn"
  type: "BatchNorm"
  bottom: "group1_block2_conv1"
  top: "group1_block2_conv1"
  param {
    lr_mult: 0
    decay_mult: 0
  }
  param {
    lr_mult: 0
    decay_mult: 0
  }
  param {
    lr_mult: 0
    decay_mult: 0
  }
  batch_norm_param {
    moving_average_fraction: 0.9
  }
}
layer {
  name: "group1_block2_conv1_scale"
  type: "Scale"
  bottom: "group1_block2_conv1"
  top: "group1_block2_conv1"
  param {
    lr_mult: 1
    decay_mult: 1
  }
  param {
    lr_mult: 2
    decay_mult: 0
  }
  scale_param {
    bias_term: true
  }
}
layer {
  name: "group1_block2_sum"
  type: "Eltwise"
  bottom: "group1_block2_conv1"
  bottom: "group1_block1_sum"
  top: "group1_block2_sum"
  eltwise_param {
    operation: SUM
  }
}
layer {
  name: "group1_block2_relu"
  type: "ReLU"
  bottom: "group1_block2_sum"
  top: "group1_block2_sum"
}
layer {
  name: "group1_block3_conv0"
  type: "Convolution"
  bottom: "group1_block2_sum"
  top: "group1_block3_conv0"
  param {
    lr_mult: 1
    decay_mult: 1
  }
  convolution_param {
    num_output: 32
    bias_term: false
    pad: 1
    kernel_size: 3
    stride: 1
    weight_filler {
      type: "msra"
    }
  }
}
layer {
  name: "group1_block3_conv0_bn"
  type: "BatchNorm"
  bottom: "group1_block3_conv0"
  top: "group1_block3_conv0"
  param {
    lr_mult: 0
    decay_mult: 0
  }
  param {
    lr_mult: 0
    decay_mult: 0
  }
  param {
    lr_mult: 0
    decay_mult: 0
  }
  batch_norm_param {
    moving_average_fraction: 0.9
  }
}
layer {
  name: "group1_block3_conv0_scale"
  type: "Scale"
  bottom: "group1_block3_conv0"
  top: "group1_block3_conv0"
  param {
    lr_mult: 1
    decay_mult: 1
  }
  param {
    lr_mult: 2
    decay_mult: 0
  }
  scale_param {
    bias_term: true
  }
}
layer {
  name: "group1_block3_conv0_relu"
  type: "ReLU"
  bottom: "group1_
I1023 12:27:51.254765 16540 layer_factory.hpp:77] Creating layer data
I1023 12:27:51.254858 16540 db_lmdb.cpp:35] Opened lmdb cifar-10-batches-py/train
I1023 12:27:51.254875 16540 net.cpp:86] Creating Layer data
I1023 12:27:51.254881 16540 net.cpp:382] data -> data
I1023 12:27:51.254897 16540 net.cpp:382] data -> label
I1023 12:27:51.255458 16540 data_layer.cpp:45] output data size: 128,3,32,32
I1023 12:27:51.258872 16540 net.cpp:124] Setting up data
I1023 12:27:51.258883 16540 net.cpp:131] Top shape: 128 3 32 32 (393216)
I1023 12:27:51.258888 16540 net.cpp:131] Top shape: 128 (128)
I1023 12:27:51.258889 16540 net.cpp:139] Memory required for data: 1573376
I1023 12:27:51.258895 16540 layer_factory.hpp:77] Creating layer label_data_1_split
I1023 12:27:51.258903 16540 net.cpp:86] Creating Layer label_data_1_split
I1023 12:27:51.258906 16540 net.cpp:408] label_data_1_split <- label
I1023 12:27:51.258918 16540 net.cpp:382] label_data_1_split -> label_data_1_split_0
I1023 12:27:51.258924 16540 net.cpp:382] label_data_1_split -> label_data_1_split_1
I1023 12:27:51.258966 16540 net.cpp:124] Setting up label_data_1_split
I1023 12:27:51.258971 16540 net.cpp:131] Top shape: 128 (128)
I1023 12:27:51.258975 16540 net.cpp:131] Top shape: 128 (128)
I1023 12:27:51.258976 16540 net.cpp:139] Memory required for data: 1574400
I1023 12:27:51.258978 16540 layer_factory.hpp:77] Creating layer first_conv
I1023 12:27:51.258992 16540 net.cpp:86] Creating Layer first_conv
I1023 12:27:51.258996 16540 net.cpp:408] first_conv <- data
I1023 12:27:51.259001 16540 net.cpp:382] first_conv -> first_conv
I1023 12:27:51.736090 16540 net.cpp:124] Setting up first_conv
I1023 12:27:51.736114 16540 net.cpp:131] Top shape: 128 16 32 32 (2097152)
I1023 12:27:51.736135 16540 net.cpp:139] Memory required for data: 9963008
I1023 12:27:51.736160 16540 layer_factory.hpp:77] Creating layer first_conv_bn
I1023 12:27:51.736171 16540 net.cpp:86] Creating Layer first_conv_bn
I1023 12:27:51.736176 16540 net.cpp:408] first_conv_bn <- first_conv
I1023 12:27:51.736182 16540 net.cpp:369] first_conv_bn -> first_conv (in-place)
I1023 12:27:51.736346 16540 net.cpp:124] Setting up first_conv_bn
I1023 12:27:51.736353 16540 net.cpp:131] Top shape: 128 16 32 32 (2097152)
I1023 12:27:51.736356 16540 net.cpp:139] Memory required for data: 18351616
I1023 12:27:51.736364 16540 layer_factory.hpp:77] Creating layer first_conv_scale
I1023 12:27:51.736373 16540 net.cpp:86] Creating Layer first_conv_scale
I1023 12:27:51.736377 16540 net.cpp:408] first_conv_scale <- first_conv
I1023 12:27:51.736382 16540 net.cpp:369] first_conv_scale -> first_conv (in-place)
I1023 12:27:51.736416 16540 layer_factory.hpp:77] Creating layer first_conv_scale
I1023 12:27:51.736513 16540 net.cpp:124] Setting up first_conv_scale
I1023 12:27:51.736519 16540 net.cpp:131] Top shape: 128 16 32 32 (2097152)
I1023 12:27:51.736522 16540 net.cpp:139] Memory required for data: 26740224
I1023 12:27:51.736526 16540 layer_factory.hpp:77] Creating layer first_conv_relu
I1023 12:27:51.736531 16540 net.cpp:86] Creating Layer first_conv_relu
I1023 12:27:51.736533 16540 net.cpp:408] first_conv_relu <- first_conv
I1023 12:27:51.736536 16540 net.cpp:369] first_conv_relu -> first_conv (in-place)
I1023 12:27:51.736912 16540 net.cpp:124] Setting up first_conv_relu
I1023 12:27:51.736922 16540 net.cpp:131] Top shape: 128 16 32 32 (2097152)
I1023 12:27:51.736924 16540 net.cpp:139] Memory required for data: 35128832
I1023 12:27:51.736927 16540 layer_factory.hpp:77] Creating layer first_conv_first_conv_relu_0_split
I1023 12:27:51.736933 16540 net.cpp:86] Creating Layer first_conv_first_conv_relu_0_split
I1023 12:27:51.736935 16540 net.cpp:408] first_conv_first_conv_relu_0_split <- first_conv
I1023 12:27:51.736940 16540 net.cpp:382] first_conv_first_conv_relu_0_split -> first_conv_first_conv_relu_0_split_0
I1023 12:27:51.736946 16540 net.cpp:382] first_conv_first_conv_relu_0_split -> first_conv_first_conv_relu_0_split_1
I1023 12:27:51.736987 16540 net.cpp:124] Setting up first_conv_first_conv_relu_0_split
I1023 12:27:51.736994 16540 net.cpp:131] Top shape: 128 16 32 32 (2097152)
I1023 12:27:51.736997 16540 net.cpp:131] Top shape: 128 16 32 32 (2097152)
I1023 12:27:51.736999 16540 net.cpp:139] Memory required for data: 51906048
I1023 12:27:51.737001 16540 layer_factory.hpp:77] Creating layer group0_block0_conv0
I1023 12:27:51.737011 16540 net.cpp:86] Creating Layer group0_block0_conv0
I1023 12:27:51.737015 16540 net.cpp:408] group0_block0_conv0 <- first_conv_first_conv_relu_0_split_0
I1023 12:27:51.737021 16540 net.cpp:382] group0_block0_conv0 -> group0_block0_conv0
I1023 12:27:51.739290 16540 net.cpp:124] Setting up group0_block0_conv0
I1023 12:27:51.739302 16540 net.cpp:131] Top shape: 128 16 32 32 (2097152)
I1023 12:27:51.739305 16540 net.cpp:139] Memory required for data: 60294656
I1023 12:27:51.739310 16540 layer_factory.hpp:77] Creating layer group0_block0_conv0_bn
I1023 12:27:51.739318 16540 net.cpp:86] Creating Layer group0_block0_conv0_bn
I1023 12:27:51.739321 16540 net.cpp:408] group0_block0_conv0_bn <- group0_block0_conv0
I1023 12:27:51.739327 16540 net.cpp:369] group0_block0_conv0_bn -> group0_block0_conv0 (in-place)
I1023 12:27:51.739498 16540 net.cpp:124] Setting up group0_block0_conv0_bn
I1023 12:27:51.739506 16540 net.cpp:131] Top shape: 128 16 32 32 (2097152)
I1023 12:27:51.739507 16540 net.cpp:139] Memory required for data: 68683264
I1023 12:27:51.739516 16540 layer_factory.hpp:77] Creating layer group0_block0_conv0_scale
I1023 12:27:51.739522 16540 net.cpp:86] Creating Layer group0_block0_conv0_scale
I1023 12:27:51.739526 16540 net.cpp:408] group0_block0_conv0_scale <- group0_block0_conv0
I1023 12:27:51.739529 16540 net.cpp:369] group0_block0_conv0_scale -> group0_block0_conv0 (in-place)
I1023 12:27:51.739575 16540 layer_factory.hpp:77] Creating layer group0_block0_conv0_scale
I1023 12:27:51.739675 16540 net.cpp:124] Setting up group0_block0_conv0_scale
I1023 12:27:51.739681 16540 net.cpp:131] Top shape: 128 16 32 32 (2097152)
I1023 12:27:51.739684 16540 net.cpp:139] Memory required for data: 77071872
I1023 12:27:51.739688 16540 layer_factory.hpp:77] Creating layer group0_block0_conv0_relu
I1023 12:27:51.739694 16540 net.cpp:86] Creating Layer group0_block0_conv0_relu
I1023 12:27:51.739696 16540 net.cpp:408] group0_block0_conv0_relu <- group0_block0_conv0
I1023 12:27:51.739701 16540 net.cpp:369] group0_block0_conv0_relu -> group0_block0_conv0 (in-place)
I1023 12:27:51.740126 16540 net.cpp:124] Setting up group0_block0_conv0_relu
I1023 12:27:51.740136 16540 net.cpp:131] Top shape: 128 16 32 32 (2097152)
I1023 12:27:51.740139 16540 net.cpp:139] Memory required for data: 85460480
I1023 12:27:51.740141 16540 layer_factory.hpp:77] Creating layer group0_block0_conv1
I1023 12:27:51.740151 16540 net.cpp:86] Creating Layer group0_block0_conv1
I1023 12:27:51.740154 16540 net.cpp:408] group0_block0_conv1 <- group0_block0_conv0
I1023 12:27:51.740160 16540 net.cpp:382] group0_block0_conv1 -> group0_block0_conv1
I1023 12:27:51.742274 16540 net.cpp:124] Setting up group0_block0_conv1
I1023 12:27:51.742285 16540 net.cpp:131] Top shape: 128 16 32 32 (2097152)
I1023 12:27:51.742288 16540 net.cpp:139] Memory required for data: 93849088
I1023 12:27:51.742292 16540 layer_factory.hpp:77] Creating layer group0_block0_conv1_bn
I1023 12:27:51.742300 16540 net.cpp:86] Creating Layer group0_block0_conv1_bn
I1023 12:27:51.742302 16540 net.cpp:408] group0_block0_conv1_bn <- group0_block0_conv1
I1023 12:27:51.742308 16540 net.cpp:369] group0_block0_conv1_bn -> group0_block0_conv1 (in-place)
I1023 12:27:51.742483 16540 net.cpp:124] Setting up group0_block0_conv1_bn
I1023 12:27:51.742491 16540 net.cpp:131] Top shape: 128 16 32 32 (2097152)
I1023 12:27:51.742493 16540 net.cpp:139] Memory required for data: 102237696
I1023 12:27:51.742501 16540 layer_factory.hpp:77] Creating layer group0_block0_conv1_scale
I1023 12:27:51.742506 16540 net.cpp:86] Creating Layer group0_block0_conv1_scale
I1023 12:27:51.742509 16540 net.cpp:408] group0_block0_conv1_scale <- group0_block0_conv1
I1023 12:27:51.742514 16540 net.cpp:369] group0_block0_conv1_scale -> group0_block0_conv1 (in-place)
I1023 12:27:51.742547 16540 layer_factory.hpp:77] Creating layer group0_block0_conv1_scale
I1023 12:27:51.742662 16540 net.cpp:124] Setting up group0_block0_conv1_scale
I1023 12:27:51.742671 16540 net.cpp:131] Top shape: 128 16 32 32 (2097152)
I1023 12:27:51.742672 16540 net.cpp:139] Memory required for data: 110626304
I1023 12:27:51.742677 16540 layer_factory.hpp:77] Creating layer group0_block0_sum
I1023 12:27:51.742683 16540 net.cpp:86] Creating Layer group0_block0_sum
I1023 12:27:51.742686 16540 net.cpp:408] group0_block0_sum <- group0_block0_conv1
I1023 12:27:51.742689 16540 net.cpp:408] group0_block0_sum <- first_conv_first_conv_relu_0_split_1
I1023 12:27:51.742694 16540 net.cpp:382] group0_block0_sum -> group0_block0_sum
I1023 12:27:51.742722 16540 net.cpp:124] Setting up group0_block0_sum
I1023 12:27:51.742728 16540 net.cpp:131] Top shape: 128 16 32 32 (2097152)
I1023 12:27:51.742732 16540 net.cpp:139] Memory required for data: 119014912
I1023 12:27:51.742733 16540 layer_factory.hpp:77] Creating layer group0_block0_relu
I1023 12:27:51.742738 16540 net.cpp:86] Creating Layer group0_block0_relu
I1023 12:27:51.742739 16540 net.cpp:408] group0_block0_relu <- group0_block0_sum
I1023 12:27:51.742743 16540 net.cpp:369] group0_block0_relu -> group0_block0_sum (in-place)
I1023 12:27:51.743301 16540 net.cpp:124] Setting up group0_block0_relu
I1023 12:27:51.743311 16540 net.cpp:131] Top shape: 128 16 32 32 (2097152)
I1023 12:27:51.743314 16540 net.cpp:139] Memory required for data: 127403520
I1023 12:27:51.743316 16540 layer_factory.hpp:77] Creating layer group0_block0_sum_group0_block0_relu_0_split
I1023 12:27:51.743325 16540 net.cpp:86] Creating Layer group0_block0_sum_group0_block0_relu_0_split
I1023 12:27:51.743337 16540 net.cpp:408] group0_block0_sum_group0_block0_relu_0_split <- group0_block0_sum
I1023 12:27:51.743342 16540 net.cpp:382] group0_block0_sum_group0_block0_relu_0_split -> group0_block0_sum_group0_block0_relu_0_split_0
I1023 12:27:51.743350 16540 net.cpp:382] group0_block0_sum_group0_block0_relu_0_split -> group0_block0_sum_group0_block0_relu_0_split_1
I1023 12:27:51.743391 16540 net.cpp:124] Setting up group0_block0_sum_group0_block0_relu_0_split
I1023 12:27:51.743400 16540 net.cpp:131] Top shape: 128 16 32 32 (2097152)
I1023 12:27:51.743403 16540 net.cpp:131] Top shape: 128 16 32 32 (2097152)
I1023 12:27:51.743405 16540 net.cpp:139] Memory required for data: 144180736
I1023 12:27:51.743408 16540 layer_factory.hpp:77] Creating layer group0_block1_conv0
I1023 12:27:51.743417 16540 net.cpp:86] Creating Layer group0_block1_conv0
I1023 12:27:51.743419 16540 net.cpp:408] group0_block1_conv0 <- group0_block0_sum_group0_block0_relu_0_split_0
I1023 12:27:51.743424 16540 net.cpp:382] group0_block1_conv0 -> group0_block1_conv0
I1023 12:27:51.745100 16540 net.cpp:124] Setting up group0_block1_conv0
I1023 12:27:51.745115 16540 net.cpp:131] Top shape: 128 16 32 32 (2097152)
I1023 12:27:51.745121 16540 net.cpp:139] Memory required for data: 152569344
I1023 12:27:51.745126 16540 layer_factory.hpp:77] Creating layer group0_block1_conv0_bn
I1023 12:27:51.745134 16540 net.cpp:86] Creating Layer group0_block1_conv0_bn
I1023 12:27:51.745139 16540 net.cpp:408] group0_block1_conv0_bn <- group0_block1_conv0
I1023 12:27:51.745149 16540 net.cpp:369] group0_block1_conv0_bn -> group0_block1_conv0 (in-place)
I1023 12:27:51.745328 16540 net.cpp:124] Setting up group0_block1_conv0_bn
I1023 12:27:51.745337 16540 net.cpp:131] Top shape: 128 16 32 32 (2097152)
I1023 12:27:51.745338 16540 net.cpp:139] Memory required for data: 160957952
I1023 12:27:51.745344 16540 layer_factory.hpp:77] Creating layer group0_block1_conv0_scale
I1023 12:27:51.745352 16540 net.cpp:86] Creating Layer group0_block1_conv0_scale
I1023 12:27:51.745354 16540 net.cpp:408] group0_block1_conv0_scale <- group0_block1_conv0
I1023 12:27:51.745360 16540 net.cpp:369] group0_block1_conv0_scale -> group0_block1_conv0 (in-place)
I1023 12:27:51.745393 16540 layer_factory.hpp:77] Creating layer group0_block1_conv0_scale
I1023 12:27:51.745494 16540 net.cpp:124] Setting up group0_block1_conv0_scale
I1023 12:27:51.745501 16540 net.cpp:131] Top shape: 128 16 32 32 (2097152)
I1023 12:27:51.745502 16540 net.cpp:139] Memory required for data: 169346560
I1023 12:27:51.745507 16540 layer_factory.hpp:77] Creating layer group0_block1_conv0_relu
I1023 12:27:51.745512 16540 net.cpp:86] Creating Layer group0_block1_conv0_relu
I1023 12:27:51.745514 16540 net.cpp:408] group0_block1_conv0_relu <- group0_block1_conv0
I1023 12:27:51.745519 16540 net.cpp:369] group0_block1_conv0_relu -> group0_block1_conv0 (in-place)
I1023 12:27:51.746052 16540 net.cpp:124] Setting up group0_block1_conv0_relu
I1023 12:27:51.746063 16540 net.cpp:131] Top shape: 128 16 32 32 (2097152)
I1023 12:27:51.746065 16540 net.cpp:139] Memory required for data: 177735168
I1023 12:27:51.746068 16540 layer_factory.hpp:77] Creating layer group0_block1_conv1
I1023 12:27:51.746076 16540 net.cpp:86] Creating Layer group0_block1_conv1
I1023 12:27:51.746079 16540 net.cpp:408] group0_block1_conv1 <- group0_block1_conv0
I1023 12:27:51.746086 16540 net.cpp:382] group0_block1_conv1 -> group0_block1_conv1
I1023 12:27:51.747820 16540 net.cpp:124] Setting up group0_block1_conv1
I1023 12:27:51.747831 16540 net.cpp:131] Top shape: 128 16 32 32 (2097152)
I1023 12:27:51.747834 16540 net.cpp:139] Memory required for data: 186123776
I1023 12:27:51.747838 16540 layer_factory.hpp:77] Creating layer group0_block1_conv1_bn
I1023 12:27:51.747845 16540 net.cpp:86] Creating Layer group0_block1_conv1_bn
I1023 12:27:51.747848 16540 net.cpp:408] group0_block1_conv1_bn <- group0_block1_conv1
I1023 12:27:51.747853 16540 net.cpp:369] group0_block1_conv1_bn -> group0_block1_conv1 (in-place)
I1023 12:27:51.748035 16540 net.cpp:124] Setting up group0_block1_conv1_bn
I1023 12:27:51.748051 16540 net.cpp:131] Top shape: 128 16 32 32 (2097152)
I1023 12:27:51.748054 16540 net.cpp:139] Memory required for data: 194512384
I1023 12:27:51.748060 16540 layer_factory.hpp:77] Creating layer group0_block1_conv1_scale
I1023 12:27:51.748066 16540 net.cpp:86] Creating Layer group0_block1_conv1_scale
I1023 12:27:51.748070 16540 net.cpp:408] group0_block1_conv1_scale <- group0_block1_conv1
I1023 12:27:51.748075 16540 net.cpp:369] group0_block1_conv1_scale -> group0_block1_conv1 (in-place)
I1023 12:27:51.748111 16540 layer_factory.hpp:77] Creating layer group0_block1_conv1_scale
I1023 12:27:51.748211 16540 net.cpp:124] Setting up group0_block1_conv1_scale
I1023 12:27:51.748217 16540 net.cpp:131] Top shape: 128 16 32 32 (2097152)
I1023 12:27:51.748220 16540 net.cpp:139] Memory required for data: 202900992
I1023 12:27:51.748224 16540 layer_factory.hpp:77] Creating layer group0_block1_sum
I1023 12:27:51.748230 16540 net.cpp:86] Creating Layer group0_block1_sum
I1023 12:27:51.748234 16540 net.cpp:408] group0_block1_sum <- group0_block1_conv1
I1023 12:27:51.748237 16540 net.cpp:408] group0_block1_sum <- group0_block0_sum_group0_block0_relu_0_split_1
I1023 12:27:51.748242 16540 net.cpp:382] group0_block1_sum -> group0_block1_sum
I1023 12:27:51.748265 16540 net.cpp:124] Setting up group0_block1_sum
I1023 12:27:51.748270 16540 net.cpp:131] Top shape: 128 16 32 32 (2097152)
I1023 12:27:51.748272 16540 net.cpp:139] Memory required for data: 211289600
I1023 12:27:51.748275 16540 layer_factory.hpp:77] Creating layer group0_block1_relu
I1023 12:27:51.748281 16540 net.cpp:86] Creating Layer group0_block1_relu
I1023 12:27:51.748283 16540 net.cpp:408] group0_block1_relu <- group0_block1_sum
I1023 12:27:51.748286 16540 net.cpp:369] group0_block1_relu -> group0_block1_sum (in-place)
I1023 12:27:51.749137 16540 net.cpp:124] Setting up group0_block1_relu
I1023 12:27:51.749148 16540 net.cpp:131] Top shape: 128 16 32 32 (2097152)
I1023 12:27:51.749150 16540 net.cpp:139] Memory required for data: 219678208
I1023 12:27:51.749153 16540 layer_factory.hpp:77] Creating layer group0_block1_sum_group0_block1_relu_0_split
I1023 12:27:51.749159 16540 net.cpp:86] Creating Layer group0_block1_sum_group0_block1_relu_0_split
I1023 12:27:51.749162 16540 net.cpp:408] group0_block1_sum_group0_block1_relu_0_split <- group0_block1_sum
I1023 12:27:51.749167 16540 net.cpp:382] group0_block1_sum_group0_block1_relu_0_split -> group0_block1_sum_group0_block1_relu_0_split_0
I1023 12:27:51.749173 16540 net.cpp:382] group0_block1_sum_group0_block1_relu_0_split -> group0_block1_sum_group0_block1_relu_0_split_1
I1023 12:27:51.749218 16540 net.cpp:124] Setting up group0_block1_sum_group0_block1_relu_0_split
I1023 12:27:51.749224 16540 net.cpp:131] Top shape: 128 16 32 32 (2097152)
I1023 12:27:51.749228 16540 net.cpp:131] Top shape: 128 16 32 32 (2097152)
I1023 12:27:51.749230 16540 net.cpp:139] Memory required for data: 236455424
I1023 12:27:51.749233 16540 layer_factory.hpp:77] Creating layer group0_block2_conv0
I1023 12:27:51.749243 16540 net.cpp:86] Creating Layer group0_block2_conv0
I1023 12:27:51.749246 16540 net.cpp:408] group0_block2_conv0 <- group0_block1_sum_group0_block1_relu_0_split_0
I1023 12:27:51.749251 16540 net.cpp:382] group0_block2_conv0 -> group0_block2_conv0
I1023 12:27:51.750967 16540 net.cpp:124] Setting up group0_block2_conv0
I1023 12:27:51.750988 16540 net.cpp:131] Top shape: 128 16 32 32 (2097152)
I1023 12:27:51.750991 16540 net.cpp:139] Memory required for data: 244844032
I1023 12:27:51.751000 16540 layer_factory.hpp:77] Creating layer group0_block2_conv0_bn
I1023 12:27:51.751008 16540 net.cpp:86] Creating Layer group0_block2_conv0_bn
I1023 12:27:51.751011 16540 net.cpp:408] group0_block2_conv0_bn <- group0_block2_conv0
I1023 12:27:51.751015 16540 net.cpp:369] group0_block2_conv0_bn -> group0_block2_conv0 (in-place)
I1023 12:27:51.751190 16540 net.cpp:124] Setting up group0_block2_conv0_bn
I1023 12:27:51.751197 16540 net.cpp:131] Top shape: 128 16 32 32 (2097152)
I1023 12:27:51.751199 16540 net.cpp:139] Memory required for data: 253232640
I1023 12:27:51.751219 16540 layer_factory.hpp:77] Creating layer group0_block2_conv0_scale
I1023 12:27:51.751229 16540 net.cpp:86] Creating Layer group0_block2_conv0_scale
I1023 12:27:51.751232 16540 net.cpp:408] group0_block2_conv0_scale <- group0_block2_conv0
I1023 12:27:51.751237 16540 net.cpp:369] group0_block2_conv0_scale -> group0_block2_conv0 (in-place)
I1023 12:27:51.751273 16540 layer_factory.hpp:77] Creating layer group0_block2_conv0_scale
I1023 12:27:51.751379 16540 net.cpp:124] Setting up group0_block2_conv0_scale
I1023 12:27:51.751385 16540 net.cpp:131] Top shape: 128 16 32 32 (2097152)
I1023 12:27:51.751387 16540 net.cpp:139] Memory required for data: 261621248
I1023 12:27:51.751392 16540 layer_factory.hpp:77] Creating layer group0_block2_conv0_relu
I1023 12:27:51.751396 16540 net.cpp:86] Creating Layer group0_block2_conv0_relu
I1023 12:27:51.751399 16540 net.cpp:408] group0_block2_conv0_relu <- group0_block2_conv0
I1023 12:27:51.751405 16540 net.cpp:369] group0_block2_conv0_relu -> group0_block2_conv0 (in-place)
I1023 12:27:51.751973 16540 net.cpp:124] Setting up group0_block2_conv0_relu
I1023 12:27:51.751983 16540 net.cpp:131] Top shape: 128 16 32 32 (2097152)
I1023 12:27:51.751997 16540 net.cpp:139] Memory required for data: 270009856
I1023 12:27:51.751999 16540 layer_factory.hpp:77] Creating layer group0_block2_conv1
I1023 12:27:51.752009 16540 net.cpp:86] Creating Layer group0_block2_conv1
I1023 12:27:51.752012 16540 net.cpp:408] group0_block2_conv1 <- group0_block2_conv0
I1023 12:27:51.752017 16540 net.cpp:382] group0_block2_conv1 -> group0_block2_conv1
I1023 12:27:51.753995 16540 net.cpp:124] Setting up group0_block2_conv1
I1023 12:27:51.754022 16540 net.cpp:131] Top shape: 128 16 32 32 (2097152)
I1023 12:27:51.754025 16540 net.cpp:139] Memory required for data: 278398464
I1023 12:27:51.754029 16540 layer_factory.hpp:77] Creating layer group0_block2_conv1_bn
I1023 12:27:51.754042 16540 net.cpp:86] Creating Layer group0_block2_conv1_bn
I1023 12:27:51.754045 16540 net.cpp:408] group0_block2_conv1_bn <- group0_block2_conv1
I1023 12:27:51.754050 16540 net.cpp:369] group0_block2_conv1_bn -> group0_block2_conv1 (in-place)
I1023 12:27:51.754266 16540 net.cpp:124] Setting up group0_block2_conv1_bn
I1023 12:27:51.754274 16540 net.cpp:131] Top shape: 128 16 32 32 (2097152)
I1023 12:27:51.754276 16540 net.cpp:139] Memory required for data: 286787072
I1023 12:27:51.754283 16540 layer_factory.hpp:77] Creating layer group0_block2_conv1_scale
I1023 12:27:51.754288 16540 net.cpp:86] Creating Layer group0_block2_conv1_scale
I1023 12:27:51.754290 16540 net.cpp:408] group0_block2_conv1_scale <- group0_block2_conv1
I1023 12:27:51.754297 16540 net.cpp:369] group0_block2_conv1_scale -> group0_block2_conv1 (in-place)
I1023 12:27:51.754333 16540 layer_factory.hpp:77] Creating layer group0_block2_conv1_scale
I1023 12:27:51.754436 16540 net.cpp:124] Setting up group0_block2_conv1_scale
I1023 12:27:51.754444 16540 net.cpp:131] Top shape: 128 16 32 32 (2097152)
I1023 12:27:51.754447 16540 net.cpp:139] Memory required for data: 295175680
I1023 12:27:51.754451 16540 layer_factory.hpp:77] Creating layer group0_block2_sum
I1023 12:27:51.754456 16540 net.cpp:86] Creating Layer group0_block2_sum
I1023 12:27:51.754459 16540 net.cpp:408] group0_block2_sum <- group0_block2_conv1
I1023 12:27:51.754462 16540 net.cpp:408] group0_block2_sum <- group0_block1_sum_group0_block1_relu_0_split_1
I1023 12:27:51.754467 16540 net.cpp:382] group0_block2_sum -> group0_block2_sum
I1023 12:27:51.754490 16540 net.cpp:124] Setting up group0_block2_sum
I1023 12:27:51.754496 16540 net.cpp:131] Top shape: 128 16 32 32 (2097152)
I1023 12:27:51.754499 16540 net.cpp:139] Memory required for data: 303564288
I1023 12:27:51.754501 16540 layer_factory.hpp:77] Creating layer group0_block2_relu
I1023 12:27:51.754506 16540 net.cpp:86] Creating Layer group0_block2_relu
I1023 12:27:51.754508 16540 net.cpp:408] group0_block2_relu <- group0_block2_sum
I1023 12:27:51.754513 16540 net.cpp:369] group0_block2_relu -> group0_block2_sum (in-place)
I1023 12:27:51.754938 16540 net.cpp:124] Setting up group0_block2_relu
I1023 12:27:51.754947 16540 net.cpp:131] Top shape: 128 16 32 32 (2097152)
I1023 12:27:51.754961 16540 net.cpp:139] Memory required for data: 311952896
I1023 12:27:51.754964 16540 layer_factory.hpp:77] Creating layer group0_block2_sum_group0_block2_relu_0_split
I1023 12:27:51.754971 16540 net.cpp:86] Creating Layer group0_block2_sum_group0_block2_relu_0_split
I1023 12:27:51.754972 16540 net.cpp:408] group0_block2_sum_group0_block2_relu_0_split <- group0_block2_sum
I1023 12:27:51.754977 16540 net.cpp:382] group0_block2_sum_group0_block2_relu_0_split -> group0_block2_sum_group0_block2_relu_0_split_0
I1023 12:27:51.754984 16540 net.cpp:382] group0_block2_sum_group0_block2_relu_0_split -> group0_block2_sum_group0_block2_relu_0_split_1
I1023 12:27:51.755025 16540 net.cpp:124] Setting up group0_block2_sum_group0_block2_relu_0_split
I1023 12:27:51.755031 16540 net.cpp:131] Top shape: 128 16 32 32 (2097152)
I1023 12:27:51.755034 16540 net.cpp:131] Top shape: 128 16 32 32 (2097152)
I1023 12:27:51.755036 16540 net.cpp:139] Memory required for data: 328730112
I1023 12:27:51.755039 16540 layer_factory.hpp:77] Creating layer group0_block3_conv0
I1023 12:27:51.755048 16540 net.cpp:86] Creating Layer group0_block3_conv0
I1023 12:27:51.755050 16540 net.cpp:408] group0_block3_conv0 <- group0_block2_sum_group0_block2_relu_0_split_0
I1023 12:27:51.755056 16540 net.cpp:382] group0_block3_conv0 -> group0_block3_conv0
I1023 12:27:51.757213 16540 net.cpp:124] Setting up group0_block3_conv0
I1023 12:27:51.757225 16540 net.cpp:131] Top shape: 128 16 32 32 (2097152)
I1023 12:27:51.757227 16540 net.cpp:139] Memory required for data: 337118720
I1023 12:27:51.757231 16540 layer_factory.hpp:77] Creating layer group0_block3_conv0_bn
I1023 12:27:51.757238 16540 net.cpp:86] Creating Layer group0_block3_conv0_bn
I1023 12:27:51.757241 16540 net.cpp:408] group0_block3_conv0_bn <- group0_block3_conv0
I1023 12:27:51.757247 16540 net.cpp:369] group0_block3_conv0_bn -> group0_block3_conv0 (in-place)
I1023 12:27:51.757431 16540 net.cpp:124] Setting up group0_block3_conv0_bn
I1023 12:27:51.757437 16540 net.cpp:131] Top shape: 128 16 32 32 (2097152)
I1023 12:27:51.757441 16540 net.cpp:139] Memory required for data: 345507328
I1023 12:27:51.757445 16540 layer_factory.hpp:77] Creating layer group0_block3_conv0_scale
I1023 12:27:51.757452 16540 net.cpp:86] Creating Layer group0_block3_conv0_scale
I1023 12:27:51.757457 16540 net.cpp:408] group0_block3_conv0_scale <- group0_block3_conv0
I1023 12:27:51.757460 16540 net.cpp:369] group0_block3_conv0_scale -> group0_block3_conv0 (in-place)
I1023 12:27:51.757499 16540 layer_factory.hpp:77] Creating layer group0_block3_conv0_scale
I1023 12:27:51.757606 16540 net.cpp:124] Setting up group0_block3_conv0_scale
I1023 12:27:51.757612 16540 net.cpp:131] Top shape: 128 16 32 32 (2097152)
I1023 12:27:51.757616 16540 net.cpp:139] Memory required for data: 353895936
I1023 12:27:51.757619 16540 layer_factory.hpp:77] Creating layer group0_block3_conv0_relu
I1023 12:27:51.757624 16540 net.cpp:86] Creating Layer group0_block3_conv0_relu
I1023 12:27:51.757627 16540 net.cpp:408] group0_block3_conv0_relu <- group0_block3_conv0
I1023 12:27:51.757632 16540 net.cpp:369] group0_block3_conv0_relu -> group0_block3_conv0 (in-place)
I1023 12:27:51.758200 16540 net.cpp:124] Setting up group0_block3_conv0_relu
I1023 12:27:51.758222 16540 net.cpp:131] Top shape: 128 16 32 32 (2097152)
I1023 12:27:51.758225 16540 net.cpp:139] Memory required for data: 362284544
I1023 12:27:51.758227 16540 layer_factory.hpp:77] Creating layer group0_block3_conv1
I1023 12:27:51.758236 16540 net.cpp:86] Creating Layer group0_block3_conv1
I1023 12:27:51.758239 16540 net.cpp:408] group0_block3_conv1 <- group0_block3_conv0
I1023 12:27:51.758244 16540 net.cpp:382] group0_block3_conv1 -> group0_block3_conv1
I1023 12:27:51.760020 16540 net.cpp:124] Setting up group0_block3_conv1
I1023 12:27:51.760041 16540 net.cpp:131] Top shape: 128 16 32 32 (2097152)
I1023 12:27:51.760044 16540 net.cpp:139] Memory required for data: 370673152
I1023 12:27:51.760057 16540 layer_factory.hpp:77] Creating layer group0_block3_conv1_bn
I1023 12:27:51.760064 16540 net.cpp:86] Creating Layer group0_block3_conv1_bn
I1023 12:27:51.760067 16540 net.cpp:408] group0_block3_conv1_bn <- group0_block3_conv1
I1023 12:27:51.760073 16540 net.cpp:369] group0_block3_conv1_bn -> group0_block3_conv1 (in-place)
I1023 12:27:51.760277 16540 net.cpp:124] Setting up group0_block3_conv1_bn
I1023 12:27:51.760285 16540 net.cpp:131] Top shape: 128 16 32 32 (2097152)
I1023 12:27:51.760288 16540 net.cpp:139] Memory required for data: 379061760
I1023 12:27:51.760294 16540 layer_factory.hpp:77] Creating layer group0_block3_conv1_scale
I1023 12:27:51.760300 16540 net.cpp:86] Creating Layer group0_block3_conv1_scale
I1023 12:27:51.760304 16540 net.cpp:408] group0_block3_conv1_scale <- group0_block3_conv1
I1023 12:27:51.760308 16540 net.cpp:369] group0_block3_conv1_scale -> group0_block3_conv1 (in-place)
I1023 12:27:51.760345 16540 layer_factory.hpp:77] Creating layer group0_block3_conv1_scale
I1023 12:27:51.760454 16540 net.cpp:124] Setting up group0_block3_conv1_scale
I1023 12:27:51.760460 16540 net.cpp:131] Top shape: 128 16 32 32 (2097152)
I1023 12:27:51.760462 16540 net.cpp:139] Memory required for data: 387450368
I1023 12:27:51.760468 16540 layer_factory.hpp:77] Creating layer group0_block3_sum
I1023 12:27:51.760473 16540 net.cpp:86] Creating Layer group0_block3_sum
I1023 12:27:51.760474 16540 net.cpp:408] group0_block3_sum <- group0_block3_conv1
I1023 12:27:51.760478 16540 net.cpp:408] group0_block3_sum <- group0_block2_sum_group0_block2_relu_0_split_1
I1023 12:27:51.760483 16540 net.cpp:382] group0_block3_sum -> group0_block3_sum
I1023 12:27:51.760509 16540 net.cpp:124] Setting up group0_block3_sum
I1023 12:27:51.760514 16540 net.cpp:131] Top shape: 128 16 32 32 (2097152)
I1023 12:27:51.760516 16540 net.cpp:139] Memory required for data: 395838976
I1023 12:27:51.760519 16540 layer_factory.hpp:77] Creating layer group0_block3_relu
I1023 12:27:51.760522 16540 net.cpp:86] Creating Layer group0_block3_relu
I1023 12:27:51.760525 16540 net.cpp:408] group0_block3_relu <- group0_block3_sum
I1023 12:27:51.760530 16540 net.cpp:369] group0_block3_relu -> group0_block3_sum (in-place)
I1023 12:27:51.761076 16540 net.cpp:124] Setting up group0_block3_relu
I1023 12:27:51.761098 16540 net.cpp:131] Top shape: 128 16 32 32 (2097152)
I1023 12:27:51.761101 16540 net.cpp:139] Memory required for data: 404227584
I1023 12:27:51.761103 16540 layer_factory.hpp:77] Creating layer group0_block3_sum_group0_block3_relu_0_split
I1023 12:27:51.761111 16540 net.cpp:86] Creating Layer group0_block3_sum_group0_block3_relu_0_split
I1023 12:27:51.761114 16540 net.cpp:408] group0_block3_sum_group0_block3_relu_0_split <- group0_block3_sum
I1023 12:27:51.761118 16540 net.cpp:382] group0_block3_sum_group0_block3_relu_0_split -> group0_block3_sum_group0_block3_relu_0_split_0
I1023 12:27:51.761126 16540 net.cpp:382] group0_block3_sum_group0_block3_relu_0_split -> group0_block3_sum_group0_block3_relu_0_split_1
I1023 12:27:51.761168 16540 net.cpp:124] Setting up group0_block3_sum_group0_block3_relu_0_split
I1023 12:27:51.761174 16540 net.cpp:131] Top shape: 128 16 32 32 (2097152)
I1023 12:27:51.761178 16540 net.cpp:131] Top shape: 128 16 32 32 (2097152)
I1023 12:27:51.761180 16540 net.cpp:139] Memory required for data: 421004800
I1023 12:27:51.761183 16540 layer_factory.hpp:77] Creating layer group0_block4_conv0
I1023 12:27:51.761191 16540 net.cpp:86] Creating Layer group0_block4_conv0
I1023 12:27:51.761194 16540 net.cpp:408] group0_block4_conv0 <- group0_block3_sum_group0_block3_relu_0_split_0
I1023 12:27:51.761200 16540 net.cpp:382] group0_block4_conv0 -> group0_block4_conv0
I1023 12:27:51.762926 16540 net.cpp:124] Setting up group0_block4_conv0
I1023 12:27:51.762938 16540 net.cpp:131] Top shape: 128 16 32 32 (2097152)
I1023 12:27:51.762939 16540 net.cpp:139] Memory required for data: 429393408
I1023 12:27:51.762944 16540 layer_factory.hpp:77] Creating layer group0_block4_conv0_bn
I1023 12:27:51.762959 16540 net.cpp:86] Creating Layer group0_block4_conv0_bn
I1023 12:27:51.762961 16540 net.cpp:408] group0_block4_conv0_bn <- group0_block4_conv0
I1023 12:27:51.762969 16540 net.cpp:369] group0_block4_conv0_bn -> group0_block4_conv0 (in-place)
I1023 12:27:51.763170 16540 net.cpp:124] Setting up group0_block4_conv0_bn
I1023 12:27:51.763177 16540 net.cpp:131] Top shape: 128 16 32 32 (2097152)
I1023 12:27:51.763180 16540 net.cpp:139] Memory required for data: 437782016
I1023 12:27:51.763186 16540 layer_factory.hpp:77] Creating layer group0_block4_conv0_scale
I1023 12:27:51.763191 16540 net.cpp:86] Creating Layer group0_block4_conv0_scale
I1023 12:27:51.763195 16540 net.cpp:408] group0_block4_conv0_scale <- group0_block4_conv0
I1023 12:27:51.763200 16540 net.cpp:369] group0_block4_conv0_scale -> group0_block4_conv0 (in-place)
I1023 12:27:51.763234 16540 layer_factory.hpp:77] Creating layer group0_block4_conv0_scale
I1023 12:27:51.763341 16540 net.cpp:124] Setting up group0_block4_conv0_scale
I1023 12:27:51.763347 16540 net.cpp:131] Top shape: 128 16 32 32 (2097152)
I1023 12:27:51.763350 16540 net.cpp:139] Memory required for data: 446170624
I1023 12:27:51.763355 16540 layer_factory.hpp:77] Creating layer group0_block4_conv0_relu
I1023 12:27:51.763360 16540 net.cpp:86] Creating Layer group0_block4_conv0_relu
I1023 12:27:51.763361 16540 net.cpp:408] group0_block4_conv0_relu <- group0_block4_conv0
I1023 12:27:51.763366 16540 net.cpp:369] group0_block4_conv0_relu -> group0_block4_conv0 (in-place)
I1023 12:27:51.764272 16540 net.cpp:124] Setting up group0_block4_conv0_relu
I1023 12:27:51.764295 16540 net.cpp:131] Top shape: 128 16 32 32 (2097152)
I1023 12:27:51.764298 16540 net.cpp:139] Memory required for data: 454559232
I1023 12:27:51.764300 16540 layer_factory.hpp:77] Creating layer group0_block4_conv1
I1023 12:27:51.764309 16540 net.cpp:86] Creating Layer group0_block4_conv1
I1023 12:27:51.764312 16540 net.cpp:408] group0_block4_conv1 <- group0_block4_conv0
I1023 12:27:51.764317 16540 net.cpp:382] group0_block4_conv1 -> group0_block4_conv1
I1023 12:27:51.766069 16540 net.cpp:124] Setting up group0_block4_conv1
I1023 12:27:51.766091 16540 net.cpp:131] Top shape: 128 16 32 32 (2097152)
I1023 12:27:51.766094 16540 net.cpp:139] Memory required for data: 462947840
I1023 12:27:51.766098 16540 layer_factory.hpp:77] Creating layer group0_block4_conv1_bn
I1023 12:27:51.766108 16540 net.cpp:86] Creating Layer group0_block4_conv1_bn
I1023 12:27:51.766110 16540 net.cpp:408] group0_block4_conv1_bn <- group0_block4_conv1
I1023 12:27:51.766115 16540 net.cpp:369] group0_block4_conv1_bn -> group0_block4_conv1 (in-place)
I1023 12:27:51.766324 16540 net.cpp:124] Setting up group0_block4_conv1_bn
I1023 12:27:51.766333 16540 net.cpp:131] Top shape: 128 16 32 32 (2097152)
I1023 12:27:51.766335 16540 net.cpp:139] Memory required for data: 471336448
I1023 12:27:51.766348 16540 layer_factory.hpp:77] Creating layer group0_block4_conv1_scale
I1023 12:27:51.766356 16540 net.cpp:86] Creating Layer group0_block4_conv1_scale
I1023 12:27:51.766360 16540 net.cpp:408] group0_block4_conv1_scale <- group0_block4_conv1
I1023 12:27:51.766364 16540 net.cpp:369] group0_block4_conv1_scale -> group0_block4_conv1 (in-place)
I1023 12:27:51.766402 16540 layer_factory.hpp:77] Creating layer group0_block4_conv1_scale
I1023 12:27:51.766511 16540 net.cpp:124] Setting up group0_block4_conv1_scale
I1023 12:27:51.766518 16540 net.cpp:131] Top shape: 128 16 32 32 (2097152)
I1023 12:27:51.766520 16540 net.cpp:139] Memory required for data: 479725056
I1023 12:27:51.766525 16540 layer_factory.hpp:77] Creating layer group0_block4_sum
I1023 12:27:51.766530 16540 net.cpp:86] Creating Layer group0_block4_sum
I1023 12:27:51.766533 16540 net.cpp:408] group0_block4_sum <- group0_block4_conv1
I1023 12:27:51.766537 16540 net.cpp:408] group0_block4_sum <- group0_block3_sum_group0_block3_relu_0_split_1
I1023 12:27:51.766541 16540 net.cpp:382] group0_block4_sum -> group0_block4_sum
I1023 12:27:51.766564 16540 net.cpp:124] Setting up group0_block4_sum
I1023 12:27:51.766571 16540 net.cpp:131] Top shape: 128 16 32 32 (2097152)
I1023 12:27:51.766582 16540 net.cpp:139] Memory required for data: 488113664
I1023 12:27:51.766584 16540 layer_factory.hpp:77] Creating layer group0_block4_relu
I1023 12:27:51.766590 16540 net.cpp:86] Creating Layer group0_block4_relu
I1023 12:27:51.766593 16540 net.cpp:408] group0_block4_relu <- group0_block4_sum
I1023 12:27:51.766602 16540 net.cpp:369] group0_block4_relu -> group0_block4_sum (in-place)
I1023 12:27:51.767175 16540 net.cpp:124] Setting up group0_block4_relu
I1023 12:27:51.767190 16540 net.cpp:131] Top shape: 128 16 32 32 (2097152)
I1023 12:27:51.767195 16540 net.cpp:139] Memory required for data: 496502272
I1023 12:27:51.767197 16540 layer_factory.hpp:77] Creating layer group0_block4_sum_group0_block4_relu_0_split
I1023 12:27:51.767202 16540 net.cpp:86] Creating Layer group0_block4_sum_group0_block4_relu_0_split
I1023 12:27:51.767205 16540 net.cpp:408] group0_block4_sum_group0_block4_relu_0_split <- group0_block4_sum
I1023 12:27:51.767211 16540 net.cpp:382] group0_block4_sum_group0_block4_relu_0_split -> group0_block4_sum_group0_block4_relu_0_split_0
I1023 12:27:51.767218 16540 net.cpp:382] group0_block4_sum_group0_block4_relu_0_split -> group0_block4_sum_group0_block4_relu_0_split_1
I1023 12:27:51.767264 16540 net.cpp:124] Setting up group0_block4_sum_group0_block4_relu_0_split
I1023 12:27:51.767271 16540 net.cpp:131] Top shape: 128 16 32 32 (2097152)
I1023 12:27:51.767274 16540 net.cpp:131] Top shape: 128 16 32 32 (2097152)
I1023 12:27:51.767277 16540 net.cpp:139] Memory required for data: 513279488
I1023 12:27:51.767278 16540 layer_factory.hpp:77] Creating layer group0_block5_conv0
I1023 12:27:51.767287 16540 net.cpp:86] Creating Layer group0_block5_conv0
I1023 12:27:51.767290 16540 net.cpp:408] group0_block5_conv0 <- group0_block4_sum_group0_block4_relu_0_split_0
I1023 12:27:51.767295 16540 net.cpp:382] group0_block5_conv0 -> group0_block5_conv0
I1023 12:27:51.769181 16540 net.cpp:124] Setting up group0_block5_conv0
I1023 12:27:51.769192 16540 net.cpp:131] Top shape: 128 16 32 32 (2097152)
I1023 12:27:51.769194 16540 net.cpp:139] Memory required for data: 521668096
I1023 12:27:51.769199 16540 layer_factory.hpp:77] Creating layer group0_block5_conv0_bn
I1023 12:27:51.769207 16540 net.cpp:86] Creating Layer group0_block5_conv0_bn
I1023 12:27:51.769209 16540 net.cpp:408] group0_block5_conv0_bn <- group0_block5_conv0
I1023 12:27:51.769215 16540 net.cpp:369] group0_block5_conv0_bn -> group0_block5_conv0 (in-place)
I1023 12:27:51.769404 16540 net.cpp:124] Setting up group0_block5_conv0_bn
I1023 12:27:51.769412 16540 net.cpp:131] Top shape: 128 16 32 32 (2097152)
I1023 12:27:51.769413 16540 net.cpp:139] Memory required for data: 530056704
I1023 12:27:51.769419 16540 layer_factory.hpp:77] Creating layer group0_block5_conv0_scale
I1023 12:27:51.769424 16540 net.cpp:86] Creating Layer group0_block5_conv0_scale
I1023 12:27:51.769428 16540 net.cpp:408] group0_block5_conv0_scale <- group0_block5_conv0
I1023 12:27:51.769431 16540 net.cpp:369] group0_block5_conv0_scale -> group0_block5_conv0 (in-place)
I1023 12:27:51.769467 16540 layer_factory.hpp:77] Creating layer group0_block5_conv0_scale
I1023 12:27:51.769583 16540 net.cpp:124] Setting up group0_block5_conv0_scale
I1023 12:27:51.769589 16540 net.cpp:131] Top shape: 128 16 32 32 (2097152)
I1023 12:27:51.769593 16540 net.cpp:139] Memory required for data: 538445312
I1023 12:27:51.769596 16540 layer_factory.hpp:77] Creating layer group0_block5_conv0_relu
I1023 12:27:51.769600 16540 net.cpp:86] Creating Layer group0_block5_conv0_relu
I1023 12:27:51.769604 16540 net.cpp:408] group0_block5_conv0_relu <- group0_block5_conv0
I1023 12:27:51.769608 16540 net.cpp:369] group0_block5_conv0_relu -> group0_block5_conv0 (in-place)
I1023 12:27:51.770030 16540 net.cpp:124] Setting up group0_block5_conv0_relu
I1023 12:27:51.770040 16540 net.cpp:131] Top shape: 128 16 32 32 (2097152)
I1023 12:27:51.770042 16540 net.cpp:139] Memory required for data: 546833920
I1023 12:27:51.770045 16540 layer_factory.hpp:77] Creating layer group0_block5_conv1
I1023 12:27:51.770063 16540 net.cpp:86] Creating Layer group0_block5_conv1
I1023 12:27:51.770067 16540 net.cpp:408] group0_block5_conv1 <- group0_block5_conv0
I1023 12:27:51.770072 16540 net.cpp:382] group0_block5_conv1 -> group0_block5_conv1
I1023 12:27:51.772264 16540 net.cpp:124] Setting up group0_block5_conv1
I1023 12:27:51.772275 16540 net.cpp:131] Top shape: 128 16 32 32 (2097152)
I1023 12:27:51.772279 16540 net.cpp:139] Memory required for data: 555222528
I1023 12:27:51.772282 16540 layer_factory.hpp:77] Creating layer group0_block5_conv1_bn
I1023 12:27:51.772289 16540 net.cpp:86] Creating Layer group0_block5_conv1_bn
I1023 12:27:51.772292 16540 net.cpp:408] group0_block5_conv1_bn <- group0_block5_conv1
I1023 12:27:51.772298 16540 net.cpp:369] group0_block5_conv1_bn -> group0_block5_conv1 (in-place)
I1023 12:27:51.772488 16540 net.cpp:124] Setting up group0_block5_conv1_bn
I1023 12:27:51.772495 16540 net.cpp:131] Top shape: 128 16 32 32 (2097152)
I1023 12:27:51.772498 16540 net.cpp:139] Memory required for data: 563611136
I1023 12:27:51.772503 16540 layer_factory.hpp:77] Creating layer group0_block5_conv1_scale
I1023 12:27:51.772509 16540 net.cpp:86] Creating Layer group0_block5_conv1_scale
I1023 12:27:51.772512 16540 net.cpp:408] group0_block5_conv1_scale <- group0_block5_conv1
I1023 12:27:51.772516 16540 net.cpp:369] group0_block5_conv1_scale -> group0_block5_conv1 (in-place)
I1023 12:27:51.772552 16540 layer_factory.hpp:77] Creating layer group0_block5_conv1_scale
I1023 12:27:51.772680 16540 net.cpp:124] Setting up group0_block5_conv1_scale
I1023 12:27:51.772687 16540 net.cpp:131] Top shape: 128 16 32 32 (2097152)
I1023 12:27:51.772691 16540 net.cpp:139] Memory required for data: 571999744
I1023 12:27:51.772696 16540 layer_factory.hpp:77] Creating layer group0_block5_sum
I1023 12:27:51.772712 16540 net.cpp:86] Creating Layer group0_block5_sum
I1023 12:27:51.772716 16540 net.cpp:408] group0_block5_sum <- group0_block5_conv1
I1023 12:27:51.772720 16540 net.cpp:408] group0_block5_sum <- group0_block4_sum_group0_block4_relu_0_split_1
I1023 12:27:51.772724 16540 net.cpp:382] group0_block5_sum -> group0_block5_sum
I1023 12:27:51.772750 16540 net.cpp:124] Setting up group0_block5_sum
I1023 12:27:51.772756 16540 net.cpp:131] Top shape: 128 16 32 32 (2097152)
I1023 12:27:51.772758 16540 net.cpp:139] Memory required for data: 580388352
I1023 12:27:51.772761 16540 layer_factory.hpp:77] Creating layer group0_block5_relu
I1023 12:27:51.772765 16540 net.cpp:86] Creating Layer group0_block5_relu
I1023 12:27:51.772768 16540 net.cpp:408] group0_block5_relu <- group0_block5_sum
I1023 12:27:51.772771 16540 net.cpp:369] group0_block5_relu -> group0_block5_sum (in-place)
I1023 12:27:51.773324 16540 net.cpp:124] Setting up group0_block5_relu
I1023 12:27:51.773334 16540 net.cpp:131] Top shape: 128 16 32 32 (2097152)
I1023 12:27:51.773336 16540 net.cpp:139] Memory required for data: 588776960
I1023 12:27:51.773339 16540 layer_factory.hpp:77] Creating layer group0_block5_sum_group0_block5_relu_0_split
I1023 12:27:51.773344 16540 net.cpp:86] Creating Layer group0_block5_sum_group0_block5_relu_0_split
I1023 12:27:51.773346 16540 net.cpp:408] group0_block5_sum_group0_block5_relu_0_split <- group0_block5_sum
I1023 12:27:51.773353 16540 net.cpp:382] group0_block5_sum_group0_block5_relu_0_split -> group0_block5_sum_group0_block5_relu_0_split_0
I1023 12:27:51.773360 16540 net.cpp:382] group0_block5_sum_group0_block5_relu_0_split -> group0_block5_sum_group0_block5_relu_0_split_1
I1023 12:27:51.773404 16540 net.cpp:124] Setting up group0_block5_sum_group0_block5_relu_0_split
I1023 12:27:51.773411 16540 net.cpp:131] Top shape: 128 16 32 32 (2097152)
I1023 12:27:51.773414 16540 net.cpp:131] Top shape: 128 16 32 32 (2097152)
I1023 12:27:51.773416 16540 net.cpp:139] Memory required for data: 605554176
I1023 12:27:51.773418 16540 layer_factory.hpp:77] Creating layer group0_block6_conv0
I1023 12:27:51.773427 16540 net.cpp:86] Creating Layer group0_block6_conv0
I1023 12:27:51.773429 16540 net.cpp:408] group0_block6_conv0 <- group0_block5_sum_group0_block5_relu_0_split_0
I1023 12:27:51.773447 16540 net.cpp:382] group0_block6_conv0 -> group0_block6_conv0
I1023 12:27:51.775328 16540 net.cpp:124] Setting up group0_block6_conv0
I1023 12:27:51.775339 16540 net.cpp:131] Top shape: 128 16 32 32 (2097152)
I1023 12:27:51.775343 16540 net.cpp:139] Memory required for data: 613942784
I1023 12:27:51.775347 16540 layer_factory.hpp:77] Creating layer group0_block6_conv0_bn
I1023 12:27:51.775353 16540 net.cpp:86] Creating Layer group0_block6_conv0_bn
I1023 12:27:51.775357 16540 net.cpp:408] group0_block6_conv0_bn <- group0_block6_conv0
I1023 12:27:51.775362 16540 net.cpp:369] group0_block6_conv0_bn -> group0_block6_conv0 (in-place)
I1023 12:27:51.775557 16540 net.cpp:124] Setting up group0_block6_conv0_bn
I1023 12:27:51.775564 16540 net.cpp:131] Top shape: 128 16 32 32 (2097152)
I1023 12:27:51.775566 16540 net.cpp:139] Memory required for data: 622331392
I1023 12:27:51.775573 16540 layer_factory.hpp:77] Creating layer group0_block6_conv0_scale
I1023 12:27:51.775578 16540 net.cpp:86] Creating Layer group0_block6_conv0_scale
I1023 12:27:51.775580 16540 net.cpp:408] group0_block6_conv0_scale <- group0_block6_conv0
I1023 12:27:51.775586 16540 net.cpp:369] group0_block6_conv0_scale -> group0_block6_conv0 (in-place)
I1023 12:27:51.775622 16540 layer_factory.hpp:77] Creating layer group0_block6_conv0_scale
I1023 12:27:51.775734 16540 net.cpp:124] Setting up group0_block6_conv0_scale
I1023 12:27:51.775741 16540 net.cpp:131] Top shape: 128 16 32 32 (2097152)
I1023 12:27:51.775744 16540 net.cpp:139] Memory required for data: 630720000
I1023 12:27:51.775748 16540 layer_factory.hpp:77] Creating layer group0_block6_conv0_relu
I1023 12:27:51.775753 16540 net.cpp:86] Creating Layer group0_block6_conv0_relu
I1023 12:27:51.775755 16540 net.cpp:408] group0_block6_conv0_relu <- group0_block6_conv0
I1023 12:27:51.775759 16540 net.cpp:369] group0_block6_conv0_relu -> group0_block6_conv0 (in-place)
I1023 12:27:51.776320 16540 net.cpp:124] Setting up group0_block6_conv0_relu
I1023 12:27:51.776332 16540 net.cpp:131] Top shape: 128 16 32 32 (2097152)
I1023 12:27:51.776335 16540 net.cpp:139] Memory required for data: 639108608
I1023 12:27:51.776337 16540 layer_factory.hpp:77] Creating layer group0_block6_conv1
I1023 12:27:51.776346 16540 net.cpp:86] Creating Layer group0_block6_conv1
I1023 12:27:51.776350 16540 net.cpp:408] group0_block6_conv1 <- group0_block6_conv0
I1023 12:27:51.776355 16540 net.cpp:382] group0_block6_conv1 -> group0_block6_conv1
I1023 12:27:51.778213 16540 net.cpp:124] Setting up group0_block6_conv1
I1023 12:27:51.778223 16540 net.cpp:131] Top shape: 128 16 32 32 (2097152)
I1023 12:27:51.778226 16540 net.cpp:139] Memory required for data: 647497216
I1023 12:27:51.778230 16540 layer_factory.hpp:77] Creating layer group0_block6_conv1_bn
I1023 12:27:51.778239 16540 net.cpp:86] Creating Layer group0_block6_conv1_bn
I1023 12:27:51.778241 16540 net.cpp:408] group0_block6_conv1_bn <- group0_block6_conv1
I1023 12:27:51.778247 16540 net.cpp:369] group0_block6_conv1_bn -> group0_block6_conv1 (in-place)
I1023 12:27:51.778446 16540 net.cpp:124] Setting up group0_block6_conv1_bn
I1023 12:27:51.778453 16540 net.cpp:131] Top shape: 128 16 32 32 (2097152)
I1023 12:27:51.778456 16540 net.cpp:139] Memory required for data: 655885824
I1023 12:27:51.778461 16540 layer_factory.hpp:77] Creating layer group0_block6_conv1_scale
I1023 12:27:51.778467 16540 net.cpp:86] Creating Layer group0_block6_conv1_scale
I1023 12:27:51.778470 16540 net.cpp:408] group0_block6_conv1_scale <- group0_block6_conv1
I1023 12:27:51.778475 16540 net.cpp:369] group0_block6_conv1_scale -> group0_block6_conv1 (in-place)
I1023 12:27:51.778512 16540 layer_factory.hpp:77] Creating layer group0_block6_conv1_scale
I1023 12:27:51.778633 16540 net.cpp:124] Setting up group0_block6_conv1_scale
I1023 12:27:51.778640 16540 net.cpp:131] Top shape: 128 16 32 32 (2097152)
I1023 12:27:51.778643 16540 net.cpp:139] Memory required for data: 664274432
I1023 12:27:51.778647 16540 layer_factory.hpp:77] Creating layer group0_block6_sum
I1023 12:27:51.778654 16540 net.cpp:86] Creating Layer group0_block6_sum
I1023 12:27:51.778666 16540 net.cpp:408] group0_block6_sum <- group0_block6_conv1
I1023 12:27:51.778671 16540 net.cpp:408] group0_block6_sum <- group0_block5_sum_group0_block5_relu_0_split_1
I1023 12:27:51.778676 16540 net.cpp:382] group0_block6_sum -> group0_block6_sum
I1023 12:27:51.778703 16540 net.cpp:124] Setting up group0_block6_sum
I1023 12:27:51.778709 16540 net.cpp:131] Top shape: 128 16 32 32 (2097152)
I1023 12:27:51.778712 16540 net.cpp:139] Memory required for data: 672663040
I1023 12:27:51.778713 16540 layer_factory.hpp:77] Creating layer group0_block6_relu
I1023 12:27:51.778717 16540 net.cpp:86] Creating Layer group0_block6_relu
I1023 12:27:51.778720 16540 net.cpp:408] group0_block6_relu <- group0_block6_sum
I1023 12:27:51.778728 16540 net.cpp:369] group0_block6_relu -> group0_block6_sum (in-place)
I1023 12:27:51.779600 16540 net.cpp:124] Setting up group0_block6_relu
I1023 12:27:51.779613 16540 net.cpp:131] Top shape: 128 16 32 32 (2097152)
I1023 12:27:51.779614 16540 net.cpp:139] Memory required for data: 681051648
I1023 12:27:51.779618 16540 layer_factory.hpp:77] Creating layer group0_block6_sum_group0_block6_relu_0_split
I1023 12:27:51.779623 16540 net.cpp:86] Creating Layer group0_block6_sum_group0_block6_relu_0_split
I1023 12:27:51.779625 16540 net.cpp:408] group0_block6_sum_group0_block6_relu_0_split <- group0_block6_sum
I1023 12:27:51.779631 16540 net.cpp:382] group0_block6_sum_group0_block6_relu_0_split -> group0_block6_sum_group0_block6_relu_0_split_0
I1023 12:27:51.779637 16540 net.cpp:382] group0_block6_sum_group0_block6_relu_0_split -> group0_block6_sum_group0_block6_relu_0_split_1
I1023 12:27:51.779685 16540 net.cpp:124] Setting up group0_block6_sum_group0_block6_relu_0_split
I1023 12:27:51.779691 16540 net.cpp:131] Top shape: 128 16 32 32 (2097152)
I1023 12:27:51.779695 16540 net.cpp:131] Top shape: 128 16 32 32 (2097152)
I1023 12:27:51.779696 16540 net.cpp:139] Memory required for data: 697828864
I1023 12:27:51.779698 16540 layer_factory.hpp:77] Creating layer group0_block7_conv0
I1023 12:27:51.779712 16540 net.cpp:86] Creating Layer group0_block7_conv0
I1023 12:27:51.779716 16540 net.cpp:408] group0_block7_conv0 <- group0_block6_sum_group0_block6_relu_0_split_0
I1023 12:27:51.779723 16540 net.cpp:382] group0_block7_conv0 -> group0_block7_conv0
I1023 12:27:51.781476 16540 net.cpp:124] Setting up group0_block7_conv0
I1023 12:27:51.781486 16540 net.cpp:131] Top shape: 128 16 32 32 (2097152)
I1023 12:27:51.781489 16540 net.cpp:139] Memory required for data: 706217472
I1023 12:27:51.781493 16540 layer_factory.hpp:77] Creating layer group0_block7_conv0_bn
I1023 12:27:51.781500 16540 net.cpp:86] Creating Layer group0_block7_conv0_bn
I1023 12:27:51.781503 16540 net.cpp:408] group0_block7_conv0_bn <- group0_block7_conv0
I1023 12:27:51.781509 16540 net.cpp:369] group0_block7_conv0_bn -> group0_block7_conv0 (in-place)
I1023 12:27:51.781708 16540 net.cpp:124] Setting up group0_block7_conv0_bn
I1023 12:27:51.781715 16540 net.cpp:131] Top shape: 128 16 32 32 (2097152)
I1023 12:27:51.781718 16540 net.cpp:139] Memory required for data: 714606080
I1023 12:27:51.781723 16540 layer_factory.hpp:77] Creating layer group0_block7_conv0_scale
I1023 12:27:51.781729 16540 net.cpp:86] Creating Layer group0_block7_conv0_scale
I1023 12:27:51.781733 16540 net.cpp:408] group0_block7_conv0_scale <- group0_block7_conv0
I1023 12:27:51.781736 16540 net.cpp:369] group0_block7_conv0_scale -> group0_block7_conv0 (in-place)
I1023 12:27:51.781775 16540 layer_factory.hpp:77] Creating layer group0_block7_conv0_scale
I1023 12:27:51.781890 16540 net.cpp:124] Setting up group0_block7_conv0_scale
I1023 12:27:51.781896 16540 net.cpp:131] Top shape: 128 16 32 32 (2097152)
I1023 12:27:51.781898 16540 net.cpp:139] Memory required for data: 722994688
I1023 12:27:51.781903 16540 layer_factory.hpp:77] Creating layer group0_block7_conv0_relu
I1023 12:27:51.781908 16540 net.cpp:86] Creating Layer group0_block7_conv0_relu
I1023 12:27:51.781911 16540 net.cpp:408] group0_block7_conv0_relu <- group0_block7_conv0
I1023 12:27:51.781924 16540 net.cpp:369] group0_block7_conv0_relu -> group0_block7_conv0 (in-place)
I1023 12:27:51.782481 16540 net.cpp:124] Setting up group0_block7_conv0_relu
I1023 12:27:51.782491 16540 net.cpp:131] Top shape: 128 16 32 32 (2097152)
I1023 12:27:51.782493 16540 net.cpp:139] Memory required for data: 731383296
I1023 12:27:51.782496 16540 layer_factory.hpp:77] Creating layer group0_block7_conv1
I1023 12:27:51.782505 16540 net.cpp:86] Creating Layer group0_block7_conv1
I1023 12:27:51.782508 16540 net.cpp:408] group0_block7_conv1 <- group0_block7_conv0
I1023 12:27:51.782516 16540 net.cpp:382] group0_block7_conv1 -> group0_block7_conv1
I1023 12:27:51.784468 16540 net.cpp:124] Setting up group0_block7_conv1
I1023 12:27:51.784479 16540 net.cpp:131] Top shape: 128 16 32 32 (2097152)
I1023 12:27:51.784482 16540 net.cpp:139] Memory required for data: 739771904
I1023 12:27:51.784487 16540 layer_factory.hpp:77] Creating layer group0_block7_conv1_bn
I1023 12:27:51.784493 16540 net.cpp:86] Creating Layer group0_block7_conv1_bn
I1023 12:27:51.784497 16540 net.cpp:408] group0_block7_conv1_bn <- group0_block7_conv1
I1023 12:27:51.784502 16540 net.cpp:369] group0_block7_conv1_bn -> group0_block7_conv1 (in-place)
I1023 12:27:51.784703 16540 net.cpp:124] Setting up group0_block7_conv1_bn
I1023 12:27:51.784709 16540 net.cpp:131] Top shape: 128 16 32 32 (2097152)
I1023 12:27:51.784713 16540 net.cpp:139] Memory required for data: 748160512
I1023 12:27:51.784718 16540 layer_factory.hpp:77] Creating layer group0_block7_conv1_scale
I1023 12:27:51.784724 16540 net.cpp:86] Creating Layer group0_block7_conv1_scale
I1023 12:27:51.784729 16540 net.cpp:408] group0_block7_conv1_scale <- group0_block7_conv1
I1023 12:27:51.784732 16540 net.cpp:369] group0_block7_conv1_scale -> group0_block7_conv1 (in-place)
I1023 12:27:51.784771 16540 layer_factory.hpp:77] Creating layer group0_block7_conv1_scale
I1023 12:27:51.784888 16540 net.cpp:124] Setting up group0_block7_conv1_scale
I1023 12:27:51.784895 16540 net.cpp:131] Top shape: 128 16 32 32 (2097152)
I1023 12:27:51.784898 16540 net.cpp:139] Memory required for data: 756549120
I1023 12:27:51.784905 16540 layer_factory.hpp:77] Creating layer group0_block7_sum
I1023 12:27:51.784915 16540 net.cpp:86] Creating Layer group0_block7_sum
I1023 12:27:51.784922 16540 net.cpp:408] group0_block7_sum <- group0_block7_conv1
I1023 12:27:51.784929 16540 net.cpp:408] group0_block7_sum <- group0_block6_sum_group0_block6_relu_0_split_1
I1023 12:27:51.784934 16540 net.cpp:382] group0_block7_sum -> group0_block7_sum
I1023 12:27:51.784963 16540 net.cpp:124] Setting up group0_block7_sum
I1023 12:27:51.784970 16540 net.cpp:131] Top shape: 128 16 32 32 (2097152)
I1023 12:27:51.784972 16540 net.cpp:139] Memory required for data: 764937728
I1023 12:27:51.784976 16540 layer_factory.hpp:77] Creating layer group0_block7_relu
I1023 12:27:51.784979 16540 net.cpp:86] Creating Layer group0_block7_relu
I1023 12:27:51.784981 16540 net.cpp:408] group0_block7_relu <- group0_block7_sum
I1023 12:27:51.784987 16540 net.cpp:369] group0_block7_relu -> group0_block7_sum (in-place)
I1023 12:27:51.785392 16540 net.cpp:124] Setting up group0_block7_relu
I1023 12:27:51.785403 16540 net.cpp:131] Top shape: 128 16 32 32 (2097152)
I1023 12:27:51.785406 16540 net.cpp:139] Memory required for data: 773326336
I1023 12:27:51.785409 16540 layer_factory.hpp:77] Creating layer group0_block7_sum_group0_block7_relu_0_split
I1023 12:27:51.785413 16540 net.cpp:86] Creating Layer group0_block7_sum_group0_block7_relu_0_split
I1023 12:27:51.785416 16540 net.cpp:408] group0_block7_sum_group0_block7_relu_0_split <- group0_block7_sum
I1023 12:27:51.785423 16540 net.cpp:382] group0_block7_sum_group0_block7_relu_0_split -> group0_block7_sum_group0_block7_relu_0_split_0
I1023 12:27:51.785429 16540 net.cpp:382] group0_block7_sum_group0_block7_relu_0_split -> group0_block7_sum_group0_block7_relu_0_split_1
I1023 12:27:51.785475 16540 net.cpp:124] Setting up group0_block7_sum_group0_block7_relu_0_split
I1023 12:27:51.785481 16540 net.cpp:131] Top shape: 128 16 32 32 (2097152)
I1023 12:27:51.785495 16540 net.cpp:131] Top shape: 128 16 32 32 (2097152)
I1023 12:27:51.785498 16540 net.cpp:139] Memory required for data: 790103552
I1023 12:27:51.785501 16540 layer_factory.hpp:77] Creating layer group0_block8_conv0
I1023 12:27:51.785509 16540 net.cpp:86] Creating Layer group0_block8_conv0
I1023 12:27:51.785512 16540 net.cpp:408] group0_block8_conv0 <- group0_block7_sum_group0_block7_relu_0_split_0
I1023 12:27:51.785517 16540 net.cpp:382] group0_block8_conv0 -> group0_block8_conv0
I1023 12:27:51.788228 16540 net.cpp:124] Setting up group0_block8_conv0
I1023 12:27:51.788240 16540 net.cpp:131] Top shape: 128 16 32 32 (2097152)
I1023 12:27:51.788244 16540 net.cpp:139] Memory required for data: 798492160
I1023 12:27:51.788249 16540 layer_factory.hpp:77] Creating layer group0_block8_conv0_bn
I1023 12:27:51.788255 16540 net.cpp:86] Creating Layer group0_block8_conv0_bn
I1023 12:27:51.788259 16540 net.cpp:408] group0_block8_conv0_bn <- group0_block8_conv0
I1023 12:27:51.788264 16540 net.cpp:369] group0_block8_conv0_bn -> group0_block8_conv0 (in-place)
I1023 12:27:51.788462 16540 net.cpp:124] Setting up group0_block8_conv0_bn
I1023 12:27:51.788470 16540 net.cpp:131] Top shape: 128 16 32 32 (2097152)
I1023 12:27:51.788472 16540 net.cpp:139] Memory required for data: 806880768
I1023 12:27:51.788477 16540 layer_factory.hpp:77] Creating layer group0_block8_conv0_scale
I1023 12:27:51.788482 16540 net.cpp:86] Creating Layer group0_block8_conv0_scale
I1023 12:27:51.788486 16540 net.cpp:408] group0_block8_conv0_scale <- group0_block8_conv0
I1023 12:27:51.788489 16540 net.cpp:369] group0_block8_conv0_scale -> group0_block8_conv0 (in-place)
I1023 12:27:51.788529 16540 layer_factory.hpp:77] Creating layer group0_block8_conv0_scale
I1023 12:27:51.788646 16540 net.cpp:124] Setting up group0_block8_conv0_scale
I1023 12:27:51.788652 16540 net.cpp:131] Top shape: 128 16 32 32 (2097152)
I1023 12:27:51.788655 16540 net.cpp:139] Memory required for data: 815269376
I1023 12:27:51.788660 16540 layer_factory.hpp:77] Creating layer group0_block8_conv0_relu
I1023 12:27:51.788664 16540 net.cpp:86] Creating Layer group0_block8_conv0_relu
I1023 12:27:51.788666 16540 net.cpp:408] group0_block8_conv0_relu <- group0_block8_conv0
I1023 12:27:51.788671 16540 net.cpp:369] group0_block8_conv0_relu -> group0_block8_conv0 (in-place)
I1023 12:27:51.789075 16540 net.cpp:124] Setting up group0_block8_conv0_relu
I1023 12:27:51.789085 16540 net.cpp:131] Top shape: 128 16 32 32 (2097152)
I1023 12:27:51.789088 16540 net.cpp:139] Memory required for data: 823657984
I1023 12:27:51.789090 16540 layer_factory.hpp:77] Creating layer group0_block8_conv1
I1023 12:27:51.789098 16540 net.cpp:86] Creating Layer group0_block8_conv1
I1023 12:27:51.789101 16540 net.cpp:408] group0_block8_conv1 <- group0_block8_conv0
I1023 12:27:51.789115 16540 net.cpp:382] group0_block8_conv1 -> group0_block8_conv1
I1023 12:27:51.791028 16540 net.cpp:124] Setting up group0_block8_conv1
I1023 12:27:51.791049 16540 net.cpp:131] Top shape: 128 16 32 32 (2097152)
I1023 12:27:51.791052 16540 net.cpp:139] Memory required for data: 832046592
I1023 12:27:51.791057 16540 layer_factory.hpp:77] Creating layer group0_block8_conv1_bn
I1023 12:27:51.791064 16540 net.cpp:86] Creating Layer group0_block8_conv1_bn
I1023 12:27:51.791067 16540 net.cpp:408] group0_block8_conv1_bn <- group0_block8_conv1
I1023 12:27:51.791071 16540 net.cpp:369] group0_block8_conv1_bn -> group0_block8_conv1 (in-place)
I1023 12:27:51.791275 16540 net.cpp:124] Setting up group0_block8_conv1_bn
I1023 12:27:51.791281 16540 net.cpp:131] Top shape: 128 16 32 32 (2097152)
I1023 12:27:51.791285 16540 net.cpp:139] Memory required for data: 840435200
I1023 12:27:51.791290 16540 layer_factory.hpp:77] Creating layer group0_block8_conv1_scale
I1023 12:27:51.791302 16540 net.cpp:86] Creating Layer group0_block8_conv1_scale
I1023 12:27:51.791304 16540 net.cpp:408] group0_block8_conv1_scale <- group0_block8_conv1
I1023 12:27:51.791308 16540 net.cpp:369] group0_block8_conv1_scale -> group0_block8_conv1 (in-place)
I1023 12:27:51.791362 16540 layer_factory.hpp:77] Creating layer group0_block8_conv1_scale
I1023 12:27:51.791497 16540 net.cpp:124] Setting up group0_block8_conv1_scale
I1023 12:27:51.791503 16540 net.cpp:131] Top shape: 128 16 32 32 (2097152)
I1023 12:27:51.791507 16540 net.cpp:139] Memory required for data: 848823808
I1023 12:27:51.791512 16540 layer_factory.hpp:77] Creating layer group0_block8_sum
I1023 12:27:51.791517 16540 net.cpp:86] Creating Layer group0_block8_sum
I1023 12:27:51.791519 16540 net.cpp:408] group0_block8_sum <- group0_block8_conv1
I1023 12:27:51.791522 16540 net.cpp:408] group0_block8_sum <- group0_block7_sum_group0_block7_relu_0_split_1
I1023 12:27:51.791528 16540 net.cpp:382] group0_block8_sum -> group0_block8_sum
I1023 12:27:51.791556 16540 net.cpp:124] Setting up group0_block8_sum
I1023 12:27:51.791560 16540 net.cpp:131] Top shape: 128 16 32 32 (2097152)
I1023 12:27:51.791563 16540 net.cpp:139] Memory required for data: 857212416
I1023 12:27:51.791565 16540 layer_factory.hpp:77] Creating layer group0_block8_relu
I1023 12:27:51.791569 16540 net.cpp:86] Creating Layer group0_block8_relu
I1023 12:27:51.791571 16540 net.cpp:408] group0_block8_relu <- group0_block8_sum
I1023 12:27:51.791576 16540 net.cpp:369] group0_block8_relu -> group0_block8_sum (in-place)
I1023 12:27:51.792127 16540 net.cpp:124] Setting up group0_block8_relu
I1023 12:27:51.792136 16540 net.cpp:131] Top shape: 128 16 32 32 (2097152)
I1023 12:27:51.792138 16540 net.cpp:139] Memory required for data: 865601024
I1023 12:27:51.792140 16540 layer_factory.hpp:77] Creating layer group0_block8_sum_group0_block8_relu_0_split
I1023 12:27:51.792146 16540 net.cpp:86] Creating Layer group0_block8_sum_group0_block8_relu_0_split
I1023 12:27:51.792150 16540 net.cpp:408] group0_block8_sum_group0_block8_relu_0_split <- group0_block8_sum
I1023 12:27:51.792155 16540 net.cpp:382] group0_block8_sum_group0_block8_relu_0_split -> group0_block8_sum_group0_block8_relu_0_split_0
I1023 12:27:51.792160 16540 net.cpp:382] group0_block8_sum_group0_block8_relu_0_split -> group0_block8_sum_group0_block8_relu_0_split_1
I1023 12:27:51.792207 16540 net.cpp:124] Setting up group0_block8_sum_group0_block8_relu_0_split
I1023 12:27:51.792212 16540 net.cpp:131] Top shape: 128 16 32 32 (2097152)
I1023 12:27:51.792214 16540 net.cpp:131] Top shape: 128 16 32 32 (2097152)
I1023 12:27:51.792217 16540 net.cpp:139] Memory required for data: 882378240
I1023 12:27:51.792219 16540 layer_factory.hpp:77] Creating layer group1_block0_conv0
I1023 12:27:51.792227 16540 net.cpp:86] Creating Layer group1_block0_conv0
I1023 12:27:51.792230 16540 net.cpp:408] group1_block0_conv0 <- group0_block8_sum_group0_block8_relu_0_split_0
I1023 12:27:51.792235 16540 net.cpp:382] group1_block0_conv0 -> group1_block0_conv0
I1023 12:27:51.794471 16540 net.cpp:124] Setting up group1_block0_conv0
I1023 12:27:51.794481 16540 net.cpp:131] Top shape: 128 32 16 16 (1048576)
I1023 12:27:51.794482 16540 net.cpp:139] Memory required for data: 886572544
I1023 12:27:51.794487 16540 layer_factory.hpp:77] Creating layer group1_block0_conv0_bn
I1023 12:27:51.794494 16540 net.cpp:86] Creating Layer group1_block0_conv0_bn
I1023 12:27:51.794497 16540 net.cpp:408] group1_block0_conv0_bn <- group1_block0_conv0
I1023 12:27:51.794502 16540 net.cpp:369] group1_block0_conv0_bn -> group1_block0_conv0 (in-place)
I1023 12:27:51.794718 16540 net.cpp:124] Setting up group1_block0_conv0_bn
I1023 12:27:51.794723 16540 net.cpp:131] Top shape: 128 32 16 16 (1048576)
I1023 12:27:51.794726 16540 net.cpp:139] Memory required for data: 890766848
I1023 12:27:51.794733 16540 layer_factory.hpp:77] Creating layer group1_block0_conv0_scale
I1023 12:27:51.794737 16540 net.cpp:86] Creating Layer group1_block0_conv0_scale
I1023 12:27:51.794739 16540 net.cpp:408] group1_block0_conv0_scale <- group1_block0_conv0
I1023 12:27:51.794744 16540 net.cpp:369] group1_block0_conv0_scale -> group1_block0_conv0 (in-place)
I1023 12:27:51.794782 16540 layer_factory.hpp:77] Creating layer group1_block0_conv0_scale
I1023 12:27:51.794898 16540 net.cpp:124] Setting up group1_block0_conv0_scale
I1023 12:27:51.794911 16540 net.cpp:131] Top shape: 128 32 16 16 (1048576)
I1023 12:27:51.794914 16540 net.cpp:139] Memory required for data: 894961152
I1023 12:27:51.794919 16540 layer_factory.hpp:77] Creating layer group1_block0_conv0_relu
I1023 12:27:51.794924 16540 net.cpp:86] Creating Layer group1_block0_conv0_relu
I1023 12:27:51.794927 16540 net.cpp:408] group1_block0_conv0_relu <- group1_block0_conv0
I1023 12:27:51.794930 16540 net.cpp:369] group1_block0_conv0_relu -> group1_block0_conv0 (in-place)
I1023 12:27:51.795800 16540 net.cpp:124] Setting up group1_block0_conv0_relu
I1023 12:27:51.795809 16540 net.cpp:131] Top shape: 128 32 16 16 (1048576)
I1023 12:27:51.795812 16540 net.cpp:139] Memory required for data: 899155456
I1023 12:27:51.795815 16540 layer_factory.hpp:77] Creating layer group1_block0_conv1
I1023 12:27:51.795823 16540 net.cpp:86] Creating Layer group1_block0_conv1
I1023 12:27:51.795826 16540 net.cpp:408] group1_block0_conv1 <- group1_block0_conv0
I1023 12:27:51.795831 16540 net.cpp:382] group1_block0_conv1 -> group1_block0_conv1
I1023 12:27:51.797814 16540 net.cpp:124] Setting up group1_block0_conv1
I1023 12:27:51.797822 16540 net.cpp:131] Top shape: 128 32 16 16 (1048576)
I1023 12:27:51.797825 16540 net.cpp:139] Memory required for data: 903349760
I1023 12:27:51.797829 16540 layer_factory.hpp:77] Creating layer group1_block0_conv1_bn
I1023 12:27:51.797837 16540 net.cpp:86] Creating Layer group1_block0_conv1_bn
I1023 12:27:51.797839 16540 net.cpp:408] group1_block0_conv1_bn <- group1_block0_conv1
I1023 12:27:51.797843 16540 net.cpp:369] group1_block0_conv1_bn -> group1_block0_conv1 (in-place)
I1023 12:27:51.798043 16540 net.cpp:124] Setting up group1_block0_conv1_bn
I1023 12:27:51.798048 16540 net.cpp:131] Top shape: 128 32 16 16 (1048576)
I1023 12:27:51.798049 16540 net.cpp:139] Memory required for data: 907544064
I1023 12:27:51.798055 16540 layer_factory.hpp:77] Creating layer group1_block0_conv1_scale
I1023 12:27:51.798060 16540 net.cpp:86] Creating Layer group1_block0_conv1_scale
I1023 12:27:51.798063 16540 net.cpp:408] group1_block0_conv1_scale <- group1_block0_conv1
I1023 12:27:51.798066 16540 net.cpp:369] group1_block0_conv1_scale -> group1_block0_conv1 (in-place)
I1023 12:27:51.798105 16540 layer_factory.hpp:77] Creating layer group1_block0_conv1_scale
I1023 12:27:51.798218 16540 net.cpp:124] Setting up group1_block0_conv1_scale
I1023 12:27:51.798223 16540 net.cpp:131] Top shape: 128 32 16 16 (1048576)
I1023 12:27:51.798224 16540 net.cpp:139] Memory required for data: 911738368
I1023 12:27:51.798228 16540 layer_factory.hpp:77] Creating layer group1_block0_proj
I1023 12:27:51.798236 16540 net.cpp:86] Creating Layer group1_block0_proj
I1023 12:27:51.798239 16540 net.cpp:408] group1_block0_proj <- group0_block8_sum_group0_block8_relu_0_split_1
I1023 12:27:51.798245 16540 net.cpp:382] group1_block0_proj -> group1_block0_proj
I1023 12:27:51.800194 16540 net.cpp:124] Setting up group1_block0_proj
I1023 12:27:51.800202 16540 net.cpp:131] Top shape: 128 32 16 16 (1048576)
I1023 12:27:51.800204 16540 net.cpp:139] Memory required for data: 915932672
I1023 12:27:51.800209 16540 layer_factory.hpp:77] Creating layer group1_block0_proj_bn
I1023 12:27:51.800216 16540 net.cpp:86] Creating Layer group1_block0_proj_bn
I1023 12:27:51.800220 16540 net.cpp:408] group1_block0_proj_bn <- group1_block0_proj
I1023 12:27:51.800225 16540 net.cpp:369] group1_block0_proj_bn -> group1_block0_proj (in-place)
I1023 12:27:51.800457 16540 net.cpp:124] Setting up group1_block0_proj_bn
I1023 12:27:51.800463 16540 net.cpp:131] Top shape: 128 32 16 16 (1048576)
I1023 12:27:51.800467 16540 net.cpp:139] Memory required for data: 920126976
I1023 12:27:51.800484 16540 layer_factory.hpp:77] Creating layer group1_block0_proj_scale
I1023 12:27:51.800492 16540 net.cpp:86] Creating Layer group1_block0_proj_scale
I1023 12:27:51.800494 16540 net.cpp:408] group1_block0_proj_scale <- group1_block0_proj
I1023 12:27:51.800499 16540 net.cpp:369] group1_block0_proj_scale -> group1_block0_proj (in-place)
I1023 12:27:51.800552 16540 layer_factory.hpp:77] Creating layer group1_block0_proj_scale
I1023 12:27:51.800673 16540 net.cpp:124] Setting up group1_block0_proj_scale
I1023 12:27:51.800678 16540 net.cpp:131] Top shape: 128 32 16 16 (1048576)
I1023 12:27:51.800679 16540 net.cpp:139] Memory required for data: 924321280
I1023 12:27:51.800683 16540 layer_factory.hpp:77] Creating layer group1_block0_sum
I1023 12:27:51.800688 16540 net.cpp:86] Creating Layer group1_block0_sum
I1023 12:27:51.800691 16540 net.cpp:408] group1_block0_sum <- group1_block0_proj
I1023 12:27:51.800705 16540 net.cpp:408] group1_block0_sum <- group1_block0_conv1
I1023 12:27:51.800710 16540 net.cpp:382] group1_block0_sum -> group1_block0_sum
I1023 12:27:51.800732 16540 net.cpp:124] Setting up group1_block0_sum
I1023 12:27:51.800737 16540 net.cpp:131] Top shape: 128 32 16 16 (1048576)
I1023 12:27:51.800740 16540 net.cpp:139] Memory required for data: 928515584
I1023 12:27:51.800741 16540 layer_factory.hpp:77] Creating layer group1_block0_relu
I1023 12:27:51.800745 16540 net.cpp:86] Creating Layer group1_block0_relu
I1023 12:27:51.800747 16540 net.cpp:408] group1_block0_relu <- group1_block0_sum
I1023 12:27:51.800753 16540 net.cpp:369] group1_block0_relu -> group1_block0_sum (in-place)
I1023 12:27:51.801156 16540 net.cpp:124] Setting up group1_block0_relu
I1023 12:27:51.801163 16540 net.cpp:131] Top shape: 128 32 16 16 (1048576)
I1023 12:27:51.801165 16540 net.cpp:139] Memory required for data: 932709888
I1023 12:27:51.801168 16540 layer_factory.hpp:77] Creating layer group1_block0_sum_group1_block0_relu_0_split
I1023 12:27:51.801172 16540 net.cpp:86] Creating Layer group1_block0_sum_group1_block0_relu_0_split
I1023 12:27:51.801175 16540 net.cpp:408] group1_block0_sum_group1_block0_relu_0_split <- group1_block0_sum
I1023 12:27:51.801183 16540 net.cpp:382] group1_block0_sum_group1_block0_relu_0_split -> group1_block0_sum_group1_block0_relu_0_split_0
I1023 12:27:51.801189 16540 net.cpp:382] group1_block0_sum_group1_block0_relu_0_split -> group1_block0_sum_group1_block0_relu_0_split_1
I1023 12:27:51.801236 16540 net.cpp:124] Setting up group1_block0_sum_group1_block0_relu_0_split
I1023 12:27:51.801241 16540 net.cpp:131] Top shape: 128 32 16 16 (1048576)
I1023 12:27:51.801244 16540 net.cpp:131] Top shape: 128 32 16 16 (1048576)
I1023 12:27:51.801246 16540 net.cpp:139] Memory required for data: 941098496
I1023 12:27:51.801249 16540 layer_factory.hpp:77] Creating layer group1_block1_conv0
I1023 12:27:51.801256 16540 net.cpp:86] Creating Layer group1_block1_conv0
I1023 12:27:51.801259 16540 net.cpp:408] group1_block1_conv0 <- group1_block0_sum_group1_block0_relu_0_split_0
I1023 12:27:51.801265 16540 net.cpp:382] group1_block1_conv0 -> group1_block1_conv0
I1023 12:27:51.803588 16540 net.cpp:124] Setting up group1_block1_conv0
I1023 12:27:51.803597 16540 net.cpp:131] Top shape: 128 32 16 16 (1048576)
I1023 12:27:51.803599 16540 net.cpp:139] Memory required for data: 945292800
I1023 12:27:51.803604 16540 layer_factory.hpp:77] Creating layer group1_block1_conv0_bn
I1023 12:27:51.803611 16540 net.cpp:86] Creating Layer group1_block1_conv0_bn
I1023 12:27:51.803614 16540 net.cpp:408] group1_block1_conv0_bn <- group1_block1_conv0
I1023 12:27:51.803619 16540 net.cpp:369] group1_block1_conv0_bn -> group1_block1_conv0 (in-place)
I1023 12:27:51.803833 16540 net.cpp:124] Setting up group1_block1_conv0_bn
I1023 12:27:51.803838 16540 net.cpp:131] Top shape: 128 32 16 16 (1048576)
I1023 12:27:51.803840 16540 net.cpp:139] Memory required for data: 949487104
I1023 12:27:51.803845 16540 layer_factory.hpp:77] Creating layer group1_block1_conv0_scale
I1023 12:27:51.803851 16540 net.cpp:86] Creating Layer group1_block1_conv0_scale
I1023 12:27:51.803854 16540 net.cpp:408] group1_block1_conv0_scale <- group1_block1_conv0
I1023 12:27:51.803858 16540 net.cpp:369] group1_block1_conv0_scale -> group1_block1_conv0 (in-place)
I1023 12:27:51.803900 16540 layer_factory.hpp:77] Creating layer group1_block1_conv0_scale
I1023 12:27:51.804018 16540 net.cpp:124] Setting up group1_block1_conv0_scale
I1023 12:27:51.804033 16540 net.cpp:131] Top shape: 128 32 16 16 (1048576)
I1023 12:27:51.804035 16540 net.cpp:139] Memory required for data: 953681408
I1023 12:27:51.804039 16540 layer_factory.hpp:77] Creating layer group1_block1_conv0_relu
I1023 12:27:51.804044 16540 net.cpp:86] Creating Layer group1_block1_conv0_relu
I1023 12:27:51.804046 16540 net.cpp:408] group1_block1_conv0_relu <- group1_block1_conv0
I1023 12:27:51.804051 16540 net.cpp:369] group1_block1_conv0_relu -> group1_block1_conv0 (in-place)
I1023 12:27:51.804703 16540 net.cpp:124] Setting up group1_block1_conv0_relu
I1023 12:27:51.804713 16540 net.cpp:131] Top shape: 128 32 16 16 (1048576)
I1023 12:27:51.804716 16540 net.cpp:139] Memory required for data: 957875712
I1023 12:27:51.804718 16540 layer_factory.hpp:77] Creating layer group1_block1_conv1
I1023 12:27:51.804728 16540 net.cpp:86] Creating Layer group1_block1_conv1
I1023 12:27:51.804730 16540 net.cpp:408] group1_block1_conv1 <- group1_block1_conv0
I1023 12:27:51.804735 16540 net.cpp:382] group1_block1_conv1 -> group1_block1_conv1
I1023 12:27:51.806566 16540 net.cpp:124] Setting up group1_block1_conv1
I1023 12:27:51.806578 16540 net.cpp:131] Top shape: 128 32 16 16 (1048576)
I1023 12:27:51.806581 16540 net.cpp:139] Memory required for data: 962070016
I1023 12:27:51.806586 16540 layer_factory.hpp:77] Creating layer group1_block1_conv1_bn
I1023 12:27:51.806592 16540 net.cpp:86] Creating Layer group1_block1_conv1_bn
I1023 12:27:51.806603 16540 net.cpp:408] group1_block1_conv1_bn <- group1_block1_conv1
I1023 12:27:51.806612 16540 net.cpp:369] group1_block1_conv1_bn -> group1_block1_conv1 (in-place)
I1023 12:27:51.806818 16540 net.cpp:124] Setting up group1_block1_conv1_bn
I1023 12:27:51.806823 16540 net.cpp:131] Top shape: 128 32 16 16 (1048576)
I1023 12:27:51.806825 16540 net.cpp:139] Memory required for data: 966264320
I1023 12:27:51.806831 16540 layer_factory.hpp:77] Creating layer group1_block1_conv1_scale
I1023 12:27:51.806836 16540 net.cpp:86] Creating Layer group1_block1_conv1_scale
I1023 12:27:51.806839 16540 net.cpp:408] group1_block1_conv1_scale <- group1_block1_conv1
I1023 12:27:51.806843 16540 net.cpp:369] group1_block1_conv1_scale -> group1_block1_conv1 (in-place)
I1023 12:27:51.806881 16540 layer_factory.hpp:77] Creating layer group1_block1_conv1_scale
I1023 12:27:51.806996 16540 net.cpp:124] Setting up group1_block1_conv1_scale
I1023 12:27:51.807001 16540 net.cpp:131] Top shape: 128 32 16 16 (1048576)
I1023 12:27:51.807003 16540 net.cpp:139] Memory required for data: 970458624
I1023 12:27:51.807008 16540 layer_factory.hpp:77] Creating layer group1_block1_sum
I1023 12:27:51.807013 16540 net.cpp:86] Creating Layer group1_block1_sum
I1023 12:27:51.807016 16540 net.cpp:408] group1_block1_sum <- group1_block1_conv1
I1023 12:27:51.807019 16540 net.cpp:408] group1_block1_sum <- group1_block0_sum_group1_block0_relu_0_split_1
I1023 12:27:51.807024 16540 net.cpp:382] group1_block1_sum -> group1_block1_sum
I1023 12:27:51.807045 16540 net.cpp:124] Setting up group1_block1_sum
I1023 12:27:51.807050 16540 net.cpp:131] Top shape: 128 32 16 16 (1048576)
I1023 12:27:51.807052 16540 net.cpp:139] Memory required for data: 974652928
I1023 12:27:51.807054 16540 layer_factory.hpp:77] Creating layer group1_block1_relu
I1023 12:27:51.807060 16540 net.cpp:86] Creating Layer group1_block1_relu
I1023 12:27:51.807062 16540 net.cpp:408] group1_block1_relu <- group1_block1_sum
I1023 12:27:51.807066 16540 net.cpp:369] group1_block1_relu -> group1_block1_sum (in-place)
I1023 12:27:51.807608 16540 net.cpp:124] Setting up group1_block1_relu
I1023 12:27:51.807618 16540 net.cpp:131] Top shape: 128 32 16 16 (1048576)
I1023 12:27:51.807621 16540 net.cpp:139] Memory required for data: 978847232
I1023 12:27:51.807623 16540 layer_factory.hpp:77] Creating layer group1_block1_sum_group1_block1_relu_0_split
I1023 12:27:51.807628 16540 net.cpp:86] Creating Layer group1_block1_sum_group1_block1_relu_0_split
I1023 12:27:51.807631 16540 net.cpp:408] group1_block1_sum_group1_block1_relu_0_split <- group1_block1_sum
I1023 12:27:51.807636 16540 net.cpp:382] group1_block1_sum_group1_block1_relu_0_split -> group1_block1_sum_group1_block1_relu_0_split_0
I1023 12:27:51.807652 16540 net.cpp:382] group1_block1_sum_group1_block1_relu_0_split -> group1_block1_sum_group1_block1_relu_0_split_1
I1023 12:27:51.807703 16540 net.cpp:124] Setting up group1_block1_sum_group1_block1_relu_0_split
I1023 12:27:51.807708 16540 net.cpp:131] Top shape: 128 32 16 16 (1048576)
I1023 12:27:51.807710 16540 net.cpp:131] Top shape: 128 32 16 16 (1048576)
I1023 12:27:51.807713 16540 net.cpp:139] Memory required for data: 987235840
I1023 12:27:51.807714 16540 layer_factory.hpp:77] Creating layer group1_block2_conv0
I1023 12:27:51.807723 16540 net.cpp:86] Creating Layer group1_block2_conv0
I1023 12:27:51.807725 16540 net.cpp:408] group1_block2_conv0 <- group1_block1_sum_group1_block1_relu_0_split_0
I1023 12:27:51.807731 16540 net.cpp:382] group1_block2_conv0 -> group1_block2_conv0
I1023 12:27:51.809657 16540 net.cpp:124] Setting up group1_block2_conv0
I1023 12:27:51.809666 16540 net.cpp:131] Top shape: 128 32 16 16 (1048576)
I1023 12:27:51.809669 16540 net.cpp:139] Memory required for data: 991430144
I1023 12:27:51.809672 16540 layer_factory.hpp:77] Creating layer group1_block2_conv0_bn
I1023 12:27:51.809679 16540 net.cpp:86] Creating Layer group1_block2_conv0_bn
I1023 12:27:51.809682 16540 net.cpp:408] group1_block2_conv0_bn <- group1_block2_conv0
I1023 12:27:51.809689 16540 net.cpp:369] group1_block2_conv0_bn -> group1_block2_conv0 (in-place)
I1023 12:27:51.809931 16540 net.cpp:124] Setting up group1_block2_conv0_bn
I1023 12:27:51.809937 16540 net.cpp:131] Top shape: 128 32 16 16 (1048576)
I1023 12:27:51.809939 16540 net.cpp:139] Memory required for data: 995624448
I1023 12:27:51.809945 16540 layer_factory.hpp:77] Creating layer group1_block2_conv0_scale
I1023 12:27:51.809952 16540 net.cpp:86] Creating Layer group1_block2_conv0_scale
I1023 12:27:51.809955 16540 net.cpp:408] group1_block2_conv0_scale <- group1_block2_conv0
I1023 12:27:51.809959 16540 net.cpp:369] group1_block2_conv0_scale -> group1_block2_conv0 (in-place)
I1023 12:27:51.809999 16540 layer_factory.hpp:77] Creating layer group1_block2_conv0_scale
I1023 12:27:51.810128 16540 net.cpp:124] Setting up group1_block2_conv0_scale
I1023 12:27:51.810134 16540 net.cpp:131] Top shape: 128 32 16 16 (1048576)
I1023 12:27:51.810137 16540 net.cpp:139] Memory required for data: 999818752
I1023 12:27:51.810140 16540 layer_factory.hpp:77] Creating layer group1_block2_conv0_relu
I1023 12:27:51.810145 16540 net.cpp:86] Creating Layer group1_block2_conv0_relu
I1023 12:27:51.810148 16540 net.cpp:408] group1_block2_conv0_relu <- group1_block2_conv0
I1023 12:27:51.810153 16540 net.cpp:369] group1_block2_conv0_relu -> group1_block2_conv0 (in-place)
I1023 12:27:51.810806 16540 net.cpp:124] Setting up group1_block2_conv0_relu
I1023 12:27:51.810815 16540 net.cpp:131] Top shape: 128 32 16 16 (1048576)
I1023 12:27:51.810817 16540 net.cpp:139] Memory required for data: 1004013056
I1023 12:27:51.810820 16540 layer_factory.hpp:77] Creating layer group1_block2_conv1
I1023 12:27:51.810828 16540 net.cpp:86] Creating Layer group1_block2_conv1
I1023 12:27:51.810832 16540 net.cpp:408] group1_block2_conv1 <- group1_block2_conv0
I1023 12:27:51.810837 16540 net.cpp:382] group1_block2_conv1 -> group1_block2_conv1
I1023 12:27:51.813004 16540 net.cpp:124] Setting up group1_block2_conv1
I1023 12:27:51.813014 16540 net.cpp:131] Top shape: 128 32 16 16 (1048576)
I1023 12:27:51.813017 16540 net.cpp:139] Memory required for data: 1008207360
I1023 12:27:51.813032 16540 layer_factory.hpp:77] Creating layer group1_block2_conv1_bn
I1023 12:27:51.813040 16540 net.cpp:86] Creating Layer group1_block2_conv1_bn
I1023 12:27:51.813042 16540 net.cpp:408] group1_block2_conv1_bn <- group1_block2_conv1
I1023 12:27:51.813047 16540 net.cpp:369] group1_block2_conv1_bn -> group1_block2_conv1 (in-place)
I1023 12:27:51.813253 16540 net.cpp:124] Setting up group1_block2_conv1_bn
I1023 12:27:51.813258 16540 net.cpp:131] Top shape: 128 32 16 16 (1048576)
I1023 12:27:51.813261 16540 net.cpp:139] Memory required for data: 1012401664
I1023 12:27:51.813274 16540 layer_factory.hpp:77] Creating layer group1_block2_conv1_scale
I1023 12:27:51.813280 16540 net.cpp:86] Creating Layer group1_block2_conv1_scale
I1023 12:27:51.813282 16540 net.cpp:408] group1_block2_conv1_scale <- group1_block2_conv1
I1023 12:27:51.813287 16540 net.cpp:369] group1_block2_conv1_scale -> group1_block2_conv1 (in-place)
I1023 12:27:51.813335 16540 layer_factory.hpp:77] Creating layer group1_block2_conv1_scale
I1023 12:27:51.813552 16540 net.cpp:124] Setting up group1_block2_conv1_scale
I1023 12:27:51.813562 16540 net.cpp:131] Top shape: 128 32 16 16 (1048576)
I1023 12:27:51.813566 16540 net.cpp:139] Memory required for data: 1016595968
I1023 12:27:51.813572 16540 layer_factory.hpp:77] Creating layer group1_block2_sum
I1023 12:27:51.813581 16540 net.cpp:86] Creating Layer group1_block2_sum
I1023 12:27:51.813586 16540 net.cpp:408] group1_block2_sum <- group1_block2_conv1
I1023 12:27:51.813592 16540 net.cpp:408] group1_block2_sum <- group1_block1_sum_group1_block1_relu_0_split_1
I1023 12:27:51.813599 16540 net.cpp:382] group1_block2_sum -> group1_block2_sum
I1023 12:27:51.813628 16540 net.cpp:124] Setting up group1_block2_sum
I1023 12:27:51.813634 16540 net.cpp:131] Top shape: 128 32 16 16 (1048576)
I1023 12:27:51.813637 16540 net.cpp:139] Memory required for data: 1020790272
I1023 12:27:51.813638 16540 layer_factory.hpp:77] Creating layer group1_block2_relu
I1023 12:27:51.813669 16540 net.cpp:86] Creating Layer group1_block2_relu
I1023 12:27:51.813673 16540 net.cpp:408] group1_block2_relu <- group1_block2_sum
I1023 12:27:51.813683 16540 net.cpp:369] group1_block2_relu -> group1_block2_sum (in-place)
I1023 12:27:51.814251 16540 net.cpp:124] Setting up group1_block2_relu
I1023 12:27:51.814260 16540 net.cpp:131] Top shape: 128 32 16 16 (1048576)
I1023 12:27:51.814262 16540 net.cpp:139] Memory required for data: 1024984576
I1023 12:27:51.814265 16540 layer_factory.hpp:77] Creating layer group1_block2_sum_group1_block2_relu_0_split
I1023 12:27:51.814270 16540 net.cpp:86] Creating Layer group1_block2_sum_group1_block2_relu_0_split
I1023 12:27:51.814273 16540 net.cpp:408] group1_block2_sum_group1_block2_relu_0_split <- group1_block2_sum
I1023 12:27:51.814280 16540 net.cpp:382] group1_block2_sum_group1_block2_relu_0_split -> group1_block2_sum_group1_block2_relu_0_split_0
I1023 12:27:51.814286 16540 net.cpp:382] group1_block2_sum_group1_block2_relu_0_split -> group1_block2_sum_group1_block2_relu_0_split_1
I1023 12:27:51.814337 16540 net.cpp:124] Setting up group1_block2_sum_group1_block2_relu_0_split
I1023 12:27:51.814342 16540 net.cpp:131] Top shape: 128 32 16 16 (1048576)
I1023 12:27:51.814344 16540 net.cpp:131] Top shape: 128 32 16 16 (1048576)
I1023 12:27:51.814347 16540 net.cpp:139] Memory required for data: 1033373184
I1023 12:27:51.814349 16540 layer_factory.hpp:77] Creating layer group1_block3_conv0
I1023 12:27:51.814357 16540 net.cpp:86] Creating Layer group1_block3_conv0
I1023 12:27:51.814360 16540 net.cpp:408] group1_block3_conv0 <- group1_block2_sum_group1_block2_relu_0_split_0
I1023 12:27:51.814366 16540 net.cpp:382] group1_block3_conv0 -> group1_block3_conv0
I1023 12:27:51.816377 16540 net.cpp:124] Setting up group1_block3_conv0
I1023 12:27:51.816386 16540 net.cpp:131] Top shape: 128 32 16 16 (1048576)
I1023 12:27:51.816390 16540 net.cpp:139] Memory required for data: 1037567488
I1023 12:27:51.816393 16540 layer_factory.hpp:77] Creating layer group1_block3_conv0_bn
I1023 12:27:51.816401 16540 net.cpp:86] Creating Layer group1_block3_conv0_bn
I1023 12:27:51.816403 16540 net.cpp:408] group1_block3_conv0_bn <- group1_block3_conv0
I1023 12:27:51.816409 16540 net.cpp:369] group1_block3_conv0_bn -> group1_block3_conv0 (in-place)
I1023 12:27:51.816622 16540 net.cpp:124] Setting up group1_block3_conv0_bn
I1023 12:27:51.816627 16540 net.cpp:131] Top shape: 128 32 16 16 (1048576)
I1023 12:27:51.816630 16540 net.cpp:139] Memory required for data: 1041761792
I1023 12:27:51.816635 16540 layer_factory.hpp:77] Creating layer group1_block3_conv0_scale
I1023 12:27:51.816650 16540 net.cpp:86] Creating Layer group1_block3_conv0_scale
I1023 12:27:51.816653 16540 net.cpp:408] group1_block3_conv0_scale <- group1_block3_conv0
I1023 12:27:51.816658 16540 net.cpp:369] group1_block3_conv0_scale -> group1_block3_conv0 (in-place)
I1023 12:27:51.816700 16540 layer_factory.hpp:77] Creating layer group1_block3_conv0_scale
I1023 12:27:51.816855 16540 net.cpp:124] Setting up group1_block3_conv0_scale
I1023 12:27:51.816864 16540 net.cpp:131] Top shape: 128 32 16 16 (1048576)
I1023 12:27:51.816865 16540 net.cpp:139] Memory required for data: 1045956096
I1023 12:27:51.816870 16540 layer_factory.hpp:77] Creating layer group1_block3_conv0_relu
I1023 12:27:51.816876 16540 net.cpp:86] Creating Layer group1_block3_conv0_relu
I1023 12:27:51.816879 16540 net.cpp:408] group1_block3_conv0_relu <- group1_block3_conv0
I1023 12:27:51.816884 16540 net.cpp:369] group1_block3_conv0_relu -> group1_block3_conv0 (in-place)
I1023 12:27:51.817296 16540 net.cpp:124] Setting up group1_block3_conv0_relu
I1023 12:27:51.817302 16540 net.cpp:131] Top shape: 128 32 16 16 (1048576)
I1023 12:27:51.817304 16540 net.cpp:139] Memory required for data: 1050150400
I1023 12:27:51.817306 16540 layer_factory.hpp:77] Creating layer group1_block3_conv1
I1023 12:27:51.817315 16540 net.cpp:86] Creating Layer group1_block3_conv1
I1023 12:27:51.817318 16540 net.cpp:408] group1_block3_conv1 <- group1_block3_conv0
I1023 12:27:51.817324 16540 net.cpp:382] group1_block3_conv1 -> group1_block3_conv1
I1023 12:27:51.819836 16540 net.cpp:124] Setting up group1_block3_conv1
I1023 12:27:51.819846 16540 net.cpp:131] Top shape: 128 32 16 16 (1048576)
I1023 12:27:51.819849 16540 net.cpp:139] Memory required for data: 1054344704
I1023 12:27:51.819854 16540 layer_factory.hpp:77] Creating layer group1_block3_conv1_bn
I1023 12:27:51.819859 16540 net.cpp:86] Creating Layer group1_block3_conv1_bn
I1023 12:27:51.819862 16540 net.cpp:408] group1_block3_conv1_bn <- group1_block3_conv1
I1023 12:27:51.819869 16540 net.cpp:369] group1_block3_conv1_bn -> group1_block3_conv1 (in-place)
I1023 12:27:51.820086 16540 net.cpp:124] Setting up group1_block3_conv1_bn
I1023 12:27:51.820091 16540 net.cpp:131] Top shape: 128 32 16 16 (1048576)
I1023 12:27:51.820093 16540 net.cpp:139] Memory required for data: 1058539008
I1023 12:27:51.820098 16540 layer_factory.hpp:77] Creating layer group1_block3_conv1_scale
I1023 12:27:51.820103 16540 net.cpp:86] Creating Layer group1_block3_conv1_scale
I1023 12:27:51.820106 16540 net.cpp:408] group1_block3_conv1_scale <- group1_block3_conv1
I1023 12:27:51.820111 16540 net.cpp:369] group1_block3_conv1_scale -> group1_block3_conv1 (in-place)
I1023 12:27:51.820150 16540 layer_factory.hpp:77] Creating layer group1_block3_conv1_scale
I1023 12:27:51.820335 16540 net.cpp:124] Setting up group1_block3_conv1_scale
I1023 12:27:51.820346 16540 net.cpp:131] Top shape: 128 32 16 16 (1048576)
I1023 12:27:51.820349 16540 net.cpp:139] Memory required for data: 1062733312
I1023 12:27:51.820356 16540 layer_factory.hpp:77] Creating layer group1_block3_sum
I1023 12:27:51.820364 16540 net.cpp:86] Creating Layer group1_block3_sum
I1023 12:27:51.820369 16540 net.cpp:408] group1_block3_sum <- group1_block3_conv1
I1023 12:27:51.820374 16540 net.cpp:408] group1_block3_sum <- group1_block2_sum_group1_block2_relu_0_split_1
I1023 12:27:51.820384 16540 net.cpp:382] group1_block3_sum -> group1_block3_sum
I1023 12:27:51.820418 16540 net.cpp:124] Setting up group1_block3_sum
I1023 12:27:51.820426 16540 net.cpp:131] Top shape: 128 32 16 16 (1048576)
I1023 12:27:51.820430 16540 net.cpp:139] Memory required for data: 1066927616
I1023 12:27:51.820433 16540 layer_factory.hpp:77] Creating layer group1_block3_relu
I1023 12:27:51.820439 16540 net.cpp:86] Creating Layer group1_block3_relu
I1023 12:27:51.820442 16540 net.cpp:408] group1_block3_relu <- group1_block3_sum
I1023 12:27:51.820446 16540 net.cpp:369] group1_block3_relu -> group1_block3_sum (in-place)
I1023 12:27:51.821019 16540 net.cpp:124] Setting up group1_block3_relu
I1023 12:27:51.821028 16540 net.cpp:131] Top shape: 128 32 16 16 (1048576)
I1023 12:27:51.821038 16540 net.cpp:139] Memory required for data: 1071121920
I1023 12:27:51.821041 16540 layer_factory.hpp:77] Creating layer group1_block3_sum_group1_block3_relu_0_split
I1023 12:27:51.821046 16540 net.cpp:86] Creating Layer group1_block3_sum_group1_block3_relu_0_split
I1023 12:27:51.821049 16540 net.cpp:408] group1_block3_sum_group1_block3_relu_0_split <- group1_block3_sum
I1023 12:27:51.821056 16540 net.cpp:382] group1_block3_sum_group1_block3_relu_0_split -> group1_block3_sum_group1_block3_relu_0_split_0
I1023 12:27:51.821063 16540 net.cpp:382] group1_block3_sum_group1_block3_relu_0_split -> group1_block3_sum_group1_block3_relu_0_split_1
I1023 12:27:51.821127 16540 net.cpp:124] Setting up group1_block3_sum_group1_block3_relu_0_split
I1023 12:27:51.821132 16540 net.cpp:131] Top shape: 128 32 16 16 (1048576)
I1023 12:27:51.821135 16540 net.cpp:131] Top shape: 128 32 16 16 (1048576)
I1023 12:27:51.821137 16540 net.cpp:139] Memory required for data: 1079510528
I1023 12:27:51.821141 16540 layer_factory.hpp:77] Creating layer group1_block4_conv0
I1023 12:27:51.821151 16540 net.cpp:86] Creating Layer group1_block4_conv0
I1023 12:27:51.821156 16540 net.cpp:408] group1_block4_conv0 <- group1_block3_sum_group1_block3_relu_0_split_0
I1023 12:27:51.821166 16540 net.cpp:382] group1_block4_conv0 -> group1_block4_conv0
I1023 12:27:51.823199 16540 net.cpp:124] Setting up group1_block4_conv0
I1023 12:27:51.823207 16540 net.cpp:131] Top shape: 128 32 16 16 (1048576)
I1023 12:27:51.823210 16540 net.cpp:139] Memory required for data: 1083704832
I1023 12:27:51.823215 16540 layer_factory.hpp:77] Creating layer group1_block4_conv0_bn
I1023 12:27:51.823222 16540 net.cpp:86] Creating Layer group1_block4_conv0_bn
I1023 12:27:51.823225 16540 net.cpp:408] group1_block4_conv0_bn <- group1_block4_conv0
I1023 12:27:51.823230 16540 net.cpp:369] group1_block4_conv0_bn -> group1_block4_conv0 (in-place)
I1023 12:27:51.823446 16540 net.cpp:124] Setting up group1_block4_conv0_bn
I1023 12:27:51.823452 16540 net.cpp:131] Top shape: 128 32 16 16 (1048576)
I1023 12:27:51.823454 16540 net.cpp:139] Memory required for data: 1087899136
I1023 12:27:51.823459 16540 layer_factory.hpp:77] Creating layer group1_block4_conv0_scale
I1023 12:27:51.823467 16540 net.cpp:86] Creating Layer group1_block4_conv0_scale
I1023 12:27:51.823470 16540 net.cpp:408] group1_block4_conv0_scale <- group1_block4_conv0
I1023 12:27:51.823479 16540 net.cpp:369] group1_block4_conv0_scale -> group1_block4_conv0 (in-place)
I1023 12:27:51.823549 16540 layer_factory.hpp:77] Creating layer group1_block4_conv0_scale
I1023 12:27:51.823715 16540 net.cpp:124] Setting up group1_block4_conv0_scale
I1023 12:27:51.823724 16540 net.cpp:131] Top shape: 128 32 16 16 (1048576)
I1023 12:27:51.823725 16540 net.cpp:139] Memory required for data: 1092093440
I1023 12:27:51.823730 16540 layer_factory.hpp:77] Creating layer group1_block4_conv0_relu
I1023 12:27:51.823734 16540 net.cpp:86] Creating Layer group1_block4_conv0_relu
I1023 12:27:51.823737 16540 net.cpp:408] group1_block4_conv0_relu <- group1_block4_conv0
I1023 12:27:51.823741 16540 net.cpp:369] group1_block4_conv0_relu -> group1_block4_conv0 (in-place)
I1023 12:27:51.824290 16540 net.cpp:124] Setting up group1_block4_conv0_relu
I1023 12:27:51.824299 16540 net.cpp:131] Top shape: 128 32 16 16 (1048576)
I1023 12:27:51.824301 16540 net.cpp:139] Memory required for data: 1096287744
I1023 12:27:51.824303 16540 layer_factory.hpp:77] Creating layer group1_block4_conv1
I1023 12:27:51.824313 16540 net.cpp:86] Creating Layer group1_block4_conv1
I1023 12:27:51.824316 16540 net.cpp:408] group1_block4_conv1 <- group1_block4_conv0
I1023 12:27:51.824321 16540 net.cpp:382] group1_block4_conv1 -> group1_block4_conv1
I1023 12:27:51.826203 16540 net.cpp:124] Setting up group1_block4_conv1
I1023 12:27:51.826212 16540 net.cpp:131] Top shape: 128 32 16 16 (1048576)
I1023 12:27:51.826215 16540 net.cpp:139] Memory required for data: 1100482048
I1023 12:27:51.826218 16540 layer_factory.hpp:77] Creating layer group1_block4_conv1_bn
I1023 12:27:51.826236 16540 net.cpp:86] Creating Layer group1_block4_conv1_bn
I1023 12:27:51.826239 16540 net.cpp:408] group1_block4_conv1_bn <- group1_block4_conv1
I1023 12:27:51.826244 16540 net.cpp:369] group1_block4_conv1_bn -> group1_block4_conv1 (in-place)
I1023 12:27:51.826462 16540 net.cpp:124] Setting up group1_block4_conv1_bn
I1023 12:27:51.826467 16540 net.cpp:131] Top shape: 128 32 16 16 (1048576)
I1023 12:27:51.826469 16540 net.cpp:139] Memory required for data: 1104676352
I1023 12:27:51.826474 16540 layer_factory.hpp:77] Creating layer group1_block4_conv1_scale
I1023 12:27:51.826481 16540 net.cpp:86] Creating Layer group1_block4_conv1_scale
I1023 12:27:51.826483 16540 net.cpp:408] group1_block4_conv1_scale <- group1_block4_conv1
I1023 12:27:51.826488 16540 net.cpp:369] group1_block4_conv1_scale -> group1_block4_conv1 (in-place)
I1023 12:27:51.826529 16540 layer_factory.hpp:77] Creating layer group1_block4_conv1_scale
I1023 12:27:51.826676 16540 net.cpp:124] Setting up group1_block4_conv1_scale
I1023 12:27:51.826683 16540 net.cpp:131] Top shape: 128 32 16 16 (1048576)
I1023 12:27:51.826684 16540 net.cpp:139] Memory required for data: 1108870656
I1023 12:27:51.826689 16540 layer_factory.hpp:77] Creating layer group1_block4_sum
I1023 12:27:51.826694 16540 net.cpp:86] Creating Layer group1_block4_sum
I1023 12:27:51.826697 16540 net.cpp:408] group1_block4_sum <- group1_block4_conv1
I1023 12:27:51.826700 16540 net.cpp:408] group1_block4_sum <- group1_block3_sum_group1_block3_relu_0_split_1
I1023 12:27:51.826705 16540 net.cpp:382] group1_block4_sum -> group1_block4_sum
I1023 12:27:51.826731 16540 net.cpp:124] Setting up group1_block4_sum
I1023 12:27:51.826735 16540 net.cpp:131] Top shape: 128 32 16 16 (1048576)
I1023 12:27:51.826737 16540 net.cpp:139] Memory required for data: 1113064960
I1023 12:27:51.826740 16540 layer_factory.hpp:77] Creating layer group1_block4_relu
I1023 12:27:51.826745 16540 net.cpp:86] Creating Layer group1_block4_relu
I1023 12:27:51.826746 16540 net.cpp:408] group1_block4_relu <- group1_block4_sum
I1023 12:27:51.826751 16540 net.cpp:369] group1_block4_relu -> group1_block4_sum (in-place)
I1023 12:27:51.827379 16540 net.cpp:124] Setting up group1_block4_relu
I1023 12:27:51.827389 16540 net.cpp:131] Top shape: 128 32 16 16 (1048576)
I1023 12:27:51.827390 16540 net.cpp:139] Memory required for data: 1117259264
I1023 12:27:51.827394 16540 layer_factory.hpp:77] Creating layer group1_block4_sum_group1_block4_relu_0_split
I1023 12:27:51.827399 16540 net.cpp:86] Creating Layer group1_block4_sum_group1_block4_relu_0_split
I1023 12:27:51.827401 16540 net.cpp:408] group1_block4_sum_group1_block4_relu_0_split <- group1_block4_sum
I1023 12:27:51.827406 16540 net.cpp:382] group1_block4_sum_group1_block4_relu_0_split -> group1_block4_sum_group1_block4_relu_0_split_0
I1023 12:27:51.827414 16540 net.cpp:382] group1_block4_sum_group1_block4_relu_0_split -> group1_block4_sum_group1_block4_relu_0_split_1
I1023 12:27:51.827466 16540 net.cpp:124] Setting up group1_block4_sum_group1_block4_relu_0_split
I1023 12:27:51.827471 16540 net.cpp:131] Top shape: 128 32 16 16 (1048576)
I1023 12:27:51.827473 16540 net.cpp:131] Top shape: 128 32 16 16 (1048576)
I1023 12:27:51.827476 16540 net.cpp:139] Memory required for data: 1125647872
I1023 12:27:51.827478 16540 layer_factory.hpp:77] Creating layer group1_block5_conv0
I1023 12:27:51.827487 16540 net.cpp:86] Creating Layer group1_block5_conv0
I1023 12:27:51.827491 16540 net.cpp:408] group1_block5_conv0 <- group1_block4_sum_group1_block4_relu_0_split_0
I1023 12:27:51.827495 16540 net.cpp:382] group1_block5_conv0 -> group1_block5_conv0
I1023 12:27:51.829728 16540 net.cpp:124] Setting up group1_block5_conv0
I1023 12:27:51.829737 16540 net.cpp:131] Top shape: 128 32 16 16 (1048576)
I1023 12:27:51.829740 16540 net.cpp:139] Memory required for data: 1129842176
I1023 12:27:51.829744 16540 layer_factory.hpp:77] Creating layer group1_block5_conv0_bn
I1023 12:27:51.829751 16540 net.cpp:86] Creating Layer group1_block5_conv0_bn
I1023 12:27:51.829753 16540 net.cpp:408] group1_block5_conv0_bn <- group1_block5_conv0
I1023 12:27:51.829767 16540 net.cpp:369] group1_block5_conv0_bn -> group1_block5_conv0 (in-place)
I1023 12:27:51.829988 16540 net.cpp:124] Setting up group1_block5_conv0_bn
I1023 12:27:51.829993 16540 net.cpp:131] Top shape: 128 32 16 16 (1048576)
I1023 12:27:51.829994 16540 net.cpp:139] Memory required for data: 1134036480
I1023 12:27:51.830000 16540 layer_factory.hpp:77] Creating layer group1_block5_conv0_scale
I1023 12:27:51.830005 16540 net.cpp:86] Creating Layer group1_block5_conv0_scale
I1023 12:27:51.830008 16540 net.cpp:408] group1_block5_conv0_scale <- group1_block5_conv0
I1023 12:27:51.830011 16540 net.cpp:369] group1_block5_conv0_scale -> group1_block5_conv0 (in-place)
I1023 12:27:51.830052 16540 layer_factory.hpp:77] Creating layer group1_block5_conv0_scale
I1023 12:27:51.830180 16540 net.cpp:124] Setting up group1_block5_conv0_scale
I1023 12:27:51.830185 16540 net.cpp:131] Top shape: 128 32 16 16 (1048576)
I1023 12:27:51.830188 16540 net.cpp:139] Memory required for data: 1138230784
I1023 12:27:51.830191 16540 layer_factory.hpp:77] Creating layer group1_block5_conv0_relu
I1023 12:27:51.830197 16540 net.cpp:86] Creating Layer group1_block5_conv0_relu
I1023 12:27:51.830199 16540 net.cpp:408] group1_block5_conv0_relu <- group1_block5_conv0
I1023 12:27:51.830204 16540 net.cpp:369] group1_block5_conv0_relu -> group1_block5_conv0 (in-place)
I1023 12:27:51.830775 16540 net.cpp:124] Setting up group1_block5_conv0_relu
I1023 12:27:51.830783 16540 net.cpp:131] Top shape: 128 32 16 16 (1048576)
I1023 12:27:51.830785 16540 net.cpp:139] Memory required for data: 1142425088
I1023 12:27:51.830788 16540 layer_factory.hpp:77] Creating layer group1_block5_conv1
I1023 12:27:51.830796 16540 net.cpp:86] Creating Layer group1_block5_conv1
I1023 12:27:51.830799 16540 net.cpp:408] group1_block5_conv1 <- group1_block5_conv0
I1023 12:27:51.830806 16540 net.cpp:382] group1_block5_conv1 -> group1_block5_conv1
I1023 12:27:51.832904 16540 net.cpp:124] Setting up group1_block5_conv1
I1023 12:27:51.832913 16540 net.cpp:131] Top shape: 128 32 16 16 (1048576)
I1023 12:27:51.832916 16540 net.cpp:139] Memory required for data: 1146619392
I1023 12:27:51.832921 16540 layer_factory.hpp:77] Creating layer group1_block5_conv1_bn
I1023 12:27:51.832926 16540 net.cpp:86] Creating Layer group1_block5_conv1_bn
I1023 12:27:51.832929 16540 net.cpp:408] group1_block5_conv1_bn <- group1_block5_conv1
I1023 12:27:51.832934 16540 net.cpp:369] group1_block5_conv1_bn -> group1_block5_conv1 (in-place)
I1023 12:27:51.833156 16540 net.cpp:124] Setting up group1_block5_conv1_bn
I1023 12:27:51.833163 16540 net.cpp:131] Top shape: 128 32 16 16 (1048576)
I1023 12:27:51.833164 16540 net.cpp:139] Memory required for data: 1150813696
I1023 12:27:51.833169 16540 layer_factory.hpp:77] Creating layer group1_block5_conv1_scale
I1023 12:27:51.833175 16540 net.cpp:86] Creating Layer group1_block5_conv1_scale
I1023 12:27:51.833178 16540 net.cpp:408] group1_block5_conv1_scale <- group1_block5_conv1
I1023 12:27:51.833182 16540 net.cpp:369] group1_block5_conv1_scale -> group1_block5_conv1 (in-place)
I1023 12:27:51.833222 16540 layer_factory.hpp:77] Creating layer group1_block5_conv1_scale
I1023 12:27:51.833385 16540 net.cpp:124] Setting up group1_block5_conv1_scale
I1023 12:27:51.833392 16540 net.cpp:131] Top shape: 128 32 16 16 (1048576)
I1023 12:27:51.833395 16540 net.cpp:139] Memory required for data: 1155008000
I1023 12:27:51.833400 16540 layer_factory.hpp:77] Creating layer group1_block5_sum
I1023 12:27:51.833405 16540 net.cpp:86] Creating Layer group1_block5_sum
I1023 12:27:51.833407 16540 net.cpp:408] group1_block5_sum <- group1_block5_conv1
I1023 12:27:51.833411 16540 net.cpp:408] group1_block5_sum <- group1_block4_sum_group1_block4_relu_0_split_1
I1023 12:27:51.833416 16540 net.cpp:382] group1_block5_sum -> group1_block5_sum
I1023 12:27:51.833443 16540 net.cpp:124] Setting up group1_block5_sum
I1023 12:27:51.833448 16540 net.cpp:131] Top shape: 128 32 16 16 (1048576)
I1023 12:27:51.833451 16540 net.cpp:139] Memory required for data: 1159202304
I1023 12:27:51.833461 16540 layer_factory.hpp:77] Creating layer group1_block5_relu
I1023 12:27:51.833465 16540 net.cpp:86] Creating Layer group1_block5_relu
I1023 12:27:51.833468 16540 net.cpp:408] group1_block5_relu <- group1_block5_sum
I1023 12:27:51.833472 16540 net.cpp:369] group1_block5_relu -> group1_block5_sum (in-place)
I1023 12:27:51.833894 16540 net.cpp:124] Setting up group1_block5_relu
I1023 12:27:51.833902 16540 net.cpp:131] Top shape: 128 32 16 16 (1048576)
I1023 12:27:51.833904 16540 net.cpp:139] Memory required for data: 1163396608
I1023 12:27:51.833906 16540 layer_factory.hpp:77] Creating layer group1_block5_sum_group1_block5_relu_0_split
I1023 12:27:51.833912 16540 net.cpp:86] Creating Layer group1_block5_sum_group1_block5_relu_0_split
I1023 12:27:51.833915 16540 net.cpp:408] group1_block5_sum_group1_block5_relu_0_split <- group1_block5_sum
I1023 12:27:51.833920 16540 net.cpp:382] group1_block5_sum_group1_block5_relu_0_split -> group1_block5_sum_group1_block5_relu_0_split_0
I1023 12:27:51.833925 16540 net.cpp:382] group1_block5_sum_group1_block5_relu_0_split -> group1_block5_sum_group1_block5_relu_0_split_1
I1023 12:27:51.833976 16540 net.cpp:124] Setting up group1_block5_sum_group1_block5_relu_0_split
I1023 12:27:51.833981 16540 net.cpp:131] Top shape: 128 32 16 16 (1048576)
I1023 12:27:51.833984 16540 net.cpp:131] Top shape: 128 32 16 16 (1048576)
I1023 12:27:51.833986 16540 net.cpp:139] Memory required for data: 1171785216
I1023 12:27:51.833988 16540 layer_factory.hpp:77] Creating layer group1_block6_conv0
I1023 12:27:51.833997 16540 net.cpp:86] Creating Layer group1_block6_conv0
I1023 12:27:51.833999 16540 net.cpp:408] group1_block6_conv0 <- group1_block5_sum_group1_block5_relu_0_split_0
I1023 12:27:51.834007 16540 net.cpp:382] group1_block6_conv0 -> group1_block6_conv0
I1023 12:27:51.836433 16540 net.cpp:124] Setting up group1_block6_conv0
I1023 12:27:51.836442 16540 net.cpp:131] Top shape: 128 32 16 16 (1048576)
I1023 12:27:51.836444 16540 net.cpp:139] Memory required for data: 1175979520
I1023 12:27:51.836448 16540 layer_factory.hpp:77] Creating layer group1_block6_conv0_bn
I1023 12:27:51.836454 16540 net.cpp:86] Creating Layer group1_block6_conv0_bn
I1023 12:27:51.836457 16540 net.cpp:408] group1_block6_conv0_bn <- group1_block6_conv0
I1023 12:27:51.836463 16540 net.cpp:369] group1_block6_conv0_bn -> group1_block6_conv0 (in-place)
I1023 12:27:51.836689 16540 net.cpp:124] Setting up group1_block6_conv0_bn
I1023 12:27:51.836694 16540 net.cpp:131] Top shape: 128 32 16 16 (1048576)
I1023 12:27:51.836696 16540 net.cpp:139] Memory required for data: 1180173824
I1023 12:27:51.836702 16540 layer_factory.hpp:77] Creating layer group1_block6_conv0_scale
I1023 12:27:51.836707 16540 net.cpp:86] Creating Layer group1_block6_conv0_scale
I1023 12:27:51.836710 16540 net.cpp:408] group1_block6_conv0_scale <- group1_block6_conv0
I1023 12:27:51.836715 16540 net.cpp:369] group1_block6_conv0_scale -> group1_block6_conv0 (in-place)
I1023 12:27:51.836755 16540 layer_factory.hpp:77] Creating layer group1_block6_conv0_scale
I1023 12:27:51.836906 16540 net.cpp:124] Setting up group1_block6_conv0_scale
I1023 12:27:51.836913 16540 net.cpp:131] Top shape: 128 32 16 16 (1048576)
I1023 12:27:51.836915 16540 net.cpp:139] Memory required for data: 1184368128
I1023 12:27:51.836920 16540 layer_factory.hpp:77] Creating layer group1_block6_conv0_relu
I1023 12:27:51.836925 16540 net.cpp:86] Creating Layer group1_block6_conv0_relu
I1023 12:27:51.836928 16540 net.cpp:408] group1_block6_conv0_relu <- group1_block6_conv0
I1023 12:27:51.836935 16540 net.cpp:369] group1_block6_conv0_relu -> group1_block6_conv0 (in-place)
I1023 12:27:51.837491 16540 net.cpp:124] Setting up group1_block6_conv0_relu
I1023 12:27:51.837499 16540 net.cpp:131] Top shape: 128 32 16 16 (1048576)
I1023 12:27:51.837502 16540 net.cpp:139] Memory required for data: 1188562432
I1023 12:27:51.837504 16540 layer_factory.hpp:77] Creating layer group1_block6_conv1
I1023 12:27:51.837514 16540 net.cpp:86] Creating Layer group1_block6_conv1
I1023 12:27:51.837517 16540 net.cpp:408] group1_block6_conv1 <- group1_block6_conv0
I1023 12:27:51.837533 16540 net.cpp:382] group1_block6_conv1 -> group1_block6_conv1
I1023 12:27:51.839483 16540 net.cpp:124] Setting up group1_block6_conv1
I1023 12:27:51.839493 16540 net.cpp:131] Top shape: 128 32 16 16 (1048576)
I1023 12:27:51.839496 16540 net.cpp:139] Memory required for data: 1192756736
I1023 12:27:51.839500 16540 layer_factory.hpp:77] Creating layer group1_block6_conv1_bn
I1023 12:27:51.839506 16540 net.cpp:86] Creating Layer group1_block6_conv1_bn
I1023 12:27:51.839509 16540 net.cpp:408] group1_block6_conv1_bn <- group1_block6_conv1
I1023 12:27:51.839514 16540 net.cpp:369] group1_block6_conv1_bn -> group1_block6_conv1 (in-place)
I1023 12:27:51.839745 16540 net.cpp:124] Setting up group1_block6_conv1_bn
I1023 12:27:51.839751 16540 net.cpp:131] Top shape: 128 32 16 16 (1048576)
I1023 12:27:51.839752 16540 net.cpp:139] Memory required for data: 1196951040
I1023 12:27:51.839758 16540 layer_factory.hpp:77] Creating layer group1_block6_conv1_scale
I1023 12:27:51.839763 16540 net.cpp:86] Creating Layer group1_block6_conv1_scale
I1023 12:27:51.839766 16540 net.cpp:408] group1_block6_conv1_scale <- group1_block6_conv1
I1023 12:27:51.839771 16540 net.cpp:369] group1_block6_conv1_scale -> group1_block6_conv1 (in-place)
I1023 12:27:51.839812 16540 layer_factory.hpp:77] Creating layer group1_block6_conv1_scale
I1023 12:27:51.839958 16540 net.cpp:124] Setting up group1_block6_conv1_scale
I1023 12:27:51.839967 16540 net.cpp:131] Top shape: 128 32 16 16 (1048576)
I1023 12:27:51.839972 16540 net.cpp:139] Memory required for data: 1201145344
I1023 12:27:51.839978 16540 layer_factory.hpp:77] Creating layer group1_block6_sum
I1023 12:27:51.839985 16540 net.cpp:86] Creating Layer group1_block6_sum
I1023 12:27:51.839988 16540 net.cpp:408] group1_block6_sum <- group1_block6_conv1
I1023 12:27:51.839992 16540 net.cpp:408] group1_block6_sum <- group1_block5_sum_group1_block5_relu_0_split_1
I1023 12:27:51.839998 16540 net.cpp:382] group1_block6_sum -> group1_block6_sum
I1023 12:27:51.840028 16540 net.cpp:124] Setting up group1_block6_sum
I1023 12:27:51.840034 16540 net.cpp:131] Top shape: 128 32 16 16 (1048576)
I1023 12:27:51.840035 16540 net.cpp:139] Memory required for data: 1205339648
I1023 12:27:51.840037 16540 layer_factory.hpp:77] Creating layer group1_block6_relu
I1023 12:27:51.840041 16540 net.cpp:86] Creating Layer group1_block6_relu
I1023 12:27:51.840044 16540 net.cpp:408] group1_block6_relu <- group1_block6_sum
I1023 12:27:51.840049 16540 net.cpp:369] group1_block6_relu -> group1_block6_sum (in-place)
I1023 12:27:51.840677 16540 net.cpp:124] Setting up group1_block6_relu
I1023 12:27:51.840685 16540 net.cpp:131] Top shape: 128 32 16 16 (1048576)
I1023 12:27:51.840688 16540 net.cpp:139] Memory required for data: 1209533952
I1023 12:27:51.840690 16540 layer_factory.hpp:77] Creating layer group1_block6_sum_group1_block6_relu_0_split
I1023 12:27:51.840695 16540 net.cpp:86] Creating Layer group1_block6_sum_group1_block6_relu_0_split
I1023 12:27:51.840698 16540 net.cpp:408] group1_block6_sum_group1_block6_relu_0_split <- group1_block6_sum
I1023 12:27:51.840703 16540 net.cpp:382] group1_block6_sum_group1_block6_relu_0_split -> group1_block6_sum_group1_block6_relu_0_split_0
I1023 12:27:51.840710 16540 net.cpp:382] group1_block6_sum_group1_block6_relu_0_split -> group1_block6_sum_group1_block6_relu_0_split_1
I1023 12:27:51.840765 16540 net.cpp:124] Setting up group1_block6_sum_group1_block6_relu_0_split
I1023 12:27:51.840770 16540 net.cpp:131] Top shape: 128 32 16 16 (1048576)
I1023 12:27:51.840773 16540 net.cpp:131] Top shape: 128 32 16 16 (1048576)
I1023 12:27:51.840775 16540 net.cpp:139] Memory required for data: 1217922560
I1023 12:27:51.840778 16540 layer_factory.hpp:77] Creating layer group1_block7_conv0
I1023 12:27:51.840785 16540 net.cpp:86] Creating Layer group1_block7_conv0
I1023 12:27:51.840788 16540 net.cpp:408] group1_block7_conv0 <- group1_block6_sum_group1_block6_relu_0_split_0
I1023 12:27:51.840795 16540 net.cpp:382] group1_block7_conv0 -> group1_block7_conv0
I1023 12:27:51.842720 16540 net.cpp:124] Setting up group1_block7_conv0
I1023 12:27:51.842730 16540 net.cpp:131] Top shape: 128 32 16 16 (1048576)
I1023 12:27:51.842732 16540 net.cpp:139] Memory required for data: 1222116864
I1023 12:27:51.842736 16540 layer_factory.hpp:77] Creating layer group1_block7_conv0_bn
I1023 12:27:51.842744 16540 net.cpp:86] Creating Layer group1_block7_conv0_bn
I1023 12:27:51.842747 16540 net.cpp:408] group1_block7_conv0_bn <- group1_block7_conv0
I1023 12:27:51.842753 16540 net.cpp:369] group1_block7_conv0_bn -> group1_block7_conv0 (in-place)
I1023 12:27:51.843060 16540 net.cpp:124] Setting up group1_block7_conv0_bn
I1023 12:27:51.843068 16540 net.cpp:131] Top shape: 128 32 16 16 (1048576)
I1023 12:27:51.843070 16540 net.cpp:139] Memory required for data: 1226311168
I1023 12:27:51.843076 16540 layer_factory.hpp:77] Creating layer group1_block7_conv0_scale
I1023 12:27:51.843082 16540 net.cpp:86] Creating Layer group1_block7_conv0_scale
I1023 12:27:51.843084 16540 net.cpp:408] group1_block7_conv0_scale <- group1_block7_conv0
I1023 12:27:51.843091 16540 net.cpp:369] group1_block7_conv0_scale -> group1_block7_conv0 (in-place)
I1023 12:27:51.843134 16540 layer_factory.hpp:77] Creating layer group1_block7_conv0_scale
I1023 12:27:51.843266 16540 net.cpp:124] Setting up group1_block7_conv0_scale
I1023 12:27:51.843271 16540 net.cpp:131] Top shape: 128 32 16 16 (1048576)
I1023 12:27:51.843274 16540 net.cpp:139] Memory required for data: 1230505472
I1023 12:27:51.843278 16540 layer_factory.hpp:77] Creating layer group1_block7_conv0_relu
I1023 12:27:51.843282 16540 net.cpp:86] Creating Layer group1_block7_conv0_relu
I1023 12:27:51.843286 16540 net.cpp:408] group1_block7_conv0_relu <- group1_block7_conv0
I1023 12:27:51.843288 16540 net.cpp:369] group1_block7_conv0_relu -> group1_block7_conv0 (in-place)
I1023 12:27:51.843883 16540 net.cpp:124] Setting up group1_block7_conv0_relu
I1023 12:27:51.843890 16540 net.cpp:131] Top shape: 128 32 16 16 (1048576)
I1023 12:27:51.843894 16540 net.cpp:139] Memory required for data: 1234699776
I1023 12:27:51.843895 16540 layer_factory.hpp:77] Creating layer group1_block7_conv1
I1023 12:27:51.843904 16540 net.cpp:86] Creating Layer group1_block7_conv1
I1023 12:27:51.843907 16540 net.cpp:408] group1_block7_conv1 <- group1_block7_conv0
I1023 12:27:51.843914 16540 net.cpp:382] group1_block7_conv1 -> group1_block7_conv1
I1023 12:27:51.846158 16540 net.cpp:124] Setting up group1_block7_conv1
I1023 12:27:51.846165 16540 net.cpp:131] Top shape: 128 32 16 16 (1048576)
I1023 12:27:51.846168 16540 net.cpp:139] Memory required for data: 1238894080
I1023 12:27:51.846173 16540 layer_factory.hpp:77] Creating layer group1_block7_conv1_bn
I1023 12:27:51.846179 16540 net.cpp:86] Creating Layer group1_block7_conv1_bn
I1023 12:27:51.846182 16540 net.cpp:408] group1_block7_conv1_bn <- group1_block7_conv1
I1023 12:27:51.846187 16540 net.cpp:369] group1_block7_conv1_bn -> group1_block7_conv1 (in-place)
I1023 12:27:51.846415 16540 net.cpp:124] Setting up group1_block7_conv1_bn
I1023 12:27:51.846419 16540 net.cpp:131] Top shape: 128 32 16 16 (1048576)
I1023 12:27:51.846421 16540 net.cpp:139] Memory required for data: 1243088384
I1023 12:27:51.846427 16540 layer_factory.hpp:77] Creating layer group1_block7_conv1_scale
I1023 12:27:51.846433 16540 net.cpp:86] Creating Layer group1_block7_conv1_scale
I1023 12:27:51.846436 16540 net.cpp:408] group1_block7_conv1_scale <- group1_block7_conv1
I1023 12:27:51.846439 16540 net.cpp:369] group1_block7_conv1_scale -> group1_block7_conv1 (in-place)
I1023 12:27:51.846480 16540 layer_factory.hpp:77] Creating layer group1_block7_conv1_scale
I1023 12:27:51.846652 16540 net.cpp:124] Setting up group1_block7_conv1_scale
I1023 12:27:51.846659 16540 net.cpp:131] Top shape: 128 32 16 16 (1048576)
I1023 12:27:51.846662 16540 net.cpp:139] Memory required for data: 1247282688
I1023 12:27:51.846666 16540 layer_factory.hpp:77] Creating layer group1_block7_sum
I1023 12:27:51.846671 16540 net.cpp:86] Creating Layer group1_block7_sum
I1023 12:27:51.846673 16540 net.cpp:408] group1_block7_sum <- group1_block7_conv1
I1023 12:27:51.846686 16540 net.cpp:408] group1_block7_sum <- group1_block6_sum_group1_block6_relu_0_split_1
I1023 12:27:51.846693 16540 net.cpp:382] group1_block7_sum -> group1_block7_sum
I1023 12:27:51.846724 16540 net.cpp:124] Setting up group1_block7_sum
I1023 12:27:51.846729 16540 net.cpp:131] Top shape: 128 32 16 16 (1048576)
I1023 12:27:51.846730 16540 net.cpp:139] Memory required for data: 1251476992
I1023 12:27:51.846734 16540 layer_factory.hpp:77] Creating layer group1_block7_relu
I1023 12:27:51.846737 16540 net.cpp:86] Creating Layer group1_block7_relu
I1023 12:27:51.846740 16540 net.cpp:408] group1_block7_relu <- group1_block7_sum
I1023 12:27:51.846743 16540 net.cpp:369] group1_block7_relu -> group1_block7_sum (in-place)
I1023 12:27:51.847371 16540 net.cpp:124] Setting up group1_block7_relu
I1023 12:27:51.847380 16540 net.cpp:131] Top shape: 128 32 16 16 (1048576)
I1023 12:27:51.847383 16540 net.cpp:139] Memory required for data: 1255671296
I1023 12:27:51.847385 16540 layer_factory.hpp:77] Creating layer group1_block7_sum_group1_block7_relu_0_split
I1023 12:27:51.847391 16540 net.cpp:86] Creating Layer group1_block7_sum_group1_block7_relu_0_split
I1023 12:27:51.847394 16540 net.cpp:408] group1_block7_sum_group1_block7_relu_0_split <- group1_block7_sum
I1023 12:27:51.847399 16540 net.cpp:382] group1_block7_sum_group1_block7_relu_0_split -> group1_block7_sum_group1_block7_relu_0_split_0
I1023 12:27:51.847406 16540 net.cpp:382] group1_block7_sum_group1_block7_relu_0_split -> group1_block7_sum_group1_block7_relu_0_split_1
I1023 12:27:51.847460 16540 net.cpp:124] Setting up group1_block7_sum_group1_block7_relu_0_split
I1023 12:27:51.847465 16540 net.cpp:131] Top shape: 128 32 16 16 (1048576)
I1023 12:27:51.847468 16540 net.cpp:131] Top shape: 128 32 16 16 (1048576)
I1023 12:27:51.847470 16540 net.cpp:139] Memory required for data: 1264059904
I1023 12:27:51.847473 16540 layer_factory.hpp:77] Creating layer group1_block8_conv0
I1023 12:27:51.847481 16540 net.cpp:86] Creating Layer group1_block8_conv0
I1023 12:27:51.847484 16540 net.cpp:408] group1_block8_conv0 <- group1_block7_sum_group1_block7_relu_0_split_0
I1023 12:27:51.847491 16540 net.cpp:382] group1_block8_conv0 -> group1_block8_conv0
I1023 12:27:51.849764 16540 net.cpp:124] Setting up group1_block8_conv0
I1023 12:27:51.849773 16540 net.cpp:131] Top shape: 128 32 16 16 (1048576)
I1023 12:27:51.849776 16540 net.cpp:139] Memory required for data: 1268254208
I1023 12:27:51.849781 16540 layer_factory.hpp:77] Creating layer group1_block8_conv0_bn
I1023 12:27:51.849787 16540 net.cpp:86] Creating Layer group1_block8_conv0_bn
I1023 12:27:51.849790 16540 net.cpp:408] group1_block8_conv0_bn <- group1_block8_conv0
I1023 12:27:51.849795 16540 net.cpp:369] group1_block8_conv0_bn -> group1_block8_conv0 (in-place)
I1023 12:27:51.850034 16540 net.cpp:124] Setting up group1_block8_conv0_bn
I1023 12:27:51.850039 16540 net.cpp:131] Top shape: 128 32 16 16 (1048576)
I1023 12:27:51.850041 16540 net.cpp:139] Memory required for data: 1272448512
I1023 12:27:51.850047 16540 layer_factory.hpp:77] Creating layer group1_block8_conv0_scale
I1023 12:27:51.850054 16540 net.cpp:86] Creating Layer group1_block8_conv0_scale
I1023 12:27:51.850056 16540 net.cpp:408] group1_block8_conv0_scale <- group1_block8_conv0
I1023 12:27:51.850060 16540 net.cpp:369] group1_block8_conv0_scale -> group1_block8_conv0 (in-place)
I1023 12:27:51.850106 16540 layer_factory.hpp:77] Creating layer group1_block8_conv0_scale
I1023 12:27:51.850244 16540 net.cpp:124] Setting up group1_block8_conv0_scale
I1023 12:27:51.850248 16540 net.cpp:131] Top shape: 128 32 16 16 (1048576)
I1023 12:27:51.850250 16540 net.cpp:139] Memory required for data: 1276642816
I1023 12:27:51.850255 16540 layer_factory.hpp:77] Creating layer group1_block8_conv0_relu
I1023 12:27:51.850260 16540 net.cpp:86] Creating Layer group1_block8_conv0_relu
I1023 12:27:51.850263 16540 net.cpp:408] group1_block8_conv0_relu <- group1_block8_conv0
I1023 12:27:51.850266 16540 net.cpp:369] group1_block8_conv0_relu -> group1_block8_conv0 (in-place)
I1023 12:27:51.850726 16540 net.cpp:124] Setting up group1_block8_conv0_relu
I1023 12:27:51.850738 16540 net.cpp:131] Top shape: 128 32 16 16 (1048576)
I1023 12:27:51.850741 16540 net.cpp:139] Memory required for data: 1280837120
I1023 12:27:51.850745 16540 layer_factory.hpp:77] Creating layer group1_block8_conv1
I1023 12:27:51.850757 16540 net.cpp:86] Creating Layer group1_block8_conv1
I1023 12:27:51.850762 16540 net.cpp:408] group1_block8_conv1 <- group1_block8_conv0
I1023 12:27:51.850771 16540 net.cpp:382] group1_block8_conv1 -> group1_block8_conv1
I1023 12:27:51.853914 16540 net.cpp:124] Setting up group1_block8_conv1
I1023 12:27:51.853924 16540 net.cpp:131] Top shape: 128 32 16 16 (1048576)
I1023 12:27:51.853925 16540 net.cpp:139] Memory required for data: 1285031424
I1023 12:27:51.853930 16540 layer_factory.hpp:77] Creating layer group1_block8_conv1_bn
I1023 12:27:51.853937 16540 net.cpp:86] Creating Layer group1_block8_conv1_bn
I1023 12:27:51.853940 16540 net.cpp:408] group1_block8_conv1_bn <- group1_block8_conv1
I1023 12:27:51.853945 16540 net.cpp:369] group1_block8_conv1_bn -> group1_block8_conv1 (in-place)
I1023 12:27:51.854216 16540 net.cpp:124] Setting up group1_block8_conv1_bn
I1023 12:27:51.854226 16540 net.cpp:131] Top shape: 128 32 16 16 (1048576)
I1023 12:27:51.854229 16540 net.cpp:139] Memory required for data: 1289225728
I1023 12:27:51.854239 16540 layer_factory.hpp:77] Creating layer group1_block8_conv1_scale
I1023 12:27:51.854248 16540 net.cpp:86] Creating Layer group1_block8_conv1_scale
I1023 12:27:51.854250 16540 net.cpp:408] group1_block8_conv1_scale <- group1_block8_conv1
I1023 12:27:51.854254 16540 net.cpp:369] group1_block8_conv1_scale -> group1_block8_conv1 (in-place)
I1023 12:27:51.854305 16540 layer_factory.hpp:77] Creating layer group1_block8_conv1_scale
I1023 12:27:51.854445 16540 net.cpp:124] Setting up group1_block8_conv1_scale
I1023 12:27:51.854450 16540 net.cpp:131] Top shape: 128 32 16 16 (1048576)
I1023 12:27:51.854452 16540 net.cpp:139] Memory required for data: 1293420032
I1023 12:27:51.854457 16540 layer_factory.hpp:77] Creating layer group1_block8_sum
I1023 12:27:51.854463 16540 net.cpp:86] Creating Layer group1_block8_sum
I1023 12:27:51.854465 16540 net.cpp:408] group1_block8_sum <- group1_block8_conv1
I1023 12:27:51.854470 16540 net.cpp:408] group1_block8_sum <- group1_block7_sum_group1_block7_relu_0_split_1
I1023 12:27:51.854473 16540 net.cpp:382] group1_block8_sum -> group1_block8_sum
I1023 12:27:51.854501 16540 net.cpp:124] Setting up group1_block8_sum
I1023 12:27:51.854506 16540 net.cpp:131] Top shape: 128 32 16 16 (1048576)
I1023 12:27:51.854507 16540 net.cpp:139] Memory required for data: 1297614336
I1023 12:27:51.854509 16540 layer_factory.hpp:77] Creating layer group1_block8_relu
I1023 12:27:51.854513 16540 net.cpp:86] Creating Layer group1_block8_relu
I1023 12:27:51.854516 16540 net.cpp:408] group1_block8_relu <- group1_block8_sum
I1023 12:27:51.854521 16540 net.cpp:369] group1_block8_relu -> group1_block8_sum (in-place)
I1023 12:27:51.854979 16540 net.cpp:124] Setting up group1_block8_relu
I1023 12:27:51.854987 16540 net.cpp:131] Top shape: 128 32 16 16 (1048576)
I1023 12:27:51.854990 16540 net.cpp:139] Memory required for data: 1301808640
I1023 12:27:51.854992 16540 layer_factory.hpp:77] Creating layer group1_block8_sum_group1_block8_relu_0_split
…
I1023 12:27:52.127744 16540 net.cpp:131] Top shape: 100 64 8 8 (409600)
I1023 12:27:52.127748 16540 net.cpp:139] Memory required for data: 1054721200
I1023 12:27:52.127753 16540 layer_factory.hpp:77] Creating layer group2_block1_conv1_bn
I1023 12:27:52.127759 16540 net.cpp:86] Creating Layer group2_block1_conv1_bn
I1023 12:27:52.127763 16540 net.cpp:408] group2_block1_conv1_bn <- group2_block1_conv1
I1023 12:27:52.127769 16540 net.cpp:369] group2_block1_conv1_bn -> group2_block1_conv1 (in-place)
I1023 12:27:52.127948 16540 net.cpp:124] Setting up group2_block1_conv1_bn
I1023 12:27:52.127954 16540 net.cpp:131] Top shape: 100 64 8 8 (409600)
I1023 12:27:52.127956 16540 net.cpp:139] Memory required for data: 1056359600
I1023 12:27:52.127985 16540 layer_factory.hpp:77] Creating layer group2_block1_conv1_scale
I1023 12:27:52.127992 16540 net.cpp:86] Creating Layer group2_block1_conv1_scale
I1023 12:27:52.127995 16540 net.cpp:408] group2_block1_conv1_scale <- group2_block1_conv1
I1023 12:27:52.128000 16540 net.cpp:369] group2_block1_conv1_scale -> group2_block1_conv1 (in-place)
I1023 12:27:52.128036 16540 layer_factory.hpp:77] Creating layer group2_block1_conv1_scale
I1023 12:27:52.128141 16540 net.cpp:124] Setting up group2_block1_conv1_scale
I1023 12:27:52.128146 16540 net.cpp:131] Top shape: 100 64 8 8 (409600)
I1023 12:27:52.128149 16540 net.cpp:139] Memory required for data: 1057998000
I1023 12:27:52.128152 16540 layer_factory.hpp:77] Creating layer group2_block1_sum
I1023 12:27:52.128159 16540 net.cpp:86] Creating Layer group2_block1_sum
I1023 12:27:52.128161 16540 net.cpp:408] group2_block1_sum <- group2_block1_conv1
I1023 12:27:52.128165 16540 net.cpp:408] group2_block1_sum <- group2_block0_sum_group2_block0_relu_0_split_1
I1023 12:27:52.128168 16540 net.cpp:382] group2_block1_sum -> group2_block1_sum
I1023 12:27:52.128190 16540 net.cpp:124] Setting up group2_block1_sum
I1023 12:27:52.128195 16540 net.cpp:131] Top shape: 100 64 8 8 (409600)
I1023 12:27:52.128196 16540 net.cpp:139] Memory required for data: 1059636400
I1023 12:27:52.128198 16540 layer_factory.hpp:77] Creating layer group2_block1_relu
I1023 12:27:52.130720 16540 net.cpp:86] Creating Layer group2_block1_relu
I1023 12:27:52.130728 16540 net.cpp:408] group2_block1_relu <- group2_block1_sum
I1023 12:27:52.130735 16540 net.cpp:369] group2_block1_relu -> group2_block1_sum (in-place)
I1023 12:27:52.131392 16540 net.cpp:124] Setting up group2_block1_relu
I1023 12:27:52.131400 16540 net.cpp:131] Top shape: 100 64 8 8 (409600)
I1023 12:27:52.131403 16540 net.cpp:139] Memory required for data: 1061274800
I1023 12:27:52.131405 16540 layer_factory.hpp:77] Creating layer group2_block1_sum_group2_block1_relu_0_split
I1023 12:27:52.131412 16540 net.cpp:86] Creating Layer group2_block1_sum_group2_block1_relu_0_split
I1023 12:27:52.131415 16540 net.cpp:408] group2_block1_sum_group2_block1_relu_0_split <- group2_block1_sum
I1023 12:27:52.131420 16540 net.cpp:382] group2_block1_sum_group2_block1_relu_0_split -> group2_block1_sum_group2_block1_relu_0_split_0
I1023 12:27:52.131426 16540 net.cpp:382] group2_block1_sum_group2_block1_relu_0_split -> group2_block1_sum_group2_block1_relu_0_split_1
I1023 12:27:52.131467 16540 net.cpp:124] Setting up group2_block1_sum_group2_block1_relu_0_split
I1023 12:27:52.131472 16540 net.cpp:131] Top shape: 100 64 8 8 (409600)
I1023 12:27:52.131475 16540 net.cpp:131] Top shape: 100 64 8 8 (409600)
I1023 12:27:52.131477 16540 net.cpp:139] Memory required for data: 1064551600
I1023 12:27:52.131480 16540 layer_factory.hpp:77] Creating layer group2_block2_conv0
I1023 12:27:52.131489 16540 net.cpp:86] Creating Layer group2_block2_conv0
I1023 12:27:52.131492 16540 net.cpp:408] group2_block2_conv0 <- group2_block1_sum_group2_block1_relu_0_split_0
I1023 12:27:52.131497 16540 net.cpp:382] group2_block2_conv0 -> group2_block2_conv0
I1023 12:27:52.134405 16540 net.cpp:124] Setting up group2_block2_conv0
I1023 12:27:52.134415 16540 net.cpp:131] Top shape: 100 64 8 8 (409600)
I1023 12:27:52.134418 16540 net.cpp:139] Memory required for data: 1066190000
I1023 12:27:52.134423 16540 layer_factory.hpp:77] Creating layer group2_block2_conv0_bn
I1023 12:27:52.134429 16540 net.cpp:86] Creating Layer group2_block2_conv0_bn
I1023 12:27:52.134433 16540 net.cpp:408] group2_block2_conv0_bn <- group2_block2_conv0
I1023 12:27:52.134438 16540 net.cpp:369] group2_block2_conv0_bn -> group2_block2_conv0 (in-place)
I1023 12:27:52.134619 16540 net.cpp:124] Setting up group2_block2_conv0_bn
I1023 12:27:52.134626 16540 net.cpp:131] Top shape: 100 64 8 8 (409600)
I1023 12:27:52.134629 16540 net.cpp:139] Memory required for data: 1067828400
I1023 12:27:52.134635 16540 layer_factory.hpp:77] Creating layer group2_block2_conv0_scale
I1023 12:27:52.134640 16540 net.cpp:86] Creating Layer group2_block2_conv0_scale
I1023 12:27:52.134644 16540 net.cpp:408] group2_block2_conv0_scale <- group2_block2_conv0
I1023 12:27:52.134649 16540 net.cpp:369] group2_block2_conv0_scale -> group2_block2_conv0 (in-place)
I1023 12:27:52.134687 16540 layer_factory.hpp:77] Creating layer group2_block2_conv0_scale
I1023 12:27:52.134785 16540 net.cpp:124] Setting up group2_block2_conv0_scale
I1023 12:27:52.134790 16540 net.cpp:131] Top shape: 100 64 8 8 (409600)
I1023 12:27:52.134793 16540 net.cpp:139] Memory required for data: 1069466800
I1023 12:27:52.134797 16540 layer_factory.hpp:77] Creating layer group2_block2_conv0_relu
I1023 12:27:52.134801 16540 net.cpp:86] Creating Layer group2_block2_conv0_relu
I1023 12:27:52.134804 16540 net.cpp:408] group2_block2_conv0_relu <- group2_block2_conv0
I1023 12:27:52.134809 16540 net.cpp:369] group2_block2_conv0_relu -> group2_block2_conv0 (in-place)
I1023 12:27:52.135282 16540 net.cpp:124] Setting up group2_block2_conv0_relu
I1023 12:27:52.135291 16540 net.cpp:131] Top shape: 100 64 8 8 (409600)
I1023 12:27:52.135293 16540 net.cpp:139] Memory required for data: 1071105200
I1023 12:27:52.135296 16540 layer_factory.hpp:77] Creating layer group2_block2_conv1
I1023 12:27:52.135305 16540 net.cpp:86] Creating Layer group2_block2_conv1
I1023 12:27:52.135308 16540 net.cpp:408] group2_block2_conv1 <- group2_block2_conv0
I1023 12:27:52.135313 16540 net.cpp:382] group2_block2_conv1 -> group2_block2_conv1
I1023 12:27:52.137763 16540 net.cpp:124] Setting up group2_block2_conv1
I1023 12:27:52.137773 16540 net.cpp:131] Top shape: 100 64 8 8 (409600)
I1023 12:27:52.137775 16540 net.cpp:139] Memory required for data: 1072743600
I1023 12:27:52.137779 16540 layer_factory.hpp:77] Creating layer group2_block2_conv1_bn
I1023 12:27:52.137786 16540 net.cpp:86] Creating Layer group2_block2_conv1_bn
I1023 12:27:52.137789 16540 net.cpp:408] group2_block2_conv1_bn <- group2_block2_conv1
I1023 12:27:52.137794 16540 net.cpp:369] group2_block2_conv1_bn -> group2_block2_conv1 (in-place)
I1023 12:27:52.138020 16540 net.cpp:124] Setting up group2_block2_conv1_bn
I1023 12:27:52.138028 16540 net.cpp:131] Top shape: 100 64 8 8 (409600)
I1023 12:27:52.138031 16540 net.cpp:139] Memory required for data: 1074382000
I1023 12:27:52.138037 16540 layer_factory.hpp:77] Creating layer group2_block2_conv1_scale
I1023 12:27:52.138042 16540 net.cpp:86] Creating Layer group2_block2_conv1_scale
I1023 12:27:52.138046 16540 net.cpp:408] group2_block2_conv1_scale <- group2_block2_conv1
I1023 12:27:52.138049 16540 net.cpp:369] group2_block2_conv1_scale -> group2_block2_conv1 (in-place)
I1023 12:27:52.138087 16540 layer_factory.hpp:77] Creating layer group2_block2_conv1_scale
I1023 12:27:52.138183 16540 net.cpp:124] Setting up group2_block2_conv1_scale
I1023 12:27:52.138188 16540 net.cpp:131] Top shape: 100 64 8 8 (409600)
I1023 12:27:52.138190 16540 net.cpp:139] Memory required for data: 1076020400
I1023 12:27:52.138195 16540 layer_factory.hpp:77] Creating layer group2_block2_sum
I1023 12:27:52.138200 16540 net.cpp:86] Creating Layer group2_block2_sum
I1023 12:27:52.138202 16540 net.cpp:408] group2_block2_sum <- group2_block2_conv1
I1023 12:27:52.138216 16540 net.cpp:408] group2_block2_sum <- group2_block1_sum_group2_block1_relu_0_split_1
I1023 12:27:52.138221 16540 net.cpp:382] group2_block2_sum -> group2_block2_sum
I1023 12:27:52.138245 16540 net.cpp:124] Setting up group2_block2_sum
I1023 12:27:52.138250 16540 net.cpp:131] Top shape: 100 64 8 8 (409600)
I1023 12:27:52.138252 16540 net.cpp:139] Memory required for data: 1077658800
I1023 12:27:52.138255 16540 layer_factory.hpp:77] Creating layer group2_block2_relu
I1023 12:27:52.138259 16540 net.cpp:86] Creating Layer group2_block2_relu
I1023 12:27:52.138262 16540 net.cpp:408] group2_block2_relu <- group2_block2_sum
I1023 12:27:52.138267 16540 net.cpp:369] group2_block2_relu -> group2_block2_sum (in-place)
I1023 12:27:52.138914 16540 net.cpp:124] Setting up group2_block2_relu
I1023 12:27:52.138923 16540 net.cpp:131] Top shape: 100 64 8 8 (409600)
I1023 12:27:52.138926 16540 net.cpp:139] Memory required for data: 1079297200
I1023 12:27:52.138928 16540 layer_factory.hpp:77] Creating layer group2_block2_sum_group2_block2_relu_0_split
I1023 12:27:52.138936 16540 net.cpp:86] Creating Layer group2_block2_sum_group2_block2_relu_0_split
I1023 12:27:52.138937 16540 net.cpp:408] group2_block2_sum_group2_block2_relu_0_split <- group2_block2_sum
I1023 12:27:52.138942 16540 net.cpp:382] group2_block2_sum_group2_block2_relu_0_split -> group2_block2_sum_group2_block2_relu_0_split_0
I1023 12:27:52.138950 16540 net.cpp:382] group2_block2_sum_group2_block2_relu_0_split -> group2_block2_sum_group2_block2_relu_0_split_1
I1023 12:27:52.138998 16540 net.cpp:124] Setting up group2_block2_sum_group2_block2_relu_0_split
I1023 12:27:52.139004 16540 net.cpp:131] Top shape: 100 64 8 8 (409600)
I1023 12:27:52.139008 16540 net.cpp:131] Top shape: 100 64 8 8 (409600)
I1023 12:27:52.139009 16540 net.cpp:139] Memory required for data: 1082574000
I1023 12:27:52.139012 16540 layer_factory.hpp:77] Creating layer group2_block3_conv0
I1023 12:27:52.139021 16540 net.cpp:86] Creating Layer group2_block3_conv0
I1023 12:27:52.139024 16540 net.cpp:408] group2_block3_conv0 <- group2_block2_sum_group2_block2_relu_0_split_0
I1023 12:27:52.139029 16540 net.cpp:382] group2_block3_conv0 -> group2_block3_conv0
I1023 12:27:52.141330 16540 net.cpp:124] Setting up group2_block3_conv0
I1023 12:27:52.141338 16540 net.cpp:131] Top shape: 100 64 8 8 (409600)
I1023 12:27:52.141341 16540 net.cpp:139] Memory required for data: 1084212400
I1023 12:27:52.141345 16540 layer_factory.hpp:77] Creating layer group2_block3_conv0_bn
I1023 12:27:52.141352 16540 net.cpp:86] Creating Layer group2_block3_conv0_bn
I1023 12:27:52.141355 16540 net.cpp:408] group2_block3_conv0_bn <- group2_block3_conv0
I1023 12:27:52.141360 16540 net.cpp:369] group2_block3_conv0_bn -> group2_block3_conv0 (in-place)
I1023 12:27:52.141530 16540 net.cpp:124] Setting up group2_block3_conv0_bn
I1023 12:27:52.141535 16540 net.cpp:131] Top shape: 100 64 8 8 (409600)
I1023 12:27:52.141537 16540 net.cpp:139] Memory required for data: 1085850800
I1023 12:27:52.141543 16540 layer_factory.hpp:77] Creating layer group2_block3_conv0_scale
I1023 12:27:52.141548 16540 net.cpp:86] Creating Layer group2_block3_conv0_scale
I1023 12:27:52.141551 16540 net.cpp:408] group2_block3_conv0_scale <- group2_block3_conv0
I1023 12:27:52.141556 16540 net.cpp:369] group2_block3_conv0_scale -> group2_block3_conv0 (in-place)
I1023 12:27:52.141592 16540 layer_factory.hpp:77] Creating layer group2_block3_conv0_scale
I1023 12:27:52.141687 16540 net.cpp:124] Setting up group2_block3_conv0_scale
I1023 12:27:52.141691 16540 net.cpp:131] Top shape: 100 64 8 8 (409600)
I1023 12:27:52.141695 16540 net.cpp:139] Memory required for data: 1087489200
I1023 12:27:52.141698 16540 layer_factory.hpp:77] Creating layer group2_block3_conv0_relu
I1023 12:27:52.141702 16540 net.cpp:86] Creating Layer group2_block3_conv0_relu
I1023 12:27:52.141705 16540 net.cpp:408] group2_block3_conv0_relu <- group2_block3_conv0
I1023 12:27:52.141710 16540 net.cpp:369] group2_block3_conv0_relu -> group2_block3_conv0 (in-place)
I1023 12:27:52.142850 16540 net.cpp:124] Setting up group2_block3_conv0_relu
I1023 12:27:52.142861 16540 net.cpp:131] Top shape: 100 64 8 8 (409600)
I1023 12:27:52.142863 16540 net.cpp:139] Memory required for data: 1089127600
I1023 12:27:52.142866 16540 layer_factory.hpp:77] Creating layer group2_block3_conv1
I1023 12:27:52.142875 16540 net.cpp:86] Creating Layer group2_block3_conv1
I1023 12:27:52.142879 16540 net.cpp:408] group2_block3_conv1 <- group2_block3_conv0
I1023 12:27:52.142884 16540 net.cpp:382] group2_block3_conv1 -> group2_block3_conv1
I1023 12:27:52.145166 16540 net.cpp:124] Setting up group2_block3_conv1
I1023 12:27:52.145175 16540 net.cpp:131] Top shape: 100 64 8 8 (409600)
I1023 12:27:52.145179 16540 net.cpp:139] Memory required for data: 1090766000
I1023 12:27:52.145182 16540 layer_factory.hpp:77] Creating layer group2_block3_conv1_bn
I1023 12:27:52.145190 16540 net.cpp:86] Creating Layer group2_block3_conv1_bn
I1023 12:27:52.145193 16540 net.cpp:408] group2_block3_conv1_bn <- group2_block3_conv1
I1023 12:27:52.145198 16540 net.cpp:369] group2_block3_conv1_bn -> group2_block3_conv1 (in-place)
I1023 12:27:52.145370 16540 net.cpp:124] Setting up group2_block3_conv1_bn
I1023 12:27:52.145375 16540 net.cpp:131] Top shape: 100 64 8 8 (409600)
I1023 12:27:52.145377 16540 net.cpp:139] Memory required for data: 1092404400
I1023 12:27:52.145382 16540 layer_factory.hpp:77] Creating layer group2_block3_conv1_scale
I1023 12:27:52.145388 16540 net.cpp:86] Creating Layer group2_block3_conv1_scale
I1023 12:27:52.145392 16540 net.cpp:408] group2_block3_conv1_scale <- group2_block3_conv1
I1023 12:27:52.145401 16540 net.cpp:369] group2_block3_conv1_scale -> group2_block3_conv1 (in-place)
I1023 12:27:52.145462 16540 layer_factory.hpp:77] Creating layer group2_block3_conv1_scale
I1023 12:27:52.145604 16540 net.cpp:124] Setting up group2_block3_conv1_scale
I1023 12:27:52.145612 16540 net.cpp:131] Top shape: 100 64 8 8 (409600)
I1023 12:27:52.145613 16540 net.cpp:139] Memory required for data: 1094042800
I1023 12:27:52.145618 16540 layer_factory.hpp:77] Creating layer group2_block3_sum
I1023 12:27:52.145623 16540 net.cpp:86] Creating Layer group2_block3_sum
I1023 12:27:52.145627 16540 net.cpp:408] group2_block3_sum <- group2_block3_conv1
I1023 12:27:52.145630 16540 net.cpp:408] group2_block3_sum <- group2_block2_sum_group2_block2_relu_0_split_1
I1023 12:27:52.145637 16540 net.cpp:382] group2_block3_sum -> group2_block3_sum
I1023 12:27:52.145668 16540 net.cpp:124] Setting up group2_block3_sum
I1023 12:27:52.145679 16540 net.cpp:131] Top shape: 100 64 8 8 (409600)
I1023 12:27:52.145684 16540 net.cpp:139] Memory required for data: 1095681200
I1023 12:27:52.145687 16540 layer_factory.hpp:77] Creating layer group2_block3_relu
I1023 12:27:52.145694 16540 net.cpp:86] Creating Layer group2_block3_relu
I1023 12:27:52.145697 16540 net.cpp:408] group2_block3_relu <- group2_block3_sum
I1023 12:27:52.145704 16540 net.cpp:369] group2_block3_relu -> group2_block3_sum (in-place)
I1023 12:27:52.146337 16540 net.cpp:124] Setting up group2_block3_relu
I1023 12:27:52.146347 16540 net.cpp:131] Top shape: 100 64 8 8 (409600)
I1023 12:27:52.146350 16540 net.cpp:139] Memory required for data: 1097319600
I1023 12:27:52.146353 16540 layer_factory.hpp:77] Creating layer group2_block3_sum_group2_block3_relu_0_split
I1023 12:27:52.146358 16540 net.cpp:86] Creating Layer group2_block3_sum_group2_block3_relu_0_split
I1023 12:27:52.146360 16540 net.cpp:408] group2_block3_sum_group2_block3_relu_0_split <- group2_block3_sum
I1023 12:27:52.146365 16540 net.cpp:382] group2_block3_sum_group2_block3_relu_0_split -> group2_block3_sum_group2_block3_relu_0_split_0
I1023 12:27:52.146378 16540 net.cpp:382] group2_block3_sum_group2_block3_relu_0_split -> group2_block3_sum_group2_block3_relu_0_split_1
I1023 12:27:52.146425 16540 net.cpp:124] Setting up group2_block3_sum_group2_block3_relu_0_split
I1023 12:27:52.146431 16540 net.cpp:131] Top shape: 100 64 8 8 (409600)
I1023 12:27:52.146435 16540 net.cpp:131] Top shape: 100 64 8 8 (409600)
I1023 12:27:52.146436 16540 net.cpp:139] Memory required for data: 1100596400
I1023 12:27:52.146448 16540 layer_factory.hpp:77] Creating layer group2_block4_conv0
I1023 12:27:52.146458 16540 net.cpp:86] Creating Layer group2_block4_conv0
I1023 12:27:52.146461 16540 net.cpp:408] group2_block4_conv0 <- group2_block3_sum_group2_block3_relu_0_split_0
I1023 12:27:52.146466 16540 net.cpp:382] group2_block4_conv0 -> group2_block4_conv0
I1023 12:27:52.148686 16540 net.cpp:124] Setting up group2_block4_conv0
I1023 12:27:52.148696 16540 net.cpp:131] Top shape: 100 64 8 8 (409600)
I1023 12:27:52.148699 16540 net.cpp:139] Memory required for data: 1102234800
I1023 12:27:52.148703 16540 layer_factory.hpp:77] Creating layer group2_block4_conv0_bn
I1023 12:27:52.148710 16540 net.cpp:86] Creating Layer group2_block4_conv0_bn
I1023 12:27:52.148713 16540 net.cpp:408] group2_block4_conv0_bn <- group2_block4_conv0
I1023 12:27:52.148718 16540 net.cpp:369] group2_block4_conv0_bn -> group2_block4_conv0 (in-place)
I1023 12:27:52.148891 16540 net.cpp:124] Setting up group2_block4_conv0_bn
I1023 12:27:52.148897 16540 net.cpp:131] Top shape: 100 64 8 8 (409600)
I1023 12:27:52.148900 16540 net.cpp:139] Memory required for data: 1103873200
I1023 12:27:52.148905 16540 layer_factory.hpp:77] Creating layer group2_block4_conv0_scale
I1023 12:27:52.148910 16540 net.cpp:86] Creating Layer group2_block4_conv0_scale
I1023 12:27:52.148913 16540 net.cpp:408] group2_block4_conv0_scale <- group2_block4_conv0
I1023 12:27:52.148917 16540 net.cpp:369] group2_block4_conv0_scale -> group2_block4_conv0 (in-place)
I1023 12:27:52.148954 16540 layer_factory.hpp:77] Creating layer group2_block4_conv0_scale
I1023 12:27:52.149098 16540 net.cpp:124] Setting up group2_block4_conv0_scale
I1023 12:27:52.149109 16540 net.cpp:131] Top shape: 100 64 8 8 (409600)
I1023 12:27:52.149112 16540 net.cpp:139] Memory required for data: 1105511600
I1023 12:27:52.149121 16540 layer_factory.hpp:77] Creating layer group2_block4_conv0_relu
I1023 12:27:52.149127 16540 net.cpp:86] Creating Layer group2_block4_conv0_relu
I1023 12:27:52.149132 16540 net.cpp:408] group2_block4_conv0_relu <- group2_block4_conv0
I1023 12:27:52.149140 16540 net.cpp:369] group2_block4_conv0_relu -> group2_block4_conv0 (in-place)
I1023 12:27:52.149943 16540 net.cpp:124] Setting up group2_block4_conv0_relu
I1023 12:27:52.149952 16540 net.cpp:131] Top shape: 100 64 8 8 (409600)
I1023 12:27:52.149955 16540 net.cpp:139] Memory required for data: 1107150000
I1023 12:27:52.149957 16540 layer_factory.hpp:77] Creating layer group2_block4_conv1
I1023 12:27:52.149967 16540 net.cpp:86] Creating Layer group2_block4_conv1
I1023 12:27:52.149971 16540 net.cpp:408] group2_block4_conv1 <- group2_block4_conv0
I1023 12:27:52.149976 16540 net.cpp:382] group2_block4_conv1 -> group2_block4_conv1
I1023 12:27:52.153101 16540 net.cpp:124] Setting up group2_block4_conv1
I1023 12:27:52.153111 16540 net.cpp:131] Top shape: 100 64 8 8 (409600)
I1023 12:27:52.153113 16540 net.cpp:139] Memory required for data: 1108788400
I1023 12:27:52.153118 16540 layer_factory.hpp:77] Creating layer group2_block4_conv1_bn
I1023 12:27:52.153126 16540 net.cpp:86] Creating Layer group2_block4_conv1_bn
I1023 12:27:52.153128 16540 net.cpp:408] group2_block4_conv1_bn <- group2_block4_conv1
I1023 12:27:52.153134 16540 net.cpp:369] group2_block4_conv1_bn -> group2_block4_conv1 (in-place)
I1023 12:27:52.153307 16540 net.cpp:124] Setting up group2_block4_conv1_bn
I1023 12:27:52.153313 16540 net.cpp:131] Top shape: 100 64 8 8 (409600)
I1023 12:27:52.153316 16540 net.cpp:139] Memory required for data: 1110426800
I1023 12:27:52.153321 16540 layer_factory.hpp:77] Creating layer group2_block4_conv1_scale
I1023 12:27:52.153326 16540 net.cpp:86] Creating Layer group2_block4_conv1_scale
I1023 12:27:52.153329 16540 net.cpp:408] group2_block4_conv1_scale <- group2_block4_conv1
I1023 12:27:52.153332 16540 net.cpp:369] group2_block4_conv1_scale -> group2_block4_conv1 (in-place)
I1023 12:27:52.153381 16540 layer_factory.hpp:77] Creating layer group2_block4_conv1_scale
I1023 12:27:52.153476 16540 net.cpp:124] Setting up group2_block4_conv1_scale
I1023 12:27:52.153491 16540 net.cpp:131] Top shape: 100 64 8 8 (409600)
I1023 12:27:52.153493 16540 net.cpp:139] Memory required for data: 1112065200
I1023 12:27:52.153497 16540 layer_factory.hpp:77] Creating layer group2_block4_sum
I1023 12:27:52.153502 16540 net.cpp:86] Creating Layer group2_block4_sum
I1023 12:27:52.153506 16540 net.cpp:408] group2_block4_sum <- group2_block4_conv1
I1023 12:27:52.153508 16540 net.cpp:408] group2_block4_sum <- group2_block3_sum_group2_block3_relu_0_split_1
I1023 12:27:52.153514 16540 net.cpp:382] group2_block4_sum -> group2_block4_sum
I1023 12:27:52.153537 16540 net.cpp:124] Setting up group2_block4_sum
I1023 12:27:52.153542 16540 net.cpp:131] Top shape: 100 64 8 8 (409600)
I1023 12:27:52.153543 16540 net.cpp:139] Memory required for data: 1113703600
I1023 12:27:52.153545 16540 layer_factory.hpp:77] Creating layer group2_block4_relu
I1023 12:27:52.153549 16540 net.cpp:86] Creating Layer group2_block4_relu
I1023 12:27:52.153551 16540 net.cpp:408] group2_block4_relu <- group2_block4_sum
I1023 12:27:52.153555 16540 net.cpp:369] group2_block4_relu -> group2_block4_sum (in-place)
I1023 12:27:52.154011 16540 net.cpp:124] Setting up group2_block4_relu
I1023 12:27:52.154018 16540 net.cpp:131] Top shape: 100 64 8 8 (409600)
I1023 12:27:52.154021 16540 net.cpp:139] Memory required for data: 1115342000
I1023 12:27:52.154022 16540 layer_factory.hpp:77] Creating layer group2_block4_sum_group2_block4_relu_0_split
I1023 12:27:52.154027 16540 net.cpp:86] Creating Layer group2_block4_sum_group2_block4_relu_0_split
I1023 12:27:52.154031 16540 net.cpp:408] group2_block4_sum_group2_block4_relu_0_split <- group2_block4_sum
I1023 12:27:52.154036 16540 net.cpp:382] group2_block4_sum_group2_block4_relu_0_split -> group2_block4_sum_group2_block4_relu_0_split_0
I1023 12:27:52.154042 16540 net.cpp:382] group2_block4_sum_group2_block4_relu_0_split -> group2_block4_sum_group2_block4_relu_0_split_1
I1023 12:27:52.154083 16540 net.cpp:124] Setting up group2_block4_sum_group2_block4_relu_0_split
I1023 12:27:52.154088 16540 net.cpp:131] Top shape: 100 64 8 8 (409600)
I1023 12:27:52.154090 16540 net.cpp:131] Top shape: 100 64 8 8 (409600)
I1023 12:27:52.154093 16540 net.cpp:139] Memory required for data: 1118618800
I1023 12:27:52.154094 16540 layer_factory.hpp:77] Creating layer group2_block5_conv0
I1023 12:27:52.154103 16540 net.cpp:86] Creating Layer group2_block5_conv0
I1023 12:27:52.154104 16540 net.cpp:408] group2_block5_conv0 <- group2_block4_sum_group2_block4_relu_0_split_0
I1023 12:27:52.154110 16540 net.cpp:382] group2_block5_conv0 -> group2_block5_conv0
I1023 12:27:52.157050 16540 net.cpp:124] Setting up group2_block5_conv0
I1023 12:27:52.157061 16540 net.cpp:131] Top shape: 100 64 8 8 (409600)
I1023 12:27:52.157065 16540 net.cpp:139] Memory required for data: 1120257200
I1023 12:27:52.157071 16540 layer_factory.hpp:77] Creating layer group2_block5_conv0_bn
I1023 12:27:52.157083 16540 net.cpp:86] Creating Layer group2_block5_conv0_bn
I1023 12:27:52.157088 16540 net.cpp:408] group2_block5_conv0_bn <- group2_block5_conv0
I1023 12:27:52.157094 16540 net.cpp:369] group2_block5_conv0_bn -> group2_block5_conv0 (in-place)
I1023 12:27:52.157315 16540 net.cpp:124] Setting up group2_block5_conv0_bn
I1023 12:27:52.157325 16540 net.cpp:131] Top shape: 100 64 8 8 (409600)
I1023 12:27:52.157328 16540 net.cpp:139] Memory required for data: 1121895600
I1023 12:27:52.157335 16540 layer_factory.hpp:77] Creating layer group2_block5_conv0_scale
I1023 12:27:52.157341 16540 net.cpp:86] Creating Layer group2_block5_conv0_scale
I1023 12:27:52.157344 16540 net.cpp:408] group2_block5_conv0_scale <- group2_block5_conv0
I1023 12:27:52.157348 16540 net.cpp:369] group2_block5_conv0_scale -> group2_block5_conv0 (in-place)
I1023 12:27:52.157390 16540 layer_factory.hpp:77] Creating layer group2_block5_conv0_scale
I1023 12:27:52.157495 16540 net.cpp:124] Setting up group2_block5_conv0_scale
I1023 12:27:52.157500 16540 net.cpp:131] Top shape: 100 64 8 8 (409600)
I1023 12:27:52.157502 16540 net.cpp:139] Memory required for data: 1123534000
I1023 12:27:52.157516 16540 layer_factory.hpp:77] Creating layer group2_block5_conv0_relu
I1023 12:27:52.157521 16540 net.cpp:86] Creating Layer group2_block5_conv0_relu
I1023 12:27:52.157524 16540 net.cpp:408] group2_block5_conv0_relu <- group2_block5_conv0
I1023 12:27:52.157527 16540 net.cpp:369] group2_block5_conv0_relu -> group2_block5_conv0 (in-place)
I1023 12:27:52.157999 16540 net.cpp:124] Setting up group2_block5_conv0_relu
I1023 12:27:52.158007 16540 net.cpp:131] Top shape: 100 64 8 8 (409600)
I1023 12:27:52.158010 16540 net.cpp:139] Memory required for data: 1125172400
I1023 12:27:52.158012 16540 layer_factory.hpp:77] Creating layer group2_block5_conv1
I1023 12:27:52.158021 16540 net.cpp:86] Creating Layer group2_block5_conv1
I1023 12:27:52.158025 16540 net.cpp:408] group2_block5_conv1 <- group2_block5_conv0
I1023 12:27:52.158031 16540 net.cpp:382] group2_block5_conv1 -> group2_block5_conv1
I1023 12:27:52.160480 16540 net.cpp:124] Setting up group2_block5_conv1
I1023 12:27:52.160490 16540 net.cpp:131] Top shape: 100 64 8 8 (409600)
I1023 12:27:52.160493 16540 net.cpp:139] Memory required for data: 1126810800
I1023 12:27:52.160498 16540 layer_factory.hpp:77] Creating layer group2_block5_conv1_bn
I1023 12:27:52.160503 16540 net.cpp:86] Creating Layer group2_block5_conv1_bn
I1023 12:27:52.160507 16540 net.cpp:408] group2_block5_conv1_bn <- group2_block5_conv1
I1023 12:27:52.160521 16540 net.cpp:369] group2_block5_conv1_bn -> group2_block5_conv1 (in-place)
I1023 12:27:52.160704 16540 net.cpp:124] Setting up group2_block5_conv1_bn
I1023 12:27:52.160710 16540 net.cpp:131] Top shape: 100 64 8 8 (409600)
I1023 12:27:52.160712 16540 net.cpp:139] Memory required for data: 1128449200
I1023 12:27:52.160718 16540 layer_factory.hpp:77] Creating layer group2_block5_conv1_scale
I1023 12:27:52.160725 16540 net.cpp:86] Creating Layer group2_block5_conv1_scale
I1023 12:27:52.160728 16540 net.cpp:408] group2_block5_conv1_scale <- group2_block5_conv1
I1023 12:27:52.160732 16540 net.cpp:369] group2_block5_conv1_scale -> group2_block5_conv1 (in-place)
I1023 12:27:52.160769 16540 layer_factory.hpp:77] Creating layer group2_block5_conv1_scale
I1023 12:27:52.160869 16540 net.cpp:124] Setting up group2_block5_conv1_scale
I1023 12:27:52.160874 16540 net.cpp:131] Top shape: 100 64 8 8 (409600)
I1023 12:27:52.160876 16540 net.cpp:139] Memory required for data: 1130087600
I1023 12:27:52.160881 16540 layer_factory.hpp:77] Creating layer group2_block5_sum
I1023 12:27:52.160887 16540 net.cpp:86] Creating Layer group2_block5_sum
I1023 12:27:52.160889 16540 net.cpp:408] group2_block5_sum <- group2_block5_conv1
I1023 12:27:52.160893 16540 net.cpp:408] group2_block5_sum <- group2_block4_sum_group2_block4_relu_0_split_1
I1023 12:27:52.160899 16540 net.cpp:382] group2_block5_sum -> group2_block5_sum
I1023 12:27:52.160921 16540 net.cpp:124] Setting up group2_block5_sum
I1023 12:27:52.160926 16540 net.cpp:131] Top shape: 100 64 8 8 (409600)
I1023 12:27:52.160928 16540 net.cpp:139] Memory required for data: 1131726000
I1023 12:27:52.160930 16540 layer_factory.hpp:77] Creating layer group2_block5_relu
I1023 12:27:52.160935 16540 net.cpp:86] Creating Layer group2_block5_relu
I1023 12:27:52.160938 16540 net.cpp:408] group2_block5_relu <- group2_block5_sum
I1023 12:27:52.160941 16540 net.cpp:369] group2_block5_relu -> group2_block5_sum (in-place)
I1023 12:27:52.162104 16540 net.cpp:124] Setting up group2_block5_relu
I1023 12:27:52.162113 16540 net.cpp:131] Top shape: 100 64 8 8 (409600)
I1023 12:27:52.162115 16540 net.cpp:139] Memory required for data: 1133364400
I1023 12:27:52.162118 16540 layer_factory.hpp:77] Creating layer group2_block5_sum_group2_block5_relu_0_split
I1023 12:27:52.162123 16540 net.cpp:86] Creating Layer group2_block5_sum_group2_block5_relu_0_split
I1023 12:27:52.162127 16540 net.cpp:408] group2_block5_sum_group2_block5_relu_0_split <- group2_block5_sum
I1023 12:27:52.162132 16540 net.cpp:382] group2_block5_sum_group2_block5_relu_0_split -> group2_block5_sum_group2_block5_relu_0_split_0
I1023 12:27:52.162139 16540 net.cpp:382] group2_block5_sum_group2_block5_relu_0_split -> group2_block5_sum_group2_block5_relu_0_split_1
I1023 12:27:52.162220 16540 net.cpp:124] Setting up group2_block5_sum_group2_block5_relu_0_split
I1023 12:27:52.162230 16540 net.cpp:131] Top shape: 100 64 8 8 (409600)
I1023 12:27:52.162236 16540 net.cpp:131] Top shape: 100 64 8 8 (409600)
I1023 12:27:52.162240 16540 net.cpp:139] Memory required for data: 1136641200
I1023 12:27:52.162243 16540 layer_factory.hpp:77] Creating layer group2_block6_conv0
I1023 12:27:52.162251 16540 net.cpp:86] Creating Layer group2_block6_conv0
I1023 12:27:52.162255 16540 net.cpp:408] group2_block6_conv0 <- group2_block5_sum_group2_block5_relu_0_split_0
I1023 12:27:52.162259 16540 net.cpp:382] group2_block6_conv0 -> group2_block6_conv0
I1023 12:27:52.164499 16540 net.cpp:124] Setting up group2_block6_conv0
I1023 12:27:52.164507 16540 net.cpp:131] Top shape: 100 64 8 8 (409600)
I1023 12:27:52.164510 16540 net.cpp:139] Memory required for data: 1138279600
I1023 12:27:52.164515 16540 layer_factory.hpp:77] Creating layer group2_block6_conv0_bn
I1023 12:27:52.164521 16540 net.cpp:86] Creating Layer group2_block6_conv0_bn
I1023 12:27:52.164525 16540 net.cpp:408] group2_block6_conv0_bn <- group2_block6_conv0
I1023 12:27:52.164530 16540 net.cpp:369] group2_block6_conv0_bn -> group2_block6_conv0 (in-place)
I1023 12:27:52.164706 16540 net.cpp:124] Setting up group2_block6_conv0_bn
I1023 12:27:52.164712 16540 net.cpp:131] Top shape: 100 64 8 8 (409600)
I1023 12:27:52.164714 16540 net.cpp:139] Memory required for data: 1139918000
I1023 12:27:52.164721 16540 layer_factory.hpp:77] Creating layer group2_block6_conv0_scale
I1023 12:27:52.164726 16540 net.cpp:86] Creating Layer group2_block6_conv0_scale
I1023 12:27:52.164728 16540 net.cpp:408] group2_block6_conv0_scale <- group2_block6_conv0
I1023 12:27:52.164733 16540 net.cpp:369] group2_block6_conv0_scale -> group2_block6_conv0 (in-place)
I1023 12:27:52.164770 16540 layer_factory.hpp:77] Creating layer group2_block6_conv0_scale
I1023 12:27:52.164889 16540 net.cpp:124] Setting up group2_block6_conv0_scale
I1023 12:27:52.164896 16540 net.cpp:131] Top shape: 100 64 8 8 (409600)
I1023 12:27:52.164897 16540 net.cpp:139] Memory required for data: 1141556400
I1023 12:27:52.164902 16540 layer_factory.hpp:77] Creating layer group2_block6_conv0_relu
I1023 12:27:52.164960 16540 net.cpp:86] Creating Layer group2_block6_conv0_relu
I1023 12:27:52.164964 16540 net.cpp:408] group2_block6_conv0_relu <- group2_block6_conv0
I1023 12:27:52.164968 16540 net.cpp:369] group2_block6_conv0_relu -> group2_block6_conv0 (in-place)
I1023 12:27:52.165706 16540 net.cpp:124] Setting up group2_block6_conv0_relu
I1023 12:27:52.165715 16540 net.cpp:131] Top shape: 100 64 8 8 (409600)
I1023 12:27:52.165717 16540 net.cpp:139] Memory required for data: 1143194800
I1023 12:27:52.165722 16540 layer_factory.hpp:77] Creating layer group2_block6_conv1
I1023 12:27:52.165733 16540 net.cpp:86] Creating Layer group2_block6_conv1
I1023 12:27:52.165736 16540 net.cpp:408] group2_block6_conv1 <- group2_block6_conv0
I1023 12:27:52.165742 16540 net.cpp:382] group2_block6_conv1 -> group2_block6_conv1
I1023 12:27:52.167963 16540 net.cpp:124] Setting up group2_block6_conv1
I1023 12:27:52.167971 16540 net.cpp:131] Top shape: 100 64 8 8 (409600)
I1023 12:27:52.167974 16540 net.cpp:139] Memory required for data: 1144833200
I1023 12:27:52.167979 16540 layer_factory.hpp:77] Creating layer group2_block6_conv1_bn
I1023 12:27:52.167985 16540 net.cpp:86] Creating Layer group2_block6_conv1_bn
I1023 12:27:52.167989 16540 net.cpp:408] group2_block6_conv1_bn <- group2_block6_conv1
I1023 12:27:52.167992 16540 net.cpp:369] group2_block6_conv1_bn -> group2_block6_conv1 (in-place)
I1023 12:27:52.168186 16540 net.cpp:124] Setting up group2_block6_conv1_bn
I1023 12:27:52.168192 16540 net.cpp:131] Top shape: 100 64 8 8 (409600)
I1023 12:27:52.168195 16540 net.cpp:139] Memory required for data: 1146471600
I1023 12:27:52.168201 16540 layer_factory.hpp:77] Creating layer group2_block6_conv1_scale
I1023 12:27:52.168206 16540 net.cpp:86] Creating Layer group2_block6_conv1_scale
I1023 12:27:52.168220 16540 net.cpp:408] group2_block6_conv1_scale <- group2_block6_conv1
I1023 12:27:52.168226 16540 net.cpp:369] group2_block6_conv1_scale -> group2_block6_conv1 (in-place)
I1023 12:27:52.168265 16540 layer_factory.hpp:77] Creating layer group2_block6_conv1_scale
I1023 12:27:52.168368 16540 net.cpp:124] Setting up group2_block6_conv1_scale
I1023 12:27:52.168372 16540 net.cpp:131] Top shape: 100 64 8 8 (409600)
I1023 12:27:52.168375 16540 net.cpp:139] Memory required for data: 1148110000
I1023 12:27:52.168380 16540 layer_factory.hpp:77] Creating layer group2_block6_sum
I1023 12:27:52.168385 16540 net.cpp:86] Creating Layer group2_block6_sum
I1023 12:27:52.168397 16540 net.cpp:408] group2_block6_sum <- group2_block6_conv1
I1023 12:27:52.168401 16540 net.cpp:408] group2_block6_sum <- group2_block5_sum_group2_block5_relu_0_split_1
I1023 12:27:52.168406 16540 net.cpp:382] group2_block6_sum -> group2_block6_sum
I1023 12:27:52.168429 16540 net.cpp:124] Setting up group2_block6_sum
I1023 12:27:52.168433 16540 net.cpp:131] Top shape: 100 64 8 8 (409600)
I1023 12:27:52.168435 16540 net.cpp:139] Memory required for data: 1149748400
I1023 12:27:52.168437 16540 layer_factory.hpp:77] Creating layer group2_block6_relu
I1023 12:27:52.168442 16540 net.cpp:86] Creating Layer group2_block6_relu
I1023 12:27:52.168443 16540 net.cpp:408] group2_block6_relu <- group2_block6_sum
I1023 12:27:52.168448 16540 net.cpp:369] group2_block6_relu -> group2_block6_sum (in-place)
I1023 12:27:52.169080 16540 net.cpp:124] Setting up group2_block6_relu
I1023 12:27:52.169088 16540 net.cpp:131] Top shape: 100 64 8 8 (409600)
I1023 12:27:52.169090 16540 net.cpp:139] Memory required for data: 1151386800
I1023 12:27:52.169092 16540 layer_factory.hpp:77] Creating layer group2_block6_sum_group2_block6_relu_0_split
I1023 12:27:52.169100 16540 net.cpp:86] Creating Layer group2_block6_sum_group2_block6_relu_0_split
I1023 12:27:52.169101 16540 net.cpp:408] group2_block6_sum_group2_block6_relu_0_split <- group2_block6_sum
I1023 12:27:52.169106 16540 net.cpp:382] group2_block6_sum_group2_block6_relu_0_split -> group2_block6_sum_group2_block6_relu_0_split_0
I1023 12:27:52.169113 16540 net.cpp:382] group2_block6_sum_group2_block6_relu_0_split -> group2_block6_sum_group2_block6_relu_0_split_1
I1023 12:27:52.169167 16540 net.cpp:124] Setting up group2_block6_sum_group2_block6_relu_0_split
I1023 12:27:52.169172 16540 net.cpp:131] Top shape: 100 64 8 8 (409600)
I1023 12:27:52.169174 16540 net.cpp:131] Top shape: 100 64 8 8 (409600)
I1023 12:27:52.169178 16540 net.cpp:139] Memory required for data: 1154663600
I1023 12:27:52.169179 16540 layer_factory.hpp:77] Creating layer group2_block7_conv0
I1023 12:27:52.169188 16540 net.cpp:86] Creating Layer group2_block7_conv0
I1023 12:27:52.169191 16540 net.cpp:408] group2_block7_conv0 <- group2_block6_sum_group2_block6_relu_0_split_0
I1023 12:27:52.169196 16540 net.cpp:382] group2_block7_conv0 -> group2_block7_conv0
I1023 12:27:52.172013 16540 net.cpp:124] Setting up group2_block7_conv0
I1023 12:27:52.172024 16540 net.cpp:131] Top shape: 100 64 8 8 (409600)
I1023 12:27:52.172025 16540 net.cpp:139] Memory required for data: 1156302000
I1023 12:27:52.172030 16540 layer_factory.hpp:77] Creating layer group2_block7_conv0_bn
I1023 12:27:52.172036 16540 net.cpp:86] Creating Layer group2_block7_conv0_bn
I1023 12:27:52.172040 16540 net.cpp:408] group2_block7_conv0_bn <- group2_block7_conv0
I1023 12:27:52.172045 16540 net.cpp:369] group2_block7_conv0_bn -> group2_block7_conv0 (in-place)
I1023 12:27:52.172238 16540 net.cpp:124] Setting up group2_block7_conv0_bn
I1023 12:27:52.172245 16540 net.cpp:131] Top shape: 100 64 8 8 (409600)
I1023 12:27:52.172247 16540 net.cpp:139] Memory required for data: 1157940400
I1023 12:27:52.172253 16540 layer_factory.hpp:77] Creating layer group2_block7_conv0_scale
I1023 12:27:52.172258 16540 net.cpp:86] Creating Layer group2_block7_conv0_scale
I1023 12:27:52.172261 16540 net.cpp:408] group2_block7_conv0_scale <- group2_block7_conv0
I1023 12:27:52.172266 16540 net.cpp:369] group2_block7_conv0_scale -> group2_block7_conv0 (in-place)
I1023 12:27:52.172317 16540 layer_factory.hpp:77] Creating layer group2_block7_conv0_scale
I1023 12:27:52.172420 16540 net.cpp:124] Setting up group2_block7_conv0_scale
I1023 12:27:52.172425 16540 net.cpp:131] Top shape: 100 64 8 8 (409600)
I1023 12:27:52.172427 16540 net.cpp:139] Memory required for data: 1159578800
I1023 12:27:52.172433 16540 layer_factory.hpp:77] Creating layer group2_block7_conv0_relu
I1023 12:27:52.172437 16540 net.cpp:86] Creating Layer group2_block7_conv0_relu
I1023 12:27:52.172441 16540 net.cpp:408] group2_block7_conv0_relu <- group2_block7_conv0
I1023 12:27:52.172444 16540 net.cpp:369] group2_block7_conv0_relu -> group2_block7_conv0 (in-place)
I1023 12:27:52.173084 16540 net.cpp:124] Setting up group2_block7_conv0_relu
I1023 12:27:52.173092 16540 net.cpp:131] Top shape: 100 64 8 8 (409600)
I1023 12:27:52.173094 16540 net.cpp:139] Memory required for data: 1161217200
I1023 12:27:52.173097 16540 layer_factory.hpp:77] Creating layer group2_block7_conv1
I1023 12:27:52.173106 16540 net.cpp:86] Creating Layer group2_block7_conv1
I1023 12:27:52.173110 16540 net.cpp:408] group2_block7_conv1 <- group2_block7_conv0
I1023 12:27:52.173115 16540 net.cpp:382] group2_block7_conv1 -> group2_block7_conv1
I1023 12:27:52.175565 16540 net.cpp:124] Setting up group2_block7_conv1
I1023 12:27:52.175575 16540 net.cpp:131] Top shape: 100 64 8 8 (409600)
I1023 12:27:52.175578 16540 net.cpp:139] Memory required for data: 1162855600
I1023 12:27:52.175582 16540 layer_factory.hpp:77] Creating layer group2_block7_conv1_bn
I1023 12:27:52.175588 16540 net.cpp:86] Creating Layer group2_block7_conv1_bn
I1023 12:27:52.175591 16540 net.cpp:408] group2_block7_conv1_bn <- group2_block7_conv1
I1023 12:27:52.175597 16540 net.cpp:369] group2_block7_conv1_bn -> group2_block7_conv1 (in-place)
I1023 12:27:52.175781 16540 net.cpp:124] Setting up group2_block7_conv1_bn
I1023 12:27:52.175786 16540 net.cpp:131] Top shape: 100 64 8 8 (409600)
I1023 12:27:52.175788 16540 net.cpp:139] Memory required for data: 1164494000
I1023 12:27:52.175794 16540 layer_factory.hpp:77] Creating layer group2_block7_conv1_scale
I1023 12:27:52.175802 16540 net.cpp:86] Creating Layer group2_block7_conv1_scale
I1023 12:27:52.175807 16540 net.cpp:408] group2_block7_conv1_scale <- group2_block7_conv1
I1023 12:27:52.175814 16540 net.cpp:369] group2_block7_conv1_scale -> group2_block7_conv1 (in-place)
I1023 12:27:52.175861 16540 layer_factory.hpp:77] Creating layer group2_block7_conv1_scale
I1023 12:27:52.175967 16540 net.cpp:124] Setting up group2_block7_conv1_scale
I1023 12:27:52.175972 16540 net.cpp:131] Top shape: 100 64 8 8 (409600)
I1023 12:27:52.175974 16540 net.cpp:139] Memory required for data: 1166132400
I1023 12:27:52.175979 16540 layer_factory.hpp:77] Creating layer group2_block7_sum
I1023 12:27:52.175984 16540 net.cpp:86] Creating Layer group2_block7_sum
I1023 12:27:52.175987 16540 net.cpp:408] group2_block7_sum <- group2_block7_conv1
I1023 12:27:52.175990 16540 net.cpp:408] group2_block7_sum <- group2_block6_sum_group2_block6_relu_0_split_1
I1023 12:27:52.175997 16540 net.cpp:382] group2_block7_sum -> group2_block7_sum
I1023 12:27:52.176018 16540 net.cpp:124] Setting up group2_block7_sum
I1023 12:27:52.176023 16540 net.cpp:131] Top shape: 100 64 8 8 (409600)
I1023 12:27:52.176024 16540 net.cpp:139] Memory required for data: 1167770800
I1023 12:27:52.176026 16540 layer_factory.hpp:77] Creating layer group2_block7_relu
I1023 12:27:52.176033 16540 net.cpp:86] Creating Layer group2_block7_relu
I1023 12:27:52.176034 16540 net.cpp:408] group2_block7_relu <- group2_block7_sum
I1023 12:27:52.176038 16540 net.cpp:369] group2_block7_relu -> group2_block7_sum (in-place)
I1023 12:27:52.176530 16540 net.cpp:124] Setting up group2_block7_relu
I1023 12:27:52.176539 16540 net.cpp:131] Top shape: 100 64 8 8 (409600)
I1023 12:27:52.176542 16540 net.cpp:139] Memory required for data: 1169409200
I1023 12:27:52.176544 16540 layer_factory.hpp:77] Creating layer group2_block7_sum_group2_block7_relu_0_split
I1023 12:27:52.176558 16540 net.cpp:86] Creating Layer group2_block7_sum_group2_block7_relu_0_split
I1023 12:27:52.176560 16540 net.cpp:408] group2_block7_sum_group2_block7_relu_0_split <- group2_block7_sum
I1023 12:27:52.176565 16540 net.cpp:382] group2_block7_sum_group2_block7_relu_0_split -> group2_block7_sum_group2_block7_relu_0_split_0
I1023 12:27:52.176573 16540 net.cpp:382] group2_block7_sum_group2_block7_relu_0_split -> group2_block7_sum_group2_block7_relu_0_split_1
I1023 12:27:52.176614 16540 net.cpp:124] Setting up group2_block7_sum_group2_block7_relu_0_split
I1023 12:27:52.176620 16540 net.cpp:131] Top shape: 100 64 8 8 (409600)
I1023 12:27:52.176622 16540 net.cpp:131] Top shape: 100 64 8 8 (409600)
I1023 12:27:52.176625 16540 net.cpp:139] Memory required for data: 1172686000
I1023 12:27:52.176626 16540 layer_factory.hpp:77] Creating layer group2_block8_conv0
I1023 12:27:52.176635 16540 net.cpp:86] Creating Layer group2_block8_conv0
I1023 12:27:52.176638 16540 net.cpp:408] group2_block8_conv0 <- group2_block7_sum_group2_block7_relu_0_split_0
I1023 12:27:52.176642 16540 net.cpp:382] group2_block8_conv0 -> group2_block8_conv0
I1023 12:27:52.179091 16540 net.cpp:124] Setting up group2_block8_conv0
I1023 12:27:52.179101 16540 net.cpp:131] Top shape: 100 64 8 8 (409600)
I1023 12:27:52.179105 16540 net.cpp:139] Memory required for data: 1174324400
I1023 12:27:52.179108 16540 layer_factory.hpp:77] Creating layer group2_block8_conv0_bn
I1023 12:27:52.179114 16540 net.cpp:86] Creating Layer group2_block8_conv0_bn
I1023 12:27:52.179117 16540 net.cpp:408] group2_block8_conv0_bn <- group2_block8_conv0
I1023 12:27:52.179122 16540 net.cpp:369] group2_block8_conv0_bn -> group2_block8_conv0 (in-place)
I1023 12:27:52.179299 16540 net.cpp:124] Setting up group2_block8_conv0_bn
I1023 12:27:52.179304 16540 net.cpp:131] Top shape: 100 64 8 8 (409600)
I1023 12:27:52.179306 16540 net.cpp:139] Memory required for data: 1175962800
I1023 12:27:52.179312 16540 layer_factory.hpp:77] Creating layer group2_block8_conv0_scale
I1023 12:27:52.179317 16540 net.cpp:86] Creating Layer group2_block8_conv0_scale
I1023 12:27:52.179319 16540 net.cpp:408] group2_block8_conv0_scale <- group2_block8_conv0
I1023 12:27:52.179324 16540 net.cpp:369] group2_block8_conv0_scale -> group2_block8_conv0 (in-place)
I1023 12:27:52.179363 16540 layer_factory.hpp:77] Creating layer group2_block8_conv0_scale
I1023 12:27:52.179466 16540 net.cpp:124] Setting up group2_block8_conv0_scale
I1023 12:27:52.179471 16540 net.cpp:131] Top shape: 100 64 8 8 (409600)
I1023 12:27:52.179472 16540 net.cpp:139] Memory required for data: 1177601200
I1023 12:27:52.179477 16540 layer_factory.hpp:77] Creating layer group2_block8_conv0_relu
I1023 12:27:52.179482 16540 net.cpp:86] Creating Layer group2_block8_conv0_relu
I1023 12:27:52.179486 16540 net.cpp:408] group2_block8_conv0_relu <- group2_block8_conv0
I1023 12:27:52.179489 16540 net.cpp:369] group2_block8_conv0_relu -> group2_block8_conv0 (in-place)
I1023 12:27:52.180285 16540 net.cpp:124] Setting up group2_block8_conv0_relu
I1023 12:27:52.180294 16540 net.cpp:131] Top shape: 100 64 8 8 (409600)
I1023 12:27:52.180296 16540 net.cpp:139] Memory required for data: 1179239600
I1023 12:27:52.180299 16540 layer_factory.hpp:77] Creating layer group2_block8_conv1
I1023 12:27:52.180307 16540 net.cpp:86] Creating Layer group2_block8_conv1
I1023 12:27:52.180310 16540 net.cpp:408] group2_block8_conv1 <- group2_block8_conv0
I1023 12:27:52.180317 16540 net.cpp:382] group2_block8_conv1 -> group2_block8_conv1
I1023 12:27:52.183516 16540 net.cpp:124] Setting up group2_block8_conv1
I1023 12:27:52.183526 16540 net.cpp:131] Top shape: 100 64 8 8 (409600)
I1023 12:27:52.183527 16540 net.cpp:139] Memory required for data: 1180878000
I1023 12:27:52.183532 16540 layer_factory.hpp:77] Creating layer group2_block8_conv1_bn
I1023 12:27:52.183539 16540 net.cpp:86] Creating Layer group2_block8_conv1_bn
I1023 12:27:52.183542 16540 net.cpp:408] group2_block8_conv1_bn <- group2_block8_conv1
I1023 12:27:52.183547 16540 net.cpp:369] group2_block8_conv1_bn -> group2_block8_conv1 (in-place)
I1023 12:27:52.183739 16540 net.cpp:124] Setting up group2_block8_conv1_bn
I1023 12:27:52.183745 16540 net.cpp:131] Top shape: 100 64 8 8 (409600)
I1023 12:27:52.183748 16540 net.cpp:139] Memory required for data: 1182516400
I1023 12:27:52.183753 16540 layer_factory.hpp:77] Creating layer group2_block8_conv1_scale
I1023 12:27:52.183758 16540 net.cpp:86] Creating Layer group2_block8_conv1_scale
I1023 12:27:52.183761 16540 net.cpp:408] group2_block8_conv1_scale <- group2_block8_conv1
I1023 12:27:52.183766 16540 net.cpp:369] group2_block8_conv1_scale -> group2_block8_conv1 (in-place)
I1023 12:27:52.183807 16540 layer_factory.hpp:77] Creating layer group2_block8_conv1_scale
I1023 12:27:52.183931 16540 net.cpp:124] Setting up group2_block8_conv1_scale
I1023 12:27:52.183938 16540 net.cpp:131] Top shape: 100 64 8 8 (409600)
I1023 12:27:52.183939 16540 net.cpp:139] Memory required for data: 1184154800
I1023 12:27:52.183943 16540 layer_factory.hpp:77] Creating layer group2_block8_sum
I1023 12:27:52.183949 16540 net.cpp:86] Creating Layer group2_block8_sum
I1023 12:27:52.183953 16540 net.cpp:408] group2_block8_sum <- group2_block8_conv1
I1023 12:27:52.183955 16540 net.cpp:408] group2_block8_sum <- group2_block7_sum_group2_block7_relu_0_split_1
I1023 12:27:52.183961 16540 net.cpp:382] group2_block8_sum -> group2_block8_sum
I1023 12:27:52.183985 16540 net.cpp:124] Setting up group2_block8_sum
I1023 12:27:52.183990 16540 net.cpp:131] Top shape: 100 64 8 8 (409600)
I1023 12:27:52.183991 16540 net.cpp:139] Memory required for data: 1185793200
I1023 12:27:52.183995 16540 layer_factory.hpp:77] Creating layer group2_block8_relu
I1023 12:27:52.183998 16540 net.cpp:86] Creating Layer group2_block8_relu
I1023 12:27:52.184000 16540 net.cpp:408] group2_block8_relu <- group2_block8_sum
I1023 12:27:52.184006 16540 net.cpp:369] group2_block8_relu -> group2_block8_sum (in-place)
I1023 12:27:52.184649 16540 net.cpp:124] Setting up group2_block8_relu
I1023 12:27:52.184659 16540 net.cpp:131] Top shape: 100 64 8 8 (409600)
I1023 12:27:52.184660 16540 net.cpp:139] Memory required for data: 1187431600
I1023 12:27:52.184662 16540 layer_factory.hpp:77] Creating layer global_avg_pool
I1023 12:27:52.184669 16540 net.cpp:86] Creating Layer global_avg_pool
I1023 12:27:52.184671 16540 net.cpp:408] global_avg_pool <- group2_block8_sum
I1023 12:27:52.184677 16540 net.cpp:382] global_avg_pool -> global_avg_pool
I1023 12:27:52.185343 16540 net.cpp:124] Setting up global_avg_pool
I1023 12:27:52.185353 16540 net.cpp:131] Top shape: 100 64 1 1 (6400)
I1023 12:27:52.185355 16540 net.cpp:139] Memory required for data: 1187457200
I1023 12:27:52.185359 16540 layer_factory.hpp:77] Creating layer fc
I1023 12:27:52.185364 16540 net.cpp:86] Creating Layer fc
I1023 12:27:52.185367 16540 net.cpp:408] fc <- global_avg_pool
I1023 12:27:52.185374 16540 net.cpp:382] fc -> fc
I1023 12:27:52.185528 16540 net.cpp:124] Setting up fc
I1023 12:27:52.185534 16540 net.cpp:131] Top shape: 100 10 (1000)
I1023 12:27:52.185536 16540 net.cpp:139] Memory required for data: 1187461200
I1023 12:27:52.185541 16540 layer_factory.hpp:77] Creating layer fc_fc_0_split
I1023 12:27:52.185545 16540 net.cpp:86] Creating Layer fc_fc_0_split
I1023 12:27:52.185549 16540 net.cpp:408] fc_fc_0_split <- fc
I1023 12:27:52.185552 16540 net.cpp:382] fc_fc_0_split -> fc_fc_0_split_0
I1023 12:27:52.185557 16540 net.cpp:382] fc_fc_0_split -> fc_fc_0_split_1
I1023 12:27:52.185592 16540 net.cpp:124] Setting up fc_fc_0_split
I1023 12:27:52.185596 16540 net.cpp:131] Top shape: 100 10 (1000)
I1023 12:27:52.185600 16540 net.cpp:131] Top shape: 100 10 (1000)
I1023 12:27:52.185600 16540 net.cpp:139] Memory required for data: 1187469200
I1023 12:27:52.185603 16540 layer_factory.hpp:77] Creating layer loss
I1023 12:27:52.185607 16540 net.cpp:86] Creating Layer loss
I1023 12:27:52.185609 16540 net.cpp:408] loss <- fc_fc_0_split_0
I1023 12:27:52.185614 16540 net.cpp:408] loss <- label_data_1_split_0
I1023 12:27:52.185618 16540 net.cpp:382] loss -> loss
I1023 12:27:52.185624 16540 layer_factory.hpp:77] Creating layer loss
I1023 12:27:52.186236 16540 net.cpp:124] Setting up loss
I1023 12:27:52.186244 16540 net.cpp:131] Top shape: (1)
I1023 12:27:52.186246 16540 net.cpp:134]     with loss weight 1
I1023 12:27:52.186254 16540 net.cpp:139] Memory required for data: 1187469204
I1023 12:27:52.186256 16540 layer_factory.hpp:77] Creating layer softmax
I1023 12:27:52.186262 16540 net.cpp:86] Creating Layer softmax
I1023 12:27:52.186265 16540 net.cpp:408] softmax <- fc_fc_0_split_1
I1023 12:27:52.186269 16540 net.cpp:382] softmax -> softmax
I1023 12:27:52.186970 16540 net.cpp:124] Setting up softmax
I1023 12:27:52.186978 16540 net.cpp:131] Top shape: 100 10 (1000)
I1023 12:27:52.186980 16540 net.cpp:139] Memory required for data: 1187473204
I1023 12:27:52.186983 16540 layer_factory.hpp:77] Creating layer Accuracy
I1023 12:27:52.186990 16540 net.cpp:86] Creating Layer Accuracy
I1023 12:27:52.186992 16540 net.cpp:408] Accuracy <- softmax
I1023 12:27:52.186996 16540 net.cpp:408] Accuracy <- label_data_1_split_1
I1023 12:27:52.187001 16540 net.cpp:382] Accuracy -> Accuracy
…
